DQN一阶领航-跟随机器人移动编队/models/dqn_3.pt (torch, 206575 bytes, 10 tensors)

weight f4 [128, 2]
00000000: 9abf a2be b592 82be 7847 4fbe 7520 cd3d
00000010: 87da d8bd 4fef 9fbd 5f9e d03d 65b2 9c3d
00000020: 3b1b 4cbe 2974 93bd c4f3 21be a550 493e
00000030: 9258 5bbe 6cbc 7e3c 9ec5 c7bd 8b53 05be
00000040: ef14 9bbd 0255 1fbe 604c 65be 56f8 7a3e
00000050: 5145 463c 980a 11be 9718 39bd fefd 73bd
00000060: e024 d9bd 3dac 623d 6334 eabd 1806 bdbd
00000070: 6487 dfbd a377 fcbd 60c0 943d 5696 70be
00000080: f0e9 21be 5fc0 c6bc f8bb 473d 8b19 21be
00000090: 2caa bcbd 86a2 6bbe 7f52 87be 5a73 46be
000000a0: 82c0 f73d b0bb f83d bed4 99bd fcf8 96bd
000000b0: 00a5 bd3d 0be9 34be bb6f debe d815 743e
000000c0: 6253 c83d c6bd 6bbe 568c 8abe c6ff 243d
000000d0: a9a2 a6bd deba 23be 8c5c 5fbe 0123 9d3d
000000e0: 0fe1 22bd c42e 2abe 837f 9bbc 4e23 aebe
000000f0: ea2b 54bd 9c49 03be 5748 2ebd fb16 79bd
00000100: e72a 72be 28a9 d93d eb28 67bd 5e2c 13bd
00000110: 0eee f6bd fcf0 1bbe 9f26 c8bd e650 acbd
00000120: 2b53 53be a191 ae3e ff3b c3bb 79ce 80bd
00000130: 1366 5ebd 70b0 d1bc 4a73 26be cf4d 0fbd
00000140: 4a24 1dbe ac23 74bd 40f1 a8bd 48bf 35be
00000150: 25eb 083d 3faa a3bd cb53 073e af5c a1be
00000160: bb6f 5c3d fc86 93bc c4ce 38bd 7c15 60bd
00000170: 02af 4fbe 2799 e3bd c7ea b6bd f83b 793d
00000180: 0216 d33b 3604 41be 46b9 a03e 9abb aabd
00000190: 0966 f9bb 4643 7cbe a034 1bbf 33d5 093e
000001a0: b1bb f13c bacc b63d cd00 35bc c86b 9fbd
000001b0: 70c5 b93d 027b 42be 88cb bdbe 3566 063b
000001c0: 8b24 4cbd 90d5 75bd 00fe b13d 8a1c 97be
000001d0: 88ed a1bd 435e 16be f966 133d ab77 7bbd
000001e0: 55c8 8bbe 2732 e2bb 675d 75bc e680 183c
000001f0: 4d1f ef3d e059 1abe dfd8 87bd c2e2 ac3d
00000200: 9e4f dbbd 5e28 65bd 89b4 4bbe 6720 6ebd
00000210: 0ed7 e13d e53a a8bd da58 2cbe 707f fe3d
00000220: 851f 65bd 7585 52bd 6fa2 03be 1136 a9bd
00000230: 67a4 5cbe 7b0c c6ba 67b1 05bf 182e 8a37
00000240: 2491 89bd 5235 473d 4319 36be 3674 953d
00000250: 1e91 62be 2802 29bd 89e9 2cbe ab7e 91bb
00000260: 6cfd 093e 7bf4 0fbe 9a16 a1bc d1d9 6abe
00000270: 2a28 ccbd 430e 92bd 0fb1 f4bc 85f6 22be
00000280: 8d5e 22be c0c1 203d a7c6 223d 9113 57be
00000290: 7fc5 00be 8b54 48bb 6de7 d7ba 9984 e63a
000002a0: f90b 3cbe a6f5 9cbd 1209 86be de67 093d
000002b0: 2933 133d 9882 b6bc ae1d 123e 173f 1f3d
000002c0: a9c7 debd 5e2c a5bd 890e a63c 76c8 36be
000002d0: 2601 53be c0a0 e73a e054 e9bb df20 18be
000002e0: 76ef 11be 7490 b7bd a933 5bbd 03d5 b73e
000002f0: 3522 34be 67e2 12bd 2c59 81be 2a72 bcbb
00000300: 6c40 dcbd 1145 18be b7dc f5bd 60d7 91bd
00000310: 57d4 10be 62e3 94be 17f0 fbbd c124 593e
00000320: 16c7 16be 8094 c2bd ecc1 e33d 2305 92be
00000330: bafa 76be 24f7 f93d 7cf0 62be 9f34 103e
00000340: c676 95be 2d0c 053e 8c7b 12be 3cf3 72bd
00000350: c446 7dbe ff0a e0bd d93e 85be f0cf 4b3e
00000360: 97cd 483c 82c3 11be 36f8 70bd 1afc 7fbd
00000370: a4e6 513d dfdd 4bbe b68d 39be cbbb 2dbe
00000380: ad5b 43bc 1191 1bbe 75ce b93d bbb5 43be
00000390: 5655 d4bd dec7 0bbf ff9a 59be e2b7 de3d
000003a0: d38b 84be 4587 4ebc b89d c13b 9ec7 02be
000003b0: c5bd 4b3c f176 143e f9bc 32be a50c 30bc
000003c0: ae76 82be a8fa af39 407a e7bd 7fe6 1ebd
000003d0: 5bf8 963d df25 2b3d 9947 18bd d6d8 0cbe
000003e0: 331c b2be c80b 8bbe bd80 46bd 834e 7cbe
000003f0: ac47 ccbb e6a9 c2bb 130c bebd dd7c 69be
-0.31786805 -0.25502554 -0.20242107 0.10015956 -0.10588556 -0.07809316 0.10186457 0.076512136
-0.19932263 -0.0719989 -0.15815645 0.1965967 -0.21420506 0.015547853 -0.09754489 -0.1302015
-0.07572352 -0.15559772 -0.22392416 0.24508795 0.012101487 -0.14164197 -0.045189466 -0.059568398
-0.106027365 0.05534004 -0.11435773 -0.09229678 -0.109144956 -0.123275064 0.07263255 -0.23494849
-0.15811896 -0.024261652 0.048763245 -0.157324 -0.09212145 -0.23011217 -0.26430127 -0.1937994
0.12097265 0.121451735 -0.075112805 -0.07371709 0.09259987 -0.17667024 -0.4344462 0.23836458
0.09781529 -0.23021612 -0.27060193 0.040282987 -0.08136494 -0.15989253 -0.21812648 0.07672692
-0.039765414 -0.16619402 -0.0189817 -0.3401131 -0.051799692 -0.12821048 -0.042549457 -0.06081293
-0.23649178 0.10627967 -0.056435507 -0.035930984 -0.12057124 -0.15228647 -0.097729914 -0.08413868
-0.20637195 0.3409548 -0.00595808 -0.062893815 -0.054296564 -0.025596827 -0.16254917 -0.034986313
-0.15345874 -0.05960433 -0.0824914 -0.1774875 0.033427376 -0.07991456 0.13215558 -0.31516024
0.053817492 -0.018008702 -0.045119062 -0.05470799 -0.20281604 -0.11113196 -0.08931499 0.060848206
0.0064418325 -0.18849263 0.31391352 -0.083365634 -0.0076110405 -0.24635038 -0.60627174 0.13460235
0.029508444 0.08925767 -0.011047554 -0.077842295 0.09070861 -0.18992236 -0.37069345 0.0020507697
-0.049839538 -0.060018122 0.08691025 -0.2951396 -0.079066336 -0.14684395 0.035986874 -0.06139342
-0.2730128 -0.0069029513 -0.014975882 0.0093080755 0.11675892 -0.15073347 -0.06633162 0.08441688
-0.10708545 -0.0559467 -0.19893087 -0.05813637 0.110273466 -0.08214358 -0.16830769 0.124266505
-0.055938262 -0.051396806 -0.12854932 -0.082622655 -0.2154709 -0.0015109921 -0.5222382 1.6472346e-05
-0.067171365 0.048634835 -0.17783074 0.07297556 -0.2212567 -0.041261822 -0.16885962 -0.004440149
0.13475579 -0.14058106 -0.019664098 -0.22934653 -0.09968598 -0.071316265 -0.029869584 -0.15914352
-0.15856381 0.039247274 0.03974023 -0.21003558 -0.12575339 -0.003056797 -0.0016472168 0.0017587125
-0.18363942 -0.07664041 -0.26178795 0.03354632 0.035937462 -0.022279069 0.14269134 0.038878527
-0.10877926 -0.08065103 0.020270603 -0.17849907 -0.20605907 0.0017671809 -0.0071207136 -0.1485629
-0.14251503 -0.08963099 -0.053516064 0.35904703 -0.17591174 -0.035860445 -0.25263345 -0.005750914
-0.10754475 -0.14870097 -0.12004989 -0.07121158 -0.14143501 -0.2907973 -0.12301653 0.21205427
-0.14724383 -0.095009804 0.11120972 -0.28519544 -0.24119082 0.122053415 -0.2216205 0.14082573
-0.2919218 0.12992926 -0.14304942 -0.059313998 -0.24734026 -0.10939597 -0.2602451 0.1990354
0.012256048 -0.14234737 -0.058830462 -0.062496282 0.051245347 -0.19908856 -0.18120465 -0.16966169
-0.011923713 -0.15192057 0.09072582 -0.19112293 -0.10367839 -0.5460185 -0.21250533 0.108749166
-0.25887927 -0.012605493 0.005908694 -0.1277146 0.012435381 0.14498498 -0.174549 -0.010745202
-0.2548117 0.00033565355 -0.11302614 -0.038794037 0.07371589 0.041784164 -0.037177656 -0.13754591
-0.3478714 -0.27157426 -0.04846262 -0.24639325 -0.00623413 -0.0059406636 -0.09279647 -0.22801538

bias f4 [128]
00000000: 4bf3 613e 4933 ed3e e0e3 4d3f 4e72 f23d
00000010: c601 803f 6b8e 9a3e 0991 473f f3fa 293f
00000020: a4c5 7e3f 9c82 343e 8a6f ae3d b8b1 363e
00000030: 1ff2 433f 5a30 583f 5536 863e 0e37 273f
00000040: e6da c43e e9fc 3f3e dd64 823f b122 403e
00000050: 2759 203e 02bd 103f f678 073e b097 613f
00000060: 9fb8 e63e 5c74 0a3e 64ec 833f 662a 113f
00000070: b559 fc3e 7ef6 343e f68e 4a3f 8c4c dc3e
00000080: a95c c43e bf11 2a3e 897c a33e dd2e 283f
00000090: 537b 503d 2439 2c3e 64b5 313d 9857 323f
000000a0: f345 7d3e 22d4 b6bd 87e2 dbbd 10e0 1e3f
000000b0: e521 173e 6899 183c 7a97 953e 6c0d 20be
000000c0: c765 193f 39c2 663e b620 513f 978f 303e
000000d0: dcad bc3d 98c3 723d 46df 1e3f 7b7e 243e
000000e0: 382a fe3e e01f 593f 73de 733f 3f8d e9bd
000000f0: 7219 663f d7aa 33be 137d e53d 8461 ac3d
00000100: 2896 de3e 2be2 533f 9d8d c73e bb2c 91bd
00000110: 1edb 363d 720b 603f c61d 3a3f 24ea 2c3f
00000120: 415e 123f 3916 b43e ddfe 603f 6564 103f
00000130: e1aa 903d 6979 4b3f b665 fb3e 23bc 683f
00000140: 211a f9bc 62be 0b3f b496 d63e 7312 b3bc
00000150: 0544 513f 1620 663f c176 3d3f 8a83 10bd
00000160: f873 313e f0ed 043f 939b 343f d93d 5abd
00000170: 7d78 363f be2c 3c3f 6c03 db3e 7cc2 563f
00000180: b9d7 103e e7ea 3d3e d3ff f9bd bdbe f13d
00000190: 0916 013d 9ed1 193f 90c4 c73e 825f 903e
000001a0: 20f8 083f 7c97 533f 4346 7b3b dd66 613e
000001b0: 91ba 263f c3ee 3e3e 7124 b23e 3870 093f
000001c0: 3b25 073f 1b95 563e dff5 e73e eaa5 4d3f
000001d0: ff67 613f eb7d ce3e 4189 083f df14 193f
000001e0: d93b 523f 44be de3e 0e92 333c e7c8 ea3e
000001f0: 0f1b 403f 44ac 713f da6b 9abd 6585 12be
0.22065465 0.4632819 0.80425835 0.11838208 1.0000541 0.3018678 0.7795568 0.66398543
0.99520326 0.17627949 0.08517368 0.17841232 0.7654132 0.8444878 0.26213327 0.6531838
0.38448256 0.18748821 1.0187031 0.18763234 0.15659009 0.56538403 0.13229737 0.8812208
0.4506273 0.1352095 1.0306516 0.5670532 0.4928719 0.17672154 0.7912439 0.4302715
0.38351944 0.16608332 0.3193095 0.6569651 0.05089886 0.16818672 0.04338588 0.6966491
0.24733715 -0.0892718 -0.10736566 0.6206064 0.14759023 0.009313919 0.2921713 -0.1563012
0.59920925 0.22535028 0.8169054 0.17242275 0.092128485 0.059268564 0.6205944 0.16063873
0.49641585 0.8481426 0.95261306 -0.11403894 0.89882576 -0.17545639 0.11205497 0.08417037
0.43473935 0.8276698 0.3897523 -0.0708861 0.04464256 0.87517464 0.7270168 0.6754477
0.5717507 0.35173205 0.8788889 0.5640319 0.070638426 0.7948213 0.49101037 0.90912074
-0.030407967 0.54587376 0.41911852 -0.021859383 0.81744415 0.8989271 0.7400933 -0.035281695
0.17329395 0.51925564 0.7054989 -0.05328164 0.712776 0.7350577 0.42776048 0.8389051
0.14144792 0.1854664 -0.12206998 0.118039586 0.031515155 0.60085475 0.39017153 0.28197867
0.5350361 0.8265302 0.003834144 0.22011895 0.6512843 0.18645768 0.34793428 0.5368686
0.52791184 0.20955317 0.45304772 0.8033129 0.8804931 0.40330443 0.5333443 0.5979747
0.8212257 0.43504536 0.010960115 0.458564 0.7504129 0.9440348 -0.07540102 -0.14308698

weight f4 [128, 128]
00000000: aa0d 053d e08c bbbd 4bb7 05be a4d0 51be
00000010: 4f76 b9be 39ff 43be 9de5 43bf 54fc 5cbe
00000020: 83d4 9bbd 7767 adbd a90d d8bd c57d a13c
00000030: 8542 b13d ad6b 4fbe 7068 19be a141 e7bd
00000040: a42f a03a 7b35 05be bba2 1dbe b331 7c3e
00000050: edd3 1d3e 892f 28be 0700 a23d b70b 5bbe
00000060: 1b93 183e d3b1 053e 01eb 72be 264d e9be
00000070: 8cf2 15be d6f8 c93d f755 62be 0694 bcbd
00000080: 569e aebe 0bba a7bd fc7d b7bd 1c7f aebc
00000090: 789b dcbd f502 64bd 7ae8 3d3d 67be 15be
000000a0: a2fb 0fbe 6bee 53be ca16 ecbd 2fb7 a2bd
000000b0: 42e5 2b3e 921b 923c 1a9b 553e d917 323d
000000c0: de5a 88bd a42f ec3d 33e1 45be 6703 623e
000000d0: fad9 df3d b428 f7bd 3e40 46bd 0daa 263d
000000e0: f989 c6bd 9ca6 56be 5177 33be 09a9 efbd
000000f0: 46fa 49be 77d5 a73d fa67 1cbe 442b 92bd
00000100: ae81 6bbd abf1 34be 03f9 713d fe7c 2f3d
00000110: 008c bf3d d36a e2bd ef15 eabe 9baf 763b
00000120: 2524 02be 19da 59be 2e2f 0ebc 9722 23bd
00000130: 62e5 16bd 7363 2ebe c98d c6bd 44dc a2bd
00000140: 9245 4dbd 60c1 b9bd bd40 cdbe b77e 1cbd
00000150: aed0 21be 36aa 80be 79ae cb3d 48e3 a73d
00000160: 2089 5cbd 137c a3bd 291a 49bf 7509 64bd
00000170: 4ffe 13bb a694 b23d 53bc 0e3d 30ed 48bf
00000180: dfc6 fb3b 0bb6 01bd 957f 123c f5c5 56be
00000190: 7b78 0f3d 745b dbbd 8574 8fbe f621 71be
000001a0: 526f 72be e6dc 01be c424 08bc feff b4be
000001b0: 9bd5 22bd 68c9 42bd 6d64 33be 2781 643d
000001c0: 0264 27be 3483 efbd 6747 833d 558a 27bd
000001d0: 4e8c f1be 5b9c 553d e9e8 18bd 22c2 4bbe
000001e0: 0d02 1dbe dd6c 7bbc 8bfa 503d 73f3 f8bd
000001f0: cc1f 75be cc05 2cbe 02b2 03bd 6e6d 043e
00000200: 7903 18bd 98d8 b2bd b87a d6bd d1d6 e3bd
00000210: a6be 26be 864e 0bbe 281a b9be 4faf b5bd
00000220: d673 96bd 6559 5dbe 6018 02be e63c 7abd
00000230: c6fb ad3b 838b 8fbe 388e a3bd 685c 18be
00000240: 792a c7bd a9b6 f6bd 9a4b 2dbe 3eaf e53d
00000250: ad33 2abd 2530 3fbe 7979 e63d 22bd 05be
00000260: dbfd 16be 082e 7d3d 651f 07be 7762 92be
00000270: 696d f7bd 3fc8 313d 18c4 a9bd 6628 5dbb
00000280: add3 9fbe 7e5b 41bd 30c6 ba3c 4bdf c4bc
00000290: b29d b0bd ed29 0e3d e41a 38be fc43 43be
000002a0: 2c77 9cbc baf5 59bd c026 0abe 8931 6ebd
000002b0: 1db5 243d 1c61 28be c005 56be 2aa7 aabd
000002c0: fb64 08be 2830 a4bd f108 18be bf5a a43c
000002d0: cf0b 27be d94a 6bbd 8e44 7ebd 403f 2bbe
000002e0: d833 b7bd 5a60 23bd 1f0d f4bd 52bc 7b3d
000002f0: d673 c0be 9460 1bbe 5243 e9bd d963 a5bd
00000300: 8f6f 3b3d 4a98 6d3d b9da 363d c90d 0abe
00000310: 45bc 99bc ec3a 3dbd 5ea0 aabe 0534 213d
00000320: f5d6 42bd 7e4d d4bd 2d8c 99bd 4772 63bb
00000330: cf3c 0abd 40d4 2dbe 8166 3ebd 65bb 3c3d
00000340: 1073 46bd d709 4dbe a63e e0bd 17eb 13be
00000350: 182c 2dbd addf 2ebe 112f 72bd 7598 5d3d
00000360: d68d a8bd 39f3 73bd 4d09 dcbe 97e4 86bd
00000370: 600e a8bc cbd3 a9bd 87e7 5ebe 3435 eebe
00000380: a88f 543b 3658 41be 74b1 fdbd 9972 cabd
00000390: 7863 413e 4f1b 3f3e fbe9 12be a0c7 a1bd
000003a0: 2b55 14be 498d ef3b 494b b0bd cbb9 3abe
000003b0: f273 923d de02 18be 5da6 c03c 4ce7 c23d
000003c0: eae2 6abe 38f7 01bd 87c0 b8bb 2d1d 77be
000003d0: 6e7d 5ebe 959f 56ba 1089 baba 41d4 2ebe
000003e0: 9358 0abe f73c d9bc f68c f8bd cc6e e9bc
000003f0: 4e14 cc3d e639 64bd e2d3 23bd 9f42 8e3c
0.032483734 -0.09157729 -0.13058202 -0.20489746 -0.36223075 -0.19140328 -0.7652224 -0.2158063
-0.07608893 -0.08467 -0.105494805 0.019713292 0.08655266 -0.20255919 -0.14981246 -0.112918146
0.0012221229 -0.13008682 -0.15394108 0.24628334 0.15412875 -0.16424383 0.079101615 -0.21391188
0.14899866 0.13056116 -0.2372246 -0.45566672 -0.14643306 0.09861915 -0.22103105 -0.09207921
-0.34105176 -0.08189782 -0.089595765 -0.021300845 -0.10771841 -0.055666883 0.046364285 -0.14623414
-0.14060834 -0.20696418 -0.11527784 -0.07945096 0.16786674 0.017835412 0.20859948 0.043479774
-0.066579565 0.11532524 -0.19324188 0.2207161 0.109302476 -0.120683104 -0.04840111 0.040689517
-0.09694285 -0.20961994 -0.17525984 -0.11702163 -0.19724378 0.08195012 -0.15274039 -0.071371585
-0.05749672 -0.17670314 0.059075367 0.04284381 0.09352875 -0.11055531 -0.4571986 0.003764129
-0.127091 -0.21274604 -0.008678241 -0.03982791 -0.03683985 -0.17030124 -0.09695012 -0.079521686
-0.050115176 -0.090700865 -0.40088454 -0.038206782 -0.15802261 -0.2512986 0.099453874 0.08197647
-0.05384171 -0.0798265 -0.7855554 -0.05567308 -0.0022582 0.08719759 0.03484757 -0.7848692
0.0076836194 -0.03166775 0.008941551 -0.20973952 0.03502701 -0.10710803 -0.28018585 -0.23548111
-0.23675278 -0.12681922 -0.008309547 -0.35351557 -0.03975449 -0.047555357 -0.17518778 0.05578723
-0.16346744 -0.11694947 0.06410103 -0.040903408 -0.47177356 0.052151065 -0.037331495 -0.19898275
-0.15332814 -0.015345779 0.051020186 -0.12155809 -0.23937911 -0.16799086 -0.032152183 0.12932369
-0.037112687 -0.08732718 -0.104726255 -0.11124957 -0.16283664 -0.13604173 -0.36152768 -0.08871328
-0.07346313 -0.21616133 -0.12704611 -0.061093234 0.0053095547 -0.28036126 -0.079861104 -0.14879
-0.09724898 -0.120465584 -0.16923371 0.112150654 -0.041553188 -0.1867071 0.11253638 -0.1306043
-0.14745276 0.061811477 -0.1319557 -0.28590748 -0.12081415 0.04340386 -0.08289355 -0.0033746003
-0.31216183 -0.047206394 0.022799581 -0.024032256 -0.08623828 0.034707952 -0.17979008 -0.19068903
-0.019099794 -0.05321286 -0.13491344 -0.05815271 0.040211786 -0.16443294 -0.20900631 -0.08332665
-0.13319771 -0.080169976 -0.14847161 0.020062802 -0.16313098 -0.057444427 -0.062077098 -0.16723347
-0.08945435 -0.03988681 -0.11916565 0.061458893 -0.37588376 -0.1517356 -0.113897935 -0.08075685
0.045760687 0.058006562 0.044642184 -0.13481821 -0.018766532 -0.04619877 -0.33325475 0.03935625
-0.04756828 -0.10366343 -0.074974395 -0.0034705566 -0.033749398 -0.16975498 -0.046484474 0.04607715
-0.048449576 -0.20023285 -0.10949449 -0.14445148 -0.04227838 -0.17077513 -0.059126917 0.054100472
-0.08230178 -0.059558127 -0.42975846 -0.06586569 -0.020514667 -0.082923494 -0.21768008 -0.46524966
0.0032434259 -0.18881306 -0.12387362 -0.09885139 0.188856 0.18662761 -0.14347069 -0.078994036
-0.14485614 0.0073105437 -0.086081095 -0.18234937 0.07151021 -0.14844844 0.023516828 0.09516773
-0.22938123 -0.031729907 -0.0056381854 -0.24132223 -0.21727535 -0.0008187232 -0.0014231522 -0.17073156
-0.13510351 -0.026518328 -0.12136261 -0.028495215 0.0996481 -0.05571928 -0.03999699 0.017365752

bias f4 [128]
00000000: 5495 553e c8e9 433f e269 af3e 5b2e a43e
00000010: 201b fa3e fed2 613f 4b75 573f 362e 663f
00000020: dd34 5c3e 4b06 413f d245 3c3f ad76 713f
00000030: d131 8b3e d996 293f 73af 1b3f 4423 883e
00000040: 78c7 8b3e 82b9 413f 87f3 ba3e a95f 403f
00000050: d99a 533f 8000 283c ff14 6a3f 519c 223e
00000060: c726 8b3e 5b93 5a3e d9e5 033e 530f 173f
00000070: 860c 8d3d f4b3 cb3e 4d8a f63e 025c 493e
00000080: ab36 b83e bb38 2b3f 5f28 313e 393b 283d
00000090: 886d 433f 9ec5 4e3f d835 7a3e 614a 333d
000000a0: 2dcf 043f 9125 183f 196a a33e 7aed a53e
000000b0: e159 cf3e 837e 093f da84 9b3e 18e5 103f
000000c0: aef4 d23e 0469 323f 7793 3c3f a503 ff3e
000000d0: 0537 bf3e c9d5 503f e1e3 4d3f 7e88 d13e
000000e0: cae7 943e c987 8d3e 5aa5 5d3f b917 b63d
000000f0: a9a3 5d3e 7e8e d23e f68e 1c3f 124c 153f
00000100: e5f5 bc3e 49fe 303e 38d0 143f 558e 443f
00000110: ef16 243f cf54 b93d ac20 953e 6441 7f3e
00000120: a086 5c3e e37f a13e 489f 303e 1add 743f
00000130: af35 163f 63c9 723e 5d7c 443f b2d6 be3e
00000140: a018 173f f4d5 1b3f 8cf6 1b3f 77e1 383f
00000150: f743 063f 52c5 203f f819 993e 70f0 db3e
00000160: 9b1a 623f b217 253f f7c1 8f3e 3a23 1e3f
00000170: 8cdb 173f ac72 243f cd82 0c3f 10f7 873e
00000180: d55e 643f 73b6 993e d18d 233f 4e18 493f
00000190: 95d1 a53d 33c7 183f 703f d33e ad5a c63e
000001a0: 6bca 0a3e 848f 873e 2aba 963e d140 1a3f
000001b0: ae0e a43d 863b 393f f99b c33e 72c5 453f
000001c0: 3173 843b 50df 623f 6da4 203f 91af fe3e
000001d0: 7fed 533f 3a9f 493f 0994 d73e 4bf4 2e3f
000001e0: c40c 6b3f a12e 3c3f 0c9d 4a3f 8ced 793f
000001f0: 151a 543e 8c9b 5d3f 3e0e 333f 4ebb ca3e
0.20857745 0.76528597 0.3426047 0.32066616 0.4884882 0.88212574 0.8416335 0.8991426
0.2150454 0.7540023 0.7354404 0.9432171 0.27186444 0.662458 0.6081459 0.26589406
0.2730062 0.7567369 0.36513922 0.75145966 0.82658154 0.010254025 0.9143829 0.15879942
0.27178022 0.21345274 0.12880649 0.5900776 0.06887154 0.3978573 0.4815239 0.19664004
0.35979208 0.6688344 0.17300557 0.041072104 0.76339006 0.8077029 0.24434602 0.043772105
0.51878625 0.5943232 0.31916884 0.32407743 0.4049826 0.53708667 0.30374795 0.5659957
0.412023 0.6969149 0.73662513 0.49807468 0.37346664 0.8157621 0.8042584 0.40924448
0.2908309 0.27642658 0.8658043 0.088912435 0.21644463 0.41124338 0.6115564 0.583192
0.36906353 0.17284502 0.58130217 0.7677968 0.64097494 0.09049379 0.2912649 0.24927288
0.2153573 0.31542882 0.17248261 0.95649874 0.58675665 0.23709635 0.76752263 0.37273175
0.5902195 0.6087334 0.60923076 0.7221903 0.52447456 0.62801087 0.29902625 0.42956877
0.88321847 0.6448928 0.2807767 0.617725 0.59319377 0.64237475 0.54887086 0.2655568
0.892072 0.3002201 0.6388827 0.7855271 0.08096615 0.59678954 0.41259336 0.38741055
0.13553779 0.2647668 0.29438907 0.6025515 0.080106124 0.7235645 0.38204935 0.772544
0.004042052 0.88622 0.62750894 0.49743322 0.82784265 0.78758585 0.4210513 0.6834151
0.91816354 0.7350865 0.79145885 0.9762809 0.20713075 0.8656547 0.69943607 0.39596027

weight f4 [128, 128]
00000000: fb41 f5bd ac6a 5fbd 3d34 5dbe ec9a 733b
00000010: 9cb5 0a3d a65e da3b 6a69 c53c 740b 2cbe
00000020: 0ce6 cb3c 6f4b 3ebe 1fd2 39bd d78f a1bc
00000030: 02e7 19be 4720 bcbd 38e1 a0bd 578e 8b3d
00000040: 1b2f 7e3c f699 833b c493 3c3d 738e 1fbe
00000050: e2f7 0f3e 9af3 db3b 46b7 ac3c c764 8ebd
00000060: 8287 44be de81 153c 7d5c 6ebd f09f 32be
00000070: 5392 91bc d1b2 41be 060d 6b3e a9a1 133d
00000080: 1127 2b3e 1d18 2bbd 55d4 b8bd ec02 70bd
00000090: 3c6d 8fbc 5e6f 2dbe e31e a83c e84f d03d
000000a0: a906 0b3e 453d a8bd 6520 5c3d c8c3 66bd
000000b0: b844 07bb e20a efbd 1569 36bd d3f3 b0bd
000000c0: f7d5 703d 8dce a9bd 3625 573d b2b6 063e
000000d0: 8bf6 a93c 8891 443e f5d5 3f3c df81 483d
000000e0: 3966 76bd e4df a0bd 527a dfbd e03e 2c3c
000000f0: 37d5 883c fb8e c43c cf04 4f3d c851 bdbe
00000100: 8dd5 94bd f658 1f3c 9c2b 90bc cb31 30be
00000110: c981 9ebd 82f8 003e 5268 e7bd 3e5d 273d
00000120: f0ac a0bd 5442 01bd 1864 473c fa2c 53bd
00000130: 0b93 9ebd f668 e23d aeec 823a b3ab 35be
00000140: 4787 2dbb 3aaf 713d 13c9 8d3d 70ff 6dbc
00000150: dca5 0e3e bd7b 973d 100b 86be 28b3 52bd
00000160: af4f 82bd 7bce d03c 0f50 79bd 7b6b 1cbe
00000170: 4268 19bb 3ba6 90be 02c3 7fbc 73b1 9a3d
00000180: 569e 033e c2fe f9bc f926 383d 0688 85bd
00000190: 584f 12be e150 3a3d 53b6 79bd 3987 24be
000001a0: 30ad 233e 1810 33bd 5088 1ebe 81c4 52be
000001b0: 647d 8dbd aad0 de3d 3139 4fbb 06ba f2bd
000001c0: cc34 f9bd ca6f 89bd 7379 d63c d7e2 edbc
000001d0: 1024 04bd 32e1 a9bd fff1 bb3c 6a18 703d
000001e0: 28b9 2d3d a2e2 d5bc 60de 85bc e620 3dbe
000001f0: ef94 fabd 0f4d 16bd 1701 d03c d779 98bd
00000200: f4da 64bc 322e 99bd cb1c 49bd dfbb d4bd
00000210: 952e 3b3d d526 8bbb f931 f6bb 0862 eabd
00000220: 22bc 433c abc8 27be 4c09 343d eba5 713e
00000230: c806 a83d e3e1 47bd 1679 463b 992b 4b3d
00000240: 04ae fc3d c139 a2bd 182d e63c 362d 26be
00000250: efb6 e4bc 4c22 d6bc 2d74 b6ba 7968 a2bd
00000260: 8f35 e63c 8255 5cbc f621 a9bd 7a49 19bc
00000270: 641f 38bd e806 62be b5bd 07bd 586e 42be
00000280: fb5d 1abe ea42 05be 6df8 37bd bc12 1ebe
00000290: 4cd0 75bd 8a8e 3fbd 8525 4c3d dea2 01be
000002a0: 0b08 87bd 8893 e2bc cd83 74bd b57b 303c
000002b0: 7dfc 81bd bcbf f33b 4f23 803d 7a08 cabd
000002c0: 2381 21bd c082 b0bc 4df1 0abe 62f5 513d
000002d0: 907a 7a3d b182 cbbb 8886 c43d e198 1ebc
000002e0: c533 413b 9b31 24bc ccdd e7bd fcab 403c
000002f0: b66f 88bd bb9b 293e c130 a9bb 0fe0 6ebe
00000300: d96f bdbc cc93 97bc 83ac 78bd 0a8f 03bd
00000310: 62dc 263e e44d 59bd 31d1 743d 3627 533d
00000320: 49b4 6abd c587 88bc 4bd8 f4bb 3150 203d
00000330: da4a bbbb 9303 bcbd 20fb 11be 6b5d 163d
00000340: 57bd 153d 9d07 643d 09c0 b8bd e985 ec3c
00000350: cae8 85bd 6a26 603c fc65 bdb9 fd26 9cbd
00000360: 1f3e b9bd 386f 0fbe 10a2 083e 366e a23d
00000370: 3c9b c23c 1f52 31be c82e 5a3c 4760 13bd
00000380: e617 0d3d 88e6 963d cc1e 3dbd 59c8 133d
00000390: 0b88 aa3c 6354 e1bd d8f4 e2bd ce35 2dbd
000003a0: d45f 5ebe 6aef c0bd b33d 513d 3270 65be
000003b0: 3810 0abe 6b43 96bd 849c f03c a3cc 8fbe
000003c0: 37f9 8b3e 1977 d53d 3f22 883d 9741 273d
000003d0: 372e 5f3e 1de9 ccbd 3c0d 9e3c 6d64 59bd
000003e0: 69ee 10bd 1ea3 5ebd a90e 2cbc fa99 b9bd
000003f0: 009c b43d 99ed aabd 9614 143d cf49 143d
-0.119754754 -0.05454509 -0.21601959 0.0037171198 0.033864602 0.006664115 0.024098117 -0.16801244
0.024889968 -0.18583463 -0.045366403 -0.019721908 -0.15029529 -0.09185844 -0.07855457 0.068142585
0.0155141605 0.0040161563 0.046039358 -0.15581684 0.14059404 0.006712389 0.021083485 -0.069528155
-0.19192317 0.009125201 -0.058193672 -0.17443824 -0.017769968 -0.1891587 0.22954187 0.036042843
0.16714121 -0.041771043 -0.09024874 -0.058596537 -0.017508142 -0.16937014 0.02052254 0.10171491
0.1357676 -0.08214811 0.05374183 -0.056339055 -0.0020640325 -0.116719976 -0.044533808 -0.08640256
0.058797803 -0.082913496 0.05252572 0.1315563 0.020747444 0.19196141 0.011708726 0.04895198
-0.06015608 -0.07855204 -0.109120026 0.010513037 0.016703231 0.02399396 0.050541695 -0.36976457
-0.07267294 0.0097258 -0.01759892 -0.17206495 -0.07739598 0.12594798 -0.112991944 0.040860407
-0.07845485 -0.031557396 0.01216986 -0.051556565 -0.0774289 0.11055176 0.0009988749 -0.1774128
-0.0026478337 0.059005 0.069231175 -0.014526233 0.13930458 0.07396648 -0.26180315 -0.051440388
-0.06362855 0.025489083 -0.060867365 -0.15275376 -0.002340809 -0.28251824 -0.015610458 0.07553377
0.12853369 -0.030516986 0.044959042 -0.06520085 -0.1428808 0.04548729 -0.060964894 -0.16067208
0.15984035 -0.04371652 -0.15481687 -0.20582773 -0.06908682 0.10879643 -0.0031619782 -0.118518874
-0.12168273 -0.06710775 0.026180958 -0.02903883 -0.032260954 -0.08294906 0.022942541 0.058617033
0.042412907 -0.026109044 -0.016341388 -0.18469581 -0.12235438 -0.036694583 0.025391145 -0.07445114
-0.013968218 -0.07479514 -0.049099725 -0.10387396 0.04569872 -0.0042465725 -0.0075132814 -0.11444479
0.01194671 -0.16385143 0.04395418 0.23598449 0.082044184 -0.048799407 0.0030284575 0.049602125
0.12337878 -0.07921172 0.028097674 -0.16228184 -0.02791926 -0.0261394 -0.0013920121 -0.07930083
0.02810171 -0.013448121 -0.08258431 -0.009355897 -0.04495181 -0.22072947 -0.033139903 -0.18987405
-0.15074913 -0.13013807 -0.04491465 -0.15436834 -0.0600131 -0.046766795 0.04984047 -0.12659785
-0.06593331 -0.027658239 -0.059696008 0.010771682 -0.063469864 0.007438628 0.062567346 -0.09864898
-0.039429795 -0.021546721 -0.13568611 0.051259406 0.06115204 -0.006210648 0.09595972 -0.009680004
0.002948032 -0.0100215925 -0.11321601 0.011759754 -0.06661932 0.16563313 -0.0051632826 -0.23327659
-0.023124622 -0.018503092 -0.060711395 -0.032118835 0.16295007 -0.053052798 0.059769813 0.051551066
-0.05730084 -0.016666302 -0.007472073 0.039138976 -0.00571571 -0.09180369 -0.14255953 0.036710184
0.03655752 0.055671323 -0.09021003 0.028872447 -0.065385416 0.013681034 -0.00036124873 -0.07624624
-0.09045052 -0.1400727 0.13343072 0.07931177 0.023755662 -0.17316483 0.013316818 -0.03598049
0.03444662 0.07368189 -0.04617195 0.03607974 0.020816823 -0.110024236 -0.110818565 -0.04228764
-0.21716243 -0.094206646 0.05108423 -0.2240608 -0.1348275 -0.07337078 0.029371507 -0.28085813
0.27338573 0.10423107 0.06647157 0.040834036 0.21794973 -0.100054 0.01929342 -0.05307429
-0.035383616 -0.05435478 -0.010501542 -0.09062572 0.08818817 -0.083460994 0.036152445 0.0362032

bias f4 [128]
00000000: 7ea7 7f3f 5c99 c13e 95a9 163f 08ef 9a3e
00000010: b9db e63d ca56 f33e e212 cebc d46d 343f
00000020: bba9 853e 30ed 163f ad14 dd3e c527 253e
00000030: 9f3e b93e 1ac6 3f3f 2600 053f ea3e 923c
00000040: a8aa 623f 2c24 003f 2ffe 513e 11f5 0c3f
00000050: 3a29 a03e 00e6 33bd 3764 883f dc90 1c3e
00000060: e06d 3d3f f7e4 393f f700 5b3f 53cc 043e
00000070: 466c aebc 955b 803f 775b 023f 1f10 4b3f
00000080: 8f8c 513f 411a 7b3f f813 363f 0992 6f3f
00000090: 823d c7bc d71c 583f 0f75 523f 0410 093f
000000a0: 15a9 813f 5ebf 283f c442 113f f61b 803f
000000b0: b11f 1f3f 491e 3f3f fc37 c63e 4b7a 7b3f
000000c0: d3ca b33e 2de3 fc3e 1162 2c3f 5808 643f
000000d0: 32a7 eb3e d153 8b3e 7575 473f bce0 bdbb
000000e0: b688 e43e cedb a83e d198 423f b057 873f
000000f0: 33ca 6c3f f7ee 983b b2cf bb3e 0bba 293f
00000100: acea 8e3e d5dc 923e 3053 413f d03c 683f
00000110: 1837 c03d 3b7d fa3e 179f 5a3f 90ec 4b3f
00000120: 697a 0f3f bc0a 023f 900f a23d 5a21 573e
00000130: 473d 563e 8ad4 703f b51f 9a3e 1bde 363d
00000140: f28f 933e d09a b73e 098d a1bd ec22 853d
00000150: cf3c 963e 9d09 413f 8cae c93e 47d4 4a3f
00000160: bcf4 943f e109 0a3f 939c 863f d5a2 253f
00000170: 61f2 1d3c 3549 a13e d05e f53d d6fd d63e
00000180: 1d0a a73e 01ce 423f 60ac 303f 3346 353e
00000190: 54c6 983d f7ab 213e d96b 783f f9fb d03e
000001a0: 298a 873d 262d 043f 72bb e63e ae94 813e
000001b0: 82cf 353f c163 153d 47a8 8c3d 149f 483e
000001c0: 8ea9 0f3f 037b 3c3f af40 d63d 8b39 c53d
000001d0: ee9e 763f 2959 583f 8056 2c3e 676f 7a3f
000001e0: 3d25 d03e 823a 923e 68c8 e13e 4505 31bc
000001f0: 5816 9c3d 6860 77bd 34c5 753f 8592 853e
0.9986495 0.37812316 0.5885251 0.3026049 0.112723775 0.47527152 -0.025155488 0.70480084
0.26106057 0.5895567 0.43179837 0.16128452 0.3618059 0.74911654 0.5195335 0.017852265
0.8854165 0.50055194 0.2050712 0.5506144 0.31281453 -0.043920517 1.0655583 0.15289634
0.7399578 0.72615 0.8554835 0.12968569 -0.021291863 1.0027949 0.50920814 0.79321474
0.818551 0.98086935 0.7112422 0.93582207 -0.024321321 0.84419006 0.8220987 0.5354006
1.0129725 0.65917003 0.567425 1.0008533 0.6215773 0.74655586 0.38714588 0.9823348
0.3511568 0.4939207 0.6733714 0.8907523 0.46025997 0.27212384 0.779136 -0.0057946127
0.44635552 0.32980198 0.7601443 1.0573635 0.9249603 0.0046671587 0.36681896 0.66299504
0.27913415 0.28684106 0.7551756 0.9071779 0.09385508 0.48923668 0.85399 0.7965784
0.5604616 0.5079763 0.079131246 0.21008816 0.20921813 0.9407431 0.30102316 0.04464541
0.2882076 0.358603 -0.078882284 0.065008014 0.29343268 0.75405294 0.3939098 0.7923016
1.1637187 0.53921324 1.0516533 0.64701587 0.009640307 0.31501165 0.11980975 0.41990536
0.32624903 0.76095587 0.69013023 0.1770256 0.07459703 0.15788256 0.9703956 0.4081724
0.06618149 0.5163139 0.45064884 0.25308746 0.71019757 0.036472086 0.06868034 0.19591933
0.56118095 0.736252 0.10461556 0.09630116 0.9633626 0.8451105 0.16829872 0.97826236
0.4065341 0.28560263 0.4409821 -0.010804479 0.07621449 -0.060394675 0.96004033 0.26088348

weight f4 [128, 128]
00000000: 06b3 c8bc 6387 e23d 4408 b9bc 6b4b f5bc
00000010: a961 57bd 4b2d 2dbe 8fd9 af3c 3c78 28be
00000020: 90ee 0cbd fdbb 67bd 515d 95bd 26b9 11be
00000030: 0c38 2fbc 4ac2 c63a a710 a13c f748 04bb
00000040: 72c6 38bd 4e0c da3d ba97 733d 4501 a7bd
00000050: 3eb0 77bd c17d 0b3e d166 323d 5698 433d
00000060: 4bd2 863a 42b7 8f3c 5c8e 02be afeb 833d
00000070: 53c1 7f3c 12ff 313d 9cf3 2abe 8005 143e
00000080: 9141 b33d caa6 e23d b020 16be 0e77 9abd
00000090: 37e9 d2bc 80f4 5dbc 49a1 453d 4efe dcbd
000000a0: 3278 87bd 25f4 213d 9389 bfbd a53f f4bd
000000b0: 7945 f73d be1a 7cbc 481c c2bc a2c5 aa3d
000000c0: 28c7 273a 5928 fdbc 1df2 a8bc 3b28 e2bd
000000d0: d79a 993d 0dab aa3d b3ed 1d3d 4071 313d
000000e0: 5468 613d fff2 ddbd 1798 9d3d 9b4c 96bb
000000f0: 0201 b93c 2ef4 c0bd 426c 53be e474 353e
00000100: ea76 9ebd dd1f 30bd 3584 67bd 024c 603d
00000110: 383e 7dbd 1d4b 163d 29c2 9fbd d71e 0abc
00000120: 36f0 de3d ec5c 8bbd 61a2 723d 2d67 fd3d
00000130: 70cd a0bd 584b 62bd 020b 36be f9e0 05be
00000140: 06e7 afbd ee16 d23c 5fe3 483e d3d0 383d
00000150: a52c 4fbe e3a4 333e d99a abbd e3a1 b3bc
00000160: 82e1 c53c f270 df3c fe32 fbba 423e e9bc
00000170: 0b8f ba3c af49 533c 97f6 d3bd f722 06bc
00000180: bea6 70bc 93c9 483b 4157 b03d f388 073d
00000190: 306f 83be 1027 6b3d 6ddf 0d3d b4ee 293e
000001a0: 17c0 69bd 5aea 863d 2d53 643d 6228 823c
000001b0: df31 f3bc 36ad ba3c 3721 e3bd 37c5 1c3e
000001c0: 2de0 12be 9a42 a8bd c4bf 823d bebc 353e
000001d0: f8cb edbd 659d 563e 475a f73d 8dee 55bd
000001e0: b182 e9bd f01d 513c ec79 adbd 1760 30bd
000001f0: 7fd0 adbd 9c15 debd a054 4e3d 122c 6dbc
00000200: a7c6 25bd fe5c 943c 4a5e f1bd 3090 f1bd
00000210: c2a5 c2bd 4034 13ba 5581 8cbe 2498 49bd
00000220: abec 0d3d 7c3d 0bbe e604 6abe 6f78 a6bd
00000230: 399a b6bd 8096 173e 4acf bebd 5698 13be
00000240: c74c e5bd 9b86 99bb 571e 7ebd 44e2 ac3d
00000250: e90c 883d 968e c33d ab71 c73d e138 993c
00000260: 9e7d 1fbe 4bbe c8bd b60f 48be aac3 223d
00000270: c0f5 9fba 323f 82be 69a0 a03e 92f9 43be
00000280: edd5 163e f6f0 54be 8867 e33d a76d cebd
00000290: 58b5 57bd 9da6 613d 45df 94be a654 a63c
000002a0: 9cfc f3bd c327 9dba 9cb5 4cbe 8cdd 16be
000002b0: bd91 88bd a663 86be b22e b1bc 6adc 7f3c
000002c0: dabd b93d f6db 52be 2fed 2a3d a8a2 2fbe
000002d0: 1d4f a23d 6dfd 97bc 638d a23b 67d5 5abe
000002e0: c86c 6abe 390a 0e3e 2599 5d3d 9f32 3d3d
000002f0: cf39 f8bd 6f8e 4fbe 972e 6fbd 1dd6 13bf
00000300: a572 b8bc c99f 73bd 97c4 1cbd 47c3 fbbd
00000310: be5d a93c 9567 febd 714f c4bd afa8 42bd
00000320: 1a72 c3bd d039 dc3d dfe7 9b3d 993b 783c
00000330: f350 07bd da70 f4bd 3af7 48bb 1139 6dbe
00000340: 7eb1 abbd 9cbb 0abd 5844 c13d 4f33 b13b
00000350: ea70 a8bc 1d46 bbbc cf41 d53c 408a d2bc
00000360: aa2e 5abe f403 e73b a9d0 26be f7ac 58bd
00000370: e1fc 5fbd 3f87 0f3e e5f4 d8bd fe0e dcbd
00000380: aa7d 10be 431c 79bd ee2d 82bb d404 03bf
00000390: fffd 00be 85a3 b6bd 6e65 e8bd bf9b 013d
000003a0: 5f85 523d 6929 fabd 6306 2abd 2539 ca3c
000003b0: 1755 f4bb 95af c2be a3bf c63d b1c8 9a3d
000003c0: ba8b 13be 596b f1bd ae82 8a3c 2854 acbb
000003d0: b735 bbbe 693a acbd 9dec febd 2853 0abd
000003e0: 1d2f 203e 7dcf d3bc 71fa d7bd 9c4f 48bd
000003f0: 081a aabd 4112 38bd 1d14 74be 8b44 e13c
-0.024499428 0.11060979 -0.02258695 -0.029943189 -0.05258337 -0.16911809 0.021466045 -0.16452116
-0.0344072 -0.056575764 -0.07293189 -0.14230785 -0.010694515 0.0015164104 0.01966126 -0.0020185092
-0.045111127 0.10646878 0.05947087 -0.08154539 -0.060470812 0.1362219 0.043555085 0.0477527
0.0010286061 0.017543439 -0.12749618 0.064414375 0.015610057 0.043456145 -0.16694492 0.14455223
0.0875274 0.11066969 -0.14660907 -0.07542239 -0.025745971 -0.013547063 0.048249517 -0.10790692
-0.06614722 0.039539475 -0.09352412 -0.11926202 0.12073798 -0.015387235 -0.023695126 0.08338477
0.0006400221 -0.030903028 -0.020623261 -0.110428296 0.075002365 0.083334066 0.038556766 0.043320894
0.055031136 -0.108373635 0.076950245 -0.004586769 0.022583488 -0.094215736 -0.20646766 0.17720371
-0.07737525 -0.042999137 -0.056522567 0.054759987 -0.061826915 0.036692727 -0.07800705 -0.008430204
0.1088566 -0.06804833 0.059236888 0.12373195 -0.07851684 -0.055247635 -0.17777637 -0.13074102
-0.08588986 0.0256457 0.19617985 0.045121025 -0.20231874 0.17543368 -0.08379144 -0.02192778
0.024155382 0.027275536 -0.0019164977 -0.02847207 0.022773286 0.0128959855 -0.10349768 -0.008187047
-0.014688192 0.0030637726 0.08610392 0.03308959 -0.25670767 0.0574103 0.034636904 0.16594964
-0.057067957 0.06587668 0.055743385 0.015888397 -0.029686866 0.022787672 -0.110903196 0.15309606
-0.14343329 -0.08215828 0.06384233 0.1774778 -0.116111696 0.20958479 0.12077766 -0.052229453
-0.114018805 0.012763485 -0.084705204 -0.04306039 -0.08487033 -0.108439654 0.050373673 -0.014475839
-0.040472653 0.018110748 -0.11785562 -0.1179508 -0.09504272 -0.0005615391 -0.27442423 -0.04921736
0.034649532 -0.13597673 -0.22853431 -0.0812844 -0.089161344 0.14803505 -0.09316881 -0.1441358
-0.11196285 -0.0046852357 -0.062040653 0.08441594 0.066430874 0.095486805 0.09738477 0.01870388
-0.15575263 -0.098019205 -0.19537243 0.03973738 -0.0012203977 -0.2543884 0.31372383 -0.19138172
0.14730044 -0.20795044 0.111037314 -0.10079508 -0.052663177 0.055090535 -0.2907659 0.020304035
-0.11913416 -0.0011989999 -0.19991153 -0.14732951 -0.06668422 -0.262479 -0.021628711 0.015616516
0.090694144 -0.20591721 0.041730102 -0.17151892 0.07925246 -0.01855346 0.0049607023 -0.21370469
-0.22893059 0.13871087 0.054101128 0.046190854 -0.12120401 -0.20269178 -0.05839404 -0.57748586
-0.022515604 -0.059478555 -0.03827342 -0.122931056 0.020674583 -0.124221005 -0.09585465 -0.04752415
-0.095432475 0.10753214 0.07612585 0.015150928 -0.033036184 -0.11935587 -0.0030664937 -0.231663
-0.08383463 -0.033870324 0.09436864 0.005407728 -0.020561654 -0.022860581 0.026032357 -0.025700688
-0.21306863 0.007050032 -0.16290535 -0.052899327 -0.054684523 0.14016436 -0.10593585 -0.10745047
-0.14110437 -0.060817968 -0.0039727604 -0.5117924 -0.12596892 -0.089179076 -0.11347471 0.03164267
0.051396724 -0.122149296 -0.041509997 0.024685452 -0.0074564326 -0.38024583 0.097045206 0.0755781
-0.1440877 -0.11788053 0.016908016 -0.0052590556 -0.3656442 -0.08409578 -0.12447474 -0.03377071
0.15642972 -0.025855774 -0.10545815 -0.048904046 -0.08305746 -0.044939283 -0.23835798 0.027498504

bias f4 [128]
00000000: 40e6 1bbb bd30 4f3f 98ac da3e 33c1 e33e
00000010: 9f4d 133f e922 c23e 1a9d a4bc 8740 043d
00000020: 26c8 1e3f e9a7 c43e 446b 8a3f 8045 863e
00000030: e470 b03c 4220 bc3c 7460 113f edb5 fd3e
00000040: ff02 773f 5c98 ec3e d2b7 663f 12b6 0d3f
00000050: c834 953e c009 733f da85 523e 3a0d 6ebd
00000060: ee7e c5bc 3084 193f f868 283f fd65 1f3f
00000070: b052 a23e 6cee f63e 9552 423e ebe3 923e
00000080: 5cb1 8b3e e6d0 193f b094 453f 4aac fe3c
00000090: ac23 503e 73b9 d53d 3ce1 9f3e ab36 103f
000000a0: a8e0 2e3f 04a9 2c3f 5044 4f3f ef11 d63e
000000b0: 9d0e 13bd b166 d83e 27cf 5a3f 88d9 e93e
000000c0: 6ff5 753f 442f b43d 6fa5 193f f1d3 6f3f
000000d0: bceb 473f 8efa 463f 536c 18bd 5dd6 e13e
000000e0: 7ae9 e33e aa73 643e cf3b 073f ff88 933e
000000f0: 7454 043e 17ae 5b3f 8a5a 673e c302 f53e
00000100: 600e 6b3e ad83 843f 6073 bd3e 9ce7 c63e
00000110: 5ee2 3e3f db24 6a3f 1e27 733f 2575 ef3e
00000120: 6900 f93e 3288 3f3f c718 3d3f 491e 8e3e
00000130: 0db5 ea3e 8673 0a3f 9ea1 2cbb 6d57 b33e
00000140: 5d84 a23e 0d14 633f 724c f83d 209a 1c3f
00000150: c5d5 493e fa5a 903e f5a8 773f 062e ba3e
00000160: bb7b c13e 1dfa 8f3e 987b c33e 622e 093f
00000170: 87fd 1d3e 2e00 0a3f 2517 6f3d abee 693f
00000180: 49f5 0a3f 959a 853e 92c0 6f3d 17de 813f
00000190: a238 163f 6826 9f3b 2487 253f 7120 713e
000001a0: fd7c fd3e aeb2 993e e33d d23e 5cfd 303f
000001b0: 873c 453f 585b 173f 7e12 813e c212 803f
000001c0: c900 aa3e acfb 573f bab4 fd3d 7bca ee3d
000001d0: d524 4e3e a183 8a3f d2e8 283f 753b 6b3e
000001e0: b1d6 d13e 0969 1b3f d32b ce3d 21cb 273f
000001f0: 8a04 043f deed febc eb94 303b ae23 283f
-0.0023788363 0.80933744 0.42709804 0.44483337 0.57540315 0.3791726 -0.020094443 0.0322881
0.6202415 0.38409355 1.0813985 0.262249 0.021538205 0.0229646 0.567878 0.4955286
0.96488947 0.4620999 0.9012424 0.5535594 0.2914183 0.9493675 0.20558873 -0.058118083
-0.024108376 0.5996733 0.6578517 0.62264997 0.3170371 0.48228776 0.18976815 0.28689513
0.27283752 0.6008438 0.77180004 0.031088013 0.20326108 0.10435762 0.31226528 0.56333417
0.6831155 0.674454 0.8096361 0.41810557 -0.03590261 0.42265847 0.8547234 0.45673776
0.96077627 0.08798078 0.60018057 0.9368277 0.7809408 0.77726066 -0.03721268 0.4410886
0.44514066 0.22309747 0.52825636 0.28815457 0.12922841 0.85812515 0.22593132 0.4785367
0.22954702 1.0352684 0.37002087 0.3884858 0.7456416 0.91462487 0.94981563 0.46769062
0.48633125 0.7481719 0.7386593 0.2775748 0.45841256 0.54082525 -0.0026341449 0.35027638
0.3174161 0.8870247 0.12123956 0.61172676 0.19710453 0.2819441 0.9674218 0.36363238
0.3778971 0.2812051 0.38180232 0.535864 0.15428744 0.53906524 0.05837168 0.91379803
0.54280525 0.260945 0.05853326 1.0145901 0.58680165 0.0048568733 0.64659333 0.23547532
0.4950942 0.30019134 0.4106284 0.69136596 0.7704548 0.59123755 0.2520942 1.0005724
0.33203724 0.84368396 0.123879865 0.11659714 0.20131238 1.082142 0.65980256 0.229719
0.4098411 0.60707146 0.100669526 0.65544325 0.51569426 -0.031119283 0.002694423 0.6567944

weight f4 [5, 128]
00000000: 31d2 61bc 6ee9 553e c3cd 3bbe a5fb 89be
00000010: f518 eabd b155 5f3e cd0f 0cbc 8cc2 adbc
00000020: ecbb d03d 0800 273c ba01 ec3d 6edc 6ebe
00000030: 477e 5e3c 076c 2fbd c5ab cdbc 3834 6bbc
00000040: bfe0 ea3d 696a f03b 9232 ce3d 50d3 ae3d
00000050: 9f8c 273e 446a f93d 30cd df3e 7231 9cbc
00000060: f0ac 5f3d 0d54 1c3d c05c c13d 40d2 903d
00000070: dda5 fcbc 6df5 7bbd ea75 50bd c46f 293c
00000080: 47a5 5b3c 2d65 ab3d 4eb7 3dbe e8bb 25bc
00000090: 2bdd f3bd c52f a03c 2c63 183e 7d99 6b3c
000000a0: d058 bd3d 6947 b33e 5317 023e 91f5 663e
000000b0: b434 96bc 99fd eb3d 71fc 373e 251e 283e
000000c0: 8e29 a13e 4e21 813e de88 7cbe ad6c d23d
000000d0: 45fe 863b c0a9 b13d cdd5 6d3e 3eb0 d8be
000000e0: ef9d 7e3d 9cbb e4bd 682f 4d3d 55a0 4abc
000000f0: a725 dcbe ea17 553d ee02 253c 3913 d33c
00000100: e795 5f3d 99b3 53bd 4ba8 a43c 3d9d 8abd
00000110: 209e 163d e7c1 8a3d db02 643e 2c95 97bc
00000120: c63b a93d 20f4 e23d 9683 edbc 5d93 b4be
00000130: 872f 6b3e 13fd 063e 7c8d 9fbb dafd d73d
00000140: b03f 84bb a194 513e 873e 5a3d c8be 963d
00000150: df8e 043e 38a0 713e 12e9 d53d ce92 13bd
00000160: 2b03 81bd f59a 723e 547d 573d 1d4c ba3d
00000170: 05ec 09be dd2e 1e3c d02e 21bd 200e fc3d
00000180: d939 473d c45f 2bbd 6542 013e 3b2d a83e
00000190: 62df 27be 24e7 883d db71 483e 5816 3e3e
000001a0: 329f 093e 5574 343d fbb4 1b3e 6dee 723e
000001b0: c82f a33d 2a5f f33d e2df dd3d 3af9 6a3e
000001c0: e6fc 063d 575c 923d 3a34 1d3d 5883 8bbd
000001d0: 0465 42be bc3f a63d 70ec fc3d e774 b53d
000001e0: 7ff7 6ebd 6bf4 053e b844 7a3e 7682 ee3d
000001f0: 0e90 9ebd 75d6 603d adfc 623d 7ab2 4dbe
00000200: 532b 14be f1f0 463c ce0e 9dbd e178 a9be
00000210: e8cb b63d a9de 323e 6c3a e0bd 49d3 833d
00000220: 075f e33c 2bbd e63d f23c 173e a289 78be
00000230: 9d61 183d 712b c53d 4575 0b3d bb18 98bd
00000240: 5883 02bd 2636 d5bc b1d9 233e aa85 5a3e
00000250: ce9e 59be 9676 7a3d 105b ff3d b075 8abe
00000260: c674 1bbe 2d1b c8bb ac8d f33d bcd2 a33d
00000270: 8d47 16be 30d7 7e3b 1981 933c 4cfa 863d
00000280: 4bff 043e 3f86 6c3e 0d6c 6abe 7153 17bd
00000290: 03c7 36be 89a2 80bd 71bb 9e3c 308c b0bd
000002a0: c24b 763e c348 3f39 d6df 013e 6c3d 1b3e
000002b0: a426 033e 5c99 01bb d10f 973d ef6a f13d
000002c0: 3da8 f73d f7e5 f03d 3753 a5bd 45ca 0a3e
000002d0: 962d 4a3e c9ed 3c3e 68a9 91bb 4792 8e3d
000002e0: 38ba 03bf cde0 e63d 9a4d 323d 3605 4abc
000002f0: 0314 10be aee4 923e 4f01 a53d 2942 253c
00000300: ad77 273d 9e6b 243e 84fb 633c 8882 65bd
00000310: 3674 533d 32b5 243e aaa5 3e3e a368 2cbe
00000320: 3eb3 913c 0154 e93d b063 783e 0df8 66bc
00000330: 6541 00be 7041 833e 3397 cfbd 770c 623e
00000340: c29f 7cbd a700 f23d 593e 9c3c 1401 153e
00000350: 6e1f e13d f66a ac39 98a8 213e 4c2b 093e
00000360: 9553 e2bd 50ba fd39 8c01 e93d 0332 dc3e
00000370: 4a53 efbc 0640 d6be 3133 8f3e c837 5d3e
00000380: faad 81bd 707f 953b d4de df3c 1976 933e
00000390: 7b65 8abd 2c68 0ebe e5da ac3d a79a 8a3d
000003a0: 52a8 853e e409 ad3c 2cee 8b3d 0f65 313d
000003b0: 26f3 613c 3782 c83d 58a7 513d 5438 dc3c
000003c0: b5c5 4cbe b58e 3d3d 67b3 39be b6ac 79bb
000003d0: 131e ca3d e31a 293e 2883 a83c 14e7 363e
000003e0: 4c54 53bd e9a0 9ebc 665c d6bd d1c7 743d
000003f0: dc49 c2bd a85a 103e 6354 fdbd 8551 2b3e
-0.013783024 0.20889828 -0.1834021 -0.26949802 -0.114305414 0.21810032 -0.008548689 -0.021210931
0.10192093 0.010192879 0.11523767 -0.23326275 0.013579912 -0.042827632 -0.02510632 -0.014355712
0.11468648 0.007336904 0.10068239 0.085363984 0.16362236 0.12178472 0.43711233 -0.019066546
0.054608285 0.038166095 0.09441519 0.07071352 -0.030840809 -0.061513353 -0.0508937 0.010341588
0.013406104 0.08368907 -0.18526956 -0.010115601 -0.11907419 0.019554028 0.14881581 0.014379856
0.09245455 0.3501542 0.1270421 0.22554614 -0.018335678 0.11522979 0.17967393 0.16417749
0.31477016 0.25220722 -0.24661586 0.102746345 0.0041196668 0.08674955 0.2322609 -0.42321962
0.062162336 -0.11168596 0.05009404 -0.012367328 -0.42997476 0.05202476 0.010071499 0.025766002
0.054586317 -0.05168495 0.02009978 -0.06768272 0.036771894 0.06775265 0.22266714 -0.018503748
0.08263354 0.110817194 -0.02899341 -0.3526868 0.22967349 0.13182478 -0.004869161 0.10546465
-0.0040359125 0.20466854 0.053282287 0.073606074 0.12945126 0.23596275 0.10444845 -0.036028676
-0.06299432 0.23691924 0.052609757 0.09096549 -0.1346894 0.009654728 -0.039351285 0.12307382
0.048639152 -0.041839376 0.12622984 0.32847008 -0.16393808 0.066847116 0.19574682 0.18563211
0.13439634 0.044056255 0.15205757 0.23723765 0.07968098 0.118833855 0.10833718 0.22946635
0.032956026 0.07146519 0.038379885 -0.06812161 -0.18983847 0.08117625 0.123497844 0.08860188
-0.0583415 0.1308152 0.24440277 0.11645977 -0.0774232 0.054892022 0.05541675 -0.20087615
-0.14469652 0.012142406 -0.076688394 -0.33100036 0.08925611 0.1746775 -0.10948643 0.06436784
0.027755274 0.1126655 0.14769343 -0.24271253 0.037202466 0.096274264 0.034047384 -0.07426592
-0.03186354 -0.026026797 0.16001011 0.21340051 -0.21251985 0.06114825 0.12468541 -0.27042913
-0.15181264 -0.006106755 0.11892256 0.07999179 -0.14675732 0.0038885586 0.018005894 0.06590709
0.12988012 0.23098086 -0.2289278 -0.03694481 -0.17849354 -0.06281001 0.019376488 -0.08620489
0.24052337 0.00018242285 0.12683043 0.1516015 0.12807709 -0.0019775247 0.073760636 0.11787974
0.12092636 0.11762612 -0.080725126 0.13553722 0.19743952 0.18450083 -0.0044452436 0.06961494
-0.5145602 0.11273346 0.043531038 -0.012330344 -0.14070134 0.28690094 0.0805689 0.010086575
0.040885616 0.16056678 0.0139149465 -0.056032687 0.0516245 0.16084746 0.18617883 -0.1683679
0.017785665 0.113929756 0.24256778 -0.014097226 -0.12524946 0.25635862 -0.10136261 0.22075067
-0.061675794 0.11816531 0.019072698 0.14551193 0.10992323 0.0003288609 0.1578697 0.13395423
-0.11051098 0.00048394734 0.11377248 0.43006906 -0.02921452 -0.4184572 0.27968743 0.2160331
-0.063320115 0.004562311 0.027327932 0.2880104 -0.06757637 -0.13906926 0.08440188 0.06767779
0.2610498 0.02112288 0.06832537 0.043309268 0.013790881 0.097904615 0.051184982 0.026882328
-0.19997294 0.046278674 -0.18134843 -0.0038097329 0.098690175 0.16514163 0.020570353 0.17861587
-0.051594064 -0.019363837 -0.10466842 0.059760872 -0.09486744 0.14097083 -0.12369611 0.16730316

bias f4 [5]
00000000: 4218 0a3f ce0d 283f e4a7 533f 50cf c53e
00000010: 24d0 f53e
0.53943264 0.65646064 0.82678056 0.3863473 0.4801036
