DQN一阶领航-跟随机器人移动编队/models/dqn_2.pt (torch, 206575 bytes, 10 tensors)

weight f4 [128, 2]
0	0x3d77c096	0.0604864
1	0x3debfb6e	0.11522566
2	0x3d8aafe9	0.067718334
3	0xbe97248f	-0.2952008
4	0xbe2c70da	-0.16839924
5	0x3df19ede	0.1179788
6	0x3d097000	0.033554077
7	0x3e578700	0.21047592
8	0xbd3c3d9a	-0.045957185
9	0x3f39454e	0.72371376
10	0x3e2ba407	0.1676179
11	0xbdb06e04	-0.08614734
12	0x3ec47650	0.38371515
13	0x3d9a1f6a	0.07525523
14	0x3d48bd85	0.049008865
15	0x3e49db02	0.19712451
16	0x3d85469d	0.06507609
17	0xbc7e03eb	-0.015503864
18	0x3b7c1717	0.003846591
19	0x3b9a541c	0.0047097337
20	0x3d7327ac	0.059364006
21	0x3c8034db	0.015650203
22	0x3efe63bf	0.49685475
23	0x3dc7cc94	0.09755817
24	0xbe876aaf	-0.2644858
25	0xbd072336	-0.032992564
26	0x3d87c8e8	0.06630117
27	0x3e2014ad	0.15632887
28	0x3d6c5819	0.057701204
29	0x3dd917cb	0.10600241
30	0xbdb010e7	-0.08596974
31	0x3db0d366	0.08634071
32	0x3d025e1e	0.03182804
33	0xbf2e1c8a	-0.680123
34	0x3ddeb5cb	0.10874518
35	0xbea7d88c	-0.327824
36	0xbe516977	-0.20450388
37	0x3e05ebc6	0.13078222
38	0x3c9f2122	0.019424979
39	0xbf266fbe	-0.65014255
40	0x3dc78ce3	0.09743669
41	0x3e3db09f	0.18524407
42	0x3ced2f4a	0.028953213
43	0x3e0a73f9	0.13520803
44	0xbea4ef11	-0.32213643
45	0xbd7ab360	-0.06120622
46	0x3d736592	0.059423037
47	0x3dbe1973	0.09282198
48	0x3d6b3ded	0.057432104
49	0x3e44bfdf	0.19213818
50	0xbe0d3df1	-0.1379316
51	0x3d43d471	0.04781002
52	0x3d9a3812	0.07530226
53	0x3dd4646c	0.103707165
54	0x3c568ab3	0.013094592
55	0x3e505482	0.20344737
56	0x3b84cc6f	0.0040526907
57	0x3e14a21f	0.1451497
58	0xbcadcf20	-0.021216929
59	0x3eaaac0b	0.33334383
60	0x3dac7c95	0.084222
61	0x3e150d6d	0.14555903
62	0x3dbb313d	0.09140251
63	0x3f011f13	0.5043804
64	0x3d4c614f	0.04989749
65	0x3d9542e5	0.0728815
66	0x3dca26bb	0.098706685
67	0xbe3ba264	-0.18323666
68	0x3d3d496c	0.0462126
69	0xbe9415ca	-0.28922874
70	0x3cd78525	0.026308605
71	0x3e1eb5ae	0.15498993
72	0x3dee1c5f	0.11626505
73	0xbd4b9bc0	-0.04970908
74	0x3d946604	0.072460204
75	0x3e11278f	0.14175247
76	0xbebe2fca	-0.37145835
77	0xbbf3176f	-0.007418565
78	0xbda63b1e	-0.081167445
79	0x3e84a478	0.2590673
80	0x3dfa17f1	0.12211598
81	0x3e4d3665	0.20040281
82	0x3d25f45e	0.04051625
83	0x3dbc4846	0.091934726
84	0xbdfc3e53	-0.12316575
85	0x3e1854a8	0.14876044
86	0x3d926815	0.07148758
87	0x3dcba372	0.09943284
88	0xbd28d1cb	-0.0412157
89	0x3f08907f	0.53345484
90	0x3e186dfd	0.14885707
91	0x3e32eb1a	0.17472497
92	0xbd809cd5	-0.06279913
93	0x3dc7a7cc	0.097488016
94	0x3c613a0c	0.01374675
95	0x3e477080	0.19476509
96	0x3d3a6f42	0.04551626
97	0x3e2b537c	0.16731066
98	0x3defb303	0.11704066
99	0x3deacb78	0.1146459
100	0xbe0fb25a	-0.1403288
101	0xbddccfcd	-0.10781822
102	0x3d8c1b32	0.068411246
103	0x3d8b8f0b	0.06814393
104	0x3d826980	0.06367779
105	0x3e12d0ee	0.14337513
106	0x3da33b40	0.079702854
107	0x3e00a3f3	0.12562542
108	0x3e8d5ea4	0.27611268
109	0x3d65fd76	0.056149922
110	0x3dc38b02	0.09547998
111	0xbd1b5398	-0.037921518
112	0x3e938af5	0.28816953
113	0x3db59244	0.088657886
114	0x3d9abede	0.07555936
115	0x3e16332d	0.1466796
116	0x3c97137e	0.018441912
117	0x3e16e8e2	0.14737275
118	0xbe04eeb2	-0.1298168
119	0x3cde90a5	0.027168581
120	0x3d729c1d	0.059230912
121	0xbe251f59	-0.1612524
122	0x3d4c4ba5	0.049876828
123	0x3df245b2	0.118296996
124	0x3dc4c6c4	0.09608224
125	0xbe24c353	-0.16090135
126	0x3e15acc4	0.14616686
127	0x3e8baf63	0.27282247
128	0x3e02953e	0.12752244
129	0x3e82fa0c	0.25581396
130	0x3dc3b900	0.0955677
131	0x3dafc108	0.0858174
132	0x3da89f45	0.08233503
133	0x3e34b779	0.17648114
134	0x3cd6e738	0.0262333
135	0x3e3546e9	0.17702831
136	0x3e06db7c	0.13169664
137	0xbecb5f6a	-0.39721233
138	0x3d912695	0.07087437
139	0x3e1f339d	0.15547033
140	0x3db2b7b2	0.08726443
141	0x3e898a5f	0.2686338
142	0x3c947369	0.018121438
143	0x3b1f2444	0.002428309
144	0x3df457ea	0.11930831
145	0xbe6e09de	-0.23245952
146	0x3ac9b543	0.0015389103
147	0x3b3a44c8	0.0028422344
148	0xbdc2ebe2	-0.09517647
149	0x3e120ec8	0.14263451
150	0x3e148041	0.1450205
151	0x3e5e35f1	0.21700265
152	0x3ed8d2d0	0.42348337
153	0x3ec45a2d	0.3835005
154	0x3cbab5df	0.022791801
155	0x3ddacfe5	0.10684184
156	0x3ce5c201	0.02804661
157	0x3db4561f	0.08805489
158	0x3c0068e7	0.007837511
159	0x3e245f38	0.16051948
160	0xbca89137	-0.020577056
161	0xbeaca8d4	-0.33722556
162	0xbd7671a4	-0.06016697
163	0xbed96169	-0.4245713
164	0x3d86cc0c	0.065818876
165	0x3e27e86b	0.16397254
166	0x3e520137	0.20508276
167	0x3e7b1615	0.24520142
168	0xbd070864	-0.032966986
169	0x3e961fef	0.29321238
170	0x3c71fb42	0.014769377
171	0x3e22484d	0.15847893
172	0xbe25ade2	-0.16179612
173	0x3eb1e019	0.34741285
174	0x3d8243ca	0.06360586
175	0x3d9a082d	0.07521091
176	0x3da40630	0.08008993
177	0x3e1e3c03	0.1545258
178	0x3de0a4b0	0.10968912
179	0xbebb37d8	-0.36566043
180	0x3b6e9f36	0.0036410815
181	0x3bdd34c6	0.006750676
182	0xbd940d3e	-0.07229088
183	0x3dcd3649	0.1002012
184	0xbe1a3e4c	-0.15062827
185	0x3e2905fd	0.1650619
186	0x3d47f2a3	0.04881538
187	0x3f11b9b7	0.56924003
188	0x3d82dae7	0.063894086
189	0xbe4ba5fe	-0.1988754
190	0x3e862029	0.2619641
191	0xbeb9746d	-0.36221638
192	0x3d443993	0.04790647
193	0x3e11ff74	0.14257604
194	0xbdaccefc	-0.08437917
195	0x3e34f1f0	0.17670417
196	0x3e021e91	0.12706973
197	0xbc2b95cf	-0.010472729
198	0x3d46e345	0.048556585
199	0x3ec001e5	0.37501445
200	0xbe0ec73e	-0.13943192
201	0x3c9ea36a	0.019365031
202	0x3dba8088	0.09106547
203	0x3e014ebf	0.12627696
204	0x3d98296f	0.07429778
205	0x3d88df7f	0.066832535
206	0xbe5dc730	-0.21658015
207	0xbcf8ee20	-0.030386984
208	0xbdcfd50e	-0.10148059
209	0x3e57ae00	0.2106247
210	0xbdb38d6c	-0.087672085
211	0x3e2ab817	0.16671787
212	0x3d9219ba	0.07133813
213	0x3e16ee94	0.14739448
214	0x3e501524	0.20320565
215	0x3f15877e	0.5840987
216	0x3d7dcfe3	0.061965834
217	0x3b92347f	0.0044618244
218	0xbd55b9a2	-0.052178986
219	0x3e40bbfc	0.1882171
220	0xbe3d6872	-0.18496874
221	0x3da8e928	0.08247596
222	0x3d8744a6	0.066048905
223	0x3e0d2a9f	0.1378579
224	0xbe31c178	-0.17358959
225	0x3dd4e14c	0.103945345
226	0x3de34cc6	0.11098628
227	0xbb06c57d	-0.002056449
228	0x3df2a609	0.11848075
229	0xbe24b920	-0.16086245
230	0xbdd527d7	-0.104079895
231	0x3dc76ae1	0.097371824
232	0x3d22a4e1	0.039708022
233	0x3e042467	0.12904511
234	0x3de3244d	0.11090908
235	0x3de51999	0.11186523
236	0xbeca28f6	-0.39484376
237	0xbe7c8ee4	-0.24663883
238	0x3dde67ac	0.108596176
239	0xbb7de295	-0.003873979
240	0x3dbdaa65	0.09261016
241	0x3cd6e4db	0.026232174
242	0x3d3f13d8	0.046649784
243	0x3e026069	0.1273209
244	0x3d927a5b	0.07152244
245	0xbe4633f3	-0.19355755
246	0x3bf7e3b0	0.0075649843
247	0xbec02d82	-0.3753472
248	0x3cd3e516	0.025866073
249	0x3e3cfb10	0.18455148
250	0x3d494ac9	0.049143586
251	0x3e3b9f12	0.183224
252	0xbd8dfd87	-0.06933122
253	0x3ea746a6	0.32671088
254	0x3d168b1a	0.03675375
255	0xbedbd98c	-0.42939413

bias f4 [128]
0	0x3ec9ff93	0.394528
1	0x3f10aecf	0.56516737
2	0x3e1fc7ed	0.1560361
3	0x3f883831	1.0642148
4	0x3e80110a	0.25013
5	0x3f84faa3	1.0388988
6	0xbd980225	-0.07422284
7	0x3f5e4655	0.8682607
8	0x3f2b478d	0.6690605
9	0xbd9214b5	-0.07132856
10	0x3ecbe0ba	0.3981989
11	0xbe25766f	-0.1615846
12	0x3f18e25d	0.597204
13	0x3eb4ac1e	0.35287565
14	0x3eb8b5de	0.36076254
15	0x3f0f00eb	0.55860776
16	0x3e8582c5	0.26076332
17	0x3db71108	0.08938795
18	0xbe825775	-0.2545735
19	0x3e35fab7	0.17771421
20	0x3e02e393	0.12782125
21	0x3f056d4f	0.52119917
22	0x3f320ae7	0.69547886
23	0x3e9117b1	0.28338388
24	0x3ed8cde4	0.42344582
25	0xbe5302f0	-0.2060659
26	0x3f04d53f	0.5188789
27	0x3f8dcb4a	1.1077664
28	0x3f47d819	0.78064114
29	0xbe7d0420	-0.24708605
30	0xbe22d8ea	-0.15903059
31	0x3e3eb48c	0.1862356
32	0x3e3ceae8	0.18448985
33	0xbd3e52e0	-0.046465755
34	0x3ea3bb8f	0.31979033
35	0x3ed8ab12	0.42318016
36	0x3f4537a1	0.7703801
37	0x39e6c0d9	0.000440127
38	0xbe38da74	-0.18052083
39	0x3e27cd94	0.16387016
40	0x3f657b4a	0.8964125
41	0x3eb2913f	0.3487644
42	0x3c474a00	0.012163639
43	0x3eff8897	0.49908897
44	0x3e0ecfa1	0.13946392
45	0x3eefad78	0.46812034
46	0x3f3dd7d7	0.7415747
47	0x3f875859	1.0573837
48	0x3ef6499d	0.48103037
49	0x3f471266	0.7776245
50	0xbd910e33	-0.070827864
51	0x3f338c70	0.70136166
52	0x3f06fe8b	0.5273215
53	0x3f10f035	0.56616527
54	0xbd79a555	-0.06094869
55	0x3f43b06e	0.76441085
56	0xbddca5ec	-0.107738346
57	0x3f02c608	0.5108342
58	0x3f53c437	0.82721275
59	0x3edb75aa	0.42863208
60	0x3e6cefb5	0.23138316
61	0x3f6994c5	0.9124263
62	0x3f5eb1ca	0.86990035
63	0x3f89af7d	1.075668
64	0x3f7561df	0.95852464
65	0x3f1dca5b	0.61636895
66	0x3f2c60ff	0.67335504
67	0x3f4dea46	0.804356
68	0x3f68ff78	0.91014814
69	0x3ea4cd02	0.3218766
70	0x3f35bff7	0.7099604
71	0x3c331790	0.010930911
72	0xbd8f8f0b	-0.07009705
73	0xbd150318	-0.036379904
74	0x3dfb4bf2	0.12270345
75	0x3f787f62	0.9706937
76	0x3f65ab88	0.8971486
77	0x3f292a79	0.66080433
78	0x3f1c4d45	0.61055404
79	0x3f5c6f43	0.8610727
80	0xbddaaf28	-0.1067794
81	0x3e07c332	0.13258055
82	0x3f1ea620	0.61972237
83	0x3f389adb	0.7211129
84	0x3e8ead81	0.27866748
85	0x3f4654a5	0.7747291
86	0x3f164046	0.58691823
87	0x3ed30ef3	0.41222343
88	0x3f107fff	0.56445307
89	0x3f3cf177	0.73805946
90	0xbdaaf4ca	-0.08347471
91	0x3f1cd3ab	0.6126048
92	0xbdc5f1ca	-0.09665258
93	0x3f225224	0.63406587
94	0x3f03754a	0.51350844
95	0x3d6d0c72	0.057873197
96	0x3e9efb8a	0.31051284
97	0x3f4bcd80	0.79610443
98	0x3f68c31b	0.9092271
99	0x3f0a8383	0.5410692
100	0x3ed3fe09	0.4140475
101	0xbe194cee	-0.14970753
102	0x3ef19b9a	0.47189027
103	0x3ed70aab	0.42000327
104	0x3d2e7f4f	0.04260188
105	0x3e8ded5f	0.27720162
106	0x3f0e404d	0.55566865
107	0x3dff1411	0.12454999
108	0x3f33d891	0.7025233
109	0x3f5edfea	0.87060416
110	0xbe856a9b	-0.26057896
111	0x3ee0aeaa	0.43883258
112	0x3dd9be1c	0.106319636
113	0x3f4d6ebb	0.80247086
114	0x3ca0ec8f	0.01964405
115	0x3f4ccba2	0.7999822
116	0x3f5d343f	0.86407846
117	0x3f42ed4d	0.7614334
118	0x3d83db83	0.06438353
119	0x3f4720aa	0.77784216
120	0x3f247f34	0.64256597
121	0x3ed7d63f	0.42155644
122	0xbde3e17e	-0.111269936
123	0x3e5afd64	0.21385723
124	0x3f618a7c	0.88101935
125	0x3f46ae68	0.7760987
126	0xbe4c95e4	-0.19979054
127	0x3e89dc5e	0.2692594

weight f4 [128, 128]
0	0x3d4f754e	0.05064898
1	0xbd8a55eb	-0.06754669
2	0x3ab79266	0.0014005422
3	0x3c9f74e1	0.019464912
4	0xbe0d5888	-0.13803303
5	0x3dd79def	0.1052817
6	0x3bb36f0a	0.0054758834
7	0xbd04327c	-0.03227471
8	0xbd6f00b8	-0.058350295
9	0x3d9be630	0.07612264
10	0xbda32adb	-0.079671584
11	0x3d4bd4ad	0.04976337
12	0xbd248fc6	-0.040176176
13	0xbddd63ba	-0.10810037
14	0xbdc52210	-0.096256375
15	0xbe2ce136	-0.16882786
16	0xbe12353a	-0.14278117
17	0xbdc71b62	-0.0972202
18	0xbdccb52c	-0.09995493
19	0x3d9a197a	0.075243905
20	0xbe2f97cd	-0.17147751
21	0x3bd9e028	0.006649036
22	0xbdad9b9b	-0.08476945
23	0xbb3067a5	-0.0026917246
24	0xbe6b2320	-0.22962618
25	0xbdc6e165	-0.09710959
26	0xbd9430c4	-0.07235864
27	0xbe56baf5	-0.20969756
28	0x3c3af4c3	0.011410895
29	0x3dfd87fa	0.12379451
30	0x3bdb92ef	0.0067008655
31	0x3dd45117	0.10367029
32	0xbe3fb869	-0.1872269
33	0xbe135352	-0.14387253
34	0x3db2cf72	0.08730973
35	0x3bd20946	0.006409797
36	0xbe202aae	-0.15641281
37	0x3ac2ae36	0.0014852944
38	0xbd11f79d	-0.035636533
39	0x3d74ac36	0.059734546
40	0xbd3c5470	-0.045978963
41	0x3d318faf	0.043349918
42	0xbc100c5d	-0.00879201
43	0xbd75f15d	-0.060044635
44	0x3cddac58	0.027059719
45	0xbdc4dcf2	-0.096124545
46	0xbdee74cf	-0.11643373
47	0xbcb3bfb1	-0.021941992
48	0xbd30a8aa	-0.0431296
49	0xbdaeeee4	-0.085416585
50	0x3dace77c	0.0844259
51	0x3bef6345	0.007305535
52	0x3d89cdbf	0.06728696
53	0xbe371d90	-0.17882371
54	0xbcc9ce95	-0.024634639
55	0x3defaecc	0.11703262
56	0x3e0875de	0.13326213
57	0xbdb1ee6b	-0.08688053
58	0xbe1074b8	-0.14107025
59	0x3e52e334	0.20594484
60	0xbd5b3928	-0.053521305
61	0x3d035401	0.032062534
62	0xbcc32c5c	-0.023824863
63	0xbd6a903a	-0.05726645
64	0x3d8775c0	0.06614256
65	0x3d0ca223	0.034334313
66	0xba17078e	-0.00057613186
67	0xbdb65aa7	-0.08904009
68	0x3d7bb0a5	0.06144776
69	0xbcce394d	-0.025173808
70	0xbc1f6d58	-0.009730659
71	0x3c8153be	0.015787002
72	0x3cb2eb01	0.021840574
73	0xbd82432a	-0.06360467
74	0xbe3485f9	-0.17629232
75	0x3de9b8fd	0.11412237
76	0xbd46c317	-0.048525896
77	0xbd8752d0	-0.06607592
78	0x3d66071b	0.05615912
79	0xbcf3407e	-0.029693838
80	0x3b90c189	0.0044176024
81	0xbddf76b3	-0.10911312
82	0x3d237d5a	0.039914466
83	0xbd3f3202	-0.04667855
84	0xbd80bf2c	-0.06286463
85	0xbc41abb7	-0.011820725
86	0xbcc7ff17	-0.024413629
87	0xbe21bfc8	-0.15795815
88	0x3d487c51	0.048946682
89	0xbd6b4cfc	-0.057446465
90	0xbd377710	-0.04479128
91	0x3c0ef61e	0.008725671
92	0x3b6229de	0.0034509818
93	0xbab61db4	-0.001389435
94	0xbdd96354	-0.106146485
95	0xbc99ec94	-0.018789567
96	0x3d77caaa	0.06049601
97	0xbe0a0835	-0.13479693
98	0xbd76fc84	-0.06029941
99	0x3e672413	0.22572355
100	0xbd89c2dc	-0.067266196
101	0xbe0d0844	-0.13772684
102	0xbd9f0a87	-0.0776568
103	0x3e61f5c3	0.22066407
104	0x3d349682	0.044088848
105	0xbe180d7b	-0.14848892
106	0x3d0ab0b8	0.03385994
107	0xbd920dd3	-0.07131543
108	0x3d01d7fa	0.031700112
109	0x3d86e973	0.06587496
110	0x3d962ab2	0.07332362
111	0xbce78204	-0.028260238
112	0x3cfdb5af	0.030970423
113	0x3dc2788d	0.094956495
114	0xbe17e4ef	-0.14833425
115	0xbc4e2ea8	-0.012584366
116	0xbcffbfff	-0.03121948
117	0xbe00839f	-0.1255021
118	0xbdab6727	-0.08369284
119	0x3e1a83e5	0.15089376
120	0x3da57eeb	0.08080848
121	0xbda12150	-0.07867682
122	0xbdcc408d	-0.099732496
123	0xbcb6714d	-0.022270823
124	0xbd60fb76	-0.05492731
125	0xbd4c95b0	-0.04994744
126	0x3c492f2f	0.012279316
127	0xbe35f2d1	-0.17768408
128	0xbca8d2cd	-0.02060833
129	0xbda528f4	-0.08064452
130	0xbdb1bf40	-0.08679056
131	0x3c8c77e3	0.01714701
132	0x3d98ce47	0.07461219
133	0xbe071763	-0.13192515
134	0x3dca875a	0.098890975
135	0xbe5bdbd0	-0.2147057
136	0xbd57ff7f	-0.052733894
137	0xb857fcdb	-5.1495485e-05
138	0x3db68a28	0.0891307
139	0x3d9eb21b	0.07748815
140	0xbd9b455e	-0.0758159
141	0xbded2edc	-0.11581203
142	0x3d480db0	0.04884118
143	0x3dda07ec	0.10646042
144	0xbe0a70b8	-0.13519561
145	0xbe46051e	-0.1933789
146	0xbe02caed	-0.12772723
147	0xbcd3315c	-0.025780372
148	0x3ce52a31	0.02797422
149	0xbd30fb22	-0.04320825
150	0xbd1951a7	-0.037431385
151	0xbd941d02	-0.07232095
152	0xbd8726db	-0.06599208
153	0xbd95aa72	-0.073079005
154	0x3d99e7c9	0.07514913
155	0xbd65a4ed	-0.05606549
156	0x3c7b40aa	0.015335241
157	0x3d41bebe	0.047301047
158	0xbe1bd82a	-0.15219179
159	0x3dab8ae2	0.08376099
160	0xbe249f0f	-0.16076301
161	0xbd894df7	-0.06704324
162	0xbd37ef7e	-0.044906132
163	0xbdcc39f6	-0.09971993
164	0xbbe0e9d0	-0.00686381
165	0xbdc9c506	-0.09852032
166	0xbdf6b21c	-0.120456904
167	0x3d3fbaf0	0.046809137
168	0xbe25f417	-0.16206394
169	0x3dd9b432	0.10630073
170	0xbdcf351d	-0.101175524
171	0xbd19a26e	-0.03750842
172	0x3c73f9c7	0.0148910945
173	0xbdd62e33	-0.104580306
174	0xbdd7e8af	-0.10542428
175	0xbe7a6cd7	-0.24455582
176	0xbd4d715e	-0.050156944
177	0xbd42bff1	-0.04754633
178	0xbd9db3f8	-0.07700342
179	0xbda1bbeb	-0.07897171
180	0xbd9dbb41	-0.077017315
181	0xbdf2a742	-0.11848308
182	0x3d8dd541	0.069254406
183	0xbcfcb71b	-0.03084903
184	0xbe2bfbfc	-0.16795343
185	0xbd416361	-0.047213916
186	0xbb24cadc	-0.0025145328
187	0x3d257a25	0.04039969
188	0xbddbe3b8	-0.10736793
189	0x3dc79394	0.09744945
190	0xbe058eb5	-0.1304272
191	0x3d8b8321	0.0681212
192	0x3e00a289	0.12562002
193	0xbdbc50a0	-0.091950655
194	0xbd76dafb	-0.06026743
195	0xbbac4b11	-0.005257972
196	0x3d13ecc6	0.036114477
197	0x3d8fa00d	0.07012949
198	0x3e140cf0	0.1445806
199	0x3cfb30ac	0.030662857
200	0xbe50e857	-0.2040113
201	0xbe21c9ff	-0.15799712
202	0xbc4ce30e	-0.012505306
203	0xbda567a2	-0.08076407
204	0x3d33b7b3	0.04387636
205	0xbd660c6b	-0.056164186
206	0xbc3f6d3e	-0.01168376
207	0xbdba54fc	-0.09098241
208	0x3d39c26f	0.045351442
209	0x3e0e3e1d	0.13890882
210	0xbd67e4d8	-0.056614727
211	0xbd00f6a2	-0.031485207
212	0xbdf7f983	-0.121081375
213	0xbe064603	-0.13112645
214	0xbdc2dfb0	-0.09515321
215	0xbe1e9843	-0.1548777
216	0xbdd8e2c6	-0.105901286
217	0xbcf67ce1	-0.030088844
218	0xbdb43a30	-0.08800161
219	0xbdf138f7	-0.11778443
220	0xbca5011c	-0.02014213
221	0xbd73cfa4	-0.059524193
222	0x3c606a93	0.013697284
223	0xbe2e49c7	-0.17020331
224	0xbc07c97e	-0.008287786
225	0xbe2d778d	-0.16940136
226	0xbb02616a	-0.001989449
227	0xbd9ba2d0	-0.075994134
228	0xbdfa362e	-0.12217365
229	0x3cd7e086	0.026352178
230	0x3c9fd48a	0.019510526
231	0xbc96d48d	-0.018411899
232	0x3dc5829f	0.096440546
233	0x3d05e89e	0.032692544
234	0xbde7cb75	-0.11318103
235	0x3a1ad5dc	0.00059065013
236	0xbd620bae	-0.05518692
237	0x3d9ef67f	0.07761859
238	0xbe09271c	-0.13393825
239	0x3b2e4d74	0.0026596459
240	0x3a9c6027	0.0011930511
241	0x3bd7030e	0.0065616434
242	0x3c812dca	0.015768904
243	0x3cc9d50c	0.024637721
244	0x3be67d4d	0.00703398
245	0x3e09ee3d	0.13469787
246	0x3d930ad3	0.07179799
247	0xbd9ebf50	-0.07751334
248	0x3cedfe4f	0.029051928
249	0x3d30e3f0	0.04318613
250	0xbe2174b3	-0.15767173
251	0xbd859b7c	-0.06523797
252	0x3d2880a3	0.041138303
253	0xbd392f39	-0.04521105
254	0xbe037003	-0.12835698
255	0xbe9a9d2b	-0.30198035

bias f4 [128]
0	0x3f3c4e3a	0.73556864
1	0x3c061783	0.008184317
2	0x3f3d041a	0.73834383
3	0x3f234692	0.63779557
4	0x3f29b9b9	0.66299015
5	0x3e21af6c	0.15789574
6	0x3f572654	0.8404286
7	0x3eb626cb	0.35576472
8	0x3f06a9e5	0.5260299
9	0x3f38f19d	0.7224367
10	0x3e399c1c	0.18125957
11	0x3dfcdebc	0.12347171
12	0x3f632537	0.8872866
13	0x3eaa3b61	0.33248428
14	0x3f304aed	0.6886433
15	0x3ef2f8f5	0.47455564
16	0x3e3555b7	0.17708479
17	0x3eca1de0	0.39475918
18	0x3f3db0f6	0.74098146
19	0x3f3b63b0	0.73198986
20	0x3f334e49	0.7004133
21	0x3e55c2f2	0.20875147
22	0xbd383a7a	-0.044977643
23	0x3f1236fe	0.5711516
24	0x3e84a350	0.25905848
25	0x3f74c43d	0.95611936
26	0x3ebde8cb	0.3709167
27	0x3de8a44c	0.11359462
28	0x3f2e6f70	0.6813879
29	0x3f658ae0	0.8966503
30	0x3db8b744	0.0901933
31	0x3f634da2	0.88790333
32	0x3ed82960	0.42219067
33	0x3f58b6f5	0.8465417
34	0x3f371146	0.7151073
35	0x3e58353a	0.21114054
36	0x3ea55939	0.32294634
37	0x3e4cab99	0.19987334
38	0x3f06a8e0	0.5260143
39	0x3e7a4560	0.24440527
40	0x3f1e7ddd	0.619108
41	0x3f786e23	0.97043055
42	0x3e2a717c	0.16644853
43	0x3ee6b2cb	0.45058283
44	0x3f5112f2	0.81669533
45	0x3eb1af4e	0.3470406
46	0x3d130b9a	0.035899736
47	0x3f1126d8	0.56699896
48	0x3d3dad30	0.046307743
49	0x3f3f1b53	0.7465107
50	0x3e523dbc	0.20531362
51	0xbccf0632	-0.025271509
52	0x3f3141e5	0.6924117
53	0x3f72963b	0.94760484
54	0x3d4a9197	0.04945525
55	0x3f49c9a1	0.78823286
56	0x3ed00ab8	0.40633178
57	0x3de85af1	0.11345471
58	0x3baa0c0e	0.0051894253
59	0x3f477505	0.7791293
60	0x3f8009c8	1.0002985
61	0x3eedde62	0.46458727
62	0x3ecada99	0.39619902
63	0x3e973d06	0.29538745
64	0x3f07de5e	0.5307368
65	0x3e90cbc4	0.2828046
66	0x3e96aeb4	0.29430163
67	0x3df123ce	0.11774407
68	0x3d76f2a0	0.06028998
69	0x3f7fe8d1	0.99964625
70	0x3e97fe0e	0.29686016
71	0x3f41b3a9	0.75664765
72	0x3e188efa	0.14898291
73	0x3ebb2b78	0.36556602
74	0x3ecd1b47	0.40059873
75	0x3f64a783	0.893181
76	0xbd2abddd	-0.041684974
77	0x3ed8125f	0.42201516
78	0x3ec7995f	0.389842
79	0x3e5f4304	0.21802908
80	0x3e58f34b	0.21186559
81	0x3ead135f	0.3380384
82	0x3eb0a16d	0.34498158
83	0x3eb9a21b	0.3625649
84	0x3f496b35	0.7867921
85	0x3f5b5ce1	0.85688597
86	0x3f599436	0.84991777
87	0x3f5cd542	0.86262906
88	0x3efd023c	0.49415767
89	0x3f02e1c7	0.5112576
90	0x3eeb5608	0.45964074
91	0x3e1cbcd8	0.15306413
92	0x3ea081f7	0.31349155
93	0x3cecb853	0.028896486
94	0x3f1f96fb	0.6233975
95	0x3cfc65e2	0.0308103
96	0x3f057161	0.5212613
97	0x3ad93360	0.0016571097
98	0x3f0f36c5	0.55942947
99	0x3e0f89bf	0.1401739
100	0x3e8ab220	0.27089024
101	0x3eb2d16a	0.34925395
102	0x3eefa24e	0.46803516
103	0x3e9731ea	0.2953027
104	0x3ec39d5a	0.38205987
105	0x3f0f1fc1	0.5590783
106	0x3e2705de	0.16310832
107	0x3f312a06	0.6920475
108	0x3f18a6fd	0.59629804
109	0x3f6ddb82	0.9291307
110	0x3e99a4cb	0.3000854
111	0x3e8edd0a	0.27903014
112	0x3e8b143d	0.27163878
113	0x3f25a749	0.6470838
114	0x3f1af25a	0.6052605
115	0x3ea310dd	0.31848803
116	0x3ed649f0	0.41853285
117	0x3dc095ae	0.09403549
118	0x3e60d95b	0.21957915
119	0x3c94f246	0.018181931
120	0x3c0f2265	0.008736228
121	0x3e67570f	0.22591804
122	0x3f1771d6	0.59158075
123	0x3edde37e	0.43337625
124	0x3ee9c21f	0.45655915
125	0xbbb21a58	-0.0054352693
126	0x3f03fd49	0.5155836
127	0x3f4b4ef8	0.7941737

weight f4 [128, 128]
0	0x3cf4a7fd	0.02986526
1	0x3e1c0b0c	0.15238589
2	0x3c8fd4e2	0.017557565
3	0xbe68d17c	-0.22736162
4	0x3d8b647d	0.06806276
5	0xbeb1fc68	-0.34762883
6	0xbc63296c	-0.013864856
7	0x3d9008e1	0.070329435
8	0x3c81c3f3	0.015840506
9	0x3cad29d9	0.021138119
10	0xbd20301c	-0.03910838
11	0xbc1dbe8f	-0.009627952
12	0xbe98da10	-0.29853868
13	0x3b703756	0.0036654077
14	0xbd0f0d87	-0.03492501
15	0x3bdde70a	0.006771927
16	0xbdbc2fe9	-0.09188826
17	0x3d38bb6f	0.045100626
18	0x3c881a00	0.01661396
19	0x3bb1b854	0.005423585
20	0x3d478b89	0.048717055
21	0x3da3ddad	0.08001266
22	0xbe71b3ee	-0.23603794
23	0xbe2bc01c	-0.16772503
24	0xbd5de8dd	-0.054177154
25	0x3d8eea99	0.0697834
26	0x3d391be7	0.045192625
27	0x3e3fc2b3	0.18726616
28	0x3c5395cf	0.012914135
29	0x3d1e3c77	0.038631883
30	0x3d78a9c2	0.06070877
31	0x3d36db78	0.044642895
32	0xbc1befff	-0.009517669
33	0xbd93f659	-0.072247215
34	0x3e04bb60	0.12962103
35	0x3d842f94	0.06454387
36	0xbcc2ca3d	-0.023778075
37	0xbc94a3c9	-0.018144505
38	0x3dd90675	0.10596935
39	0xbb93a54e	-0.00450579
40	0x3e118bad	0.14213438
41	0xba9b79a2	-0.0011861811
42	0xbe3212b0	-0.17389941
43	0xbd5c57a0	-0.053794503
44	0xbd0e1f00	-0.034697533
45	0xbd65d3ae	-0.056110077
46	0x3df60b3a	0.1201386
47	0xbe20d142	-0.15704826
48	0xbcc6d0ef	-0.02426955
49	0xbe0c9549	-0.13728823
50	0x3e215af8	0.15757358
51	0x3d8a0c71	0.06740654
52	0xbef10919	-0.47077253
53	0xbe5f9c44	-0.21836954
54	0xbd1f8b07	-0.038950946
55	0xbd6ecd05	-0.05830099
56	0x3cad6912	0.021168265
57	0x3e13c0a4	0.14428955
58	0x3cec5e80	0.028853655
59	0xbd1c47c4	-0.03815438
60	0x3de48b1d	0.11159346
61	0xbc94a94f	-0.018147139
62	0xbcff39a8	-0.031155422
63	0xbdd3bb05	-0.103384055
64	0xbde31430	-0.11087835
65	0x3de9e9bd	0.11421535
66	0xbc54c6e4	-0.012986872
67	0x3c1911c5	0.0093426155
68	0x3df4d89b	0.11955377
69	0x3de90934	0.113787085
70	0xbd72dd2d	-0.05929296
71	0x3d15b71c	0.03655158
72	0xbbfc7dba	-0.0077054175
73	0xbe066045	-0.13122661
74	0xbdc46491	-0.09589494
75	0xbd95c1b3	-0.07312336
76	0xbe122de5	-0.1427532
77	0xbe128e18	-0.14312017
78	0xbdcc9890	-0.099900365
79	0x3d8da03f	0.0691533
80	0x3e299ab1	0.16562916
81	0xbd41875a	-0.047248222
82	0x3dd48202	0.103763595
83	0xbf0a5cdd	-0.5404795
84	0xbe67072e	-0.22561333
85	0xbd4f180d	-0.050560046
86	0xbdabe412	-0.0839311
87	0x3d1a4ad5	0.03766902
88	0xbcb02714	-0.021503009
89	0xbca3fd60	-0.02001828
90	0x3dae3be3	0.08507516
91	0xbc39f96e	-0.011350973
92	0x3c8e72f4	0.017388798
93	0x3d54a3a0	0.051913857
94	0x3c78e145	0.015190427
95	0xbdb0e34e	-0.08637105
96	0xbf13aa6e	-0.5768193
97	0xbdec0edd	-0.115262724
98	0x3e2140f1	0.1574743
99	0x3c57dce5	0.013175224
100	0xbd92f749	-0.07176072
101	0xbe1eca31	-0.15506817
102	0xbd8f03b0	-0.06983125
103	0xbd53bc02	-0.05169297
104	0x3dc26c8f	0.09493362
105	0xbd2943fe	-0.041324608
106	0xbdb03d93	-0.08605494
107	0xbc3ba178	-0.011452071
108	0x3b5c0f31	0.003357839
109	0x3cca7708	0.024714962
110	0x3da0018d	0.07812796
111	0xbc66ef67	-0.014095164
112	0xbdc6e4e2	-0.09711625
113	0xbe322975	-0.17398627
114	0xbe1512f5	-0.14558013
115	0x3d1e7bd1	0.0386923
116	0xbdcb741d	-0.09934256
117	0x3dd46c45	0.10372213
118	0x3e22e8aa	0.15909067
119	0xbc278c7f	-0.010226368
120	0x3cfe45b8	0.031039104
121	0xbd160383	-0.036624443
122	0x3dc179f9	0.094470926
123	0xbec35022	-0.38147074
124	0xbdcecab5	-0.10097257
125	0xbe05db66	-0.13071975
126	0x3da2e51c	0.079538554
127	0xbea3ec0a	-0.3201602
128	0xbe341226	-0.17585048
129	0xbda8900c	-0.082306
130	0xbdba4b12	-0.0909635
131	0xbd206611	-0.039159838
132	0xbdb0dfc2	-0.086364284
133	0xbe18d10b	-0.14923494
134	0xbdc15af4	-0.09441176
135	0x3d731b58	0.05935225
136	0x3e19d112	0.1502116
137	0xbd713cc1	-0.05889583
138	0x3ce941c5	0.028473744
139	0x3d36033b	0.044436675
140	0xbe69da45	-0.2283717
141	0x3cab5948	0.020916596
142	0xbb238741	-0.0024952444
143	0xbc29d42c	-0.010365527
144	0x3b11139f	0.002213694
145	0xbdc124e1	-0.09430862
146	0xbd2099a6	-0.03920903
147	0xbcbadebc	-0.022811286
148	0x3d824426	0.063606545
149	0xbdfd638d	-0.123725034
150	0xbdbe39ff	-0.092884056
151	0xbdfad50d	-0.122476675
152	0x3d86dbdc	0.065849036
153	0x3d64e56f	0.055882867
154	0xbdbee3b7	-0.09320777
155	0x3c82066c	0.015872203
156	0x3e27685a	0.163484
157	0xbde4cdc0	-0.11172056
158	0x3d68a199	0.056794737
159	0xbd8219f2	-0.06352605
160	0xbd74f2c7	-0.059801843
161	0x3e063af1	0.13108422
162	0x3d04cdb7	0.032422747
163	0xbd479962	-0.04873026
164	0xbdb7a667	-0.089672856
165	0x3c01df3e	0.00792676
166	0xbe2faccc	-0.1715576
167	0xbd1cbc5f	-0.038265582
168	0x3e2de683	0.16982464
169	0xbacf05e7	-0.0015794606
170	0x3d98210f	0.074281804
171	0x3caccd54	0.021094002
172	0xbda19b60	-0.078909636
173	0x3dafc3ac	0.08582243
174	0x3ca955cc	0.020670794
175	0x3dff0713	0.12452521
176	0xbe200fab	-0.15630977
177	0xbd70e4d0	-0.058811963
178	0x3a929319	0.0011182755
179	0x3c73d2aa	0.014881769
180	0xbd754d6a	-0.05988828
181	0xbdffbad2	-0.12486805
182	0xbd779357	-0.06044325
183	0xbc9dbc21	-0.019254746
184	0xbc6e247e	-0.014535068
185	0x3cc45d9d	0.02397042
186	0x3db05e8b	0.08611783
187	0xbd25abba	-0.040446974
188	0xbdabac2b	-0.08382448
189	0xbe295523	-0.16536383
190	0xbcfe1023	-0.031013554
191	0x3da8e949	0.082476206
192	0x3d82322d	0.063572265
193	0xbc95cf39	-0.018287288
194	0x3d1e21ec	0.03860657
195	0xbd3d8f22	-0.04627908
196	0xbd8454e3	-0.06461503
197	0xbe36c2db	-0.17847769
198	0xbb81a9c3	-0.0039570048
199	0xbd191888	-0.03737691
200	0x3c7484ac	0.01492421
201	0xbd2a3d0a	-0.041562118
202	0x3dc37dfa	0.095455125
203	0xbcc8eba9	-0.024526434
204	0xbdafbe45	-0.08581213
205	0xbd383f39	-0.04498217
206	0xbe039076	-0.12848076
207	0xbdaebfb2	-0.08532657
208	0x3beb22d1	0.0071757813
209	0x3d715b0d	0.058924723
210	0xbda32b57	-0.07967251
211	0xbe42f637	-0.19039236
212	0xbc4ae585	-0.012383823
213	0xbdff4caa	-0.124657944
214	0x3dd676f5	0.10471908
215	0xbb9071d3	-0.0044081
216	0x3d0501a3	0.032472264
217	0x3d6db4f1	0.058033887
218	0xbdc58f58	-0.09646481
219	0xbe17ade0	-0.14812422
220	0x3db56356	0.088568375
221	0xbc9201d5	-0.01782314
222	0xbe206b2b	-0.15665881
223	0x3e1173f4	0.14204389
224	0xbd74fcb5	-0.059811313
225	0xbe6c7e9c	-0.23095173
226	0x3c1f4390	0.009720698
227	0x3dc1247c	0.09430787
228	0xbd014452	-0.031559296
229	0x3b74cdf9	0.0037354215
230	0xbe68d452	-0.22737244
231	0x3dfe7439	0.124245115
232	0x3e0e9029	0.1392218
233	0x3d90c5fa	0.07069011
234	0x3d8e49e0	0.06947684
235	0x3d65ce5e	0.05610501
236	0xbd4bddb2	-0.049771972
237	0xbe121beb	-0.14268462
238	0xbcb50943	-0.022099143
239	0xbd30f538	-0.04320261
240	0x3e09acc9	0.13444819
241	0x3ca28927	0.01984079
242	0x3d9f07c7	0.07765155
243	0xbd30d48a	-0.043171443
244	0xba858a05	-0.0010188228
245	0x3d0617f4	0.032737687
246	0x3c13acc7	0.009013361
247	0xbe32b2c7	-0.1745101
248	0x3d550a57	0.052011814
249	0xbd0c334a	-0.0342286
250	0x3e109865	0.14120634
251	0xbe220770	-0.1582315
252	0xbd3b4d3c	-0.045727953
253	0x3b05c0a4	0.0020409012
254	0xbdd34223	-0.10315349
255	0x3d30233c	0.043002352

bias f4 [128]
0	0x3f0b085e	0.5430964
1	0xbd4eefe3	-0.050521743
2	0x3e9bb89c	0.30414283
3	0x3f8186f6	1.0119312
4	0x3d7fd7bd	0.062461603
5	0x3e87be33	0.26512298
6	0x3f3fe357	0.7495627
7	0x3ec68300	0.3877182
8	0x3f72c107	0.94825786
9	0xbdb8af9e	-0.09017871
10	0x3f486980	0.7828598
11	0x3f7e40f1	0.9931784
12	0x3f266fe1	0.65014464
13	0x3e95b00d	0.2923588
14	0x3f68bd31	0.90913683
15	0xbd96208a	-0.07330425
16	0x3f4d11b9	0.8010517
17	0x39392c59	0.00017659496
18	0x3f310b27	0.6915764
19	0x3f0456d1	0.5169497
20	0x3f42ccc4	0.760937
21	0xbe0c3a70	-0.13694167
22	0x3f0f0f69	0.5588289
23	0x3f4597bb	0.7718465
24	0x3f14564a	0.57944167
25	0x3f1ed772	0.62047493
26	0x3e82506d	0.25451985
27	0x3e85f76c	0.2616533
28	0x3f06d49f	0.52668184
29	0x3f3c7bc3	0.73626345
30	0x3defe49c	0.11713526
31	0x3edcaf1e	0.43102354
32	0x3ef5e108	0.48023248
33	0x3ec24b2f	0.37947986
34	0x3e32104a	0.17389026
35	0x3ef0ca16	0.4702918
36	0x3e5dd46e	0.21663067
37	0x3eec1bfe	0.46115106
38	0x3f2c8ae4	0.6739943
39	0x3f055363	0.52080363
40	0x3f634e7e	0.88791645
41	0x3eac1280	0.33607864
42	0x3de627f2	0.11238088
43	0x3f1192ae	0.5686444
44	0x3f19a16c	0.60011935
45	0x3f59f4a4	0.85138917
46	0xbc436959	-0.011926972
47	0x3ef92aa4	0.48665345
48	0x3db0eeea	0.08639319
49	0x3f11b0da	0.5691048
50	0x3f6cc0a8	0.9248147
51	0x3df52f42	0.11971904
52	0xbcbd6fb2	-0.02312455
53	0xbd140acb	-0.036143105
54	0xbe0fe05d	-0.14050432
55	0x3f13081a	0.57434237
56	0x3e4539b4	0.19260293
57	0x3f507a69	0.81436783
58	0xbbf27983	-0.007399739
59	0x3f41ded1	0.75730616
60	0x3e8aaf75	0.27086988
61	0x3f0ebd37	0.5575747
62	0xbe0fbc0b	-0.14036576
63	0x3f7716dc	0.96519256
64	0x3e17ea05	0.14835365
65	0x3f121dc1	0.5707665
66	0xbe05be4e	-0.13060877
67	0x3e6f096b	0.23343436
68	0x3f50efca	0.8161589
69	0x3f0e6b91	0.55632883
70	0x3e4592b6	0.19294247
71	0x3ebf6870	0.37384367
72	0x3f46b547	0.7762036
73	0x3f0e24cf	0.55524915
74	0x3ec1dc2d	0.37863293
75	0x3f0f2611	0.5591746
76	0x3efda9b7	0.49543545
77	0x3ca39bf7	0.01997183
78	0xbc982a91	-0.018574985
79	0x3e9b673f	0.30352208
80	0x3f314433	0.6924469
81	0x3e66e3b9	0.22547807
82	0x3edc39e8	0.4301293
83	0x3f4f436c	0.8096225
84	0x3f2a71ed	0.66580087
85	0x3f0a0bc5	0.5392421
86	0x3f1e6520	0.61873055
87	0x3f534cd0	0.8253908
88	0xbe5bf9cc	-0.21482009
89	0x3f73cf6e	0.9523839
90	0x3f10f4bc	0.56623435
91	0x3f6930e0	0.910902
92	0x3ed064d7	0.40701935
93	0x3f3ad148	0.7297559
94	0x3f0a1d84	0.5395129
95	0x3f3af3c3	0.730282
96	0x3f5cb2d4	0.8621037
97	0x3eaed83c	0.3414935
98	0x3e52fbb7	0.20603834
99	0x3e2388d8	0.1597017
100	0x3eb8f250	0.3612237
101	0x3f3aa3fc	0.7290647
102	0x3f4d4db1	0.8019667
103	0x3e263dca	0.16234508
104	0x3f363a74	0.7118294
105	0x3f20b674	0.627784
106	0x3eb63ecd	0.35594788
107	0x3f759436	0.95929277
108	0x3e4277a4	0.18990952
109	0x3f7134c5	0.94221145
110	0x3f04e325	0.51909095
111	0x3f26651d	0.64998037
112	0x3f53c742	0.8272592
113	0x3aa2ef3a	0.0012430914
114	0x3ea173f4	0.31533778
115	0x3ef13cb0	0.47116613
116	0x3d172a76	0.03690573
117	0x3f2413e2	0.6409284
118	0x3f092f68	0.5358796
119	0x3f5366c0	0.8257866
120	0x3cc9e7b5	0.02464662
121	0x3f677aef	0.90421957
122	0x3f699a27	0.9125084
123	0x3f2b8db7	0.67013115
124	0x3e82cfeb	0.25549254
125	0x3f3c9e5e	0.7367915
126	0x3eb1cfac	0.34728754
127	0x3ba939e6	0.0051643727

weight f4 [128, 128]
0	0xbe56501b	-0.20928995
1	0xbce792d0	-0.028268248
2	0xbe9aa9b3	-0.30207595
3	0xbe3be488	-0.18348897
4	0xbbbd09f7	-0.00576901
5	0xbba495df	-0.005022749
6	0x3e689cb4	0.22716027
7	0xbcf2d52d	-0.029642666
8	0x3eb473ea	0.35244685
9	0x3ca766dc	0.02043479
10	0x3e2d3574	0.16914922
11	0x3e913d0b	0.28366885
12	0xbe7656ce	-0.24056551
13	0xbea078e9	-0.31342247
14	0x3e4f14ac	0.2022273
15	0xbd9c7e0b	-0.07641228
16	0x3e06f5c6	0.13179693
17	0xbe00898b	-0.12552468
18	0x3b8c8689	0.004288499
19	0xbdd966b5	-0.10615293
20	0x3da55581	0.08072949
21	0xbe820586	-0.2539484
22	0xbd95e891	-0.07319749
23	0x3de69c58	0.11260289
24	0x3ed2a3ae	0.41140503
25	0x3eae0fa3	0.33996305
26	0xbc0da568	-0.008645393
27	0x3da08b47	0.07839065
28	0x3ca6f7df	0.020381866
29	0xbe43c6e9	-0.19118847
30	0xbcfdd7a1	-0.030986609
31	0xbe617939	-0.22018899
32	0xbd403aa7	-0.046930935
33	0xbdaaa55f	-0.08332323
34	0xbd5d8156	-0.054078422
35	0x3df17fae	0.11791931
36	0xbd2ee1da	-0.042695858
37	0xbe8cd2ae	-0.27504486
38	0xbda4b246	-0.080418155
39	0xbc56ec0f	-0.013117804
40	0x3dfd9be3	0.12383249
41	0x3f005ef1	0.5014487
42	0x3e374076	0.17895684
43	0x3db4d9b1	0.08830584
44	0x3e997ca2	0.299779
45	0xbde5d6ca	-0.112226084
46	0x3e09594f	0.13412975
47	0xbede9a47	-0.4347708
48	0x3c32f7b7	0.010923318
49	0xbed47ba7	-0.4150059
50	0xbd9cde5a	-0.07659598
51	0xbe27a672	-0.16372088
52	0xbf153478	-0.58283186
53	0x3cab9c52	0.020948563
54	0x3c72a3a2	0.014809521
55	0x3da1e9af	0.079059
56	0xbdd9b788	-0.10630709
57	0x3d78a349	0.060702596
58	0x3d9c60fe	0.07635687
59	0x3e1f8ce2	0.15581086
60	0xbd42c3ff	-0.047550198
61	0xbf553232	-0.83279717
62	0xbe6115cd	-0.21980973
63	0x3e194095	0.14966042
64	0xbe84de05	-0.25950637
65	0x3e9b3b97	0.303189
66	0xbe6689f8	-0.22513568
67	0xbf21c8e0	-0.63197136
68	0x3e17d1d0	0.14826131
69	0x3e296e8e	0.1654608
70	0xbed3744f	-0.41299674
71	0x3e93c536	0.28861398
72	0x3e4c5663	0.19954829
73	0x3e947731	0.28997186
74	0xbe973c40	-0.29538155
75	0x3ac617f5	0.0015113341
76	0x3d9add6a	0.07561763
77	0xbead169a	-0.33806306
78	0x3df29f7e	0.11846827
79	0xbea0a596	-0.31376332
80	0xbe1127a7	-0.14175282
81	0xbea67e75	-0.32518354
82	0xbeebb69c	-0.46037757
83	0x3ecb3116	0.39685887
84	0xbe5d10af	-0.21588396
85	0x3c89f7ac	0.016841732
86	0x3e23ae42	0.15984443
87	0x3ebbd69f	0.3668718
88	0xbdc75e07	-0.09734731
89	0x3e1876fe	0.14889142
90	0x3dc0ee71	0.09420479
91	0x3e31029b	0.1728615
92	0xbe4f647c	-0.20253175
93	0x3da72819	0.08161945
94	0x3bd54132	0.006508016
95	0x3de274c9	0.11057431
96	0x3e088fba	0.13336077
97	0xbe90022f	-0.28126666
98	0xbd1da9c8	-0.038491994
99	0x3e26d7be	0.16293237
100	0xbf4f7379	-0.8103557
101	0x3e60e802	0.21963504
102	0x3e1088a4	0.14114624
103	0x3d924273	0.071415804
104	0x3e3e78e8	0.1860081
105	0xbe35205e	-0.17688128
106	0xbe70b12d	-0.23505087
107	0x3ea84603	0.32865915
108	0xbd92e33f	-0.0717225
109	0x3ba1a9de	0.00493358
110	0x3d891339	0.066931196
111	0x3ddf66bf	0.10908269
112	0xbe0ef8ed	-0.13962145
113	0xbd9fee77	-0.078091554
114	0xbdc549d0	-0.09633219
115	0xbeb1372f	-0.34612414
116	0xbe6fdaa7	-0.23423253
117	0x3e11a0fc	0.14221567
118	0x3e5e225b	0.21692793
119	0x3dd3d902	0.10344125
120	0xbdca4591	-0.0987655
121	0x3e19d8c6	0.15024099
122	0x3deb749b	0.1149685
123	0xbdb3c944	-0.08778623
124	0xbf44a0ac	-0.76807666
125	0xbcbe24a2	-0.023210827
126	0x3d0ba394	0.034091547
127	0x3ce7fcbb	0.028318753
128	0x3e993dff	0.29930112
129	0xbd836dad	-0.06417403
130	0x3e2cd45d	0.16877885
131	0xbd78cc63	-0.060741793
132	0xbe3e6644	-0.18593699
133	0xbd956562	-0.07294728
134	0x3e0b415d	0.13599153
135	0xbd9d8886	-0.076920554
136	0x3e03bc53	0.12864809
137	0x3c161476	0.009160152
138	0xbe882e5a	-0.26597863
139	0x3e1a956f	0.15096067
140	0xbe2f3ea4	-0.17113739
141	0x3dde17d3	0.10844388
142	0xbd7f80e6	-0.062378787
143	0xbd8361ba	-0.06415124
144	0xbe1858f2	-0.1487768
145	0x3dc33327	0.09531241
146	0x3e047ca5	0.12938173
147	0x3e70a646	0.23500928
148	0xbea415a5	-0.32047763
149	0x3ccb26ab	0.024798712
150	0xbe0d92d9	-0.13825549
151	0xbdb0ecaf	-0.08638894
152	0x3d210972	0.03931565
153	0xbdc6bbf0	-0.09703815
154	0xbdef3559	-0.11680097
155	0xbd2313ee	-0.03981393
156	0xbdb0d5a7	-0.08634501
157	0xbe388401	-0.18019105
158	0x3ea8465c	0.3286618
159	0x3d84989b	0.0647442
160	0x3dc49bfb	0.096000634
161	0x3de17bad	0.110099174
162	0x3dd9583d	0.10612533
163	0xbc2fe3b4	-0.010735441
164	0xbc229389	-0.00992287
165	0x3eb9a64f	0.36259696
166	0x3e8b4dbc	0.27207744
167	0xbd187c41	-0.037227873
168	0xbe3821ec	-0.1798169
169	0xbeb25369	-0.34829262
170	0x3e3369a0	0.17520761
171	0xbdbeb058	-0.09310979
172	0x3d822abf	0.063558094
173	0x3e0a3b7e	0.13499257
174	0xbebc4185	-0.36768737
175	0x3cd350f7	0.025795443
176	0xbc55b623	-0.013043913
177	0x3e9b8c82	0.30380636
178	0xbaab9776	-0.0013091404
179	0xbd93dd3f	-0.07219934
180	0x3d6369df	0.05552089
181	0x3d0c2029	0.034210358
182	0xbd6a8bed	-0.05726235
183	0xbe28b644	-0.16475779
184	0x3ca4d7dd	0.020122463
185	0xbcd2e559	-0.025744127
186	0xbe5f82b0	-0.21827197
187	0xbd75a85f	-0.059975024
188	0x3e06b6fc	0.1315574
189	0x3d925d2a	0.07146676
190	0xbc4c9479	-0.0124865705
191	0xbd10cf1d	-0.03535377
192	0x3d41d5dc	0.047323093
193	0xbe6282b7	-0.22120176
194	0xbdb4b816	-0.08824174
195	0x3e95dea4	0.29271424
196	0xbd9f47d6	-0.077773735
197	0xbe03b57f	-0.12862204
198	0xbe759f07	-0.23986445
199	0x3dcabdb9	0.09899468
200	0xbc4598d6	-0.012060365
201	0x3c8ef4b6	0.017450672
202	0xbd424bb2	-0.04743547
203	0xbe8b55cf	-0.27213904
204	0xbe1a57a9	-0.15072502
205	0xbbd06bb5	-0.006360496
206	0xbe5a56db	-0.21322195
207	0x3cd00c20	0.025396407
208	0x3e4e3a92	0.2013953
209	0xbdfa5dbf	-0.12224912
210	0x3d50c658	0.050970405
211	0xbeb387da	-0.35064584
212	0x3e8e739c	0.27822578
213	0xbd8062c5	-0.06268839
214	0x3bb33845	0.0054693543
215	0xbe54d30a	-0.2078363
216	0xbe56f28c	-0.20990962
217	0xbd292207	-0.041292217
218	0x3ce0fa2d	0.027463043
219	0x3d9e6799	0.077346034
220	0xbd632c61	-0.055462245
221	0xbe159106	-0.14606103
222	0x3bceab21	0.0063070212
223	0xbc4f06c8	-0.012635894
224	0xbda767b7	-0.08174079
225	0x3dbdab5f	0.09261202
226	0xbc5966f7	-0.013269178
227	0xbe64db4d	-0.22349282
228	0x3e242f24	0.16033608
229	0xbd8078db	-0.06273051
230	0x3e93d220	0.2887125
231	0xbb8827a4	-0.004155116
232	0x3c6b9e8c	0.014381062
233	0x3e17824b	0.14795797
234	0x3d4b2fa8	0.049605995
235	0x3e51f524	0.2050367
236	0x3d6bb7d1	0.057548348
237	0xbd81b942	-0.06334163
238	0xbd94698a	-0.072466925
239	0xbdf962b9	-0.12177033
240	0x3e90e04f	0.28296134
241	0xbe520e01	-0.20513155
242	0xbd5edb19	-0.054408167
243	0x3e271713	0.16317396
244	0x3e514665	0.2043701
245	0x3e103e2c	0.14086217
246	0xbe2b7253	-0.1674283
247	0x3e6960a0	0.22790766
248	0xbe46c8e7	-0.19412576
249	0xbdbede07	-0.09319692
250	0xbe4e866a	-0.20168462
251	0xbde7d6f1	-0.11320294
252	0x3e81cdfe	0.25352472
253	0x3dad2bf4	0.08455649
254	0xbdf46dcc	-0.119350046
255	0xbe1fd014	-0.1560672

bias f4 [128]
0	0x3ebf3eee	0.373527
1	0x3f548a75	0.8302377
2	0x3ecf59e1	0.4049826
3	0x3e09928f	0.13434814
4	0x3d71b5ca	0.05901126
5	0x3f126354	0.5718281
6	0x3e360e7c	0.17778963
7	0x3ea475d3	0.32121143
8	0x3f339fa3	0.7016546
9	0x3e8172ca	0.2528289
10	0x3f4dde7d	0.80417615
11	0x3e7c2b64	0.24625927
12	0x3f482bd0	0.7819185
13	0x3eeb195b	0.45917782
14	0x3f7f09d5	0.9962438
15	0x3e9269b5	0.28596273
16	0x3ee68393	0.45022258
17	0xbc569a96	-0.01309838
18	0x3f5476dd	0.8299387
19	0x3f3712be	0.71512973
20	0x3f834c8f	1.0257739
21	0x3e93479f	0.2876558
22	0x3e0639db	0.13108008
23	0x3f059343	0.5217783
24	0x3e7d2c3c	0.24723905
25	0x3f39c61b	0.7256791
26	0x3d919894	0.0710918
27	0x3e44ebfa	0.19230643
28	0x3f801c6d	1.0008675
29	0x3f6511ee	0.89480484
30	0x3e2f5796	0.17123255
31	0x3f496ac2	0.78678524
32	0x3e35ea70	0.17765212
33	0x3f4e53a4	0.80596375
34	0x3e549058	0.20758188
35	0x3e9df122	0.30848032
36	0x3f429bb0	0.7601881
37	0x3f0e6f04	0.55638146
38	0x3ecfcaa0	0.40584278
39	0x3d280c22	0.041027196
40	0x3e2ff0ab	0.17181651
41	0x3abea0b0	0.0014543738
42	0xbd1c08ba	-0.03809426
43	0x3f41daca	0.7572447
44	0x3e00ea1d	0.12589307
45	0x3f691dce	0.91061103
46	0x3f054f78	0.52074385
47	0x3efabc63	0.48971853
48	0x3ee37cc2	0.4443112
49	0x3f33a55b	0.7017419
50	0x3cb5b548	0.022181168
51	0x3e80ea0a	0.25178558
52	0x3ea7d665	0.32780758
53	0x3e27d990	0.16391587
54	0xbc82d488	-0.015970483
55	0x3effd968	0.49970555
56	0x3f331c28	0.6996484
57	0x3db27152	0.087130204
58	0xbc3d772f	-0.01156406
59	0x3e8737b9	0.264097
60	0x3f52ce20	0.8234577
61	0x3f442cc4	0.76630807
62	0x3eabb4bb	0.33536324
63	0x3f17df3d	0.5932501
64	0x3eadb76d	0.33929005
65	0x3eb4395d	0.35200015
66	0x3f39c150	0.72560596
67	0x3f3cb172	0.7370826
68	0x3ef91659	0.48649862
69	0x3cfae86c	0.030628406
70	0xbda18ee6	-0.07888584
71	0x3f15c9c1	0.5851098
72	0x3f71caa8	0.94449854
73	0x3f3de052	0.7417041
74	0x3f234c06	0.6378788
75	0x3f5a4f39	0.85277134
76	0x3f417513	0.75569266
77	0x3edf8349	0.4365485
78	0x3ee93c98	0.45554042
79	0xbdacc172	-0.08435334
80	0x3e8ff940	0.2811985
81	0x3f1264c5	0.5718501
82	0x3f04abd6	0.518247
83	0xbd256e2d	-0.040388275
84	0x3f57afe2	0.8425275
85	0x3f278d1d	0.65449697
86	0x3f3216c6	0.69566
87	0x3f0fd5c1	0.5618554
88	0x3f3598e9	0.7093645
89	0x3d7cb70b	0.061698
90	0x3f0e902c	0.5568874
91	0x3f0048ef	0.5011129
92	0x3e073f70	0.13207793
93	0x3efdbdda	0.49558908
94	0x3e4818a4	0.1954065
95	0x3e0364ea	0.12831464
96	0x3f115281	0.56766516
97	0x3e9f32b5	0.31093374
98	0xbd353eab	-0.044249218
99	0x3eb9e208	0.3630526
100	0x3e7a8311	0.2446406
101	0x3f05622e	0.52102935
102	0x3f05d06b	0.52271146
103	0x3cf2f99b	0.029660037
104	0x3f322a52	0.69595826
105	0x3d81fa6f	0.063465945
106	0x3f4d1d3d	0.8012274
107	0x3ed36544	0.41288197
108	0x3d82a02c	0.063782066
109	0x3e88cdb3	0.26719436
110	0x3f48ef15	0.7848981
111	0x3ef6c6f8	0.48198676
112	0x3f812896	1.0090511
113	0x3ebbfdaf	0.36716983
114	0x3dfde838	0.12397808
115	0x3e8d5d77	0.2761037
116	0x3f485205	0.7825015
117	0x3f5529fd	0.83267194
118	0x3d0c3dcd	0.034238625
119	0x3f5053b3	0.81377715
120	0x3dce3196	0.100680515
121	0x3f4368f9	0.7633205
122	0xbd28197a	-0.04103992
123	0x3e2046a5	0.15651949
124	0x3eb59c23	0.35470685
125	0x3ecd76c8	0.40129685
126	0x3b0273e3	0.00199055
127	0x3e7aad49	0.24480166

weight f4 [5, 128]
0	0x3d02f0d3	0.03196795
1	0x3dfb9f1f	0.12286209
2	0x3d7dfdce	0.062009625
3	0x3dc36bb9	0.09542031
4	0x3df6fdf6	0.12060158
5	0xbe6b5aa4	-0.22983795
6	0x3d558429	0.05212799
7	0x3cc772c3	0.024346715
8	0x3e31cdef	0.17363714
9	0x3e3167a4	0.17324692
10	0xbedb27da	-0.42803842
11	0x3dae713b	0.08517691
12	0x3e064af1	0.13114525
13	0x3d85b9e2	0.06529595
14	0x3e1e4934	0.15457612
15	0x3c2c9b3c	0.010535058
16	0xbc568073	-0.013092148
17	0xbd3dbcbc	-0.04632257
18	0xbca229b9	-0.019795286
19	0x3e894896	0.2681319
20	0x3de3875a	0.11109801
21	0x3d2f4138	0.042786807
22	0x3e5683cb	0.20948713
23	0xbdeae2e3	-0.114690565
24	0xbdf37b28	-0.118887246
25	0x3e8a9828	0.2706921
26	0x3d86da6f	0.06584632
27	0xbe5c9e5e	-0.21544787
28	0xbda34cef	-0.07973658
29	0xbd405fde	-0.046966426
30	0xbe074800	-0.1321106
31	0x3e9e7889	0.30951336
32	0xbe2460c9	-0.16052546
33	0x3e0343f8	0.12818897
34	0x3e4cdbd1	0.20005728
35	0x3e3af569	0.18257679
36	0x3e7fee61	0.24993278
37	0xbe1e61e6	-0.15467033
38	0x3dac560d	0.084148504
39	0xbd27ae1b	-0.040937524
40	0xbe224540	-0.1584673
41	0xbe3729be	-0.17887017
42	0x3e19cb44	0.15018946
43	0x3e0a516d	0.13507624
44	0xbe228840	-0.15872288
45	0x3db92bba	0.09041543
46	0x3e3af909	0.18259062
47	0x3eef89af	0.46784732
48	0xbe179689	-0.14803518
49	0xbd816ba0	-0.06319356
50	0xbc6330a2	-0.013866575
51	0xbbf98183	-0.007614316
52	0x3dfce51f	0.12348389
53	0xbe766d02	-0.2406502
54	0xbe1b249d	-0.15150686
55	0x3e4abe87	0.19799243
56	0xbd9a77af	-0.07542359
57	0xbcc6efdf	-0.024284301
58	0xbe542c94	-0.2072013
59	0xbe03b224	-0.12860924
60	0x3e2a43cc	0.16627425
61	0x3d903c9e	0.07042812
62	0xbeac7ca5	-0.33688846
63	0x3dcc47ad	0.099746086
64	0xbed50f50	-0.41613245
65	0x3e4b3e57	0.19848
66	0xbe3e4c10	-0.18583703
67	0x3d13b7fb	0.03606413
68	0xbef94aa3	-0.48689756
69	0xbe312ccb	-0.17302243
70	0xbe461858	-0.19345224
71	0xbe1038ec	-0.14084214
72	0x3d9b8bc8	0.075950205
73	0x3de0edb3	0.109828375
74	0xbdcb61cd	-0.099307634
75	0x3e21fb06	0.15818414
76	0x3db15f91	0.08660806
77	0x3e958495	0.29202715
78	0xbe2f34a7	-0.17109929
79	0xbd339186	-0.043839954
80	0x3e0fa361	0.14027168
81	0x3ef57634	0.47941744
82	0x3d4c9d3e	0.049954645
83	0x3c8c46ff	0.017123697
84	0x3e3a1ddd	0.18175454
85	0x3d8e9873	0.06962671
86	0x3dc3778f	0.09544288
87	0x3d36a716	0.04459294
88	0xbe4325ce	-0.1905739
89	0xbc332f97	-0.010936639
90	0x3de7fd7c	0.11327645
91	0xbf01dace	-0.50724494
92	0xbe237806	-0.15963754
93	0xbe27a77b	-0.16372482
94	0xbe13a024	-0.14416558
95	0xbeff575f	-0.49871346
96	0xbbb73142	-0.005590589
97	0x3e2d982b	0.16952579
98	0x3c5c9557	0.01346334
99	0x3e38c521	0.18043949
100	0x3b2d6e38	0.00264634
101	0x3d59fcf0	0.053219736
102	0xbe1518eb	-0.14560287
103	0x3c607a53	0.013701039
104	0x3e954bda	0.29159433
105	0x3e283eab	0.16430156
106	0x3e334726	0.1750761
107	0x3e18b674	0.1491335
108	0x3ce1efd8	0.027580187
109	0xbdf4ed61	-0.11959339
110	0x3dec622b	0.115421616
111	0xbd15186b	-0.03640024
112	0x3dbbe897	0.09175222
113	0x3b4e681e	0.0031495164
114	0x3cfb5663	0.03068084
115	0x3c8c2732	0.017108534
116	0xbe38858e	-0.18019697
117	0x3d8ff54e	0.0702921
118	0xbc0fe6c0	-0.008783042
119	0x3e490238	0.19629753
120	0x3cb8a574	0.022539832
121	0x3e216249	0.15760149
122	0xbe03778c	-0.12838572
123	0x3dd6728e	0.10471068
124	0xbf011604	-0.5042422
125	0xbe8b8378	-0.2724874
126	0xbd0ad2be	-0.033892386
127	0xbecca9c9	-0.39973286
128	0xbe382c78	-0.17985713
129	0x3dcd1475	0.100136675
130	0x3e4717ae	0.19442627
131	0xbe00d4b9	-0.12581147
132	0xbe161768	-0.14657366
133	0xbdf3fb1f	-0.11913132
134	0xbe06eefb	-0.13177101
135	0xbbcbdf93	-0.0062217205
136	0x3d8bb14c	0.06820926
137	0x3e720bfe	0.23637387
138	0xbece5c90	-0.40304995
139	0x3d4e1e33	0.05032177
140	0x3dd479cd	0.10374794
141	0x3e09a724	0.13442665
142	0x3df0df73	0.117613696
143	0x3d1c9ff7	0.038238492
144	0xbe2ad869	-0.16684116
145	0xbdb29531	-0.08719862
146	0x3e77ab24	0.24186379
147	0x3c24171f	0.010015278
148	0x3deba617	0.115062885
149	0x3d54afdb	0.05192552
150	0x3c151eae	0.009101553
151	0x3e85c709	0.26128414
152	0xbd4873cf	-0.04893857
153	0x3e14ccc3	0.14531235
154	0x3cfeb894	0.031093873
155	0xbe34ae54	-0.17644626
156	0x3dba6a67	0.09102326
157	0x3d4626d9	0.04837689
158	0xbcf431ec	-0.02980896
159	0x3e5a3321	0.21308567
160	0xbea82c63	-0.32846364
161	0x3e3e49a4	0.18582779
162	0x3de9f443	0.11423542
163	0x3da12516	0.07868402
164	0xbe8e7ad5	-0.27828088
165	0x3e033517	0.12813221
166	0x3da98c1d	0.082786776
167	0xbe42e725	-0.19033487
168	0xbe5de809	-0.21670546
169	0xbd8106e3	-0.06300142
170	0xbe57dfb9	-0.21081437
171	0x3e1fcd6b	0.15605704
172	0xbdb105af	-0.08643662
173	0x3e22ec61	0.15910484
174	0x3e57a3c8	0.21058571
175	0x3e39bddd	0.18138833
176	0xbece14ad	-0.4025015
177	0xbd86d6a9	-0.06583912
178	0xbdb8c2da	-0.0902154
179	0xbd75ee69	-0.06004182
180	0x3db57be7	0.08861523
181	0xbd00a687	-0.031408813
182	0x3d5c5187	0.053788688
183	0x3e9e9620	0.3097391
184	0x3e0920f8	0.13391483
185	0x3d9d5701	0.0768261
186	0xbca35a37	-0.019940479
187	0xbdbda71f	-0.092603914
188	0x3dbdee89	0.092740126
189	0x3e782f71	0.24236847
190	0xbe225105	-0.15851219
191	0x3e949889	0.29022625
192	0xbf0c2913	-0.54750174
193	0x3dfbd818	0.12297076
194	0x3d970431	0.07373846
195	0xbe9ce9af	-0.30647036
196	0xbcc8214b	-0.024429938
197	0xbe58809d	-0.21142812
198	0x3d8621cb	0.06549414
199	0xbe5d0552	-0.21584061
200	0x3c9b4957	0.01895587
201	0x3e5dd1be	0.21662042
202	0xbec6af5f	-0.38805673
203	0x3d9dd95f	0.07707476
204	0x3ceeab1a	0.029134322
205	0xbce973bc	-0.02849757
206	0xbd377ae9	-0.04479495
207	0x3e88f3f0	0.2674861
208	0xbda61c3c	-0.08110854
209	0xbdcfa3db	-0.10138675
210	0x3e0d7fdd	0.13818307
211	0x3dffd034	0.124908835
212	0x3ea8e0eb	0.329841
213	0x3e0cf0d9	0.13763751
214	0x3e6ec302	0.23316577
215	0x3e137721	0.14400913
216	0xbc9bb4a6	-0.019007038
217	0xbdac3a9d	-0.08409617
218	0x3e254514	0.16139632
219	0xbeb2ec08	-0.34945703
220	0xbed00fb9	-0.40636995
221	0xbef916b1	-0.48650125
222	0xbb8221d2	-0.003971317
223	0xbf02caa9	-0.51090485
224	0x3dca1357	0.0986697
225	0x3e740700	0.23830795
226	0xbccf0fa8	-0.02527602
227	0x3dd2978c	0.102828115
228	0x3ea53aa5	0.32271305
229	0x3e168e13	0.14702635
230	0xbf35d018	-0.7102065
231	0xbe16c15d	-0.147222
232	0x3d4b42b1	0.04962415
233	0x3e0c851a	0.13722649
234	0x3d5a9aff	0.053370472
235	0x3e8a1e18	0.26976085
236	0xbd0be710	-0.034155905
237	0xbcf008d9	-0.029301094
238	0x3e5f5909	0.21811308
239	0x3d692153	0.056916546
240	0x3db1909a	0.08670159
241	0x3e463ad3	0.19358377
242	0xbd27ef34	-0.040999606
243	0xbd4bb41a	-0.049732305
244	0x3d5cd9fc	0.053918824
245	0x3dd0e5be	0.1020007
246	0xbe0bdbb1	-0.13658024
247	0xbee86a00	-0.45393372
248	0xbdb4ab36	-0.088217184
249	0x3d0b5be6	0.034023188
250	0xbec9d49d	-0.39420024
251	0xbdd3bd4c	-0.1033884
252	0xbcb76c2c	-0.022390448
253	0xbdf7d204	-0.12100604
254	0xbe2f09e7	-0.17093621
255	0xbe317ceb	-0.17332809

bias f4 [5]
0	0x3e941a64	0.28926384
1	0x3f452dc5	0.77022964
2	0x3f2e4c79	0.6808544
3	0x3e967027	0.2938244
4	0x3ee31d0a	0.44358093
