DQN一阶领航-跟随机器人移动编队/models/dqn_0.pt (torch, 206575 bytes, 10 tensors)

weight f4 [128, 2]
0	0xbe3825b0	-0.17983127
1	0x3db0cf3a	0.08633275
2	0xbe4bf185	-0.19916351
3	0x3e10c255	0.14136632
4	0x3daa048c	0.083016485
5	0x3ecdb537	0.40177318
6	0xbd7404df	-0.059574958
7	0xbcbb916f	-0.022896497
8	0xbde62475	-0.112374224
9	0xbee271c2	-0.44227415
10	0xbdcfffa3	-0.10156181
11	0xbe0fa1dd	-0.1402659
12	0x3df1672c	0.117872566
13	0xbc44436e	-0.011978967
14	0xbdad432d	-0.084600784
15	0xbd7cb4ed	-0.06169598
16	0xbe8feddb	-0.28111157
17	0x3e55cc31	0.20878674
18	0xbd8fd681	-0.07023335
19	0x3f26e0be	0.6518668
20	0xbda9aabc	-0.08284518
21	0x3be3a0f3	0.006946677
22	0xbdd3c844	-0.10340932
23	0xbd8024d9	-0.06257028
24	0xbe317ad0	-0.17332006
25	0x3d943f28	0.072386086
26	0xbe950b2b	-0.29110083
27	0xbe206b48	-0.15665925
28	0xbe1756bb	-0.14779179
29	0x3d8fd58d	0.070231535
30	0xbdf02e1c	-0.11727545
31	0xbe3a6da0	-0.18205881
32	0xbe081c4a	-0.13292041
33	0xbd5ce5d0	-0.053930104
34	0xbd85d68d	-0.06535063
35	0x3b378b63	0.0028006665
36	0xbe7b5cab	-0.24547069
37	0x3da4659c	0.08027193
38	0xbe00e32a	-0.12586656
39	0xbddc1ff8	-0.10748285
40	0xbef16cd3	-0.4715334
41	0xbbc110df	-0.005891904
42	0xbd22c767	-0.039740946
43	0xbce27dfd	-0.027647967
44	0xbda7ac03	-0.081871055
45	0x3bdf4313	0.006813416
46	0xbe13713b	-0.14398663
47	0x3c737a3c	0.014860686
48	0xbdffd5ba	-0.12491937
49	0x3d027f6c	0.0318598
50	0xbe83607f	-0.25659558
51	0x3e779288	0.24176991
52	0x3ae71a06	0.0017631657
53	0xbe161563	-0.14656596
54	0xbe54ca42	-0.2078028
55	0x3d9da5e3	0.07697656
56	0x3e4626a4	0.19350678
57	0x3e4bd3b1	0.19904973
58	0xbe093a39	-0.13401116
59	0x3c628a31	0.013826893
60	0xbdbc9430	-0.09207952
61	0xbd548e40	-0.051893473
62	0xbdeb8d9a	-0.11501618
63	0x3d471aac	0.04860942
64	0xbe117ed6	-0.1420854
65	0x3c4dcad7	0.012560568
66	0xbdd583ee	-0.10425554
67	0x3c933aa9	0.017972307
68	0xbe1d5942	-0.1536608
69	0xbe84319e	-0.25819105
70	0x3e27314a	0.16327396
71	0x3e6b21ba	0.22962084
72	0xbdc43219	-0.09579868
73	0xbde05071	-0.10952843
74	0xbd42d4c5	-0.047566194
75	0xbaca5973	-0.0015438035
76	0xbd985ebd	-0.07439945
77	0x3d737c2f	0.059444603
78	0xbe42978e	-0.19003126
79	0x3f05d822	0.5228292
80	0xbe9c7e05	-0.30564895
81	0x3e4afa7f	0.19822119
82	0x3e81aa36	0.25325173
83	0x3ddf0fb9	0.10891671
84	0x3bb03b15	0.005378137
85	0x3e0cefd8	0.13763368
86	0xbdcb0311	-0.09912694
87	0x3dcf93a3	0.10135581
88	0x3e051f3b	0.13000195
89	0x3d7ab75e	0.06121003
90	0xbdbae0c4	-0.09124902
91	0xbdc1d6d1	-0.09464801
92	0xbd886f2e	-0.06661831
93	0xbdc0ec6e	-0.094200954
94	0xbe351b29	-0.17686142
95	0x3ec754d2	0.389319
96	0x3cf7e90a	0.030262489
97	0x3c29dde8	0.010367848
98	0xbeb3dcfc	-0.35129535
99	0xbefa6ce9	-0.48911217
100	0xbe3fd847	-0.18734847
101	0x3dedcfd4	0.11611906
102	0xbdc99670	-0.09843147
103	0x3c2266d2	0.00991221
104	0x3e8dd0fd	0.27698508
105	0x3d3a79dd	0.045526374
106	0x3e28cc17	0.16484104
107	0x3cce5f0b	0.025191804
108	0x3d46a967	0.0485014
109	0xbf09066b	-0.5352542
110	0x3dc2ad73	0.09505739
111	0xbe2f866c	-0.17141122
112	0xbda859df	-0.082202666
113	0xbdb6a0a5	-0.08917359
114	0xbdf47081	-0.11935521
115	0x3dff796a	0.1247433
116	0xbe5c93d9	-0.21540774
117	0x3f016ea5	0.50559455
118	0xbdbd9ddd	-0.09258626
119	0xbd06c4c0	-0.03290248
120	0xbda53041	-0.08065844
121	0xbd87a335	-0.06622926
122	0x3e44391e	0.19162413
123	0x3d462cac	0.048382446
124	0xbbe5dc56	-0.0070147915
125	0xb9718c75	-0.00023035875
126	0xbd4f1106	-0.050553344
127	0x3ef82c54	0.4847132
128	0xbe01ff7f	-0.1269512
129	0x3dd22e98	0.10262793
130	0xbe90b749	-0.28264835
131	0x3ef0ffe7	0.47070238
132	0x3db9a050	0.0906378
133	0x3e17d888	0.14828694
134	0xbdaf6cb2	-0.08565654
135	0xbdeb1657	-0.1147887
136	0xbdc3f1e5	-0.09567622
137	0xbd179b37	-0.03701326
138	0xbd8ee5f2	-0.06977452
139	0x3c7defa4	0.015499029
140	0xbe386447	-0.18007003
141	0x3d93e0c1	0.07220603
142	0xbe15a570	-0.1461389
143	0xbdd33539	-0.10312886
144	0x3e32a1ae	0.17444488
145	0xbecd2716	-0.40068883
146	0x3d0064dc	0.031346187
147	0x3e9e9df5	0.30979887
148	0x3e9fd8fe	0.3122024
149	0x3e17710a	0.14789215
150	0xbdc0c2fb	-0.094121896
151	0x3da4a20c	0.080387205
152	0xbdb90381	-0.090338714
153	0xbdb3ad39	-0.08773274
154	0xbd8eaf40	-0.0696702
155	0xbdeceb9b	-0.11568376
156	0xbf18fc50	-0.5976
157	0x3b91eaf0	0.0044530556
158	0xbe1d0ef1	-0.15337731
159	0xbf040bad	-0.51580316
160	0xbeae06f6	-0.33989686
161	0x3e93ceb5	0.28868642
162	0xbdca22c7	-0.098699145
163	0xbdd21891	-0.10258592
164	0xbdb545e2	-0.0885122
165	0x3c03e368	0.008049823
166	0xbddc9f3a	-0.107725576
167	0x3df932e7	0.12167912
168	0xbec6f0e8	-0.38855672
169	0xbe878474	-0.2646824
170	0xbd87da33	-0.06633415
171	0x3c026a82	0.007959964
172	0x3e6a83a3	0.22901778
173	0x3dc854f0	0.097818255
174	0xbe1af0f2	-0.15130976
175	0xbd948621	-0.072521456
176	0xbdda357f	-0.10654735
177	0x3c1b42ff	0.009476422
178	0xbe3d16d6	-0.18465742
179	0x3dcccc7d	0.099999405
180	0x3d983ff9	0.07434077
181	0xbef56082	-0.47925192
182	0xbe047dad	-0.12938567
183	0x3dc8370d	0.09776125
184	0xbd423b30	-0.047419727
185	0x3d584c9e	0.052807443
186	0xbe792512	-0.24330547
187	0x3e57f0df	0.21087979
188	0xbd016554	-0.031590775
189	0x3dbaeccd	0.091271974
190	0xbdb0ca91	-0.086323865
191	0xbdb96efd	-0.090543725
192	0xbf068ec1	-0.52561575
193	0xbdbc9ae2	-0.09209229
194	0xbc8e3c70	-0.017362803
195	0xbece757c	-0.40324008
196	0xbd972e17	-0.07381838
197	0xbdf5189e	-0.11967586
198	0x3da14b00	0.07875633
199	0xbea1f845	-0.31634727
200	0xbc96b606	-0.018397342
201	0x3eefb9d8	0.46821475
202	0xbd42c649	-0.04755238
203	0x3d292140	0.041291475
204	0xbdd66e02	-0.10470201
205	0x3dbfdbb0	0.09368074
206	0xbe008cfd	-0.12553783
207	0x3da160c4	0.07879785
208	0xbe40fc36	-0.18846211
209	0x3e038d73	0.12846927
210	0xbe0f0882	-0.13968089
211	0xbb334b9f	-0.0027358306
212	0xbcdc338f	-0.026880054
213	0xbbd4cb0e	-0.0064939326
214	0xbde87f6f	-0.11352431
215	0xbdbfd92e	-0.093675956
216	0xbe24c972	-0.1609247
217	0x3e2c1830	0.16806102
218	0xbcdd6da3	-0.027029818
219	0xbef580b7	-0.47949764
220	0xbf356730	-0.70860577
221	0xbe006365	-0.12537916
222	0xbdd529db	-0.10408374
223	0xbe25a0df	-0.16174649
224	0xbeb61a0b	-0.35566744
225	0x3e61b7e1	0.220428
226	0xbd0daa6f	-0.034586366
227	0xbe4739ed	-0.1945569
228	0xbec8e895	-0.39239946
229	0xbd91a6d4	-0.07111898
230	0xbf25a9f3	-0.64712447
231	0x3e0393c7	0.12849341
232	0x3d1a1202	0.03761483
233	0xbde3874a	-0.11109789
234	0xbe196f9d	-0.14983983
235	0xbd96e512	-0.073679104
236	0xbe639738	-0.22225654
237	0x3d8c0669	0.0683716
238	0xbda6dc80	-0.08147526
239	0x3c086998	0.008325957
240	0xbe77f699	-0.24215163
241	0x3e6424e3	0.22279696
242	0xbf153f0d	-0.5829933
243	0xbdbf1ebe	-0.093320355
244	0xbe4799d3	-0.19492273
245	0x3ef3d415	0.47622743
246	0xbe7b7f14	-0.24560195
247	0x3e61f672	0.22066668
248	0xbc75ddc6	-0.015006488
249	0x3eea2b1c	0.45736015
250	0xbe68c1e1	-0.22730209
251	0xbe8436ca	-0.2582305
252	0xbdb8f020	-0.09030175
253	0x3d5a355e	0.05327355
254	0xbdb56d82	-0.088587776
255	0xbd883ea5	-0.066525735

bias f4 [128]
0	0x3f13ef65	0.5778716
1	0x3d857007	0.06515508
2	0x3ed658f7	0.4186475
3	0x3e2136da	0.1574358
4	0x3bd73be9	0.006568421
5	0x3f2c371f	0.6727161
6	0x3ebd1f19	0.36937788
7	0x3f07bebc	0.5302541
8	0x3ecd6e12	0.4012304
9	0x3ef11bdc	0.47091568
10	0x3f112078	0.5669017
11	0x3ec75237	0.38929912
12	0x3f0f3192	0.55935013
13	0x3f39b86f	0.7254705
14	0x3f058ee8	0.5217118
15	0x3f557111	0.8337565
16	0x3f56101a	0.8361832
17	0x3e58a875	0.21158011
18	0xbe95d4d6	-0.29263943
19	0x3f45c8f6	0.7725977
20	0x3d862cb9	0.06551499
21	0x3dfe0dbc	0.124049634
22	0x3f0fe4da	0.56208575
23	0x3f7e996b	0.9945285
24	0x3f450db3	0.7697403
25	0xbcf6b497	-0.030115409
26	0x3f5ce699	0.86289364
27	0x3f5ca010	0.86181736
28	0xbd9cc0ce	-0.07653962
29	0x3f6b7c6d	0.91986734
30	0x3eaa8f17	0.33312294
31	0x3ec564c4	0.3855344
32	0x3f77fef3	0.96873397
33	0x3f0bca7f	0.5460586
34	0xbdafec8e	-0.08590041
35	0xbe4ee25e	-0.2020354
36	0x3f049f51	0.518056
37	0x3e19b319	0.15009727
38	0x3ef25207	0.47328207
39	0xbe0486b5	-0.12942012
40	0x3f0829e6	0.5318893
41	0x3d4833df	0.048877593
42	0x3eb9df10	0.36302996
43	0x3f1b719a	0.6072022
44	0x3bc4bc6d	0.0060039074
45	0x3f1b6287	0.60697216
46	0x3eddafcb	0.43298182
47	0x3d7a8a21	0.061166886
48	0xbe652cb6	-0.22380337
49	0x3e39c554	0.18141681
50	0x3e27fe2a	0.1640555
51	0x3f2d0a7e	0.67594135
52	0x3d825f63	0.0636585
53	0x3ce4ff95	0.027953902
54	0xbddd75d4	-0.108134896
55	0xbd164a71	-0.036692087
56	0x3f0e1225	0.55496436
57	0x3f35f0d6	0.7107061
58	0x3c213904	0.009840254
59	0x3f24ff95	0.6445249
60	0x3efc5bdc	0.49288833
61	0xbe2ad7d1	-0.1668389
62	0xbd594c2b	-0.053051155
63	0x3eadc63f	0.33940312
64	0x3f4adcb6	0.7924303
65	0x3eed25a8	0.46317792
66	0xbe72f636	-0.23726735
67	0x3f09ee36	0.53879106
68	0x3efe8f51	0.49718717
69	0x3e77d03a	0.24200526
70	0x3f200305	0.6250461
71	0x3f6c6010	0.9233408
72	0x3e0da7cc	0.1383354
73	0x3f115858	0.56775427
74	0x3d192634	0.03738995
75	0x3e801746	0.25017756
76	0x3eee2b92	0.46517617
77	0x3f3456d6	0.70445
78	0x3cf744b9	0.030184137
79	0x3cf35814	0.029705085
80	0x3de656d9	0.112470336
81	0xbdf2dec1	-0.11858893
82	0x3f1d4d1d	0.6144579
83	0x3f288d48	0.6584058
84	0x3f123d11	0.5712443
85	0x3edf5e44	0.43626606
86	0x3d400339	0.046878073
87	0x3f76c040	0.963871
88	0x3f3ac8d2	0.7296268
89	0x3e271df9	0.16320027
90	0xbe8eb231	-0.27870324
91	0x3f4d3258	0.80154943
92	0x3ea43c84	0.3207742
93	0xbcd999a1	-0.026562514
94	0x3f03c399	0.51470333
95	0x3ee67512	0.45011193
96	0xbe256765	-0.16152723
97	0x3e176423	0.14784293
98	0x3f37471b	0.71592873
99	0x3ec3fee2	0.38280398
100	0x3e3e40be	0.18579385
101	0x3e872f92	0.2640348
102	0x3f25f64f	0.6482896
103	0x3f56dee2	0.8393384
104	0x3dfee360	0.12445712
105	0x3ed3d724	0.41375077
106	0x3c9b56fd	0.018962378
107	0x3f014848	0.5050092
108	0x3f83aa01	1.0286256
109	0x3e617126	0.22015819
110	0xbe49560e	-0.19661734
111	0x3f723e32	0.9462615
112	0x3f35ff24	0.7109244
113	0x3f35bc4a	0.7099043
114	0xbe0aef72	-0.13567904
115	0x3d6d5c70	0.057949483
116	0xbdcd8a35	-0.100361265
117	0x3f72bc0b	0.9481818
118	0x3f46f4fc	0.77717566
119	0x3f0f14af	0.55890936
120	0xbc813e1d	-0.015776688
121	0xbe5b50e3	-0.21417575
122	0xbd0c0920	-0.03418839
123	0x3cd05618	0.025431678
124	0x3e8c646e	0.27420372
125	0xbe8873a1	-0.26650718
126	0x3f033856	0.51257837
127	0x3ebc16cd	0.36736146

weight f4 [128, 128]
0	0xbe490422	-0.19630483
1	0x3c0a29c2	0.008432807
2	0x3d8e3a54	0.06944719
3	0x3db1b914	0.08677879
4	0xbbbe01d0	-0.005798556
5	0xbe485bc5	-0.19566257
6	0xbe06cdbd	-0.1316442
7	0xbe3b5be6	-0.18296775
8	0x3ccd2386	0.025041353
9	0x3ddc659e	0.107615694
10	0xbdb510c1	-0.08841086
11	0xbe018bf0	-0.12651038
12	0x3c9f31f7	0.019433005
13	0xbddf83ca	-0.10913809
14	0x3d6859e2	0.056726344
15	0xbe22919a	-0.15875855
16	0x3df89036	0.12136881
17	0xbc62381e	-0.013807325
18	0xbd800025	-0.062500276
19	0x3d853ea5	0.06506089
20	0x3dcc462d	0.099743225
21	0x3d796535	0.060887534
22	0xbd39bff9	-0.045349095
23	0xbde9da3d	-0.11418579
24	0xbdab2218	-0.08356112
25	0xbdd8249b	-0.10553857
26	0xbde85fc4	-0.11346391
27	0x3c23d47c	0.009999391
28	0x3d31857d	0.043340195
29	0xbdf1378a	-0.11778171
30	0xbd2d23fd	-0.04227065
31	0xbcf9330e	-0.030419853
32	0xbca34d21	-0.019934239
33	0x3d8e9eb3	0.06963863
34	0xbd44926b	-0.047991198
35	0xbdda80db	-0.106691085
36	0xbd83392c	-0.06407389
37	0x3d40fc18	0.047115415
38	0xbe152fd4	-0.14569026
39	0x3de73c24	0.11290768
40	0xbdb8f832	-0.090317145
41	0xbdc4ae9e	-0.09603618
42	0xbcde35e4	-0.027125306
43	0xbda00016	-0.078125164
44	0xbdacfc02	-0.08446504
45	0xbd7dcf37	-0.061965194
46	0xbd9127a5	-0.0708764
47	0x3ac5bc96	0.001508611
48	0xbd143d1e	-0.0361911
49	0xbe2f394a	-0.17111698
50	0xbe505693	-0.20345525
51	0xbda3868a	-0.07984646
52	0x3d5d3a83	0.05401088
53	0xbe18e9b0	-0.14932895
54	0xb9e72bfb	-0.0004409252
55	0xbe43a5ee	-0.19106266
56	0x3e017fc9	0.12646402
57	0xbe3a50ad	-0.18194838
58	0x3b2dc894	0.002651726
59	0xbd3a9f81	-0.04556227
60	0xbd879104	-0.066194564
61	0xbe3e980c	-0.18612689
62	0xbdc0d5a7	-0.09415751
63	0x3d8fab00	0.070150375
64	0xbd677b77	-0.05651423
65	0x3e08bef9	0.133541
66	0xbe2c073f	-0.16799639
67	0xbd18c619	-0.037298296
68	0xbd6abb00	-0.057307243
69	0xbd5226ab	-0.051306408
70	0xbe2fce67	-0.1716858
71	0xbe376c70	-0.1791246
72	0x3c4be535	0.012444784
73	0x3d25c20c	0.04046826
74	0x3d58368e	0.052786402
75	0xbd7a6860	-0.061134696
76	0xbdacea44	-0.0844312
77	0xbe313a09	-0.17307295
78	0xbd54a134	-0.051911548
79	0xbd99b809	-0.07505805
80	0xbc60059e	-0.013673214
81	0xbcebf78f	-0.028804569
82	0xbdd9e44b	-0.106392466
83	0xbcc17480	-0.023615122
84	0xbd4d4ac7	-0.05012014
85	0xbe436e31	-0.19085003
86	0x3df128f2	0.11775388
87	0xbdd7d947	-0.10539489
88	0xbc948e02	-0.01813412
89	0xbe1cdfa3	-0.15319686
90	0x3cb86060	0.022506893
91	0x3cb561ad	0.022141302
92	0xbe14c473	-0.14528064
93	0xbdf1b88b	-0.11802777
94	0xbd90d251	-0.07071365
95	0xbda95b1d	-0.082693316
96	0xbd2775b6	-0.040883742
97	0xbe2679be	-0.16257378
98	0xbd8e101e	-0.06936668
99	0xbcaf2819	-0.021381425
100	0xbd55d9a0	-0.052209496
101	0xbe30bbb0	-0.17259097
102	0xbe4cd743	-0.20003991
103	0xbdd25070	-0.102692485
104	0xbe101f13	-0.14074354
105	0xbd570efb	-0.05250452
106	0xbddb8309	-0.10718352
107	0xbe614c4a	-0.22001758
108	0x3b93bcff	0.004508614
109	0x3c87b780	0.016566992
110	0xbd031959	-0.032006595
111	0xbdca1bdd	-0.09868596
112	0xbe2b1f6f	-0.1671121
113	0xbda21f53	-0.07916131
114	0xbbbf0272	-0.005829149
115	0xbe4e8bbc	-0.20170492
116	0xbdcf55f3	-0.101238154
117	0xbe3c6b3f	-0.18400286
118	0x3cd7158f	0.026255397
119	0xbe175a58	-0.14780557
120	0xbdc26e03	-0.09493639
121	0xbd4b2929	-0.0495998
122	0xbdc04db6	-0.09389822
123	0x3dc3dd44	0.095636874
124	0xbde61fde	-0.11236547
125	0x3d650641	0.055914167
126	0xbba9c27a	-0.005180654
127	0xbddfefb6	-0.10934393
128	0xbde90ce4	-0.11379412
129	0x3cd636ae	0.02614912
130	0x3dad0c45	0.08449606
131	0x3d45744a	0.048206605
132	0x3dde911b	0.108675204
133	0xbd9fe2e8	-0.07806951
134	0x3d4f0c59	0.050548885
135	0xbdd5fb2c	-0.10448298
136	0xbe1ac61f	-0.1511464
137	0x3df94c15	0.121727146
138	0x3cd8471e	0.026401099
139	0x3e51ed24	0.20500618
140	0xbd2e9d22	-0.042630322
141	0xbd74c556	-0.059758507
142	0xbdf6867d	-0.1203737
143	0x3c82d616	0.015971225
144	0xbe0a8319	-0.13526572
145	0x3c1bbe17	0.00950577
146	0x3dc70373	0.09717455
147	0xbe35f4b2	-0.17769125
148	0xbd1a3ab7	-0.03765365
149	0xbcef766a	-0.029231269
150	0x3d871be1	0.06597114
151	0x3d962932	0.07332076
152	0xbd6677b8	-0.056266516
153	0x3d80bd53	0.06286111
154	0xbe04ce3e	-0.129693
155	0xbe595218	-0.21222723
156	0xbe3393d8	-0.17536867
157	0xbe1d2802	-0.15347293
158	0xbc90c7c7	-0.017673386
159	0x3d78ddee	0.060758524
160	0xbdbfc6b6	-0.09364073
161	0x3d8d9e5d	0.06914971
162	0xbd823041	-0.0635686
163	0x3cde034c	0.027101181
164	0xbd8214c2	-0.063516155
165	0x3d6ff50b	0.0585833
166	0xbc90d7bb	-0.017680993
167	0x3c78189d	0.015142587
168	0x3b804d9e	0.0039155027
169	0xbdc1a169	-0.09454615
170	0xbe17ac86	-0.14811906
171	0x3cafdf09	0.021468656
172	0x3d839ae8	0.064260304
173	0x3d2f2739	0.042762015
174	0xbd3870d2	-0.04502947
175	0x3d29f659	0.0414947
176	0xbdf0383a	-0.11729474
177	0x3d2cf1f7	0.042222943
178	0x3e8527c8	0.26006913
179	0x3d37555b	0.044759136
180	0xbe10e7d9	-0.14150943
181	0xbdde33c4	-0.10849717
182	0xbe510fd3	-0.20416193
183	0x3bed8313	0.0072482913
184	0x3d07775e	0.03307282
185	0xbcd0813d	-0.02545225
186	0xbd496a25	-0.049173493
187	0xbb04a6ed	-0.0020241097
188	0x3cc47131	0.023979755
189	0xbd0dbb9c	-0.034602746
190	0x3d810ddc	0.063014716
191	0xbd8da949	-0.06917054
192	0xbdf30453	-0.11866059
193	0x3ce955e8	0.028483346
194	0xbd979edc	-0.07403347
195	0x3d0b179c	0.033958063
196	0xbd14fa9a	-0.036371805
197	0x3ccb912e	0.0248495
198	0x3bd0db22	0.006373779
199	0xbe019974	-0.12656194
200	0xbc5cba2a	-0.013472119
201	0x3d20d562	0.039265998
202	0xbe2a81fa	-0.16651145
203	0xbd411126	-0.047135495
204	0xbd3747a9	-0.044746075
205	0xbc6184db	-0.013764585
206	0xbd448655	-0.04797967
207	0x3df147b3	0.11781254
208	0xbe539da8	-0.2066561
209	0xbd299d10	-0.041409552
210	0xbdf105d9	-0.117686935
211	0x3b9bbf23	0.00475301
212	0xbc36e933	-0.011163997
213	0x3d340d79	0.04395816
214	0xbcd68083	-0.026184326
215	0x3d13188e	0.03591209
216	0x3e3f5ac0	0.18686962
217	0xbce0f958	-0.027462646
218	0xbe0aded8	-0.1356157
219	0xbe289a70	-0.16465163
220	0xbcfcf2c9	-0.030877488
221	0xbd934fd2	-0.07192959
222	0xbd836294	-0.06415287
223	0xbd0ba4d7	-0.03409275
224	0xbb695093	-0.0035601004
225	0xbd20d0e9	-0.039261732
226	0xbe124a19	-0.14286079
227	0xbe32c020	-0.17456102
228	0x3d095a43	0.033533346
229	0xbdf90c11	-0.121605046
230	0xbdcf0ac1	-0.10109473
231	0x3da14bfb	0.0787582
232	0xbde52fda	-0.111907676
233	0xbd1cdb3a	-0.03829501
234	0x3b9405ec	0.0045173075
235	0xbdcc9fb9	-0.09991402
236	0xbe238cc7	-0.15971671
237	0xbcfe3bbd	-0.031034345
238	0x3d8ac321	0.06775499
239	0x3e088a4b	0.13334005
240	0x3c3e599b	0.011618043
241	0xbdaf4c2f	-0.08559453
242	0x3cc8ab36	0.024495702
243	0x3ce4fc6f	0.027952401
244	0xbe2a74c8	-0.16646111
245	0x3daed158	0.08536023
246	0xbd163c2a	-0.03667847
247	0xbe16fa1b	-0.14743845
248	0x3d8bb886	0.068223044
249	0x3b0256eb	0.0019888233
250	0xbd95f36b	-0.07321819
251	0xbd101709	-0.035178218
252	0xbdf26a79	-0.11836714
253	0x3df8deb7	0.121518545
254	0xbe01c6e7	-0.12673531
255	0xbd9c6e4d	-0.07638226

bias f4 [128]
0	0x3ea04026	0.3129894
1	0x3ef2de1f	0.4743509
2	0xbc20332c	-0.009777825
3	0x3ef76d99	0.48325804
4	0x3f05f65c	0.5232904
5	0x3f4da5f5	0.80331355
6	0x3f099580	0.53743744
7	0x3f595909	0.8490148
8	0x3f45e58f	0.77303404
9	0x3ebe4181	0.3715935
10	0x3dad0158	0.08447522
11	0x3f17f12a	0.5935236
12	0x3f334430	0.7002592
13	0x3f0ab61b	0.5418412
14	0x3dae854e	0.085215196
15	0x3e5c2e77	0.215021
16	0x3f3ffe76	0.7499765
17	0x3e87851a	0.26468736
18	0x3f089686	0.5335468
19	0x3f0a9b59	0.5414329
20	0x3f712542	0.94197476
21	0x3f6276b7	0.88462394
22	0x3ecdbbef	0.40182444
23	0x3ec54a4e	0.38533252
24	0x3f714c93	0.9425747
25	0x3f4999d9	0.7875038
26	0x3ecc5090	0.39905214
27	0x3d40b5e5	0.04704847
28	0x3debdfdf	0.115173094
29	0x3f6c230e	0.9224099
30	0x3e62a4c1	0.22133161
31	0x3f6339e2	0.887602
32	0x3f231112	0.6369792
33	0x3ee39cff	0.44455716
34	0x3f13b99a	0.5770508
35	0x3f24c8ce	0.64368904
36	0x3f49a864	0.7877257
37	0x3f302897	0.68811935
38	0x3f008eaa	0.5021769
39	0x3f42b38c	0.76055217
40	0x3f5d0fd5	0.8635228
41	0x3f18e00d	0.59716874
42	0x3d16ea80	0.03684473
43	0x3ee5a829	0.4485486
44	0x3f052301	0.52006537
45	0x3f627710	0.88462925
46	0x3f5f5f72	0.87255013
47	0x3ee7b6b9	0.45256594
48	0x3edb407f	0.42822644
49	0x3e4e7d08	0.20164883
50	0x3f72a196	0.9477781
51	0xbcffc245	-0.031220565
52	0x3ce5f1c0	0.028069377
53	0x3f36b47c	0.7136915
54	0x3f0b1148	0.54323244
55	0x3f6155f4	0.8802178
56	0x3e4aa4b4	0.19789392
57	0x3de16936	0.110063955
58	0x3e62f8b7	0.2216519
59	0x3e9e42a4	0.30910218
60	0x3e491f03	0.19640736
61	0x3ee3ec55	0.44516245
62	0x3f20d0e7	0.6281876
63	0x3f00a76f	0.50255483
64	0x3efa4b71	0.48885682
65	0x3d853d48	0.06505829
66	0x3f84d2e9	1.0376865
67	0xbca86c57	-0.020559473
68	0x3ef93223	0.48671064
69	0x3f2e9515	0.6819623
70	0x3f4a85cf	0.79110426
71	0x3e9915d6	0.29899472
72	0x3e7d29ed	0.24723025
73	0x3efd331c	0.49453056
74	0x3f34d11a	0.70631564
75	0xbd801c2b	-0.062553726
76	0x3f22dc69	0.6361757
77	0x3e87ac44	0.26498616
78	0x3f42a13a	0.7602726
79	0x3e703102	0.23456195
80	0x3e403c5b	0.18773024
81	0xbd9dca28	-0.07704574
82	0x3f180aad	0.5939129
83	0x3e16b508	0.14717495
84	0x3f82a443	1.0206379
85	0x3edf0bc2	0.43563658
86	0x3f7d56f3	0.989608
87	0x3e811cff	0.25217435
88	0x3eb1f443	0.3475667
89	0x3f38b2c7	0.7214779
90	0x3f03a958	0.51430273
91	0x3e82a023	0.255128
92	0x3f13d009	0.5773931
93	0x3f3339b5	0.7000993
94	0x3f480f7a	0.78148615
95	0x3ed83f71	0.42235902
96	0x3f3399a1	0.70156294
97	0x3f4a4fcb	0.79028004
98	0x3e3d728a	0.18500724
99	0x3f51bb53	0.8192646
100	0xbda7cc47	-0.0819326
101	0x3f0a29c1	0.5396996
102	0x3ee3173e	0.4435367
103	0x3f1a2024	0.6020529
104	0x3e826306	0.25466174
105	0x3dd94e3a	0.10610624
106	0x3e301600	0.17195892
107	0x3e7387e5	0.23782308
108	0x3f17a887	0.5924153
109	0x3f766d6b	0.9626071
110	0x3ec28313	0.37990627
111	0x3e34ce40	0.17656803
112	0x3ed00b3b	0.40633568
113	0xbd2027d3	-0.03910048
114	0x3e87e037	0.2653825
115	0x3f35c1c3	0.7099878
116	0x3ee6de20	0.45091343
117	0x3e832818	0.25616527
118	0x3e43a21a	0.19104806
119	0x3e8d29f4	0.2757107
120	0x3ca59ac1	0.020215394
121	0x3d5cca5c	0.053903922
122	0xbcd98cdf	-0.02655643
123	0xbcbbe7d7	-0.022937698
124	0x3f535f9b	0.8256776
125	0x3f5d49fc	0.86441016
126	0x3e638ce4	0.22221714
127	0x3f040266	0.5156616

weight f4 [128, 128]
0	0x3da6261d	0.08112738
1	0x3c65a281	0.014015795
2	0xbd56ed86	-0.052472614
3	0x3d0f24c2	0.034947164
4	0xbda11155	-0.07864634
5	0x3c9dfd2f	0.019285766
6	0xbd96cdb0	-0.073634505
7	0x3e04bd2f	0.12962793
8	0xbdaca63b	-0.084301434
9	0x3d176741	0.036963705
10	0xbd400bc3	-0.046886217
11	0x3cda8edb	0.026679447
12	0xbd919071	-0.07107628
13	0xbc8ccaba	-0.017186511
14	0x3dbab216	0.091159984
15	0xbc3cebd3	-0.011530834
16	0xbd67e1f2	-0.056611963
17	0xbe1c2701	-0.15249254
18	0xbd8e5add	-0.069509245
19	0x3e6649a8	0.22489035
20	0x3c3ac819	0.011400246
21	0x3d10af6c	0.035323545
22	0xbe99786e	-0.29974693
23	0xbd2beca3	-0.04197372
24	0xbdd9441a	-0.106086925
25	0x3def6c70	0.11690605
26	0x3d03f52e	0.032216243
27	0xbe04d890	-0.12973237
28	0x3b1d5fbc	0.002401336
29	0xbe10ee75	-0.14153464
30	0xbe607dc2	-0.21922973
31	0x3e11e4fe	0.1424751
32	0x3d823129	0.06357033
33	0x3d3e71cb	0.04649524
34	0xbdd51b20	-0.10405564
35	0xbdd19550	-0.10233557
36	0xbbe5827d	-0.007004081
37	0x3d1fa8c6	0.038979314
38	0x3e5a22ff	0.21302412
39	0x3c2568ae	0.010095758
40	0xbc46ad10	-0.012126222
41	0xbe80f190	-0.25184298
42	0x3dab4eee	0.08364664
43	0xbc904382	-0.017610315
44	0x3c1cde73	0.00957452
45	0xbdb7ac27	-0.08968382
46	0x3df28181	0.11841107
47	0xbd5cb7f8	-0.053886384
48	0x3da8ff5b	0.0825183
49	0xbd8238ff	-0.063585274
50	0xbee43324	-0.44570267
51	0x3d8e2a65	0.0694168
52	0xbd67463e	-0.056463473
53	0x3e03450f	0.12819313
54	0xbe2f65eb	-0.17128722
55	0xba8de0fa	-0.0010824495
56	0xbe0cffed	-0.13769503
57	0x3d833575	0.064066805
58	0x3c1362be	0.00899571
59	0x3d1ffe91	0.039061133
60	0xbb840b1e	-0.0040296456
61	0x3d7b55be	0.061361067
62	0xbdd820dd	-0.10553143
63	0xbd3a9856	-0.045555435
64	0xbd5d1bf8	-0.05398175
65	0xbd8c2f09	-0.06844909
66	0xbdd10a9b	-0.10207101
67	0x3d8d4a1d	0.068989016
68	0xbd79ee0f	-0.061018046
69	0xbd2d4530	-0.04230231
70	0x3d929a3e	0.071583256
71	0xbb394069	-0.0028267151
72	0x3d66f8ca	0.056389607
73	0xbd3898dd	-0.045067657
74	0x3de4c06c	0.11169514
75	0xbf0655f7	-0.5247492
76	0x3d949983	0.072558425
77	0xbea4c71e	-0.32183164
78	0x3dc2e547	0.095163874
79	0x3d6ca7e3	0.057777297
80	0xbe801fdd	-0.2502431
81	0xbca8dc3f	-0.020612834
82	0x3dd025e3	0.10163476
83	0xbd96493c	-0.07338187
84	0x3da247fc	0.07923886
85	0x3d551168	0.052018553
86	0xbec3a896	-0.38214558
87	0x3cd2307f	0.02565789
88	0xbe3fda3a	-0.1873559
89	0xbdac1595	-0.08402554
90	0x3c9b9ab0	0.01899466
91	0xbd47ebb7	-0.04880878
92	0xbd71b650	-0.059011757
93	0x3dae21e7	0.0850256
94	0xbe5bf64d	-0.21480675
95	0x3e1889a1	0.14896251
96	0xbd4072a0	-0.046984315
97	0x3db551a2	0.08853461
98	0xbddeb958	-0.10875195
99	0x3c940407	0.018068327
100	0xbdfce5b5	-0.12348501
101	0xbdccb2f7	-0.09995072
102	0xbeae649f	-0.34061143
103	0x3e789c5e	0.242784
104	0xbda7139b	-0.08158036
105	0xbe54949e	-0.20759818
106	0xbd829e86	-0.06377892
107	0x3e248b40	0.16068745
108	0xbddbfae9	-0.10741217
109	0xbd27606a	-0.040863432
110	0x3d92b240	0.07162905
111	0x3e022e56	0.12712988
112	0xbe0c0f6e	-0.13677761
113	0xbd0bcd18	-0.03413114
114	0x3cadb14f	0.021202711
115	0x3e075134	0.1321457
116	0x3de44b06	0.11147122
117	0x3e0411fc	0.12897485
118	0x3d972a03	0.0738106
119	0x3c5dc0bb	0.01353472
120	0x3e0b8807	0.13626109
121	0xbbe14231	-0.0068743457
122	0x3e30cb88	0.17265141
123	0xbdddd80f	-0.108322255
124	0xb9d3b82d	-0.00040382278
125	0xbdae540b	-0.08512124
126	0x3e060b41	0.1309023
127	0xbc1d67ef	-0.009607299
128	0xbd3d96f9	-0.046286557
129	0xbd257269	-0.040392313
130	0xbd9e350a	-0.0772496
131	0x3e4484e6	0.19191322
132	0xbb399ef2	-0.0028323499
133	0xbd0de902	-0.03464604
134	0x3cb70c44	0.022344716
135	0xbe39fce8	-0.18162882
136	0xbe252684	-0.16127974
137	0x3d8c28ee	0.06843744
138	0xbd15e599	-0.036595915
139	0xbdc6644f	-0.09687101
140	0xbc124b7f	-0.0089291325
141	0xbe2289aa	-0.15872827
142	0xbe02d4c7	-0.1277648
143	0xbcdf08f5	-0.02722595
144	0x3ba49206	0.00502229
145	0xbd74c457	-0.059757557
146	0x3dac3182	0.0840788
147	0xbe6e7950	-0.23288465
148	0x3b1aa8fc	0.0023599258
149	0xbc63fad8	-0.013914786
150	0xbe0c1e43	-0.13683419
151	0xbc877c01	-0.016538622
152	0x3d2fdd2a	0.042935528
153	0xbd1cc324	-0.038272038
154	0xbba013fd	-0.0048851953
155	0x3d68e47b	0.05685852
156	0xbbaa5572	-0.005198174
157	0xbe7e8d27	-0.24858533
158	0xbde1f239	-0.110325284
159	0xbbd996f0	-0.0066403076
160	0x3d874e26	0.066067025
161	0xbdf86b3e	-0.1212983
162	0x3de3f3ee	0.1113051
163	0x3d86b33a	0.065771535
164	0xbe4176da	-0.18892995
165	0xbc4e1e3d	-0.012580452
166	0xbda93d57	-0.08263653
167	0x3d683fae	0.056701355
168	0xbdb290b9	-0.0871901
169	0xbe1d6614	-0.15370971
170	0xbd7aaa82	-0.061197765
171	0xbd94b122	-0.07260348
172	0xbe09207e	-0.13391301
173	0xbd584ca3	-0.05280746
174	0x3e0495c2	0.12947753
175	0x3e3be7ed	0.18350191
176	0xbc8e330e	-0.01735833
177	0x3d70517d	0.058671463
178	0xbc7d1b83	-0.015448454
179	0xbca30493	-0.019899642
180	0xbd4504b3	-0.048100185
181	0xbda75d8a	-0.08172138
182	0x3e2afc79	0.16697873
183	0x3de098a5	0.10966615
184	0xbe29b110	-0.1657145
185	0xbdefcd88	-0.11709124
186	0xbc3f4dec	-0.011676293
187	0xbe06e57e	-0.13173482
188	0x3de0e9d9	0.10982103
189	0xbe037bcc	-0.12840194
190	0xbe08f978	-0.13376415
191	0x3e122264	0.14270931
192	0x3cffa1ba	0.031205047
193	0x3e12299a	0.14273682
194	0xbd89606d	-0.06707845
195	0x3e73faf3	0.23826198
196	0xbdf399e5	-0.118945874
197	0x3c76a1cd	0.015053225
198	0x3cf75251	0.030190619
199	0x3ca7bba1	0.02047521
200	0xbcf6c3d7	-0.03012268
201	0x3dfe2b3f	0.12410592
202	0xbe48bd7a	-0.1960353
203	0x3e01ff0d	0.1269495
204	0x3d18aa13	0.03727157
205	0x3cc41b47	0.023938788
206	0x3de09f0f	0.10967838
207	0x3d106062	0.035248168
208	0xbdc80901	-0.09767342
209	0xbdd89083	-0.105744384
210	0x3d6f4a13	0.058420252
211	0xbe63828b	-0.22217767
212	0xbe1ee3ce	-0.15516588
213	0xbdabc242	-0.08386661
214	0x3ce93061	0.028465452
215	0xbd322dc7	-0.043500688
216	0xbdc6a288	-0.09698969
217	0xbe1bf79e	-0.15231177
218	0xbc3f2d54	-0.011668522
219	0xbdb6ae09	-0.08919913
220	0xbd098d0d	-0.033581782
221	0xbd9d19be	-0.076709256
222	0xbe11f62e	-0.14254066
223	0xbe654be9	-0.22392239
224	0xbd60ed2a	-0.054913677
225	0x3b25b99e	0.0025287638
226	0xbd9e9d4f	-0.07744848
227	0xbe3ac5a5	-0.18239458
228	0xbe8081df	-0.25099084
229	0xba58c978	-0.0008269767
230	0x3d0b6423	0.034031045
231	0xbccd3728	-0.025050715
232	0x3cfc841d	0.030824715
233	0xbe0dae00	-0.13835907
234	0xbca03cb4	-0.019560196
235	0x3bd321f2	0.0064432556
236	0xbe24c319	-0.16090049
237	0xbe328965	-0.17435224
238	0x3df3e384	0.119086295
239	0x3ddb8e96	0.107205555
240	0xbddcffd1	-0.107909806
241	0xbe3d5411	-0.184891
242	0xbe61423f	-0.21997927
243	0xbde98883	-0.11402991
244	0xbd9517b0	-0.07279909
245	0x3bb2f5df	0.005461439
246	0xbdfe2dc4	-0.12411073
247	0xbdb4b198	-0.08822936
248	0xbdd7696f	-0.10518157
249	0xbd01933c	-0.031634554
250	0xbd39804a	-0.04528836
251	0xbe19c019	-0.15014686
252	0x3d129657	0.035787906
253	0xbe0f82f9	-0.14014806
254	0x3e09a094	0.13440162
255	0x3d6972cd	0.05699425

bias f4 [128]
0	0x3f7d6879	0.9898754
1	0x3eee155a	0.46500665
2	0x3f3975a3	0.72445124
3	0x3ed1365b	0.40861782
4	0x3e048374	0.1294077
5	0x3e107dff	0.14110564
6	0x3f432d44	0.76240945
7	0x3eab25d0	0.33427286
8	0xbd7d7fa1	-0.061889295
9	0x3e3d6431	0.18495251
10	0x3eb222ed	0.3479227
11	0x3d90283e	0.070389256
12	0x3ed6a0ee	0.41919655
13	0x3ee10190	0.43946505
14	0x3f7b1ba3	0.98089045
15	0x3ebddf02	0.37084204
16	0x3cc82a19	0.024434136
17	0x3ef33252	0.4749933
18	0xbdb0d1a4	-0.08633736
19	0x3f05b6ee	0.52232254
20	0x3f0fe8dc	0.5621469
21	0x3d926146	0.0714746
22	0x3f3a6d99	0.7282348
23	0x3efc591d	0.49286738
24	0x3f201256	0.6252798
25	0x3eaa5262	0.33265978
26	0x3cbd20d8	0.02308695
27	0x3f30405d	0.6884821
28	0x3eee5f71	0.4655719
29	0x3f57e87e	0.8433913
30	0x3f35dc28	0.71039057
31	0x3e4f7f58	0.20263422
32	0x3dcca8bf	0.09993123
33	0x3f0d737a	0.5525433
34	0x3f1b7fed	0.60742074
35	0x3e696ce7	0.22795449
36	0x3dfd0983	0.1235533
37	0x3f472b2d	0.77800256
38	0x3efe599b	0.4967774
39	0x3e61e803	0.22061162
40	0x3d7ab4a0	0.061207414
41	0x3e3ddee6	0.1854206
42	0x3f33520d	0.70047075
43	0x3f6f6218	0.93509054
44	0x3f847cd6	1.0350597
45	0x398bf676	0.00026695774
46	0xb9aa9ff8	-0.00032544113
47	0x3ed60fee	0.41809028
48	0x3ee836a2	0.45354182
49	0x3ea0a2ac	0.3137411
50	0x3eaf9597	0.34293815
51	0x3e4437b1	0.1916187
52	0x3eb13d72	0.34617192
53	0x3e68de5e	0.22741076
54	0x3d96fee0	0.07372832
55	0x3ec5f6a7	0.38664743
56	0x3f6b5006	0.9191898
57	0x3ef6f57d	0.48234168
58	0x3f236eb6	0.63840806
59	0x3ec79c88	0.3898661
60	0x3f3b5c24	0.7318747
61	0xbd697b81	-0.057002548
62	0x3a918bc1	0.0011104272
63	0x3eca6967	0.3953354
64	0x3f760ea9	0.9611612
65	0x3f24cee5	0.64378196
66	0x3f043039	0.5163608
67	0x3f1a90eb	0.6037738
68	0x3f2c9740	0.6741829
69	0x3d81aea0	0.06332135
70	0x3f502580	0.8130722
71	0x3e57f3f7	0.21089159
72	0x3e90556f	0.2819018
73	0x3f040d94	0.5158322
74	0x3f80b23d	1.0054394
75	0x3c585c26	0.013205564
76	0x3f8934f9	1.0719291
77	0x3e27f8d1	0.1640351
78	0x3e5fcc6b	0.21855323
79	0x3d7b661e	0.061376683
80	0x3f8e9814	1.114016
81	0xbd52f324	-0.05150141
82	0x3f450cd0	0.76972675
83	0x3f455c2e	0.7709378
84	0x3eadb8c0	0.33930016
85	0x3e787762	0.24264291
86	0x3e5e61c5	0.21716984
87	0x3f2e9d8a	0.68209136
88	0x3e9c3d53	0.30515537
89	0x3ed57e2f	0.41697833
90	0x3ef15beb	0.4714044
91	0x3ef1e1fb	0.47242722
92	0x3f055c7e	0.52094257
93	0x3e45c10a	0.1931192
94	0x3f099e60	0.53757286
95	0x3f46009d	0.77344686
96	0x3f0b946b	0.5452334
97	0x3f507f8c	0.8144462
98	0x3e970070	0.2949252
99	0x3f3c6e27	0.7360558
100	0x3eeaa27a	0.45827085
101	0x3f3b6690	0.7320337
102	0x3eec72b4	0.46181262
103	0x3eb2f8fa	0.3495558
104	0x3ea3a08c	0.31958425
105	0x3f13562d	0.5755337
106	0x3de507b1	0.11183108
107	0x3ea44f21	0.3209162
108	0x3f63165a	0.8870598
109	0x3f5b282f	0.8560819
110	0x3dead755	0.114668526
111	0x3ea67552	0.32511383
112	0x3f4c6ccb	0.79853505
113	0x3dfc01db	0.123050414
114	0x3f1151a3	0.5676519
115	0x3cc6d8e2	0.02427334
116	0x3d9bdaa6	0.07610063
117	0x3f6e781c	0.9315202
118	0x3f4fae91	0.8112574
119	0x3f4876c4	0.7830622
120	0x3e24dc77	0.16099726
121	0x3f8639a9	1.0486346
122	0x3f45f38c	0.7732475
123	0x3ea5da4b	0.32393107
124	0x3f0a74a9	0.5408426
125	0x3eaf8576	0.3428151
126	0x3ee66541	0.44999126
127	0x3f025b98	0.5092101

weight f4 [128, 128]
0	0xbc824532	-0.015902136
1	0xbd43d33f	-0.04780888
2	0xbe13771f	-0.1440091
3	0xbd9302c6	-0.07178263
4	0x3d378032	0.04479999
5	0xbc3b0960	-0.011415809
6	0xbd9fb36e	-0.07797895
7	0xbded70fb	-0.11593815
8	0xbd8ad589	-0.0677901
9	0xbe277e25	-0.16356714
10	0xbe20feac	-0.1572215
11	0xbdae9a84	-0.08525565
12	0xbded2058	-0.11578435
13	0x3d74b0ab	0.059738796
14	0xbbd1e64c	-0.0064056274
15	0x3c352d10	0.011058107
16	0x3d898c35	0.067161955
17	0x3d58d3d4	0.05293639
18	0xbd0d320d	-0.03447156
19	0xbd10b89c	-0.035332307
20	0x3c99c6d7	0.018771572
21	0xbd02c3ad	-0.031924892
22	0xbe3f49fd	-0.18680568
23	0xbe25ecb3	-0.16203575
24	0xbd8e2d7a	-0.06942268
25	0x3e0e3b9d	0.13889928
26	0x3e36ab41	0.17838766
27	0xbd375374	-0.04475732
28	0xbc47b6ee	-0.01218961
29	0xbe3a7eef	-0.18212484
30	0x3e3c6504	0.1839791
31	0xbe2ae047	-0.16687118
32	0xbdc68d8f	-0.09694969
33	0xbd1a15fb	-0.03761862
34	0x3d705dcf	0.058683213
35	0xbe1f70b3	-0.15570335
36	0xbdf88705	-0.12135128
37	0xbdc0a1e8	-0.09405881
38	0xbdb843ce	-0.08997308
39	0xbdafdaf6	-0.08586685
40	0x3c6cda00	0.014456272
41	0xbe28caa3	-0.1648355
42	0xbeb35d21	-0.3503199
43	0xbc867de1	-0.016417446
44	0xbef3a655	-0.4758784
45	0x3ccf0596	0.025271218
46	0x3b904309	0.0044025225
47	0x3cdb5202	0.026772503
48	0xbd9a5136	-0.07535021
49	0xbd0846e0	-0.033270717
50	0xbd9739b2	-0.073840514
51	0xbe05fe86	-0.13085374
52	0xbe827d8a	-0.25486404
53	0x3e45bc8e	0.19310209
54	0x3d1e6ce2	0.038678057
55	0xbdd2573e	-0.102705464
56	0x3d43879f	0.04773676
57	0xbdb21b4a	-0.08696611
58	0x3b8359f8	0.004008528
59	0x3de6c291	0.11267579
60	0x3d75aa2d	0.059976745
61	0x3c724de7	0.014789081
62	0x3e1af30a	0.15131775
63	0xbdc9c2b7	-0.09851592
64	0xbe933f18	-0.28759074
65	0x3d1163a8	0.03549543
66	0xbebf64f0	-0.37381697
67	0x3d3bbc2c	0.04583375
68	0xbd0a34dc	-0.033741817
69	0xbd872b24	-0.06600025
70	0xbe948e15	-0.2901465
71	0x3e04a7d8	0.12954652
72	0xbeec2552	-0.46122223
73	0x3e21653b	0.15761273
74	0xbd894f09	-0.06704528
75	0xbe22c27b	-0.15894501
76	0xbe12ceca	-0.14336696
77	0xbf13ad25	-0.5768607
78	0x3d54157a	0.051778294
79	0xbe3750bd	-0.17901893
80	0xbe08f679	-0.13375272
81	0xbc8dbb3f	-0.0173012
82	0xbde6ed33	-0.11275711
83	0xbd8864d2	-0.06659855
84	0xbe094f55	-0.13409169
85	0xbe2687ee	-0.1626279
86	0xbeb626a3	-0.35576352
87	0xbd985501	-0.07438088
88	0xbdd9048c	-0.105965704
89	0xbdafc502	-0.08582498
90	0xbb8438de	-0.0040350994
91	0xbe6c3f8a	-0.23071113
92	0x3d98cf09	0.07461364
93	0xbd8a7b4e	-0.067618
94	0xbec92aa1	-0.39290336
95	0xbee7829f	-0.45216843
96	0xbde83ed2	-0.11340107
97	0xbe2dced7	-0.16973434
98	0x3d0360f9	0.032074902
99	0xba556624	-0.00081405253
100	0xbc3460d0	-0.01100941
101	0x3eb75c34	0.35812533
102	0x3d869a2d	0.065723754
103	0xbd69f436	-0.057117663
104	0xbd8df797	-0.0693199
105	0xbd434753	-0.047675442
106	0xbd35702c	-0.04429643
107	0xbc83eda2	-0.016104523
108	0x3cd93590	0.026514798
109	0xbe340885	-0.17581375
110	0xbd1b53ad	-0.037921596
111	0xbcac2053	-0.021011507
112	0xbe989471	-0.29800752
113	0x3d36d696	0.04463824
114	0x3df08fb4	0.11746159
115	0xbbf32823	-0.007420556
116	0xbe85ab80	-0.26107407
117	0xbe76b3fb	-0.24092095
118	0xbe1cabdb	-0.15299933
119	0x3e23d01f	0.1599736
120	0x3d4720cc	0.048615262
121	0xbdfd4976	-0.12367527
122	0xbe90675f	-0.28203866
123	0x3e1f0a1e	0.15531203
124	0xbe1f2997	-0.15543209
125	0xbd045114	-0.032303885
126	0xbd275c00	-0.040859222
127	0xbdcc34ad	-0.099709846
128	0x3cb48876	0.022037726
129	0x3dd9f611	0.106426366
130	0xbd387626	-0.04503455
131	0xbd4449b5	-0.047921855
132	0x3d345474	0.044025853
133	0x3d073949	0.033013616
134	0x3e3cdcfa	0.18443671
135	0xbd2b2459	-0.04178271
136	0xbe04e5d1	-0.12978293
137	0x39e0b3c9	0.0004285856
138	0xbd8c8190	-0.068606496
139	0x3d6edfb1	0.058318797
140	0x3c03b990	0.008039847
141	0xbd046032	-0.0323183
142	0x3d290fe4	0.04127492
143	0xbf32368a	-0.6961447
144	0x3e0a599f	0.1351075
145	0xbcd782c1	-0.026307466
146	0x3d896055	0.06707827
147	0xbe2cd527	-0.16878186
148	0x3d8d0aa9	0.06886799
149	0x3de2b6b0	0.11070001
150	0x3c828c06	0.015935909
151	0xbd063da8	-0.032773644
152	0x3e7617b5	0.24032481
153	0xbc068d07	-0.0082123345
154	0x3d1a5821	0.037681703
155	0x3e259793	0.16171102
156	0x3d90fd2a	0.07079537
157	0xbdf897be	-0.121383175
158	0x3d06234f	0.032748517
159	0x3d868919	0.06569118
160	0xbcae9988	-0.021313444
161	0x3bc5416e	0.0060197627
162	0x3dec93e0	0.115516424
163	0xbe8cb5cc	-0.2748245
164	0x3e2f0bc0	0.17094326
165	0x3d4c0574	0.049809888
166	0x3b172c1b	0.002306706
167	0xbccb27c2	-0.024799231
168	0x3d4a8f17	0.049452867
169	0x3e60be65	0.2194763
170	0xbd540763	-0.051764857
171	0xbd9430a4	-0.0723584
172	0x3d6e9a84	0.058252826
173	0xbdb624b1	-0.08893717
174	0x3d2d2638	0.042272776
175	0xbe304d03	-0.17216878
176	0xbdd81486	-0.105507895
177	0x3d0e4499	0.03473339
178	0x3dc4ed6f	0.09615599
179	0xbc79a169	-0.015236237
180	0x3e310fb4	0.17291147
181	0xbcb532d5	-0.022118965
182	0x3e495453	0.19661073
183	0xbddf3805	-0.10899357
184	0xbc3f7327	-0.011685169
185	0x3e844561	0.25834182
186	0xbc808077	-0.015686257
187	0x3d81ab76	0.06331532
188	0x3cd9ef19	0.026603268
189	0xbdb44c6b	-0.08803638
190	0x3d9bf328	0.07614738
191	0xbd0697a4	-0.03285946
192	0xbc837292	-0.016045842
193	0x3d384046	0.04498317
194	0x3db21513	0.08695426
195	0x3cef6472	0.0292227
196	0x3d7769de	0.060403697
197	0x3c814036	0.015777688
198	0x3d03b131	0.032151405
199	0x3c5e4bb4	0.013567854
200	0xbd05fbe4	-0.032710925
201	0x3d823c88	0.06359202
202	0x3d5a36d3	0.05327494
203	0x3e0c1504	0.13679892
204	0x3dcea710	0.100904584
205	0xbe09b41b	-0.13447611
206	0x3e0bb8be	0.13644692
207	0x3d9cfa6a	0.0766495
208	0xbce26118	-0.027634189
209	0xbd20f27b	-0.039293747
210	0x3d711eaf	0.058867153
211	0x3c3503cf	0.011048271
212	0xbcc3076a	-0.023807246
213	0xbe3180c0	-0.1733427
214	0xbdeea3c2	-0.11652328
215	0x3d7a671c	0.06113349
216	0xbabb7457	-0.001430164
217	0xbc2f0457	-0.010682187
218	0x3da84f8f	0.082182996
219	0xbe01d206	-0.12677774
220	0xbc70059a	-0.014649773
221	0x3dab78b1	0.083726294
222	0xbe1de2d0	-0.15418553
223	0x3ce51cf3	0.027967906
224	0xbd8d7148	-0.06906372
225	0xbd41dbe0	-0.04732883
226	0x3d5a502b	0.05329911
227	0xbdfda974	-0.12385836
228	0xbccd2a4d	-0.025044585
229	0xbd727873	-0.0591969
230	0x3d73abd5	0.059490044
231	0x3ca5259c	0.020159535
232	0x3e2d9196	0.16950068
233	0x3c01ddee	0.007926447
234	0xbdb8a274	-0.090153605
235	0x3a150669	0.0005684854
236	0x3def9827	0.11698943
237	0x3d6b26c0	0.05741
238	0xbdbd9113	-0.09256186
239	0xbcf3ba2e	-0.029751863
240	0xbc132a9b	-0.008982326
241	0xbd67325e	-0.05644452
242	0x3ddd1e67	0.107968144
243	0x3edb7898	0.42865443
244	0xbde059b6	-0.10954611
245	0x3e86d1b9	0.2633188
246	0xbd75d361	-0.06001604
247	0x3cfae7c9	0.030628102
248	0xbbd14a17	-0.006387006
249	0xbce8b996	-0.028408807
250	0xbdf6eeb6	-0.12057249
251	0x3dfd853e	0.123789296
252	0xbb31a6a7	-0.002710739
253	0xbdb7686a	-0.08955462
254	0x3d00f11a	0.031479932
255	0x3ceba6a7	0.02876599

bias f4 [128]
0	0x3f37922e	0.7170743
1	0x3f1d0ad1	0.6134463
2	0x3e80a372	0.251247
3	0x3d7f9477	0.062397446
4	0x3f2f6e64	0.6852782
5	0x3ea1a73a	0.31572896
6	0xbc578a3e	-0.013155518
7	0x3ef8ca32	0.48591763
8	0x3f0b6db6	0.5446428
9	0x3eb5bad3	0.35494098
10	0x3d28c8b5	0.041207034
11	0x3ebfbd8e	0.37449306
12	0x3ef39a66	0.47578734
13	0x3d5089a9	0.050912533
14	0x3f3def78	0.74193525
15	0x3eefeb9d	0.46859446
16	0x3e948935	0.2901093
17	0x3f4e314c	0.8054397
18	0x3f19fe73	0.60153884
19	0x3f81a269	1.0127689
20	0x3ed4ef73	0.41588935
21	0xbd3e737e	-0.04649686
22	0x3e808f31	0.25109246
23	0x3f5e699c	0.868799
24	0x3f0373b5	0.5134843
25	0x3f3cae74	0.73703694
26	0x3e214339	0.157483
27	0x3f20c810	0.6280527
28	0x3e723e0a	0.23656479
29	0x3f1401b5	0.57815105
30	0x3eccc3c8	0.3999312
31	0x3e2d6d3b	0.169362
32	0x3e0a2376	0.1349009
33	0x3e07928a	0.13239494
34	0x3f1ec781	0.6202317
35	0x3f58aa02	0.8463441
36	0x3ea96f57	0.33092758
37	0x3f572b44	0.84050393
38	0x3e6f8176	0.23389229
39	0x3e9771ee	0.2957911
40	0x3e888995	0.26667467
41	0x3e5f3cf3	0.21800594
42	0x3f500b42	0.8126718
43	0x3f8c89c0	1.0979538
44	0xbe04c9dc	-0.12967628
45	0x3f458b38	0.77165556
46	0x3f784ed7	0.969953
47	0x3f6fd160	0.93678856
48	0x3f2a7b12	0.6659404
49	0x3ed08de8	0.40733266
50	0x3d3c3dff	0.04595756
51	0x3f32a229	0.69778687
52	0x3eda6048	0.42651582
53	0x3f43be47	0.76462215
54	0x3e57d002	0.21075442
55	0x3f3d3c68	0.739203
56	0x3e3e53f3	0.18586712
57	0xbda08dc4	-0.0783954
58	0x3f3aa19f	0.72902864
59	0x3f32e7ad	0.6988476
60	0x3ea12259	0.31471518
61	0x3edfa5b0	0.43681097
62	0x3f5e4af7	0.8683314
63	0x3f3482d1	0.7051211
64	0x3f29b871	0.6629706
65	0x3e1e32ae	0.1544902
66	0x3f250d75	0.6447366
67	0x3e0944ea	0.13405195
68	0x3f0a583d	0.5404089
69	0x3eb0e5a0	0.3455019
70	0xbd04aad1	-0.032389466
71	0x3d13ef23	0.03611673
72	0x3f0b69f8	0.5445857
73	0x3f11c264	0.5693724
74	0x3e7c3c06	0.24632272
75	0x3f08473e	0.53233707
76	0x3e2184c1	0.15773298
77	0x3e57097e	0.20999715
78	0x3e8aee3e	0.2713489
79	0x3d4246ed	0.04743092
80	0x3f35f396	0.7107481
81	0x3ef6b2fb	0.48183426
82	0xbd76da76	-0.060266934
83	0x3f800abd	1.0003277
84	0x3df041e9	0.11731321
85	0x3f248199	0.6426025
86	0x3e2e6c0f	0.17033409
87	0x3f1e10ea	0.6174456
88	0x3c903f76	0.017608386
89	0x3f276083	0.6538164
90	0x3f76a7fc	0.96350074
91	0x3f21fcc8	0.6327634
92	0x3f0e4de1	0.55587584
93	0x3f512b6b	0.81706876
94	0x3f149138	0.58034086
95	0x3f044cca	0.5167967
96	0x3f2993b6	0.66241014
97	0x3f5b193b	0.85585374
98	0xbe20b4ce	-0.15693972
99	0x3ebd3288	0.36952615
100	0x3db2fa67	0.08739167
101	0x3e60793f	0.21921252
102	0x3eb8a003	0.3605958
103	0x3e977098	0.2957809
104	0x3ed75f6b	0.42064986
105	0xb9aa0a8c	-0.00032432785
106	0x3f2531fd	0.645294
107	0x3ef567bf	0.47930714
108	0xbd8858ce	-0.06657563
109	0x3f3ad295	0.7297757
110	0x3cc87fc7	0.024474991
111	0x3e015e9f	0.12633751
112	0xbe0f8242	-0.14014533
113	0xbc278f66	-0.01022706
114	0x3ed2164d	0.4103264
115	0x3e6d561d	0.23177381
116	0x3edf0b5a	0.43563348
117	0x3f6279d2	0.88467133
118	0x3f496885	0.7867511
119	0x3f4e89d0	0.80679035
120	0x3f5c323c	0.8601415
121	0x3f83ca9b	1.0296205
122	0x3f2a26df	0.6646556
123	0x3f25ef4b	0.6481826
124	0x3e58aa49	0.21158709
125	0x3f02ff99	0.5117126
126	0x3f5643ae	0.8369702
127	0x3f502471	0.81305605

weight f4 [5, 128]
0	0x3e6cbb21	0.23118259
1	0x3e22a41e	0.15882918
2	0x3e5ca316	0.21546587
3	0x3c68e21f	0.014214068
4	0x3eabe08f	0.33569762
5	0x3e0b10fb	0.13580696
6	0xbe5a9d85	-0.21349151
7	0x3d1ec16e	0.038758688
8	0xbebabb4a	-0.36471015
9	0x3eb0980d	0.34491006
10	0x3dfaf54f	0.1225382
11	0x3e03affa	0.12860098
12	0xbd8a25b6	-0.06745474
13	0x3d31a217	0.04336747
14	0x3d828264	0.06372526
15	0x3e5e2b18	0.21696126
16	0xbe70c7ff	-0.23513792
17	0x3e4eb173	0.20184879
18	0x3dd82284	0.10553458
19	0x3d4af383	0.049548637
20	0x3ec7d07b	0.39026245
21	0xbe157928	-0.14596999
22	0x3e4b7264	0.19867855
23	0x3ddedc14	0.1088182
24	0x3dce6e2c	0.10079607
25	0xbec94a36	-0.3931443
26	0xbc605cbe	-0.013693986
27	0x3b1d7c03	0.0024030216
28	0x3deacbed	0.11464677
29	0x3e13b4f6	0.144245
30	0x3cc915d7	0.024546547
31	0xbe8a6d9e	-0.27036756
32	0xbeae399d	-0.3402833
33	0xbecbe7e2	-0.3982535
34	0x3d5ffa8d	0.054682303
35	0x3d556340	0.052096605
36	0x3d9ce2d1	0.07660449
37	0x3e4f62cb	0.2025253
38	0xbeeaf2ac	-0.4588827
39	0x3e594cc9	0.21220697
40	0xbeb8ec0f	-0.36117598
41	0x3e30c88f	0.17264007
42	0x3c5f443d	0.013627109
43	0x3e105b7a	0.14097396
44	0x3d4a27fc	0.04935454
45	0xbc5bfcee	-0.013427002
46	0x3d91fa04	0.07127765
47	0x3dd3507e	0.10318087
48	0x3e0c29a0	0.13687754
49	0x3d625fcd	0.055267144
50	0x3dd690e4	0.104768544
51	0x3e1b92b7	0.15192686
52	0xbca7ba8c	-0.020474695
53	0xbdb2cb2e	-0.0873016
54	0xbf1008c5	-0.5626338
55	0xbe881e47	-0.265856
56	0x3c9384bb	0.018007627
57	0x3d9c6cbd	0.07637928
58	0x3da56268	0.0807541
59	0xbe7a2f02	-0.24431995
60	0x3df68d3a	0.120386556
61	0xbd2e08d9	-0.042488907
62	0x3e3a0079	0.18164243
63	0xbe063147	-0.13104735
64	0x3eb77607	0.35832235
65	0xbe6bfb5c	-0.23045105
66	0x3d3d177a	0.046164967
67	0xbda77209	-0.08176047
68	0x3e543457	0.20723091
69	0x3dd83858	0.10557622
70	0xbd0615f9	-0.0327358
71	0x3c8f181e	0.017467555
72	0x3e023ffa	0.12719718
73	0xbe913261	-0.2835875
74	0x3c33aa68	0.010965921
75	0x3e7037e5	0.23458822
76	0xbe3f949e	-0.18709037
77	0x3e178879	0.14798154
78	0xbe2b90ae	-0.1675441
79	0xbe643a6d	-0.22287913
80	0x3e6cf3fa	0.23139945
81	0x3e00fa54	0.12595493
82	0x3de7af93	0.11312785
83	0x3e622772	0.2208536
84	0x3d0cc4da	0.03436742
85	0xbd33ee18	-0.043928236
86	0x3dcd5091	0.100251324
87	0x3b0ea1c1	0.0021763893
88	0xbcaf9121	-0.021431508
89	0x3d8c9e74	0.0686616
90	0x3db6383a	0.08897443
91	0x3c46a9d9	0.012125456
92	0x3e4762b2	0.19471243
93	0x3dde4da8	0.108546555
94	0xbe070588	-0.13185704
95	0x3f021f10	0.5082865
96	0x3b99d5e1	0.004694686
97	0x3ea2a9db	0.31770214
98	0x3e672724	0.22573525
99	0xbd2c9744	-0.042136446
100	0xbe8b769d	-0.27238932
101	0xbe4b2a60	-0.19840384
102	0xbe6fc95d	-0.23416658
103	0xbe8d90a5	-0.27649418
104	0xbdf7ecf0	-0.12105739
105	0xbe9e42fc	-0.3091048
106	0xbb127347	-0.0022346543
107	0x3e351611	0.17684199
108	0x3e24cdfc	0.16094202
109	0x3ea782c6	0.3271696
110	0xbe2b0667	-0.16701661
111	0xbd6af135	-0.05735894
112	0xbd368da2	-0.044568665
113	0xbd01c7db	-0.031684738
114	0x3e106021	0.1409917
115	0xbcd43ac9	-0.025906937
116	0xbe596355	-0.21229298
117	0x3e46739b	0.19380037
118	0xbe7e81e6	-0.2485424
119	0xbd5ab389	-0.053393874
120	0xbcd36d4c	-0.025808953
121	0x3e34a1a2	0.17639783
122	0x3e7d348e	0.2472708
123	0x3d133a15	0.035944063
124	0xbe007401	-0.12544252
125	0x3ce6df4b	0.028182646
126	0x3e0852ff	0.1331291
127	0xbcb1793c	-0.021664254
128	0x3e8c421e	0.27394193
129	0xbc645abd	-0.013937649
130	0x3e10af48	0.14129364
131	0xbe80b594	-0.25138533
132	0xbe81c3a8	-0.25344586
133	0x3e04f543	0.12984185
134	0xbd199edd	-0.03750502
135	0x3e19f27b	0.15033905
136	0xbe298376	-0.16554055
137	0x3e7c1aad	0.24619551
138	0xbc0dfdf0	-0.0086665
139	0x3e802894	0.2503096
140	0x3ea054ce	0.313147
141	0x3d917e67	0.071041875
142	0xbde93382	-0.113867775
143	0x3e87370c	0.26409185
144	0xbd1ea2e2	-0.038729556
145	0xbe995c1f	-0.29953095
146	0x3e24dc99	0.16099776
147	0x3d644d7f	0.05573797
148	0x3e0280fd	0.12744518
149	0x3c8fe9a5	0.017567465
150	0x3e1e9644	0.1548701
151	0x3e321d9f	0.17394112
152	0x3df46e26	0.11935072
153	0xbeae2b31	-0.34017327
154	0x3d4f25c0	0.05057311
155	0x3e0f8e0c	0.1401903
156	0x3d6ee0f7	0.058320012
157	0x3e2c44fe	0.16823193
158	0x3e44e644	0.19228464
159	0x3dce58dc	0.10075542
160	0xbe4f19fe	-0.20224759
161	0xbef8ecca	-0.48618156
162	0x3dbb4c6a	0.09145434
163	0x3d8c9a5d	0.0686538
164	0x3e6b988f	0.23007415
165	0x3c51dbbc	0.012808736
166	0xbe1b2bb4	-0.1515339
167	0x3e5a4170	0.21314025
168	0x3d050361	0.032473926
169	0x3e279146	0.16364011
170	0x3c82221e	0.015885409
171	0x3e2d51dc	0.16925758
172	0x3d3feba9	0.046855602
173	0x3d10c75d	0.035346378
174	0x3ddecd59	0.10879011
175	0x3eb3b8f2	0.3510204
176	0xbbda3b16	-0.0066598756
177	0x3dc741b0	0.09729326
178	0x3d09c149	0.033631597
179	0x3e893a66	0.26802367
180	0xbcc788e6	-0.02435727
181	0xbe2e9ab4	-0.17051202
182	0xbef8697f	-0.48517987
183	0xbe419363	-0.1890388
184	0xbe7cd454	-0.24690372
185	0xb9c7823d	-0.00038053273
186	0x3dcbc203	0.09949114
187	0xbe0e7b8a	-0.13914314
188	0x3e067ecb	0.13134305
189	0xbe4e9e3d	-0.2017755
190	0x3e308694	0.17238837
191	0x3d07ba44	0.03313662
192	0x3f0ac1b8	0.5420184
193	0x3d9bb0d1	0.076020844
194	0x3e44d68b	0.19222467
195	0xbe24b19a	-0.16083375
196	0x3e69a81e	0.22818038
197	0xbde72074	-0.11285487
198	0xbd55b4f4	-0.052174523
199	0xbd3afbb8	-0.045650214
200	0xbe52e54c	-0.20595282
201	0xbe9eabae	-0.30990356
202	0x3e16363b	0.14669125
203	0xbc766c9a	-0.015040541
204	0xba9e4ece	-0.0012077929
205	0x3e2113d3	0.15730219
206	0xbea32e38	-0.318712
207	0xbe17ecb0	-0.14836383
208	0x3d55156d	0.052022386
209	0x3dfd4a1d	0.123676516
210	0x3e21d1c6	0.15802678
211	0x3e3746fc	0.17898172
212	0x3ea42574	0.32059824
213	0x3e481100	0.19537735
214	0x3c67683a	0.014123971
215	0xbeed139d	-0.46304026
216	0x3d8e35a2	0.069438234
217	0x3c6385d4	0.013886888
218	0x3ddd0410	0.107917905
219	0xbea8fc23	-0.33004865
220	0x3e9748ff	0.2954788
221	0x3decd2a6	0.115636155
222	0xbe8b2ede	-0.27184194
223	0x3ec38e2e	0.38194412
224	0xbe340206	-0.17578897
225	0xbe8e449a	-0.27786714
226	0xbdd63192	-0.104586735
227	0xbcfcc464	-0.030855365
228	0xbe176448	-0.14784348
229	0xbe642426	-0.22279415
230	0xbe292c1f	-0.16520737
231	0xbf0506b4	-0.51963353
232	0x3d12bc21	0.035823945
233	0xbd9d7df5	-0.0769004
234	0x3dc66e64	0.09689024
235	0x3e4cdcff	0.20006178
236	0x3d2cc927	0.04218402
237	0x3e7a6a62	0.24454644
238	0xbe779a4f	-0.24179958
239	0x3e099c76	0.13438591
240	0xbd5b3097	-0.053513136
241	0xbe12d039	-0.14337243
242	0xbce35cb5	-0.027754167
243	0x3d8e648e	0.06952773
244	0xbda00b1d	-0.0781462
245	0x3eda95b8	0.4269235
246	0xbda01650	-0.07816756
247	0x3e90ecf6	0.28305787
248	0xbd8e26cd	-0.069409944
249	0x3d832a4e	0.06404553
250	0x3d98bdb0	0.07458055
251	0x3d60424f	0.054750737
252	0xbdac42b2	-0.084111586
253	0x3d3126bc	0.04324983
254	0xbe83f10d	-0.25769845
255	0xbd3f8a93	-0.046763014

bias f4 [5]
0	0x3f75351c	0.95784163
1	0x3f518d7b	0.8185651
2	0x3f8aec01	1.0853273
3	0x3e9b4e17	0.30333015
4	0x3f804477	1.0020894
