DQN一阶领航-跟随机器人移动编队/models/dqn_1.pt (torch, 206575 bytes, 10 tensors)

weight f4 [128, 2]
000000 8a e6 c3 be 72 3a 9a bd aa 58 57 bd b0 f4 13 3e
       -0.38261825 -0.07530679 -0.05257479 0.1444881
000010 5b 3f 17 3c 03 8a 03 3e ef aa 23 3e e8 d2 2b 3f
       0.009231414 0.12845616 0.15983175 0.6711869
000020 9f 0a 6f 3b a3 79 15 bc e0 85 ce bd 25 16 ee 3d
       0.0036474837 -0.009123239 -0.100841284 0.116253175
000030 b0 22 bd ba 81 a4 e5 3d d3 18 5a 3d 30 ac 2d 3d
       -0.0014429893 0.11213017 0.05324633 0.04240054
000040 a2 c1 90 3e 68 2f c7 3e bf 39 26 be e9 5f 66 3e
       0.2827273 0.38903356 -0.16232966 0.22497524
000050 e0 14 c2 bd 68 60 26 3e 48 c7 00 3e 71 4d d9 3e
       -0.09476638 0.16247714 0.1257602 0.42441896
000060 8e ee 87 3d 85 e9 bc be f8 29 ad bc 91 5c 8c 3d
       0.066372976 -0.3689691 -0.021138176 0.06853593
000070 01 21 96 be 22 db 2f 3e 17 b3 8e bd a4 4d 0c 3e
       -0.29322055 0.17173436 -0.069677524 0.13701493
000080 90 f0 8b 3e 55 6d 52 3d a1 83 48 3e aa 56 e9 3e
       0.27331972 0.0513738 0.19581462 0.45573932
000090 e1 a4 21 bd 70 1a c1 3d aa b1 54 be b7 9c 1a 3e
       -0.03946388 0.09428871 -0.20770898 0.15098844
0000a0 5b 45 96 3d 7b c7 8b 3e 93 b2 08 be b8 54 36 3e
       0.07337447 0.2730063 -0.1334937 0.17805755
0000b0 fe c9 c8 3d 2d ec 28 3d 45 cc 07 3f 9d 46 53 bd
       0.09804152 0.04124086 0.53046066 -0.051581014
0000c0 c4 10 0b bc 6c 6e ac 3c 6e 63 a8 3e 59 c3 b0 3e
       -0.008487884 0.021048747 0.3288836 0.34524038
0000d0 a1 fd f4 bd 4b 76 41 bd e1 2d 4b bd 8f d5 0c 3e
       -0.119624384 -0.047231954 -0.0496043 0.13753341
0000e0 cd 37 8d be 94 87 1f 3d d2 63 1f bc 8d e0 ea 3d
       -0.27581635 0.038947657 -0.009728389 0.11468611
0000f0 ea f6 0b bd 69 4b 80 3d 1b f5 b0 3b b4 fc 18 3e
       -0.034171022 0.06264383 0.0054003126 0.14940149
000100 fb 39 5a bd c9 aa 33 3e bc 28 f4 3c 2a f5 11 3e
       -0.05327795 0.17545618 0.02980458 0.14253679
000110 6f 0c 48 3e 8b 7e e8 3e b9 60 6e bd 4a e6 9c 3d
       0.19535993 0.45409045 -0.05819771 0.07661112
000120 24 8b 9e 3e 33 d0 63 3e ab 59 84 bd 52 5e f5 3d
       0.3096553 0.2224739 -0.06462415 0.11980881
000130 da 05 8a bd 03 de f4 3d de 3b 19 be 1e 04 bf 3d
       -0.06739397 0.11956408 -0.14964244 0.09326957
000140 be b9 c6 3e 0a 18 e4 3d 91 1b 57 bd 62 a6 d1 3d
       0.38813585 0.111373976 -0.052516524 0.10236813
000150 6b ff 5a bd ad ee d5 3d 19 01 4b 3d 14 bf 3f 3d
       -0.05346624 0.104459144 0.049561594 0.046813086
000160 ab 36 5f be df bb a3 3e 4b 6c ca ba 68 00 a1 3b
       -0.21798198 0.31979272 -0.0015443651 0.0049133785
000170 cb 71 4f bc 47 7f cc 3d db c9 0d 3b 27 a2 92 3d
       -0.012661408 0.09985214 0.0021635208 0.07159834
000180 a3 d6 b7 be 52 e6 f4 3d eb 61 3c bc 5c b8 41 3b
       -0.35905942 0.119579926 -0.011497955 0.002955935
000190 47 8f d9 bc 6e be 9c 3d 72 3f 6d 3e 60 30 14 3f
       -0.026557578 0.07653509 0.23168734 0.57886314
0001a0 8f b4 1d bd a3 28 df 3d fd b4 de bc e5 71 66 3e
       -0.038502272 0.10896423 -0.027185911 0.22504385
0001b0 27 9b 07 be e6 da 51 3e a5 88 d5 3b ca 69 49 bc
       -0.1324278 0.2049366 0.0065165334 -0.0122932885
0001c0 e3 ee 8b bc 32 fc e7 3d 6b 69 ab be a4 e7 1b 3d
       -0.017081684 0.11327399 -0.33478865 0.038062707
0001d0 d0 78 41 3e 06 97 12 3f 33 4d 0b 3e 2f 1e c9 3d
       0.18893743 0.57261693 0.13603668 0.0982021
0001e0 27 f1 86 bc 2c b9 e3 3d e1 7c 72 bd 20 58 f2 3d
       -0.016472412 0.11119303 -0.059201125 0.11833215
0001f0 29 4f d1 bc 8a 67 c0 3d a3 7f 63 3e 7b c1 d6 3d
       -0.025550442 0.093947485 0.22216658 0.10486122
000200 ea 51 58 bc ff dc cf 3d da ad 9c bd 0a a1 eb 3d
       -0.013203124 0.101495735 -0.07650347 0.11505325
000210 c4 71 17 3e 96 11 40 be d8 1a 1d bc 82 03 c7 3d
       0.14789492 -0.18756709 -0.00958892 0.09717466
000220 a3 92 55 be f2 7e 30 3e fc 99 f9 3d 94 bc be 3e
       -0.20856719 0.17235926 0.12187573 0.3725325
000230 ec 89 9b 3d 0d 04 3e bd fd f9 85 bd 95 03 09 3e
       0.07594666 -0.046390582 -0.06541822 0.13380273
000240 f9 26 15 bd 73 c6 98 3d ae 2a 11 3d d9 f9 00 3e
       -0.03641412 0.07459726 0.035441093 0.1259531
000250 3b 35 5c 3e 44 66 01 3f b6 a5 81 bd 85 e3 e2 3d
       0.21504681 0.5054667 -0.06330435 0.11078552
000260 31 fa 55 3e 5e c3 d9 3d ee e7 00 bd 4b e1 d5 3d
       0.20896222 0.106329665 -0.031471185 0.10443362
000270 54 54 ae bc f1 ae c6 3d 28 89 b6 bd 2f d5 f2 3d
       -0.021280445 0.09701336 -0.08912879 0.11857068
000280 00 13 65 bd 55 94 e7 3d b7 cd 3c bd 3c c7 d6 3d
       -0.055926323 0.11307589 -0.046094622 0.1048722
000290 a9 61 00 3f ee 87 6e bc 16 73 33 3e b6 33 d2 3d
       0.5014902 -0.014558775 0.1752437 0.10263769
0002a0 a5 47 34 3e 78 f6 93 3e 7d 0a 47 3e e1 b8 d2 3e
       0.17605455 0.28898978 0.19437595 0.41156676
0002b0 82 98 ca bd d3 89 24 3e 4c e5 07 bf 9d d2 29 3d
       -0.0989237 0.16068201 -0.53084254 0.041460622
0002c0 ab 24 96 3d 6b 5a 57 3d 35 2a e4 be aa eb c9 bd
       0.073312126 0.052576464 -0.4456345 -0.098594025
0002d0 98 1f 14 bd 28 7d 85 3e 62 bc 5f 3c 8b 43 6a bd
       -0.036162943 0.2607205 0.013655754 -0.05719332
0002e0 c0 aa 38 bd cd c4 2d 3e d1 3e a2 bd d4 ff 0a 3e
       -0.045084715 0.16969605 -0.079221375 0.13574153
0002f0 c2 a5 b3 3e 78 8b e6 3d ef bd 43 3d 08 77 05 3f
       0.350874 0.1125707 0.047788557 0.5213475
000300 90 08 25 be 6e 4c 6a 3e 98 fe 0d bc 10 52 a1 3d
       -0.16116548 0.22880718 -0.008666657 0.0787698
000310 65 63 31 3e 6b 88 e1 3e 06 88 82 bd 94 62 00 3e
       0.17323072 0.4404939 -0.06373601 0.12537605
000320 24 ba c5 bb d9 b3 f2 3d 5d 6c 54 be 1e 29 2f 3e
       -0.0060341526 0.118507095 -0.20744462 0.17105529
000330 9d e2 30 bd 9d ff 7f 3e 70 88 ba be 81 aa 2f bd
       -0.043184865 0.24999852 -0.3643222 -0.042887215
000340 92 9e 6d be 01 88 52 3e 24 d2 e8 bc f0 a0 b5 3d
       -0.23205021 0.20559694 -0.028420515 0.08868587
000350 60 b1 3c 3e 8c a4 ec 3e f5 a0 c6 3d 93 f5 a1 bd
       0.18427038 0.4621929 0.09698669 -0.07908168
000360 27 3d 08 3f 1e c1 ee 3c ba 3b 3a 3e f9 da 0c 3f
       0.5321831 0.02914482 0.18186846 0.55021626
000370 98 c7 8f 3e 97 5d ce bc b3 10 2a 3d b2 1e f8 3d
       0.28081965 -0.025191111 0.041519832 0.1211523
000380 18 c3 d6 bd 37 de 15 bd 7e 25 44 bd 13 79 98 bd
       -0.1048643 -0.036588874 -0.047887318 -0.07444968
000390 29 25 23 3d 9b f3 18 3e ac 74 16 be cd b4 9a 3e
       0.03983036 0.14936678 -0.14692944 0.30216065
0003a0 2f ff 61 3e aa bd fb 3e c5 21 c3 3b 6e 48 b9 3d
       0.22070001 0.4916814 0.0059549534 0.09047018
0003b0 3b ec 14 3f 89 50 8c 3d 8c b9 8c be d5 cd 58 3e
       0.5817296 0.06851298 -0.2748531 0.21172269
0003c0 b8 50 d9 3d 1a 85 b1 3d f5 be bb 3e b5 87 04 bd
       0.10611099 0.08667965 0.36669126 -0.032355983
0003d0 ed 49 50 bd b8 45 21 3e 5e 25 09 3e 42 cd b0 3e
       -0.05085175 0.15749252 0.1339316 0.345316
0003e0 45 4f 5c 3b a3 4b 1c 3e 2f b5 62 bd cc 02 e5 3d
       0.0033616584 0.15263228 -0.05534857 0.11182174
0003f0 a3 e5 18 bf 4a e2 bc 3c ee be 28 be 15 f9 55 3e
       -0.597254 0.023057122 -0.16479084 0.20895799

bias f4 [128]
000000 01 9f dd 3e fa 5d 6a 3f ae ee 79 3f e8 02 4f 3f
       0.43285373 0.91549647 0.9762982 0.8086381
000010 0f 55 b2 bd 0b fd 98 be ef ed 58 3f f2 2b 47 3d
       -0.0870763 -0.29880556 0.8473806 0.048625894
000020 37 15 a4 be b3 d0 55 be 55 66 0b be ad 07 62 bd
       -0.32047436 -0.20880394 -0.13613255 -0.0551831
000030 38 e7 a9 3e e0 4b e3 3d 98 79 14 be 9e 2a 60 3f
       0.33184218 0.110984564 -0.1449951 0.8756503
000040 eb 21 ec 3e 38 bd 38 3e 5f 47 63 3e 4b 80 8d 3d
       0.46119627 0.18040931 0.22195195 0.069092356
000050 e8 61 9d 3e fa 94 58 be 90 fc 48 be 0a 53 82 be
       0.3073876 -0.2115058 -0.19627595 -0.2545398
000060 b8 22 23 be ea 60 c3 3e 22 55 ed 3e 3d 8c 6c 3f
       -0.15931213 0.38159877 0.46354014 0.92401487
000070 6f 78 87 3e 9d f5 03 3e 96 33 39 3e 60 15 87 3f
       0.2645907 0.12886663 0.18086085 1.0553398
000080 88 e3 92 3e 80 17 7b 3f 23 b1 31 3e 8f 18 84 3e
       0.28689218 0.98082733 0.17352729 0.25799987
000090 f2 20 fe 3b 3d e5 2d 3f 45 93 43 3f ed db 12 3f
       0.007755392 0.67927915 0.7639659 0.5736683
0000a0 11 2a 62 3f 2d e1 07 3f a4 e8 28 3f ed 51 19 3d
       0.8834544 0.53077966 0.6597998 0.037431646
0000b0 4b b1 78 be a5 c2 1c bd 44 90 c7 3e d8 b0 c0 ba
       -0.24286382 -0.038271565 0.38977253 -0.0014701141
0000c0 c3 77 5b 3d c3 1c d1 bd fa 4e bf 3e 4a 96 a5 3e
       0.05358101 -0.10210564 0.37364942 0.32341224
0000d0 bd c0 48 3e a4 5b 5c 3d d6 ea af 3e c4 f6 08 be
       0.19604774 0.053798333 0.34358853 -0.13375384
0000e0 57 d9 61 3f ce 58 25 3f 89 f7 f6 3e 86 79 b0 3e
       0.8822226 0.6458863 0.4823573 0.34467715
0000f0 34 b6 5d 3f ce 98 23 3f 09 63 18 3f bb 4d 4c 3f
       0.86606145 0.63905036 0.59526116 0.7980611
000100 05 66 fb 3e fd ba 3b 3f a2 e4 3f 3c a3 51 bb 3e
       0.49101272 0.73332196 0.011712225 0.3658572
000110 64 48 82 be df 64 40 be ee 74 49 3e ac 27 56 3f
       -0.25445855 -0.1878848 0.19673511 0.83654284
000120 66 b7 e8 3d 6f 35 5e 3f e5 27 67 3e 5c 6c 35 3f
       0.113631055 0.86800283 0.22573812 0.7086847
000130 2f e1 4a 3f 85 03 48 3e bf 32 23 3f 6b 7f 7a be
       0.7924985 0.19532593 0.6374931 -0.24462669
000140 25 7e 35 3f 10 09 13 3f 19 07 0b 3e 6d 9d 8c 3e
       0.70895606 0.57435703 0.13576926 0.27463856
000150 22 b5 09 be 54 ae e8 bd 6e 72 83 3f 7a fd a4 3e
       -0.13448003 -0.113613755 1.0269296 0.32224637
000160 0b 31 bc 3d 08 75 51 3e 1a 81 21 3d 92 d3 b0 3c
       0.09189042 0.204548 0.03942976 0.02158526
000170 0c b9 88 3f 51 bc 5d 3f ff 1e 3f 3f 37 f4 8c bd
       1.0681472 0.86615473 0.7465667 -0.06882518
000180 11 f2 d3 3e 3d aa 35 3d 6a 16 76 3e 4a ad 2c 3f
       0.4139562 0.044351805 0.24031988 0.6745192
000190 72 c6 69 3f 36 ee 90 be 5e 8a 55 3f b3 12 fb 3e
       0.9131843 -0.2830674 0.83414257 0.49037704
0001a0 ef fb 8e be d0 88 0e 3f 60 9b 70 3e 35 1d 6e 3e
       -0.27926585 0.5567751 0.23496771 0.23253329
0001b0 c9 33 89 3e c7 b5 e1 3e 78 db 11 be 36 17 01 3f
       0.2679732 0.44083998 -0.14243877 0.5042604
0001c0 1b d3 67 bd 7f 6e c5 3e 72 4a 83 3f 68 54 44 3f
       -0.05659781 0.38560864 1.0257094 0.76691294
0001d0 c1 f7 b5 bd 11 c7 3d 3f 52 5c 36 3f de c5 ec be
       -0.08885146 0.74131876 0.7123462 -0.4624471
0001e0 fc 98 0d 3e 3a d4 30 be 5d 89 7e 3f 28 65 10 3e
       0.1382789 -0.17268458 0.9942835 0.14101088
0001f0 bf 39 87 3f 99 a8 11 3f a8 d7 58 3e 7b 0d 7b be
       1.0564498 0.56897885 0.21176016 -0.24516861

weight f4 [128, 128]
000000 d6 56 7f bd 8d 00 ab bc df f2 71 3e 6b e9 8a be
       -0.062338673 -0.020874286 0.23627804 -0.2713121
000010 4e f2 a8 bd 7d 3e 30 bd c5 37 86 3e 84 6e 0f 3c
       -0.08249341 -0.043028343 0.26214424 0.008754376
000020 42 b7 b9 be 54 e4 e6 3d 39 5a 3f bd dd 0a 0f be
       -0.36272627 0.11274019 -0.046716902 -0.13968988
000030 e6 92 31 be 30 c8 b2 3d f1 9c e9 3d 2a 1b 8e 3e
       -0.17341194 0.08729589 0.11406887 0.277551
000040 7f 00 3f bd 97 75 b6 bd 49 cc 81 3d 85 72 bb 3c
       -0.046631332 -0.08909147 0.063377924 0.022881756
000050 67 45 86 bd 80 2d 94 bc 46 7f fb bd 8d b9 b5 be
       -0.06556206 -0.018088102 -0.12280135 -0.35493127
000060 e0 cc 58 3d 22 b2 23 bd 77 eb b2 3d a7 69 53 3e
       0.05292976 -0.039964803 0.087363176 0.20645772
000070 74 f8 e7 3d 13 39 6d 3d e0 65 39 3d c7 9e b7 3c
       0.113266855 0.05791576 0.04526317 0.022414578
000080 ff 78 59 3d 7f c0 5a 3e 0d 84 b7 be 6a e0 ad 3c
       0.053093906 0.21362494 -0.35842934 0.021225173
000090 d2 93 55 bd 05 84 4c 3e 96 37 89 3e ef 4d 4c 3e
       -0.052142926 0.19972236 0.2680022 0.19951604
0000a0 9d 2a a1 bc 9d ed 6d 3e d8 70 2d 3e fc f6 8b 3c
       -0.01967364 0.23235174 0.16937578 0.017085545
0000b0 de cb 64 3c 71 11 b7 3c c2 44 29 3e 42 40 1c bd
       0.013964621 0.022347184 0.16530135 -0.03814722
0000c0 af 92 11 bd e8 ee aa bb d5 ce ce 3d 22 4d a2 be
       -0.03554028 -0.005216468 0.10098044 -0.31699473
0000d0 57 21 ba 3d ed e9 bf 3c df d0 35 3e cd d4 81 bd
       0.0908839 0.023426974 0.17755459 -0.06339417
0000e0 31 1a 50 3e 71 4d 8d bb 28 ff f4 bd 8f 8a e1 bd
       0.20322491 -0.0043122103 -0.1196273 -0.11012756
0000f0 fd 98 58 3e 59 d0 17 3e 41 8b 2b 3e 03 1e 04 3c
       0.2115211 0.14825572 0.1675234 0.008063796
000100 b4 18 40 3e b0 03 cb 3c 66 8e 0a be 45 e4 c1 3d
       0.18759423 0.024782032 -0.13530883 0.09467367
000110 de d0 e1 3d 64 6a de be 9f d9 e4 bd c4 1b 7a 3e
       0.110261664 -0.43440545 -0.111743204 0.24424654
000120 05 c4 1e 3e 65 09 32 3e 27 05 5a be 32 b4 4b 3e
       0.15504463 0.17386396 -0.21291028 0.19892958
000130 51 65 0a bd 51 b2 dc 3c c0 86 3f 3e 15 7f 26 be
       -0.03378803 0.026940497 0.18703747 -0.16259415
000140 67 1e 55 3d 99 d2 ae 3d 70 24 17 be f7 e8 15 bd
       0.052030947 0.08536262 -0.14759994 -0.036599126
000150 06 01 9a be 5e fc ad be 21 91 5d 3e e9 a5 d7 bc
       -0.30078906 -0.33981603 0.21637394 -0.02632423
000160 ec 93 1a 3e e9 9a a1 3c 6d c8 0a 3e b9 1e 84 bd
       0.1509549 0.019727187 0.13553019 -0.064511724
000170 95 5c e0 3e 2e 83 f5 3e 37 55 eb 3d da cf e6 bc
       0.43820634 0.47951645 0.11490863 -0.028175283
000180 3c a5 e3 3c 2f 3d 70 3d 5b 5f 8e be 55 03 0e 3e
       0.02778875 0.0586521 -0.27807125 0.13868459
000190 cb 33 a3 3e 45 bf 11 bd 7f 92 d3 3d b1 e1 a7 bd
       0.31875452 -0.0355828 0.10330676 -0.08197344
0001a0 89 19 d1 3c 59 8a 18 3e f8 10 f3 bd 5b 10 88 bc
       0.025524871 0.14896525 -0.11868471 -0.016609361
0001b0 71 c2 9d be f6 fc e0 bd c8 41 71 be 9f 2c d1 3d
       -0.3081241 -0.109857485 -0.2356025 0.10213589
0001c0 bd 21 98 3d fd 09 9f bc 94 70 05 3e b9 9f 90 3d
       0.0742831 -0.019413942 0.13031226 0.07061715
0001d0 24 9a 29 be 7f 58 5a 3e 78 7e 95 bc 51 38 d8 bd
       -0.16562706 0.21322821 -0.018248782 -0.105576165
0001e0 39 87 b6 3d 35 c6 91 be a7 9a c8 3e b4 32 f8 3c
       0.089125104 -0.28471532 0.3918049 0.030297615
0001f0 f1 d8 68 3e df 41 8f 3e 55 fa ad bc 8b 73 39 be
       0.22739007 0.27979943 -0.021237532 -0.18110482
000200 d1 4c e8 3d 1e ca d6 3d 60 4f 6c 3d db 4b 98 bc
       0.113427766 0.104877695 0.057692885 -0.018590858
000210 d1 89 a9 bd 0e 34 43 be a6 72 95 3d 82 be 72 bd
       -0.082782395 -0.19062826 0.07297258 -0.059263714
000220 0c 33 ba be 58 ef 47 bf f7 83 78 be 30 27 9f bd
       -0.3636707 -0.78099585 -0.2426909 -0.07771146
000230 38 8f 00 be 34 37 1f bd 74 d0 b9 be 8b 71 98 3d
       -0.12554634 -0.038871005 -0.3629185 0.074435316
000240 b8 0b 9e bc a1 c3 9b bd 6e 35 1f be 26 76 06 be
       -0.019292697 -0.07605673 -0.15547726 -0.13131008
000250 fb 69 62 3c 23 d5 1f bf 3b 61 39 be 65 12 73 be
       0.013819213 -0.62434596 -0.18103497 -0.23737486
000260 7b a3 6d bd aa 5f c8 3d 3c 86 25 be 5e 22 65 3d
       -0.058017235 0.097838715 -0.16164488 0.05594098
000270 0a 2f af bd 52 27 f0 bc a6 2a 1c 3d 8b 84 b8 3d
       -0.08553894 -0.029315624 0.03812661 0.090096556
000280 0d 4c 9d bd 62 2a a1 3e e1 2c 34 bd 3e 8b 93 bd
       -0.07680521 0.31477648 -0.043988112 -0.07204293
000290 d0 13 1d be 04 b4 02 3d 34 e2 c3 bc b4 77 15 bd
       -0.15339589 0.031909958 -0.023911573 -0.03649111
0002a0 94 93 23 3e a4 42 cc bd 0c 7f 56 3e 3e 70 98 bd
       0.15974265 -0.09973648 0.20946902 -0.074432835
0002b0 4a 2d 4c bf e0 f2 e1 3d f3 92 1b 3e c7 06 8c bd
       -0.79756606 0.11032653 0.15192775 -0.0683723
0002c0 40 b9 86 bd 15 1a 0c be 10 a4 dd 3d c4 3b 28 be
       -0.065783024 -0.13681825 0.10822308 -0.16429049
0002d0 81 f9 34 3c 2b 0b 82 be 14 df a0 bd 4e ea 04 bd
       0.0110458145 -0.25399145 -0.07855049 -0.032450013
0002e0 ee d0 ec 3c dc 92 e0 3c 12 26 44 be 39 82 10 3d
       0.02890822 0.027413778 -0.19155148 0.03528044
0002f0 c2 c6 eb 3d 60 15 d4 38 f5 c8 0e 3e 33 03 ea 3d
       0.115125194 0.00010112929 0.13943847 0.114263915
000300 4b 25 00 3e 4b 4f aa 3d c9 3b 11 bd e4 b9 ae bc
       0.12514226 0.08315905 -0.035457406 -0.021328874
000310 f9 bf cd be 0b 8f 1e bf 68 fd 13 38 f9 8b 75 3d
       -0.40185526 -0.61937016 3.5283534e-05 0.05994794
000320 b1 cb 99 bd 02 dc 6a 3e 71 7b 80 bd 3f 15 3d 3d
       -0.07509554 0.22935489 -0.062735446 0.04616284
000330 1c b0 09 3e 55 f0 58 be f6 5d 58 bd d5 77 e7 be
       0.13446087 -0.2118543 -0.052823983 -0.45208612
000340 cf d9 24 3d 74 47 a0 bd 69 f4 2a be fc 79 57 3d
       0.04024678 -0.078261286 -0.16694798 0.052606568
000350 1f 38 a0 be a7 10 cd be 1e b7 81 bd 1e 83 f5 bd
       -0.31292817 -0.40051767 -0.06333755 -0.11987899
000360 6b 20 7c 3c b7 e4 6a bd 78 8a d9 be a3 27 62 bd
       0.015388588 -0.057347026 -0.42488456 -0.05521358
000370 41 49 80 3e c9 44 0b 3d a3 e7 54 3c 9d 90 fe be
       0.25055888 0.034001146 0.01299468 -0.49719706
000380 b6 ea 6a be fb 70 c6 bd c5 46 3b bd 6f fd 2e 3d
       -0.22941098 -0.09689518 -0.045721788 0.04272216
000390 82 ea a6 bc 8c d1 1e bf a5 96 4b 3c 4f ba 13 bd
       -0.020375494 -0.62038493 0.012426053 -0.03606635
0003a0 ad 77 e1 be 28 dd 1b 3e 01 76 76 3d 54 7c 1b bd
       -0.44036618 0.15221083 0.06017113 -0.037960365
0003b0 66 54 71 be 5d 7b 10 be 01 27 27 be 8f 7d 0f 3e
       -0.23567352 -0.1410956 -0.16323473 0.1401274
0003c0 b3 0a 47 bd 24 ed 20 3b b6 ec 6e 3d 5d 15 93 bc
       -0.048594188 0.002455541 0.058331214 -0.017954523
0003d0 ae 77 c6 be 3b 7a 92 3d 4d 32 67 be be bd 1d bf
       -0.38763183 0.0715222 -0.22577782 -0.6161765
0003e0 f4 95 54 3d f4 4d 86 be 0a 36 d9 3c ba 33 2e be
       0.05190082 -0.2623135 0.026515026 -0.1701192
0003f0 e1 56 40 3e f3 aa fb 3b dd 94 ac be c6 ff 2e bf
       0.18783142 0.007680291 -0.33707324 -0.6835903

bias f4 [128]
000000 dc d0 31 3f 4b fc 10 3f 34 c9 49 3f 5d fe 42 3f
       0.6945932 0.5663497 0.78822637 0.7616938
000010 85 c2 b1 bc e1 cb 30 3f 98 98 5b 3f 4c 6c 25 3f
       -0.0216992 0.69061095 0.85779715 0.6461837
000020 9d b5 ec 3d fe 09 75 3e 56 1d 5b 3e 27 3a db 3d
       0.115580775 0.23929593 0.2139791 0.10704451
000030 aa 9a 20 bc 44 e7 2a 3f a9 3c 21 3f a8 54 8e bc
       -0.0098025 0.66759133 0.62983185 -0.017374352
000040 76 6d 47 3f 19 0b 4a 3f d7 65 ff 3e cd b2 a0 3e
       0.779014 0.78923184 0.49882385 0.31386414
000050 63 13 98 3e 7e bc fe 3b 6d b4 4e 3f b7 30 a8 3e
       0.2970229 0.007773935 0.8074406 0.32849666
000060 8a 15 13 3f 4d 36 55 3d af f0 66 3e 62 a8 d5 3e
       0.5745474 0.05205374 0.22552751 0.41730028
000070 e9 25 8c 3e 99 95 14 3d ba a3 b5 3e ae 0b 3e 3f
       0.27372673 0.03627548 0.35476476 0.7423657
000080 da a8 5d 3f 53 87 b7 3b fa 25 16 3f df 17 38 3f
       0.8658577 0.0056008487 0.586517 0.71911424
000090 44 db 9f 3e a7 e7 56 3f 06 86 6b 3f 86 ea fa 3e
       0.31221974 0.83947223 0.9200138 0.49007052
0000a0 90 2b 40 3e ef d4 2c 3d 14 c6 01 3f 31 1f 5d 3e
       0.18766618 0.042195257 0.5069287 0.2159393
0000b0 90 d5 f3 3d f6 27 4c 3f 4e 54 bf 3e 85 6c 36 3f
       0.11905968 0.79748476 0.37369007 0.7125934
0000c0 95 c9 17 3f 64 dc e8 3e 43 7f 5e 3f a3 ec 6b 3d
       0.59291965 0.45480645 0.86912936 0.05759872
0000d0 13 4a 4f 3f 60 5e 06 3f 46 ea 01 3f d1 02 e8 3e
       0.80972403 0.52487755 0.507481 0.4531465
0000e0 e3 4a 41 3f 12 1e 30 3f 62 05 1f 3f a1 c5 22 3e
       0.75504893 0.68795884 0.6211759 0.15895702
0000f0 c6 f8 5e 3e 72 16 e5 3e 5e d9 2c 3d d9 0c d0 3e
       0.21774587 0.44743687 0.042199485 0.40634802
000100 b2 19 8c 3f 5b 70 05 3e bc 77 d7 3e bc 7b e0 3e
       1.0945342 0.13031141 0.42083538 0.43844402
000110 60 0f 31 3f 3d a7 87 bd b4 40 8c 3e 94 c8 ef 3d
       0.69164085 -0.06623695 0.27393115 0.11708179
000120 a0 75 81 3d 84 b3 c8 3e c5 c4 60 3f ed ab ff 3e
       0.06321263 0.3919946 0.87800246 0.49935856
000130 ac 0f 95 3e a6 37 4f 3f fe 3e 55 3f 44 04 b1 3e
       0.2911352 0.8094429 0.83299243 0.34573567
000140 86 94 36 3f ca 6d 57 3f 6b d6 32 3f 44 0d 9b 3d
       0.7132038 0.841519 0.69858426 0.075708896
000150 89 b6 94 3e 67 28 48 3f 4b 4d 0b 3f 4d 09 0a 3f
       0.29045513 0.7818665 0.54414815 0.5392044
000160 18 5e 99 3e e5 b3 20 3f 1e d1 46 3f e9 d8 4f 3f
       0.299546 0.627745 0.7766284 0.81190354
000170 94 92 69 3e 21 59 55 3e c4 4e 48 3f dd 55 6d 3f
       0.22809821 0.20834781 0.78245187 0.9270914
000180 c8 10 42 3f 48 a0 1d 3f 02 50 ab 3e 62 f1 8a 3e
       0.75806856 0.61572695 0.3345948 0.27137285
000190 eb 9a ac 3e d0 ce 41 3e a7 53 85 3f b3 3a 84 3e
       0.33711943 0.18926549 1.0416154 0.25826034
0001a0 dd e3 34 3f 7e b8 9e 3e 2c d6 6b 3f 5b d7 55 3e
       0.7066019 0.3100013 0.92123675 0.20882933
0001b0 0a 9b 28 3f 73 b8 43 3f e6 a1 3a 3f 58 7a eb 3e
       0.6586157 0.7645332 0.7290329 0.45991778
0001c0 98 a7 97 3e a9 85 2f 3f 19 c8 cc 3e f7 aa 1b 3e
       0.2962005 0.68563324 0.39996412 0.15201937
0001d0 92 b4 1c 3e d6 37 16 3d d5 88 7e 3f 21 00 6c 3f
       0.15303257 0.036674343 0.9942754 0.92187697
0001e0 3b 12 00 3e a6 ee 83 3e 2f 8d c9 bc 40 0e b0 3e
       0.12506954 0.25768012 -0.024603454 0.34385872
0001f0 dd 63 5d 3f cc 07 91 3e 1e 9c 05 3f 5c 2f 37 3f
       0.86480504 0.2832626 0.5219134 0.7155664

weight f4 [128, 128]
000000 f0 bb 24 bd 6f e8 c3 be c9 bf e9 bd e7 94 07 3e
       -0.040218294 -0.3826327 -0.11413533 0.13240395
000010 fd 65 6b 3c 18 18 d7 bd ff 95 7e be 39 41 a8 bd
       0.014367578 -0.105026424 -0.24861906 -0.08215565
000020 b4 d7 e4 bc d5 81 20 3e c6 de f0 3d e4 20 87 bc
       -0.027934887 0.15674527 0.11761241 -0.016495176
000030 40 5d 7a b9 68 84 cd 3c 16 a9 77 3d 7e fc a7 be
       -0.00023876596 0.02508755 0.060463987 -0.32809824
000040 88 f2 b3 bd 60 f1 1b 3e 37 a3 af bc c0 29 be 3c
       -0.087864935 0.15228796 -0.021440132 0.023213267
000050 de ab c7 bc b5 0f ac bd 03 a6 91 be bd f6 1e be
       -0.024373945 -0.084014334 -0.2844697 -0.1552381
000060 92 28 ab bc b1 f2 41 be 39 4f 1f 3b 4d a3 3c 3e
       -0.020893369 -0.18940236 0.0024308695 0.1842167
000070 bb b0 d5 bd f6 8a 43 bd 27 5d 32 3d c1 8a cb bd
       -0.10434099 -0.047739945 0.04354587 -0.099385746
000080 ea f8 80 3e fb 7e 49 bd d3 79 a5 3d fd 30 fa 3d
       0.25189906 -0.049193364 0.08079877 0.12216375
000090 c0 a4 08 3d 63 0e 13 3b 88 6a f6 3c 09 d5 85 3c
       0.033360243 0.0022438995 0.030080095 0.016336935
0000a0 97 3f 21 bd 5e cb 0c be b0 13 7d 3d 3d 09 b9 be
       -0.039367285 -0.13749453 0.061786354 -0.3613986
0000b0 df 8c 2e 3d 81 36 b7 bd 25 84 5c 3c d5 0e 9a bd
       0.042614814 -0.08945943 0.01345924 -0.0752236
0000c0 24 43 2c be 8e 26 06 3d 08 0f 4d 3e 29 4e 85 3d
       -0.16822487 0.032751612 0.20025265 0.065090485
0000d0 a5 84 a0 bc 74 28 dd bd af 36 15 be 72 a6 c2 3d
       -0.0195945 -0.107987314 -0.14571641 0.09504403
0000e0 d1 9f b8 3c 1b 28 e5 bd 85 de 7c be 20 41 5d bd
       0.022537144 -0.1118929 -0.2469426 -0.054017186
0000f0 86 4f 83 be ec 5f 3a be b7 d6 ca bd b1 6e a4 3d
       -0.2564661 -0.18200654 -0.09904235 0.08028925
000100 0c 6d 1f bc 23 bc d0 bd 9d b4 d0 bd cb c1 10 3e
       -0.009730589 -0.10192134 -0.10190699 0.14136426
000110 eb 1b 5d be 0d be 91 bc 53 58 06 be e8 e6 4e bd
       -0.21592681 -0.017790819 -0.1311963 -0.050513178
000120 19 56 0a be 03 a4 c7 3d 51 c9 20 3d 4a 91 8e 3d
       -0.13509406 0.0974808 0.03925449 0.069613054
000130 d2 e0 a1 3c 9d 6c 9c 3d d4 00 ec bd 6c 44 6a be
       0.019760523 0.07637904 -0.115235955 -0.22877663
000140 c6 a7 8a be c8 26 f2 bd 5d 97 ab be 7e 23 c5 3d
       -0.27081126 -0.11823803 -0.3351392 0.0962591
000150 1c a3 a3 bd a4 cf 9e bd 12 5a 15 bc 83 bb d0 3d
       -0.07990095 -0.07754448 -0.009115713 0.10192015
000160 37 8f 74 be d7 d7 81 be 30 19 66 3d df 9a 20 be
       -0.23882757 -0.25359985 0.056176364 -0.15684079
000170 79 be 92 be 3d c0 ca 3b ed 8d ba bd 9b 08 a2 bd
       -0.28660944 0.0061874674 -0.091091014 -0.079117976
000180 fa ab 1a 3c 58 7d 45 be 8e cb 75 3d df f5 82 3d
       0.0094404165 -0.19286096 0.060008578 0.063945524
000190 9d 18 33 bd 7e 08 f9 bd 66 cb 2b bd 0a 60 bb bd
       -0.043724645 -0.12159823 -0.041942023 -0.09149177
0001a0 fc 85 27 bd 87 1f db 3c 80 9e 11 be 64 96 ac bb
       -0.04089926 0.026748432 -0.14220619 -0.0052669514
0001b0 3c 9c dd bd 8d c5 e1 bc 2b f2 bc 3d 10 b9 28 3e
       -0.10820815 -0.02756002 0.092258774 0.16476846
0001c0 07 5a 72 3d 28 7c 89 3c c5 75 a8 bd 76 8b 27 be
       0.059167888 0.016782835 -0.08225588 -0.16361794
0001d0 38 a6 8e 3c 44 5d da bd 93 b0 ea be 00 2d 1f bd
       0.017413244 -0.1066232 -0.4583784 -0.038861275
0001e0 af 9b 39 3d 06 aa b5 3d 21 bf 73 be a2 cc 4f bd
       0.045314487 0.0887032 -0.23803379 -0.050732262
0001f0 44 27 d8 3d a8 aa f4 3d 0e 24 33 bd 67 7f 33 3e
       0.10554364 0.119466126 -0.043735556 0.17529069
000200 cc 91 1d be b6 0e e9 bc aa 9b ff 3c bc f5 30 bd
       -0.15387648 -0.028449398 0.031202156 -0.0432031
000210 97 7e cb 3d 4b 19 28 be 83 b2 48 bd 5c 2c 39 be
       0.099362545 -0.16415899 -0.048998367 -0.18083328
000220 63 86 a6 3d e0 65 58 3d 83 9c cc bd 38 8d 54 be
       0.08131101 0.05283153 -0.0999079 -0.20756996
000230 36 59 b9 bd df f7 0a be 9f 93 1f be dc bf 82 be
       -0.09050219 -0.13571118 -0.15583657 -0.25537002
000240 dd d0 77 bd f7 03 64 bd 9b 7d 48 bd 7e 61 5c bd
       -0.060501922 -0.055667844 -0.04894791 -0.053803913
000250 09 06 1e be a1 7d 41 bd 7c 9b 7a bc dc 8d 22 3e
       -0.1543199 -0.04723895 -0.015295859 0.15874428
000260 d0 4a 05 bd a2 f6 01 bd aa 5a e5 3d 77 36 54 3d
       -0.03254205 -0.031729348 0.111989334 0.051809754
000270 47 88 0a bd 49 05 a4 3d a6 db e6 bd 96 5f 50 bd
       -0.03382137 0.080088206 -0.11272363 -0.050872408
000280 6b 03 aa bd c1 35 5a bd b1 8f 43 be 83 21 b7 bc
       -0.08301433 -0.05327392 -0.19097783 -0.022354847
000290 ed 30 31 3d 9a 84 85 3c 91 8f 87 3c 48 44 89 3c
       0.04325955 0.01629858 0.01654795 0.016756192
0002a0 0c 63 a6 3d 72 93 c5 bd 61 0c b8 be 31 ce a2 bd
       0.081243604 -0.096472636 -0.35946944 -0.07949484
0002b0 46 4a 0b bd 63 c3 52 bd 58 b8 f5 bd d6 38 ba 3a
       -0.03400638 -0.051455867 -0.119980514 0.0014207612
0002c0 08 3e 06 be 65 ad d6 bd 81 e6 1b 3d a6 13 92 bc
       -0.131096 -0.10482291 0.038061623 -0.017831635
0002d0 53 2f 94 bb ac 97 9b bd b0 de 8d be 89 59 97 3d
       -0.004522243 -0.075972885 -0.2770896 0.07390124
0002e0 51 f5 8e bd 27 9d d5 3d d2 ae f9 bd 5e 4c b4 3c
       -0.06980384 0.10430365 -0.121915475 0.022009071
0002f0 d0 32 15 be 8f c2 1a bd 4c 2d bc bc 4f 9e 01 3c
       -0.14570165 -0.0377832 -0.022970818 0.007911279
000300 c2 af db bd 9d f1 07 3e 1e b8 a6 bd 9e ad 1b 3e
       -0.107268825 0.13275762 -0.08140586 0.15202948
000310 2a d0 39 3d e7 99 2f 3b bb dc 79 be 31 30 54 be
       0.045364536 0.0026794614 -0.24400608 -0.20721509
000320 e6 e6 d7 3d 52 fd e2 bd 98 8d d6 bb 23 0c c5 bd
       0.10542087 -0.11083473 -0.006547641 -0.096214555
000330 0d 73 ee bc f8 33 fb bd ae 1c 69 3a 1d c6 b1 3d
       -0.029107595 -0.122657716 0.0008892518 0.08680365
000340 1b 79 82 be b4 45 c2 bd 91 e3 a5 be f8 50 ff bd
       -0.2548302 -0.09485951 -0.32400182 -0.124666154
000350 b0 e7 2a be 35 b1 8b bd e6 84 83 3d 65 3d 34 3c
       -0.16689944 -0.06820909 0.06421833 0.011000966
000360 99 d9 87 3b 2b c7 d8 bc c4 22 d2 3d e8 ba 1a bd
       0.0041458127 -0.026462158 0.10260537 -0.037775904
000370 68 5a e2 3d c9 7e b3 3d 43 ee a9 bd aa 2c ad bd
       0.110524 0.08764417 -0.08297398 -0.084557846
000380 f1 cd 4c 3e f5 4e 92 be 6b 97 99 bc eb 83 f2 bb
       0.20000435 -0.28575864 -0.01874896 -0.0074009798
000390 1a 87 92 bd ce 95 7f be c9 a7 65 bd 84 35 99 bd
       -0.07154675 -0.2495949 -0.056068216 -0.074809104
0003a0 64 2c ad bd a4 d3 3d bd 08 85 38 3d 3d 3e af 3d
       -0.084557325 -0.046344414 0.045048743 0.08556793
0003b0 af 91 f0 bc e8 c6 c5 bd 14 c9 55 3c 01 7a 92 bc
       -0.029366342 -0.09657079 0.013048429 -0.017880442
0003c0 6e ca c2 bc 18 c1 02 be e9 d2 51 3d f9 4d 1f be
       -0.023778167 -0.12768972 0.05122653 -0.15557088
0003d0 bb ae ba bd b8 61 59 be fe 2b 64 be e9 a9 bd 3d
       -0.091153584 -0.21228683 -0.22282407 0.092609234
0003e0 5c 92 b1 bd b9 39 4e 3d 1d 42 0e bc 6e 00 49 3e
       -0.08670494 0.050348017 -0.008682755 0.1962907
0003f0 70 36 50 3d ec 08 a9 bc 44 da 56 be 98 86 82 bb
       0.050833166 -0.020634137 -0.20981699 -0.00398333

bias f4 [128]
000000 9b 4a 2d 3f 47 fe 36 3f fc a9 07 3e 4a 4d 7a 3f
       0.67691964 0.71481746 0.13248438 0.97774184
000010 b8 bb 1f 3f 8b 3a 2e 3e 13 6d 28 3f 02 e1 29 3f
       0.6239581 0.1701452 0.65791434 0.6635896
000020 f5 70 2d 3f 08 0e cd 3e 56 14 ee 3e 1c 46 f6 3e
       0.67750484 0.40049767 0.4649989 0.48100364
000030 78 b3 e7 3d 48 11 ae 3e c6 6a bb 3e 36 19 9c 3d
       0.11313528 0.3399756 0.366049 0.07621996
000040 30 bc 68 3f e6 7b 2f 3f 01 55 a2 3e b0 4c 25 bd
       0.9091215 0.6854843 0.31705478 -0.040356338
000050 52 4b 49 3f 25 0e ed 3e 15 4c 62 3d 86 4f 43 3e
       0.78630555 0.46299854 0.05524834 0.19073305
000060 b4 fa 54 3f ea e2 22 3f 3c 70 5e 3e 01 8d e7 3d
       0.8319504 0.63627493 0.21722502 0.11306191
000070 75 93 c2 3e 7f 33 ce 3e 58 72 2a 3f 06 b9 65 3f
       0.38003126 0.40273663 0.66580725 0.8973545
000080 3a 4f 69 3f 90 2e a5 3e 5d f3 9d 3d 60 86 7f 3f
       0.91136515 0.32262087 0.077124335 0.99814415
000090 40 04 e2 3e 3d 8a c4 bd 78 ef e7 bb a5 11 47 3f
       0.44143867 -0.09596679 -0.0070781074 0.777613
0000a0 cc 2f fb 3e f2 cb 12 3f c6 bf 42 3f 5c a2 bd 3d
       0.49059904 0.57342446 0.76073873 0.09259483
0000b0 fb af d3 3c fb 8f 37 3e 43 89 58 3f 4f 31 61 3e
       0.02584075 0.17926018 0.84584445 0.21991466
0000c0 09 9a 1e 3f 48 65 ad 3e 0c fb 25 3f 9e 49 1c 3f
       0.6195379 0.33866334 0.6483619 0.6104983
0000d0 6e c0 57 3f 0d 1d fe 3e 18 50 75 3f 9c d6 54 3f
       0.84278 0.4963154 0.9582534 0.8313997
0000e0 93 0e f2 3e 81 66 25 3e 63 11 c1 3e df b6 34 3e
       0.47276744 0.16152383 0.37708578 0.17647885
0000f0 f4 14 67 3e 98 15 01 3f cf dc d3 bd 22 fa 01 3f
       0.22566587 0.50423574 -0.1034485 0.507723
000100 e0 58 3c 3d 1a 53 76 3f 9b 1f 8c 3d b0 05 ab 3e
       0.045983195 0.9622055 0.06841966 0.33402777
000110 da f5 8a 3e 70 49 32 3f 93 c6 c8 bd 51 0a 0e 3f
       0.27140695 0.69643307 -0.098035 0.5548449
000120 40 a9 75 3e cb 82 9b 3d bf 9b 32 bd a3 17 e8 3e
       0.23990345 0.07593306 -0.043605562 0.45330533
000130 94 6a f8 3e 19 b2 15 3e 6c c4 40 3f d2 70 d8 3e
       0.48518813 0.1461872 0.75299716 0.42273575
000140 96 2e 95 3e 32 1f 1b 3f 74 a9 81 3f 86 20 dd bd
       0.29137105 0.60594475 1.0129838 -0.10797219
000150 57 fb 2f 3e 94 60 08 3f c0 d5 44 3f 60 8f aa 3e
       0.17185722 0.53272367 0.76888657 0.3331251
000160 db c8 ca 3d de 7c 2c bd 0e 4d 8d 3e 4c b8 84 3e
       0.099015914 -0.04211127 0.2759785 0.25921857
000170 87 a9 3f 3f 48 bd 2b 3f 25 cd cb 3e d9 9c b5 3d
       0.74868053 0.67085695 0.3980495 0.08867807
000180 20 6d 9b 3e 8a 1a 42 3f b6 c5 50 3f 64 77 5c 3f
       0.30356693 0.75821745 0.8155168 0.86119676
000190 93 43 81 3f b0 55 23 3f 8d df 6b 3f 84 56 23 3d
       1.0098747 0.63802624 0.92137986 0.03987743
0001a0 87 e3 91 bd 9f 3b e2 3e 19 21 06 3e ba d0 5c 3f
       -0.071234755 0.44186112 0.13098563 0.8625599
0001b0 ed 8d 13 3d 11 95 46 3e 09 5c f0 3e 77 d2 20 3f
       0.036024023 0.19392802 0.46945217 0.62821144
0001c0 6a 6b 71 3f fe 4d b8 3e e2 87 28 3f 0b 0d 09 3f
       0.94304526 0.35997003 0.6583234 0.53535527
0001d0 e2 32 20 3f 35 d4 29 3f a9 2e 21 3f 13 68 3d 3f
       0.6257764 0.6633943 0.6296182 0.7398693
0001e0 16 3e 05 3f cb 07 0f 3e de c1 29 3e b9 89 73 3f
       0.5204786 0.13967817 0.1657786 0.95132023
0001f0 7e d9 18 3f 3c 5f d1 3e d5 35 cb 3e d7 35 6d 3f
       0.59706867 0.4089297 0.39689508 0.9266028

weight f4 [128, 128]
000000 fc 44 2e 3d 82 96 cb bd 6b e2 11 bd af 93 7d be
       0.042546257 -0.099408165 -0.03561632 -0.24763368
000010 47 1c 70 be e1 49 37 be 43 d5 1a 3e ac d6 05 be
       -0.23448287 -0.17899276 0.15120415 -0.13070172
000020 e2 97 23 be 30 ea 4a bd 45 4d d7 bc 14 4f 8a be
       -0.15975907 -0.049539745 -0.026281962 -0.27013457
000030 07 c9 8d 3d e8 15 17 bd 3a 78 a4 3d 0d 4a 14 3d
       0.069231085 -0.036886126 0.08030744 0.036203433
000040 a7 23 6c be d9 e1 71 3d de ee 0b bd 32 82 5e 3c
       -0.23060475 0.059053276 -0.03416335 0.013580846
000050 89 d0 ce bd 0b 3d db 3d e3 7e bd 3d 7d 56 12 be
       -0.10098369 0.107050024 0.09252717 -0.14290805
000060 f1 0a bf be d6 16 95 be 53 f2 85 be 78 aa 87 3c
       -0.37313035 -0.29118985 -0.2616144 0.016560778
000070 4d f4 33 3d c3 a1 cf bd 45 7a 0c bd 25 7f cb bd
       0.043934155 -0.101382755 -0.034296293 -0.0993636
000080 27 69 ef be 6b 68 bb 3e 49 3a 52 bd 84 ac b1 be
       -0.46759912 0.36603102 -0.051325116 -0.3470193
000090 dd 00 f3 ba 0c bb af 3c 3d fe 2f bd c8 44 43 3e
       -0.0018539686 0.021451496 -0.04296707 0.19069207
0000a0 28 fe 80 be 3e d2 7f bc 43 91 9e be b6 1c b0 3c
       -0.25193906 -0.0156140905 -0.309702 0.021498065
0000b0 d5 8f 61 be 6c f5 ab 3c 94 12 bc 3d fa c1 0d be
       -0.22027524 0.02099105 0.09183231 -0.13843527
0000c0 73 36 06 be bf a7 ce bc 69 ed db be 38 11 f8 bb
       -0.13106708 -0.025226472 -0.42954567 -0.007570412
0000d0 f1 3a 20 be 31 af 41 be 60 ec 9c be 6a 2b 1f bd
       -0.15647484 -0.18914486 -0.3064909 -0.038859762
0000e0 d6 fd a0 bd 90 45 53 3c cc c2 c1 bc 45 a5 da bd
       -0.07860915 0.012895003 -0.023652457 -0.10676054
0000f0 c1 7e 5d bb 22 fb 26 3e d1 1a 9c 3d ee d0 bd bd
       -0.0033797475 0.16306737 0.07622302 -0.09268366
000100 56 67 78 bd 75 76 8b be 30 85 e6 3d 5e a5 6c be
       -0.060645424 -0.27238813 0.11255872 -0.23109958
000110 59 c8 a1 3c 42 4a fb bc 3f a3 34 be 24 ed 59 be
       0.019748854 -0.030675057 -0.17640398 -0.21281868
000120 66 e2 0a 3c 9a 56 64 be 8b ea 01 be 92 39 33 be
       0.008476829 -0.22298661 -0.12687127 -0.1750243
000130 13 d0 29 bd d5 58 14 be 38 f1 91 be 4f df cc 3c
       -0.0414582 -0.14487012 -0.28504348 0.025008826
000140 8f d3 f1 3c ee cf 11 3a ee 55 8c 3b a6 6b 26 3e
       0.029519824 0.0005562295 0.0042827046 0.16252002
000150 ce 2c da 3a b2 c8 23 be 39 da df bd 02 35 09 be
       0.0016645433 -0.15994528 -0.109302945 -0.13399127
000160 36 08 47 3e 68 93 94 bd 2a f2 1f be df a8 fc bc
       0.19436726 -0.07254678 -0.15619722 -0.030842243
000170 18 5e 37 3d fa 01 46 bd c2 6a 1c bd 20 2f 28 be
       0.04476747 -0.04834173 -0.03818775 -0.16424227
000180 66 2c e0 3d 7b da d8 3c 07 c9 5e 3d 99 58 db bd
       0.10945968 0.026471367 0.054390933 -0.10710258
000190 d6 e6 23 bd ed c8 87 be a7 a6 4f 3b b7 a7 14 be
       -0.040015064 -0.26520482 0.0031685026 -0.14517103
0001a0 e1 f3 be bc 5c 64 48 3e 66 9f 54 3c f9 15 55 bd
       -0.02330965 0.19569534 0.012977457 -0.052022908
0001b0 e2 fb b0 be 8f da a3 bd cd 75 e5 3d 06 de c6 bd
       -0.3456717 -0.08000671 0.11204109 -0.09710316
0001c0 2d 13 6b 3e 25 b4 b7 bd 31 51 24 bd ff d6 65 be
       0.22956534 -0.08969907 -0.040116493 -0.22445296
0001d0 df 0d 95 bd 41 a4 5d 3d 48 94 fa bd b0 01 1f bf
       -0.07278036 0.054111723 -0.12235314 -0.6211195
0001e0 bb 72 de 3c f9 9b 52 3d 80 16 9d bd 38 c6 07 be
       0.027154317 0.05141828 -0.07670307 -0.13259208
0001f0 68 2b 2b bc 6c 53 00 3d c5 45 63 3c d6 de c8 be
       -0.010447361 0.031329557 0.013871615 -0.3923251
000200 00 ff de 3e 4a 51 a5 bc f3 35 00 3d 4e 57 33 be
       0.43553925 -0.020180363 0.03130145 -0.17513773
000210 84 d7 dd 3b 07 3a f5 3d 50 45 5b 3e 53 63 df bd
       0.006770076 0.119739585 0.2141316 -0.109076165
000220 1c 4b 5f bc 9c ba a1 3d cd 27 af 3d fa f3 98 3a
       -0.013628747 0.07896921 0.08552513 0.001166939
000230 d6 ab 9d 3b 49 76 c3 3d 4d f7 15 bd 58 aa bb 3d
       0.004811744 0.095440455 -0.036612798 0.0916335
000240 24 3e 35 be e5 14 3f 3b 97 49 1c be 6d b5 66 bd
       -0.17699486 0.0029156741 -0.15262447 -0.056325365
000250 bd 9f 2d 3e bf 0e 3e 3d a7 74 6a bd 44 e1 01 be
       0.16955467 0.04640078 -0.057240155 -0.12683588
000260 dc 6b a2 be 4c 8c ba bd e7 f3 38 be ef ea 30 bd
       -0.31722915 -0.09108791 -0.18061791 -0.0431928
000270 e0 75 14 3e ad 3d b9 3d c1 3d f7 3c d7 26 11 3f
       0.1449809 0.09044967 0.030180814 0.5669989
000280 ab db 0a 3e d1 3b 1a 3e 7e 89 9e bd 8d 78 78 be
       0.13560359 0.1506188 -0.07741068 -0.24264736
000290 81 a0 55 3d 8d 31 32 be 21 b9 58 3d cc ed a5 3d
       0.05215502 -0.17401715 0.052910928 0.08101997
0002a0 2b 2c 36 be 85 17 41 3e 08 cf ce ba 3c 0b 29 3d
       -0.17790286 0.18856628 -0.0015778253 0.04127048
0002b0 5f 67 a5 be 53 ee a4 3b cb 9f f6 3d e4 62 8d be
       -0.32305428 0.0050332933 0.12042197 -0.2761451
0002c0 b8 3b 93 bd e3 fa 79 3d ba 84 cd be 11 e5 27 bd
       -0.07189125 0.06103028 -0.40140325 -0.04098994
0002d0 02 42 41 3c 6a 0b 00 3e 6f c6 29 be c2 e0 cb 3d
       0.011795523 0.12504354 -0.16579603 0.099549785
0002e0 e6 b9 c4 bc 79 15 16 3a 92 15 ee bd c1 f6 4f be
       -0.024014425 0.00057252456 -0.11625208 -0.20308973
0002f0 fd 87 39 be fa 66 f2 bd c3 86 42 bd 4b 56 81 bb
       -0.18118282 -0.118360475 -0.0474918 -0.0039470545
000300 72 1e a2 be f6 b8 ae bd 66 e8 72 be 49 0c a7 bc
       -0.31663853 -0.08531372 -0.23721465 -0.0203916
000310 8d fb 31 3e 70 6b 8e bc 43 40 f6 be d0 62 89 bd
       0.17381115 -0.017385215 -0.48095903 -0.067083
000320 1e 44 e4 3c 1d d8 6a be e3 7c 79 3d 86 9b 20 be
       0.027864512 -0.22934003 0.060910117 -0.15684327
000330 3a 0b 9b 3d 54 4b a2 38 44 d2 b3 3d ca a1 ac be
       0.07570501 7.738793e-05 0.08780339 -0.33717185
000340 22 83 60 3d 1c 9e 15 3e a0 96 da ba 8e d5 52 be
       0.054812558 0.14611095 -0.001667697 -0.20589277
000350 f5 87 82 bd a2 94 8f bd 7d db d6 3c 3b be ce 3d
       -0.06373588 -0.07010771 0.026227707 0.10094877
000360 d5 86 9c bd ad de 88 3c 13 21 7d 3c 59 e8 02 be
       -0.07642905 0.016707743 0.01544978 -0.12783946
000370 cc 72 f1 3d 96 bb 0e bd 4a ce a5 bd c1 df bf bd
       0.11789474 -0.034846865 -0.08095987 -0.093688495
000380 05 12 36 be 16 26 eb 3d 97 2a 8f be bd a7 c6 3c
       -0.17780311 0.11481874 -0.2796218 0.024249906
000390 88 f7 3f bb 07 93 33 3e 53 50 63 be 72 bc a0 3d
       -0.0029291827 0.17536555 -0.2219861 0.07848443
0003a0 b9 c1 de 3d f3 04 08 bd f4 0d 2a 3d 1a 98 53 3d
       0.108767934 -0.033207845 0.041517213 0.051658727
0003b0 da 90 21 bf ce 30 b6 bc 7e c7 6b 3d 63 8d 8e bd
       -0.6311165 -0.022240069 0.057563297 -0.06960561
0003c0 6c 84 0d 3e e5 13 ad be 63 60 7e bb 35 90 aa be
       0.13820046 -0.3380424 -0.0038814775 -0.33313146
0003d0 90 d6 13 bc 35 56 5a bc 8f 5e 21 3e be bd 19 be
       -0.009023324 -0.013326217 0.15758727 -0.15013787
0003e0 8d 32 91 3d e1 45 85 bb fd 86 b6 3d d6 a4 ca 3d
       0.0708972 -0.004067168 0.08912466 0.09894721
0003f0 af 19 93 be fe 07 3a be 0e 39 21 3e 90 d9 05 3e
       -0.28730533 -0.18167111 0.15744421 0.13071275

bias f4 [128]
000000 fc d8 8a 3e 32 0e 80 3e d3 90 0c 3f ef 31 63 3f
       0.2711867 0.2501083 0.54908484 0.8874807
000010 2f aa 09 3e 6d 6e 93 3e 00 2c fb 3d 20 0e 2d 3f
       0.13443826 0.28795186 0.12264252 0.6759968
000020 c9 64 e1 3d 9a 24 1e 3f a0 81 1e 3f 72 53 20 3f
       0.11005551 0.617746 0.6191654 0.6262733
000030 a9 7b 0c 3f 7a 24 c6 3e f5 1b 71 3f c5 4e 1e 3e
       0.5487619 0.38699704 0.94183284 0.15459736
000040 47 40 3d 3f 6c 50 01 3f 98 84 62 3c 7b b8 1e 3f
       0.73926204 0.5051334 0.013825558 0.62000245
000050 ee e2 ec 3e fc 8b ac 3e be dd b6 3e 47 d9 69 3f
       0.46266884 0.3370055 0.3571605 0.91347164
000060 58 3f bd 3e 93 16 e8 3e 05 df 9f 3e 97 cb d3 3e
       0.3696239 0.45329723 0.31224838 0.41366264
000070 23 fa b0 3d da 58 4b 3f dc ab 7c 3f 50 17 a0 3e
       0.0864146 0.7943245 0.98699737 0.31267786
000080 29 fb 05 3f 30 5c 4e 3f fb e9 88 3e 8b b8 1c 3f
       0.52336365 0.80609417 0.26741013 0.6121909
000090 8c bc 22 3e e6 ee 0d 3f d9 a8 35 3f 8a f9 06 3f
       0.15892237 0.55442655 0.70960766 0.52724516
0000a0 13 bc 56 3f 47 17 d6 3e c6 91 97 3e de f6 f3 bd
       0.8388073 0.41814634 0.29603404 -0.119123206
0000b0 47 30 82 3e 9f f2 f0 3e b2 fc 1d 3f 08 38 9d 3d
       0.25427458 0.47060105 0.6171371 0.07676703
0000c0 0b ab 40 3e 0a 13 94 3e 6c 87 1e 3f 20 2b 0f 3f
       0.18815248 0.28920776 0.6192539 0.5592518
0000d0 25 c0 66 3f 06 8d 30 3e 8a 3c 41 3e 86 e8 53 3f
       0.9013694 0.17241296 0.1887075 0.8277668
0000e0 49 41 01 be b6 7b 24 be 3b 97 f5 3e bb 67 52 3e
       -0.1262256 -0.16062817 0.47966942 0.20547383
0000f0 04 94 9d 3d 9b 3a f4 3e fa f3 b9 3e 6b cc 1c 3e
       0.07694247 0.47700962 0.36318952 0.15312354
000100 cf 89 5c 3f e3 59 73 3f cd be bf 3e fe ad 90 3e
       0.8614778 0.9505903 0.37450257 0.28257746
000110 99 58 81 3f 05 ae a8 bd b8 9e 10 3f d4 b5 5d 3f
       1.0105163 -0.082363166 0.56492186 0.8660557
000120 14 04 33 3f bf 06 68 3f 18 df c1 3c 3a ab 3a 3f
       0.699281 0.90635294 0.02366595 0.7291752
000130 13 65 78 3e 03 7e 08 3f c9 99 a9 3e cb b9 01 3f
       0.24257307 0.5331728 0.3312514 0.5067412
000140 cf d7 b4 3e 77 06 08 3e 2d e2 e9 bd 26 cf f8 3e
       0.353209 0.13283716 -0.11420093 0.48595542
000150 4c f0 cf 3d 2f ac 6f 3f f2 40 76 3f 2b bc d3 3e
       0.10153255 0.93622106 0.9619285 0.41354498
000160 76 ba 29 3f ec b1 07 3f dd 74 57 3f f7 11 22 3f
       0.6630014 0.5300586 0.84162694 0.6330866
000170 6d fb 81 3e e4 75 3d 3f c7 c2 f2 3e 4c d6 70 3f
       0.25387135 0.7400801 0.47414228 0.9407699
000180 a3 3d bd 3e 8c eb 9f 3e e7 a4 47 3f a6 e2 6b 3f
       0.36961088 0.31234396 0.77985996 0.92142713
000190 31 bf 05 3e 78 4f 55 bd 48 38 05 3f a9 bc 14 3f
       0.13061215 -0.05207774 0.52039003 0.5810037
0001a0 12 48 44 3e 26 c5 69 3f a6 e3 cc 3e 81 a3 be 3e
       0.19168118 0.9131645 0.40017432 0.3723412
0001b0 69 4e e2 3e 26 bf a8 3e 4a ba d9 3e e3 35 f5 3e
       0.44200447 0.32958335 0.4252494 0.47892675
0001c0 69 95 6f 3e ae a9 58 3f 3c 3d d4 3c 45 69 f1 3e
       0.23396839 0.8463391 0.025908105 0.47150627
0001d0 f0 8b 27 3f 4b fc 9d 3d 1b 42 92 3e c1 b9 61 3f
       0.654479 0.07714137 0.2856606 0.8817406
0001e0 5b 17 23 3f 5b 5c 98 3e 46 e4 47 3f f3 77 34 3f
       0.6370751 0.29757962 0.7808269 0.7049553
0001f0 70 f3 73 3f 99 bc 87 3f 2f ac f7 3e 03 2c 2f 3f
       0.9529333 1.060443 0.48373553 0.6842653

weight f4 [5, 128]
000000 29 6e 0a bd 9b 88 71 be d9 7a ac 3c a9 54 91 3d
       -0.033796463 -0.23587267 0.021054672 0.07096226
000010 fe 5c 96 3d 8b 37 9c 3e 1a 9d b8 bc b2 93 69 be
       0.073419556 0.30511126 -0.02253585 -0.22810248
000020 04 f4 2c 3c 34 b7 93 3d 7d 59 61 3d 54 25 3d bb
       0.010556225 0.072126776 0.055016983 -0.002886136
000030 9e a4 8c be a9 ca 69 3d c4 af 73 3e c6 92 1f 3d
       -0.27469343 0.057078037 0.23797518 0.038958333
000040 66 99 88 3e c2 b3 b5 3d d9 b1 5a be 4a dd 49 be
       0.26679534 0.08872177 -0.21356906 -0.19713321
000050 f3 ef 56 bd a4 24 5b bd e3 56 9d be 54 f4 c5 3d
       -0.052474927 -0.05350174 -0.30730352 0.096657425
000060 68 4b 11 3f 74 33 7c 3d a2 5a cd bd f1 ba 81 be
       0.56755686 0.061572507 -0.100270525 -0.25337937
000070 37 9e 31 be 99 7c 70 be 25 9c f3 3d 47 c3 5c be
       -0.1734551 -0.2348503 0.118950166 -0.21558867
000080 47 1c 84 be 17 3e fa 3d bc 96 27 be ee 71 a5 3d
       -0.25802824 0.12218874 -0.16366094 0.08078371
000090 c3 0c 9b 3e 9d 6b 2e be b2 f8 1d bd 4f cf 88 be
       0.30283174 -0.17033239 -0.038567252 -0.26720664
0000a0 56 5f 6f 3d e2 5e e0 bc 10 1f 95 bc f3 c0 eb 3d
       0.05844053 -0.027388994 -0.018203288 0.115114115
0000b0 66 2e 9c 3d 0f 0f 73 3e 20 f9 ad 3d 91 10 b9 be
       0.07626037 0.23736213 0.084947824 -0.36145452
0000c0 a6 ad af be 8f 18 9b be 05 66 31 3d fb 14 9f 3d
       -0.3431217 -0.30292174 0.043310184 0.077676736
0000d0 be 93 05 be b5 80 cc 3c 60 d7 88 be 49 75 90 bd
       -0.1304464 0.024963716 -0.26726818 -0.0705362
0000e0 fe fa 80 bd 5c 68 10 be 2b a9 4c 3d 16 7f 57 be
       -0.06297873 -0.1410231 0.04996602 -0.21044573
0000f0 85 1d df 3e ea 0c 2a be fa 90 a7 bc a0 93 c3 be
       0.4357721 -0.16606489 -0.020454872 -0.38198566
000100 9b 76 fa 3c dd eb 53 3e 6d 74 f0 bd 8f 55 93 bc
       0.030574134 0.20695443 -0.117409565 -0.017985133
000110 5d 9a 68 3e fc 04 7c 3c 5a f3 2e 3e 32 8d 1f 3e
       0.22715135 0.015382048 0.17085019 0.15581205
000120 b4 6f 79 3c e6 f4 9e 3d 50 7b 1e be 2d 3d d7 be
       0.015224386 0.077615544 -0.15476727 -0.4203886
000130 6f 39 fc 3c f2 8f 02 be 01 9f ad 3d cd d5 1f 3e
       0.030789105 -0.12750223 0.08477593 0.15608902
000140 6a 3f af 3d 0c 6c 14 3e ee 2b 5b bd 54 e6 32 bd
       0.08557017 0.14494342 -0.05350869 -0.04367669
000150 6a 00 99 bd e7 b3 1e 3e 30 48 2e 3e 5d 23 23 be
       -0.07470782 0.15498315 0.17019725 -0.15931459
000160 91 72 2f bd 31 ab f0 3d 52 53 54 be 11 c8 13 be
       -0.04283387 0.11751402 -0.20734909 -0.14431788
000170 95 d5 94 3e 66 f6 15 3e 47 83 87 bc d3 5c 52 3d
       0.290692 0.14644775 -0.01654209 0.051358055
000180 47 5d c5 bd 7a 90 6b 3d 9e 99 48 3d 1b 78 02 3e
       -0.09636932 0.05751083 0.048974626 0.12741129
000190 d1 fe 2b 3d a0 34 b1 3c a5 12 a8 3d be e7 27 3e
       0.04199106 0.021631539 0.08206681 0.16396996
0001a0 f7 4b 40 be 80 01 e3 3e e0 80 ab 3d 81 53 e9 be
       -0.18778978 0.44337082 0.0837419 -0.4557152
0001b0 58 cd 49 3b 6c 45 9a bd f8 26 ec 3d bc 12 09 bd
       0.003079256 -0.075327724 0.1153087 -0.033465132
0001c0 f5 a7 b5 be 6f e0 ba 3e f2 36 35 be b4 2c 53 3e
       -0.35479704 0.36499354 -0.17696741 0.20622522
0001d0 78 3b 2b 3d ff d7 82 bd ef 65 3d be d5 f6 10 be
       0.04180476 -0.06388854 -0.18495916 -0.14156659
0001e0 20 3a 6a be a4 ce 9d 3d 2e 3b ed be cb 2a 5c bd
       -0.22873735 0.07705429 -0.46334213 -0.053751748
0001f0 5f d0 1e 3e c9 9c 66 3e fb d0 9b 3b 43 b6 68 be
       0.15509175 0.22520746 0.004755137 -0.22725777
000200 16 f4 d4 3e e4 95 3e be b9 55 da 3b 5d e8 1c bd
       0.41592473 -0.18611866 0.006663051 -0.038307536
000210 0f a1 ef 3c c1 fe 00 be 94 03 f1 3d 1a f8 8f bd
       0.029251603 -0.12597181 0.117682606 -0.070297435
000220 92 a1 19 bd e2 17 b3 bd 7b 0f e0 bc 83 61 9d bc
       -0.0375076 -0.0874479 -0.027351132 -0.019211536
000230 1e 11 14 be a0 00 66 be 5c 84 93 3e d7 db 22 bd
       -0.14459655 -0.22461176 0.2881192 -0.039760437
000240 d7 31 97 3e 25 8c 28 3d 6a 9b 76 be 15 68 81 be
       0.29530212 0.041149277 -0.24082723 -0.2527472
000250 ef 5a 0c 3e a8 1d 27 3e 8a 69 c4 be c5 98 d1 3d
       0.13706563 0.16319907 -0.3836177 0.102342166
000260 13 c2 12 3e 6f c0 62 3e 50 6b 15 be 88 f2 26 bd
       0.14331846 0.2214372 -0.14591718 -0.04075864
000270 d3 05 9d 3e cd 8a 2d 3e 02 10 67 3e a6 b0 0d be
       0.30668506 0.1694748 0.225647 -0.13836917
000280 f6 58 dc 3d 5c 2b 7d 3d 38 67 6f 3d 08 09 01 3e
       0.107591555 0.06180893 0.058448046 0.12601101
000290 65 9c 6d 3e b4 36 ee bd 8d 00 8b bd 1c 02 17 be
       0.23204191 -0.116315275 -0.067872144 -0.14746898
0002a0 f6 2c 04 3e 64 d0 db 3e 84 30 68 3e 3a 0b 17 3e
       0.12907776 0.42932427 0.22674757 0.14750376
0002b0 47 b7 bb 3d 5e eb ab 3d 50 c5 76 3d 4c 4a fa be
       0.09165817 0.08394502 0.060246766 -0.4888481
0002c0 2c d1 56 3e 47 3c 80 bd 7c 85 54 bd 16 16 11 3e
       0.2097823 -0.06261497 -0.051885113 0.14168581
0002d0 90 23 92 be 7f 88 de be a2 e9 a0 be 89 c0 32 be
       -0.28542757 -0.43463513 -0.31428248 -0.17456259
0002e0 aa ae ba 3d 77 7a b9 be 88 d0 31 3d 82 2c e4 bd
       0.09115346 -0.36226246 0.04341176 -0.11141302
0002f0 59 8d 2d 3e 11 ed 85 be 6c 40 4f 3e 10 cf 61 3e
       0.16948451 -0.2615743 0.20239419 0.22051644
000300 19 d0 2b 3c 70 2f 70 3e 1f aa a3 bc c0 1e 0a be
       0.010486626 0.23455596 -0.019978581 -0.13488293
000310 0f 9e 65 3e ca 36 cf bd 7d 9a 98 3d 30 93 16 3e
       0.22423576 -0.10117872 0.07451341 0.14704585
000320 bf 82 07 bd 3b c7 af 3d d0 61 30 3d 0d de 7b be
       -0.033083674 0.08582922 0.04306203 -0.24596424
000330 18 e8 20 ba e2 ea 9e bd 0f 86 9c 3d b5 97 39 bd
       -0.00061381 -0.07759644 0.07642757 -0.045310695
000340 33 77 fa 3a 22 57 46 3e 4e c1 71 3d 95 e6 4e 3e
       0.001910901 0.19369176 0.05902224 0.20205148
000350 e0 4f 91 bd fc 7f 10 3e 5b 8d 00 3e 02 c1 92 be
       -0.07095313 0.14111322 0.12553923 -0.28662878
000360 52 17 61 be 68 18 da 3d 4b 17 80 3e 6b a2 dd 3d
       -0.21981552 0.106491864 0.2501777 0.108219944
000370 b0 1e 63 3e 1b e5 1f 3e 96 ea d0 3d 3c c2 7d 3d
       0.22179675 0.1561474 0.10200994 0.061952814
000380 9f 79 b2 be db 19 c5 3c 78 9d 03 3e bf 74 11 be
       -0.34858415 0.02406018 0.12853038 -0.14204691
000390 c5 45 81 bc 1f 6d 97 3d 91 a0 45 3d 51 f1 d6 3d
       -0.015780339 0.0739386 0.04824883 0.10495246
0003a0 1d 16 d7 be e7 ec 23 be 28 2b d1 3d 1d 6e d5 bd
       -0.4200906 -0.1600834 0.102133095 -0.10421393
0003b0 7c 30 92 be 69 9f 79 bc 03 34 56 3d 55 6e 31 bd
       -0.28552616 -0.01523576 0.052295696 -0.04331811
0003c0 1e cf b3 bd f1 12 29 be 17 17 8d be 39 6f 62 3e
       -0.08779739 -0.16511132 -0.2755668 0.2211274
0003d0 94 be 09 3e 25 79 1f be 08 76 8f be 8e 06 4c be
       0.13451606 -0.15573557 -0.28019738 -0.19924375
0003e0 ae 2b 79 3e de 78 7e 3d 83 8e c8 be 5a 42 0a be
       0.24333069 0.062126987 -0.39171228 -0.13501874
0003f0 03 3e c8 3d 9a 21 ed 3d 49 ea 10 be 2d ff e6 3d
       0.09777453 0.115786746 -0.14151873 0.1127914

bias f4 [5]
000000 2d 55 86 3f 3a 97 1c 3f 32 22 f0 3e 2b 2a 38 3e
       1.0494744 0.61168253 0.4690109 0.17984836
000010 1b 45 ad 3e
       0.33841786
