DQN一阶无领航机器人编队控制/models/dqn_1.pt (torch, 206575 bytes, 10 tensors)

weight f4 [128, 2]
-0.04357221 0.07414892 -0.06563252 0.56659764 0.080133826 -0.20236531 -0.0135702295 0.08465481
-0.032060996 0.10077227 0.39305958 -0.22218207 -0.038716998 0.07206624 0.0338187 0.1374605
0.38354707 -0.08118325 0.4184555 0.06169061 -0.0983984 0.1223884 0.005525297 0.001618741
3.864253e-05 0.0009285166 0.117322706 0.0969199 -0.08785812 -0.076533854 -0.07770572 0.12379513
0.0013462899 0.20451155 0.38028786 0.009103737 0.16339807 0.13335885 0.14107536 0.1053495
-0.046103995 0.104269095 0.6881633 0.0024539432 0.34738186 -0.080298804 0.01741157 0.08964674
0.20091684 0.10464136 -0.039407823 -0.21054722 -0.16104634 0.14272258 0.040051 0.20555069
-0.19737615 0.08745224 -0.7054444 0.0797168 0.15707824 0.11588896 0.04014036 0.07824839
-0.08401841 -0.0018898372 0.1420931 0.074619696 0.0040322617 0.00011093771 -0.10611252 0.13315076
-0.008197938 0.6689025 -0.010993019 0.17267437 -0.017100161 0.06492141 -0.055432748 0.8309789
0.30651698 0.31894186 0.07661976 0.49893776 0.009142032 0.10627037 0.32070372 0.27482423
-0.07215661 -0.090986386 0.027331024 0.07421336 0.052838985 0.2865472 0.08578453 0.3037504
-0.19814062 0.06550044 0.08263866 0.51185256 0.08880914 0.029928774 0.44477108 0.15447994
-0.31903428 0.0534762 0.06360058 0.39572832 -0.15878528 0.069229424 0.006923908 0.08505435
-0.005798538 0.07615983 0.075147375 0.12311885 -0.16553618 0.13785818 -0.04249534 0.14240615
0.06421258 0.25456703 0.017887274 0.039754268 -0.065461546 -0.008239029 -0.10576702 1.2074023
0.2527107 0.30560535 0.21922547 0.19455616 0.058492713 0.10668076 0.74682546 0.04891143
0.22256696 0.18105987 0.41263962 0.43689135 -0.044935368 0.11616175 0.045019526 0.14438683
-0.047260366 0.11187753 0.12026197 0.10268154 0.03684134 0.07764793 -0.19190891 -0.30941033
-0.45299122 -0.08891831 -0.088297665 0.9357639 0.016238878 0.4740302 0.16346695 0.40902603
0.4514195 0.015258767 -0.03399509 -0.11895824 -0.05860557 0.08125688 0.17450649 0.16467969
-0.3121173 0.028762247 0.06271833 0.08402545 0.1560352 0.041260634 0.2949185 -0.20923984
0.531864 -0.006450262 0.3471759 0.3367035 -0.117038056 0.10190382 0.55952436 0.036711466
-0.041261632 0.09802864 -0.03684377 0.08358004 0.18561383 0.17288408 -0.47798213 0.056751553
0.10053824 0.081703275 0.06983171 0.48843023 0.1379131 0.12535942 0.21105419 0.06157494
0.017077358 0.8691203 -0.34884802 0.04659227 -0.05799794 0.078342035 -0.1143931 -0.22865354
-0.28897202 0.014049292 0.5372395 0.027135734 -0.15849078 0.1379052 0.09386614 -0.009796123
-0.09591658 -0.19896504 0.047535248 0.08418874 -0.031045252 0.71056783 -0.049194533 -0.06850952
-0.101825625 0.010233238 0.08389349 0.1431582 -0.106927484 0.1390105 0.2339982 0.25884342
0.19072917 0.12960295 0.2462195 0.27265978 0.07397968 0.07545882 -0.07631758 0.14087108
-0.034490492 0.010892955 0.05741672 0.1013834 -0.19964723 -0.11725667 0.37610075 0.017677754
-0.08412236 0.112038925 -0.016687075 0.6016132 -0.029778786 0.09554696 -0.13860564 -0.11522231
00000000: c678 32bd 64db 973d 586a 86bd 8b0c 113f
00000010: 341d a43d da38 4fbe ab55 5ebc 805f ad3d
00000020: 6452 03bd b161 ce3d 1b3f c93e b283 63be
00000030: b795 1ebd 7797 933d 7a85 0a3d 72c2 0c3e
00000040: 4860 c43e 6743 a6bd cd3f d63e 4baf 7c3d
00000050: 1a85 c9bd c5a6 fa3d 8d0d b53b ef2b d43a
00000060: 1a14 2238 b267 733a e346 f03d f17d c63d
00000070: f5ee b3bd c8bd 9cbd 2d24 9fbd 4d88 fd3d
00000080: fe75 b03a 7a6b 513e 17b5 c23e d727 153c
00000090: d351 273e 398f 083e 0f76 103e 7bc1 d73d
000000a0: 8bd7 3cbd 098b d53d 782b 303f 56d2 203b
000000b0: 09dc b13e b373 a4bd b5a2 8e3c b698 b73d
000000c0: 25bd 4d3e 364e d63d 196a 21bd b199 57be
000000d0: 55e9 24be de25 123e 840c 243d e17b 523e
000000e0: f91c 4abe 291a b33d 0198 34bf 9042 a33d
000000f0: 1ed9 203e 3157 ed3d 386a 243d b140 a03d
00000100: d811 acbd 6ab4 f7ba db80 113e 36d2 983d
00000110: 1021 843b 3ba7 e838 8551 d9bd ac58 083e
00000120: a550 06bc 323d 2b3f 101c 34bc 8dd1 303e
00000130: a315 8cbc 84f5 843d 730d 63bd 08bb 543f
00000140: cbef 9c3e 594c a33e d2ea 9c3d c574 ff3e
00000150: 76c8 153c 48a4 d93d 4733 a43e c3b5 8c3e
00000160: d8c6 93bd 1257 babd 50e5 df3c 2dfd 973d
00000170: b16d 583d 51b6 923e cdaf af3d 2c85 9b3e
00000180: 60e5 4abe 1825 863d 753e a93d c508 033f
00000190: 91e1 b53d 302d f53c 09b9 e33e fd2f 1e3e
000001a0: 7658 a3be dc09 5b3d 0541 823d e79c ca3e
000001b0: 9c98 22be 28c8 8d3d f3e1 e23b fa30 ae3d
000001c0: aa01 bebb aff9 9b3d dee6 993d bc25 fc3d
000001d0: 5182 29be b22a 0d3e 980f 2ebd ebd2 113e
000001e0: e381 833d 9c56 823e 5588 923c 5fd5 223d
000001f0: b410 86bd fefc 06bc 619c d8bd 298c 9a3f
00000200: 4c63 813e 4e78 9c3e a47c 603e bb39 473e
00000210: 0e96 6f3d 717b da3d f42f 3f3f 5a57 483d
00000220: 98e8 633e c267 393e 8045 d33e 39b0 df3e
00000230: 260e 38bd 36e6 ed3d 6566 383d 24da 133e
00000240: 1694 41bd 0c20 e53d e84b f63d b34a d23d
00000250: f2e6 163d e105 9f3d c583 44be 086b 9ebe
00000260: 77ee e7be ce1a b6bd 68d5 b4bd 398e 6f3f
00000270: 6507 853c 16b4 f23e e163 273e dc6b d13e
00000280: 7520 e73e e8ff 793c 6f3e 0bbd 61a0 f3bd
00000290: 650c 70bd 026a a63d d4b1 323e cba1 283e
000002a0: d7cd 9fbe ce9e eb3c 7872 803d 8915 ac3d
000002b0: b1c7 1f3e e900 293d 8fff 963e f842 56be
000002c0: 3d28 083f b85c d3bb 0ac1 b13e 6764 ac3e
000002d0: a6b1 efbd f3b2 d03d fd3c 0f3f c35e 163d
000002e0: f501 29bd 3dc3 c83d 7ee9 16bd 032c ab3d
000002f0: 8d11 3e3e 8608 313e 13ba f4be 5174 683d
00000300: fee6 cd3d 0c54 a73d ed03 8f3d 8713 fa3e
00000310: 1739 0d3e 385e 003e 971e 583e 0136 7c3d
00000320: d1e5 8b3c ab7e 5e3f 359c b2be 89d7 3e3d
00000330: 3f8f 6dbd ca71 a03d ee46 eabd 2724 6abe
00000340: 24f4 93be 002f 663c 8788 093f c24b de3c
00000350: 684b 22be 0537 0d3e e43c c03d eb7f 20bc
00000360: e96f c4bd 7ebd 4bbe 52b4 423d 256b ac3d
00000370: 9d52 febc c6e7 353f 3580 49bd b84e 8cbd
00000380: f489 d0bd 50a9 273c 5ad0 ab3d 1098 123e
00000390: ccfc dabd c558 0e3e 399d 6f3e 2087 843e
000003a0: 824e 433e a3b6 043e f720 7c3e 109a 8b3e
000003b0: a982 973d 278a 9a3d 644c 9cbd 8240 103e
000003c0: e745 0dbd 5d78 323c cb2d 6b3d 1aa2 cf3d
000003d0: 5370 4cbe 4424 f0bd 4790 c03e f0d0 903c
000003e0: 5848 acbd aa74 e53d 55b3 88bc 5303 1a3f
000003f0: a4f2 f3bc 20ae c33d a3ee 0dbe adf9 ebbd

bias f4 [128]
0.5036984 -0.29451326 -0.18923219 0.4272978 0.3949139 -0.11248484 0.74539226 0.9128619
-0.15601712 0.72573197 0.7690924 -0.05452848 -0.041499685 0.68255836 0.14185235 0.92517
0.0062482907 0.13645442 0.97026145 0.783218 0.47321618 0.1592355 0.35032237 0.59467477
0.82129395 -0.07015088 0.92549616 -0.09848928 -0.1360116 0.7136666 0.857646 0.45231977
0.37447625 0.5658109 -0.037279084 0.8817248 -0.0072609987 -0.34675208 0.27672675 -0.193732
0.09089655 0.4840723 1.0544757 -0.10670334 -0.0072455066 -0.1714593 0.825217 -0.0140410885
0.41715342 0.47889954 -0.21353641 0.18848401 0.5914905 0.27340803 -0.2114045 0.5295305
0.08855118 0.835164 0.8751754 0.5369953 0.22315721 -0.0028050975 -0.056730837 -0.23208459
0.3240051 -0.061790157 -0.09155464 0.4639035 -0.11371711 0.13984042 0.7446019 0.010457389
0.72695494 0.6899478 0.23421499 0.06954033 -0.23145634 -0.2806708 0.14596015 -0.022145739
0.18421687 -0.040549584 0.50863785 1.1226661 0.42144907 0.4415945 0.14241861 0.10635026
0.07839618 0.019721404 1.0445756 0.35939026 0.62119234 0.5240515 -0.047728416 0.8545992
0.5524998 0.4021179 0.8542875 -0.0049534873 0.18870147 0.313501 0.48065197 -0.066557206
0.62153196 0.45118728 0.8945425 0.07134218 0.16438426 0.26789233 -0.124320656 -0.038504727
0.5265867 0.96702194 0.8722379 0.18955328 1.0437583 0.23503721 0.49679825 0.9364122
0.0006061662 0.95636976 0.72676873 0.18758444 0.7018643 -0.02948975 0.5905024 0.17318636
00000000: 61f2 003f 71ca 96be 15c6 41be c7c6 da3e
00000010: 2832 ca3e 745e e6bd 07d2 3e3f 51b1 693f
00000020: f4c2 1fbe 92c9 393f 3de3 443f 4159 5fbd
00000030: 93fb 29bd 25bc 2e3f be41 113e f1d7 6c3f
00000040: 76be cc3b b5ba 0b3e 0e63 783f fa80 483f
00000050: 6449 f23e a20e 233e 745d b33e 9b3c 183f
00000060: 5240 523f 44ab 8fbd 51ed 6c3f bfb4 c9bd
00000070: a046 0bbe dbb2 363f b08e 5b3f 7596 e73e
00000080: 5abb bf3e fcd8 103f f4b1 18bd b7b8 613f
00000090: aced edbb 7d89 b1be 21af 8d3e ae61 46be
000000a0: f827 ba3d 53d8 f73e 0ff9 863f 4887 dabd
000000b0: b76b edbb 0793 2fbe 6c41 533f 980c 66bc
000000c0: 2295 d53e 5232 f53e 4aa9 5abe f401 413e
000000d0: ec6b 173f 23fc 8b3e 6c7a 58be 508f 073f
000000e0: 525a b53d 4fcd 553f 7f0b 603f 8678 093f
000000f0: 5383 643e bad5 37bb 985e 68bd 95a7 6dbe
00000100: ffe3 a53e ad17 7dbd 0081 bbbd c284 ed3e
00000110: 84e4 e8bd 5432 0f3e 3b9e 3e3f 7855 2b3c
00000120: b819 3a3f 6ba0 303f 0ed6 6f3e 296b 8e3d
00000130: e402 6dbe 15b4 8fbe 9476 153e fb6a b5bc
00000140: 59a3 3c3e 5217 26bd 1736 023f 86b3 8f3f
00000150: 2cc8 d73e ad18 e23e 2fd6 113e 2ace d93d
00000160: 2d8e a03d c88e a13c a7b4 853f 0002 b83e
00000170: 7606 1f3f 3d28 063f df7e 43bd 03c7 5a3f
00000180: a070 0d3f 66e2 cd3e 96b2 5a3f dd50 a2bb
00000190: f53a 413e 3483 a03e 0418 f63e 254f 88bd
000001a0: b81c 1f3f 0502 e73e bd00 653f d91b 923d
000001b0: 5954 283e 2f29 893e d49b febd 22b7 1dbd
000001c0: 63ce 063f c08e 773f fc4a 5f3f 411a 423e
000001d0: df99 853f 98ad 703e 575c fe3e b6b8 6f3f
000001e0: 20e7 1e3a a6d4 743f 840d 3a3f 2316 403e
000001f0: 61ad 333f 7d94 f1bc 2a2b 173f c457 313e

weight f4 [128, 128]
-0.14787515 -0.0490615 -0.08174525 -0.1918586 -0.17989814 -0.05988901 -0.115698084 0.00045484753
0.019801797 -0.09790266 0.16783822 -0.057425637 0.03543162 -0.07408288 -0.039684758 0.044422112
0.033824388 -0.14334066 -0.09158387 0.13389848 0.057528432 -0.16709806 -0.011527165 -0.035287596
0.0326377 -0.10424802 -0.0074256076 -0.14811958 -0.000801833 -0.01118497 0.035419233 0.024413519
-0.05666076 0.0049652206 -0.10032271 -0.011313917 0.05015178 0.076800756 -0.23359832 -0.044967305
-0.14773062 -0.12389537 0.071723916 -0.26864257 -0.08640307 0.011565386 -0.011222756 -0.2042184
-0.0143725155 -0.08170185 -0.08909691 -0.26505557 -0.033412077 -0.22239843 -0.24175324 0.08412752
-0.09015752 0.031165713 -0.093480244 0.0015782743 0.054051023 0.012856561 -0.04809127 -0.23471108
-0.11092749 -0.14326741 0.019891376 0.0661239 -0.039762847 -0.061304916 0.056149226 -0.20686994
-0.06304228 -0.124890305 -0.13784133 -0.0072445674 -0.22098117 -0.12827775 0.019796867 0.056323037
-0.034512233 -0.060021263 -0.070326775 -0.080420084 0.031772297 -0.011467338 -0.0022055625 -0.12475206
-0.13432251 -0.13149567 0.122598484 -0.15051267 0.20091242 0.061255075 -0.03418326 -0.115000226
-0.22353546 -0.07944896 -0.16486603 -0.11872785 -0.17232293 0.007685812 0.0076870695 -0.13713144
-0.0077860337 0.09976637 0.07801038 0.03356443 0.063064866 -0.05762398 -0.093832016 -0.03282182
-0.0022411938 -0.20173946 -0.0698595 -0.09931912 0.061757386 -0.191063 0.03724377 0.08257976
-0.06236701 0.13887954 -0.038172808 -0.09651989 -0.20472099 -0.014792676 -0.05181284 0.009518644
0.16975603 0.17249559 -0.092825875 -0.11584296 -0.23538722 -0.09142407 0.014567121 -0.20635724
-0.06717265 -0.34053373 -0.15588695 -0.053581037 -0.024823986 -0.022678591 0.0045794193 -0.010231915
-0.27986595 -0.48932523 -0.09005389 -0.14716977 -0.17960407 -0.92335737 0.04070917 -0.07238727
-0.14322935 0.07833745 -0.07193616 0.025727848 -0.29454246 -0.0038563744 -0.09966893 0.047274508
0.19092837 -0.0020606862 -0.096987784 -0.029407486 -0.07448351 -0.13152243 -0.15372388 0.10939416
-0.01535894 0.081247166 -0.121615104 -0.122521535 0.00323134 -0.10702193 -0.16714956 -0.06522234
-0.01787449 -0.20875777 -0.115070626 -0.019136136 -0.051846586 -0.031072212 -0.017494513 -0.080611296
-0.10629697 -0.02054994 -0.18887378 -0.33180696 -0.037072513 0.07154058 0.093885355 0.13309574
-0.010414786 -0.012567602 -0.01310362 -0.82844776 -0.12747747 -0.10168095 0.1465415 0.0023340438
-0.26384014 -0.11617828 0.023398975 0.12862968 0.095318325 0.018229207 -0.01295887 -0.25570807
-0.59876513 0.13307433 0.056909647 -0.1939424 -0.14332531 -0.029834116 -0.09765142 0.043980364
-0.5663072 -0.14245205 -0.05034145 -0.7321923 -0.06102164 -0.073812045 -0.03817233 0.027057419
0.006036088 -0.11623435 -0.18775888 -0.24520299 0.041294746 -0.14133763 -0.047374863 0.057520013
0.0148722455 -0.44769502 -0.14291517 -0.05762387 0.04950505 -0.10137702 0.075949065 -0.091777235
0.09525312 0.03515756 -0.09550371 0.22172742 -0.2768903 -0.22064361 -0.009314057 -0.05502259
-0.035904896 -0.07533855 0.040069163 -0.5420023 -0.009137484 -0.023939755 -0.16903761 0.04116769
00000000: 956c 17be b6f4 48bd 0e6a a7bd 9576 44be
00000010: 3837 38be 2e4e 75bd 1ef3 ecbd 9a78 ee39
00000020: 6137 a23c 3181 c8bd c8dd 2b3e 2537 6bbd
00000030: bf20 113d c4b8 97bd 7c8c 22bd f6f3 353d
00000040: 718b 0a3d e5c7 12be 5390 bbbd af1c 093e
00000050: efa2 6b3d c11b 2bbe 6fdc 3cbc ba89 10bd
00000060: 1caf 053d fc7f d5bd 8352 f3bb a9ac 17be
00000070: 1a32 52ba 2a41 37bc c213 113d dcfe c73c
00000080: 1d15 68bd 4ab3 a23b fe75 cdbd 025e 39bc
00000090: f46b 4d3d b749 9d3d 6634 6fbe a32f 38bd
000000a0: b246 17be dbbc fdbd fde3 923d 858b 89be
000000b0: 18f4 b0bd bf7c 3d3c a6df 37bc a11e 51be
000000c0: b37a 6bbc 4d53 a7bd 7178 b6bd 5db5 87be
000000d0: 1adb 08bd 6abc 63be 298e 77be 0d4b ac3d
000000e0: 81a4 b8bd 3d4f ff3c 9272 bfbd 19de ce3a
000000f0: 9b64 5d3d 53a4 523c 5afb 44bd 1a58 70be
00000100: f42d e3bd b1b4 12be 3df3 a23c f86b 873d
00000110: 5ede 22bd dd1a 7bbd bbfc 653d b7d5 53be
00000120: 501c 81bd 7dc6 ffbd 4726 0dbe d663 edbb
00000130: e348 62be 3e5b 03be 0a2d a23c fcb2 663d
00000140: b35c 0dbd dbd8 75bd 7c07 90bd 49b3 a4bd
00000150: ab23 023d 80e1 3bbc 338b 10bb 027e ffbd
00000160: d78b 09be cda6 06be ea14 fb3d fe1f 1abe
00000170: fcbb 4d3e 9ae6 7a3d bf03 0cbd 3d85 ebbd
00000180: 7be6 64be 23b6 a2bd a4d2 28be 9627 f3bd
00000190: 6c75 30be 44d9 fb3b d0e3 fb3b 2f6c 0cbe
000001a0: fc21 ffbb 5052 cc3d e8c3 9f3d db7a 093d
000001b0: 2728 813d 1f07 6cbd 002b c0bd 2c70 06bd
000001c0: fee0 12bb ca94 4ebe 7f12 8fbd d367 cbbd
000001d0: 50f5 7c3d 05a6 43be ec8c 183d 941f a93d
000001e0: 8d74 7fbd 7036 0e3e 175b 1cbd 38ac c5bd
000001f0: 61a2 51be fb5c 72bc b339 54bd 16f4 1b3c
00000200: 86d4 2d3e afa2 303e 7e1b bebd 133f edbd
00000210: 5909 71be 8b3c bbbd efaa 6e3c 504f 53be
00000220: d091 89bd 705a aebe d4a0 1fbe ca77 5bbd
00000230: ac5b cbbc 74c8 b9bc f40e 963b c3a3 27bc
00000240: 974a 8fbe d688 fabe 2d6e b8bd acb3 16be
00000250: 21ea 37be 2661 6cbf a9be 263d c73f 94bd
00000260: b7aa 12be 636f a03d 4453 93bd 35c3 d23c
00000270: 45ce 96be 3abb 7cbb 391f ccbd eaa2 413d
00000280: ba82 433e 940c 07bb 88a1 c6bd f8e7 f0bc
00000290: cf8a 98bd d1ad 06be cb69 1dbe 0c0a e03d
000002a0: 10a4 7bbc ea64 a63d 5711 f9bd 92ec fabd
000002b0: e4c4 533b 502e dbbd 4129 2bbe 4a93 85bd
000002c0: 866d 92bc 99c4 55be 26aa ebbd 63c3 9cbc
000002d0: 165d 54bd 278b febc a750 8fbc 8917 a5bd
000002e0: 3ab2 d9bd 5958 a8bc 2168 41be 9ae2 a9be
000002f0: 59d9 17bd de83 923d f746 c03d 404a 083e
00000300: c7a2 2abc 58e8 4dbc 91b0 56bc 2715 54bf
00000310: 7489 02be 1a3e d0bd fa0e 163e c2f6 183b
00000320: 0e16 87be e1ee edbd 35af bf3c 80b7 033e
00000330: 4136 c33d 6b55 953c 7151 54bc 2bec 82be
00000340: ac48 19bf a344 083e 171a 693d d698 46be
00000350: dfc3 12be ad66 f4bc 78fd c7bd c124 343d
00000360: 82f9 10bf f3de 11be d632 4ebd f470 3bbf
00000370: d4f1 79bd c52a 97bd 975a 1cbd 85a7 dd3c
00000380: 60ca c53b 460c eebd dd43 40be 7e16 7bbe
00000390: ae24 293d d0ba 10be 250c 42bd 1b9a 6b3d
000003a0: b8aa 733c 4838 e5be 5b58 12be 0207 6cbd
000003b0: cfc5 4a3d c19e cfbd 2f8b 9b3d b4f5 bbbd
000003c0: 1114 c33d 6001 103d 7397 c3bd 830c 633e
000003d0: 91c4 8dbe 66f0 61be fd99 18bc 5e5f 61bd
000003e0: 0311 13bd 194b 9abd 901f 243d aac0 0abf
000003f0: 63b5 15bc 4e1d c4bc 3218 2dbe 749f 283d

bias f4 [128]
0.56091404 0.6156785 -0.06313111 1.0162032 0.39568833 0.87617815 -0.010045281 -0.08999165
0.16215245 0.3325333 0.35375357 0.28596064 0.53867924 0.6931645 -0.007572839 0.30137208
-0.0092642745 0.7605121 0.8756736 -0.05338367 0.5324913 0.7101513 0.26819724 0.59333044
0.38383815 0.5415676 0.92768776 0.5934641 0.3582812 0.4285961 0.55617136 0.38287535
0.100201406 0.7138209 0.5910926 0.81599665 0.5297426 0.13775666 0.3471597 0.91329116
0.1480772 0.45454285 0.0023066076 0.9544203 0.41461143 0.7728607 0.31166166 0.08724542
0.8706486 0.7277297 0.64509404 0.41102827 0.34382012 0.78579307 0.62926614 0.2709267
0.17022416 0.6626401 0.07756653 0.7319943 0.7167015 -0.00033156408 0.27843606 0.55548835
0.614045 0.5816204 0.10198008 0.90919334 0.7414878 0.059367504 0.03774513 0.58370286
0.8541716 0.017468316 0.1860179 0.7217257 0.71130824 0.44334587 0.43846658 0.34539714
0.21050352 0.90098226 0.35562074 0.4262729 0.8572421 0.9757302 0.55972916 0.7952094
0.80262977 0.39267144 0.17925505 0.23768274 0.47826353 0.32872394 0.17033313 0.14896283
0.50311273 0.59590524 -0.14683475 0.76961917 0.5561476 0.73305315 0.13284658 0.7867128
-0.018824643 0.8991622 0.14210594 0.1410002 0.5288118 1.0452615 0.95678955 0.26975763
0.878097 0.023336053 0.5934385 0.46709546 0.19631739 0.2724442 0.78962016 0.68261755
0.9204689 0.28920028 0.11715769 0.54989827 0.8388754 0.15049303 0.51082397 0.2858851
00000000: 1098 0f3f 1b9d 1d3f e24a 81bd f212 823f
00000010: a997 ca3e 364d 603f f694 24bc 8b4d b8bd
00000020: 4b0b 263e ce41 aa3e 301f b53e 6f69 923e
00000030: e2e6 093f 3b73 313f 9425 f8bb 714d 9a3e
00000040: 2fc9 17bc ecb0 423f 252c 603f d6a8 5abd
00000050: 5a51 083f 7acc 353f 2651 893e 81e4 173f
00000060: 6f86 c43e 2da4 0a3f f27c 6d3f 43ed 173f
00000070: a270 b73e f370 db3e 3f61 0e3f 3d08 c43e
00000080: 6536 cd3d f7bc 363f d851 173f 28e5 503f
00000090: 369d 073f 1510 0d3e ebbe b13e 73cd 693f
000000a0: 8da1 173e d7b9 e83e 742a 173b e454 743f
000000b0: f347 d43e 33da 453f 1e92 9f3e baad b23d
000000c0: d4e2 5e3f 7e4c 3a3f e224 253f 4c72 d23e
000000d0: 3109 b03e bc29 493f 9617 213f e8b6 8a3e
000000e0: 3e4f 2e3e c8a2 293f 33db 9e3d fa63 3b3f
000000f0: c079 373f c7d5 adb9 2c8f 8e3e 7c34 0e3f
00000100: 0e32 1d3f 13e5 143f efda d03d e5c0 683f
00000110: 25d2 3d3f 572b 733d a39a 1a3d 8d6d 153f
00000120: fdaa 5a3f b719 8f3c 7a7b 3e3e 04c3 383f
00000130: 4c18 363f 3bfe e23e b17e e03e e5d7 b03e
00000140: 3c8e 573e c6a6 663f ec13 b63e 7140 da3e
00000150: 3874 5b3f 74c9 793f 694a 0f3f d892 4b3f
00000160: 2579 4d3f 3b0c c93e a38e 373e 1b63 733e
00000170: f5de f43e 814e a83e cf6b 2e3e b689 183e
00000180: ffcb 003f 3f8d 183f d95b 16be c305 453f
00000190: b05f 0e3f 5fa9 3b3f ef08 083e 0366 493f
000001a0: 2336 9abc 7e2f 663f 3884 113e 5b62 103e
000001b0: 3660 073f 21cb 853f 29f0 743f ac1d 8a3e
000001c0: f7ca 603f 402b bf3c 96eb 173f 2327 ef3e
000001d0: 6d07 493e ce7d 8b3e 8c24 4a3f 06c0 2e3f
000001e0: daa3 6b3f 0f12 943e 5ff0 ef3d 22c6 0c3f
000001f0: 8ac0 563f d81a 1a3e 5cc5 023f 885f 923e

weight f4 [128, 128]
-0.012598048 -0.17917848 -0.024466624 -0.04874812 0.09959787 -0.104633436 0.051030632 -0.16427657
0.04626503 0.18634824 0.040430933 -0.06592047 0.08419969 0.005495642 -0.017792657 -0.18875279
-0.027464516 -0.009792926 -0.096803516 -0.018759193 -0.08761588 0.030797735 0.1434346 0.0018649541
-0.08082715 0.023139287 -0.084843844 -0.0065523456 0.027462978 0.048878726 -0.094056584 0.12573887
0.23075373 0.02496087 -0.045325037 -0.14421807 -0.004429799 0.07272086 -0.04076507 -0.22295952
-0.060708374 -0.042478535 -0.009172469 -0.048157364 0.053149078 0.07513475 0.081503406 0.0073141186
-0.10659954 -0.23170775 -0.02541735 -0.2255272 -0.042561825 -0.07000432 -0.085793756 -0.03460694
0.049117822 0.093903065 -0.09145755 -0.054600514 -0.0071588415 0.20618436 -0.007993527 -0.020529777
0.019728875 0.043553054 0.12930311 0.102310754 -0.21519081 0.17673905 -0.06825011 -0.10928395
-0.32588708 -0.07380297 -0.07132381 -0.2168216 -0.044753335 -0.03996463 0.11536473 0.02003518
-0.015529832 -0.027494257 -0.009311071 0.061861183 0.038813043 -0.025380403 -0.030416273 -0.07573933
-0.017247396 0.08246716 0.03467142 -0.002890914 0.004036437 0.050882142 -0.17563431 -0.045709867
-0.09435811 -0.09128431 0.12898321 0.05016032 0.058464307 0.15348083 0.11001756 0.055279505
-0.05935835 0.11450778 -0.107041255 -0.09926459 -0.1746563 -0.12153288 -0.23503725 -0.13358556
-0.06710651 0.23280077 0.12792316 -0.22597001 0.017748198 -0.011043639 -0.012822572 0.20023534
-0.14836617 0.03914088 -0.05001896 -0.029896174 -0.224111 -0.007229217 0.0255865 0.014328713
0.055941496 -0.0027757664 -0.04768893 -0.0929187 0.027672864 0.09115688 0.12782787 -0.047726583
-0.14730917 -0.112007916 -0.021269994 0.032178864 0.056356907 -0.003315666 -0.0149042085 0.065734185
0.1861755 0.083035566 0.0671353 -0.05111942 -0.086951785 0.07082615 0.007592104 0.16181307
-0.11394774 -0.12616062 0.05207563 -0.033922303 0.14190426 -0.06840179 -0.048358593 0.0067087915
0.017310334 0.059854124 0.20425679 0.042695332 0.023081219 -0.0351833 -0.2201169 -0.03879384
-0.027116966 -0.02530758 -0.13752148 0.03826558 0.040517375 0.060755502 0.045686107 0.09941471
0.008274051 -0.0142824985 0.009085517 -0.092113875 0.027564602 0.01454097 -0.090363175 -0.04816045
-0.023943115 -0.01576527 -0.0143684475 -0.046818968 -0.05092055 -0.24254315 -0.03292256 -0.014741747
0.0046490943 -0.082503706 0.024112627 0.045990247 0.09345856 -0.124243334 -0.053815532 -0.16574942
0.06317706 0.023328293 -0.036732424 -0.172535 0.032130826 -0.16573098 0.046862658 0.046989027
-0.03673228 -0.10733338 0.0058502774 0.03629182 0.034380518 -0.104773186 -0.028141651 -0.006571709
0.04096968 0.0028298541 0.16662818 -0.048458386 -0.0072869915 0.053866748 -0.07335339 0.16205299
-0.029375419 -0.1703314 0.039029106 0.07909798 -0.010451329 0.101316705 0.016463656 -0.17156081
0.13564132 -0.086962104 0.10934274 0.043481 -0.11150077 0.04946468 0.06505086 -0.091707826
-0.056695662 0.033387784 -0.06477611 -0.032653548 -0.016891666 -0.030684164 -0.0121857 -0.047249716
-0.020088583 0.022488283 -0.07599528 0.08705967 -0.085148044 -0.057129536 -0.08172351 0.079339124
00000000: 0b68 4ebc 907a 37be 3b6e c8bc 1cac 47bd
00000010: f8f9 cb3d 0e4a d6bd 7f05 513d 1e38 28be
00000020: 6680 3d3d 13d2 3e3e e89a 253d 5001 87bd
00000030: e370 ac3d c914 b43b e8c1 91bc 6948 41be
00000040: 44fd e0bc 8272 20bc ec40 c6bd e1ac 99bc
00000050: f46f b3bd 884b fc3c 85e0 123e 7a71 f43a
00000060: b488 a5bd 9a8e bd3c 9cc2 adbd 0fb5 d6bb
00000070: 0afa e03c 0f35 483d bda0 c0bd b1c1 003e
00000080: b54a 6c3e bd7a cc3c bfa6 39bd e7ad 13be
00000090: d927 91bb adee 943d 46f9 26bd 804f 64be
000000a0: 58a9 78bd f9fd 2dbd 2048 16bc a840 45bd
000000b0: d9b2 593d 3fe0 993d 42eb a63d 46ab ef3b
000000c0: dc50 dabd cc44 6dbe 0c38 d0bc 9af0 66be
000000d0: 4f55 2ebd 6d5e 8fbd a3b4 afbd 02c0 0dbd
000000e0: c52f 493d 4050 c03d 194e bbbd caa4 5fbd
000000f0: b794 eabb fe21 533e 48f7 02bc 102e a8bc
00000100: 739e a13c b064 323d 0968 043e 4d88 d13d
00000110: fb5a 5cbe 15fb 343e b7c6 8bbd 43d0 dfbd
00000120: acda a6be 0326 97bd 3812 92bd 7b06 5ebe
00000130: 464f 37bd f4b1 23bd 5844 ec3d d120 a43c
00000140: d670 7ebc a33b e1bc 768d 18bc 2762 7d3d
00000150: 6dfa 1e3d 90ea cfbc 8c2b f9bc 391d 9bbd
00000160: 694a 8dbc 8be4 a83d 9e03 0e3d 7d75 3dbb
00000170: 1644 843b cb69 503d 7bd9 33be 453a 3bbd
00000180: d33e c1bd 45f3 babd 2d14 043e e874 4d3d
00000190: 4578 6f3d 142a 1d3e e350 e13d c36c 623d
000001a0: be21 73bd 0e83 ea3d 7238 dbbd 3c4b cbbd
000001b0: 1ad9 32be 3be6 f8bd 9bad 70be a7ca 08be
000001c0: 236f 89bd 5363 6e3e 4afe 023e af64 67be
000001d0: ab64 913c 61f0 34bc c415 52bc 7e0a 4d3e
000001e0: 4ded 17be 3052 203d aee0 4cbd d2e8 f4bc
000001f0: 5b7d 65be 11e3 ecbb c89a d13c fac2 6a3c
00000200: e922 653d a2e9 35bb 7855 43bd 294c bebd
00000210: 34b2 e23c 75b0 ba3d 4fe5 023e f37c 43bd
00000220: 37d8 16be 6864 e5bd 693e aebc fccd 033d
00000230: 80d6 663d a54b 59bb c830 74bc a59f 863d
00000240: caa4 3e3e 8d0e aa3d 3b7e 893d 9962 51bd
00000250: c713 b2bd 4d0d 913d 2fc7 f83b 53b2 253e
00000260: 6f5d e9bd 4030 01be 414d 553d 1df2 0abd
00000270: 5a4f 113e 3d16 8cbd a913 46bd 6cd5 db3b
00000280: 67ce 8d3c 9929 753d b128 513e 4de1 2e3d
00000290: d314 bd3c 5d1c 10bd 5366 61be 4ae6 1ebd
000002a0: 6624 debc d851 cfbc 6ed2 0cbe 5ebc 1c3d
000002b0: 8cf5 253d c3da 783d 5b21 3b3d f199 cb3d
000002c0: e38f 073c 2401 6abc 6cdb 143c 33a6 bcbd
000002d0: 29cf e13c 403d 6e3c 5410 b9bd e443 45bd
000002e0: 5a24 c4bc 2b26 81bc a369 6bbc 3fc5 3fbd
000002f0: 1192 50bd 3b5d 78be ced9 06bd 5e87 71bc
00000300: 6e57 983b b4f7 a8bd d887 c53c 4560 3c3d
00000310: 3467 bf3d 4a73 febd ad6d 5cbd 37ba 29be
00000320: f962 813d fa1a bf3c bd74 16bd 04ad 30be
00000330: 9d9b 033d 62b5 29be 0ff3 3f3d 9177 403d
00000340: 9674 16bd 9ad1 dbbd afb3 bf3b bba6 143d
00000350: 96d2 0c3d 5393 d6bd 5289 e6bc 7e57 d7bb
00000360: d3cf 273d 1375 393b 94a0 2a3e 4d7c 46bd
00000370: b7c7 eebb 61a3 5c3d 4d3a 96bd 38f1 253e
00000380: b8a4 f0bc 5b6b 2ebe fcdc 1f3d 1ffe a13d
00000390: 0d3c 2bbc 227f cf3d cade 863c a3ad 2fbe
000003a0: 8fe5 0a3e 3019 b2bd 16ef df3d 2219 323d
000003b0: 845a e4bd 7a9b 4a3d 6339 853d 50d1 bbbd
000003c0: b639 68bd a1c1 083d 56a9 84bd babf 05bd
000003d0: 6460 8abc 5b5d fbbc 88a6 47bc eb88 41bd
000003e0: d090 a4bc 5939 b83c 6aa3 9bbd 574c b23d
000003f0: 1962 aebd a900 6abd a85e a7bd 8d7c a23d

bias f4 [128]
0.056819715 -0.011184712 1.0444957 0.16151461 0.8889058 0.171145 0.23296273 0.36679792
0.98416716 0.5641747 0.10626901 0.53018606 0.06687486 0.5852595 -0.13791615 0.3556495
0.050942443 0.87756073 0.44037297 0.41695526 0.4566461 0.57089734 0.011054403 0.9124117
0.16887504 0.84142447 0.68468523 0.18192051 0.72161347 0.5477295 -0.113080904 0.75141555
1.0936631 0.8867361 0.123952985 0.586733 0.2571268 0.76772565 0.8917475 0.16211885
0.6192816 0.07690189 0.7486856 0.48721033 0.3440847 0.035025723 0.66573757 0.72163785
0.72439677 -0.09158789 0.7951151 0.5002666 0.28720334 0.055160567 0.812769 0.79348445
0.42191148 0.34153977 0.6589077 0.9350843 0.5499677 0.57451445 -0.18002248 0.42529655
-0.116909966 0.6899529 0.39486188 0.7494578 0.8929122 0.6578626 0.23803955 0.20588109
-0.013966192 0.3919483 0.7118082 0.9217255 -0.074618526 0.6788469 0.90117705 0.41305697
0.8098903 0.14187062 0.68078804 0.12121898 0.2716245 0.6104591 0.36802068 0.14016645
0.026608992 0.7193918 0.21315403 0.506012 0.12694877 0.49331975 -0.06651167 0.8408796
0.019285351 0.09808048 0.43072864 0.5969188 0.557508 0.27677423 0.6726922 0.18574949
0.114533804 -0.0008971383 -0.016431194 0.42765313 0.64701784 0.109595135 0.034837548 0.38920343
0.4739442 0.03681948 -0.17757924 0.58045113 -0.027530031 0.53133136 0.86754024 0.7770438
-0.08004642 0.5720929 0.6968019 0.57118815 0.4317656 0.13192773 0.8169204 0.5316875
00000000: cabb 683d 1540 37bc 09b2 853f 1664 253e
00000010: 558f 633f a340 2f3e c88d 6e3e f0cc bb3e
00000020: 61f2 7b3f c16d 103f 91a3 d93d 46ba 073f
00000030: b0f5 883d 91d3 153f e439 0dbe b117 b63e
00000040: 06a9 503d d2a7 603f 9178 e13e 297b d53e
00000050: 85cd e93e 5426 123f 871d 353c d093 693f
00000060: 94ed 2c3e 9867 573f 8847 2f3f 5f49 3a3e
00000070: a9bb 383f 0038 0c3f f696 e7bd c55c 403f
00000080: 27fd 8b3f 2301 633f 10db fd3d 2234 163f
00000090: 20a6 833e ab89 443f 9049 643f 7c02 263e
000000a0: 3d89 1e3f bd7e 9d3d dca9 3f3f a273 f93e
000000b0: df2b b03e 2277 0f3d c76d 2a3f 42bd 383f
000000c0: 1172 393f 6f92 bbbd aa8c 4b3f 7911 003f
000000d0: 510c 933e 0cf0 613d a111 503f cc21 4b3f
000000e0: c804 d83e 4dde ae3e 2dae 283f af61 6f3f
000000f0: afca 0c3f 6113 133f d057 38be 78c0 d93e
00000100: 7e6e efbd c1a0 303f 562b ca3e 77dc 3f3f
00000110: e595 643f af69 283f a4c0 733e 7ed2 523e
00000120: 74d2 64bc 73ad c83e 1039 363f 34f6 6b3f
00000130: 99d1 98bd e9c8 2d3f 8ab3 663f 347c d33e
00000140: f854 4f3f 8846 113e 2048 2e3f a841 f83d
00000150: 5e12 8b3e 0c47 1c3f 356d bc3e cb87 0f3e
00000160: 1afb d93c 102a 383f 0d45 5a3e 018a 013f
00000170: dcfe 013e 6894 fc3e 4537 88bd e343 573f
00000180: 50fc 9d3c 6bde c83d 7788 dc3e accf 183f
00000190: d8b8 0e3f 5ab5 8d3e 8e35 2c3f 1d35 3e3e
000001a0: b390 ea3d ef2d 6bba b69a 86bc 5af5 da3e
000001b0: f6a2 253f 6a73 e03d d1b1 0e3d ac45 c73e
000001c0: d0a8 f23e 06d0 163d 55d7 35be 7298 143f
000001d0: a986 e1bc 5505 083f 1e17 5e3f 58ec 463f
000001e0: 61ef a3bd ae74 123f 9c61 323f 6339 123f
000001f0: 6110 dd3e 1018 073e b221 513f ac1c 083f

weight f4 [128, 128]
-0.025475131 -0.10678166 -0.6895137 0.13101146 -0.019608054 -0.33157805 -0.05384852 0.09953998
-0.5550194 0.06633355 0.014328969 -0.22775674 0.025903737 0.059306048 -0.034662966 -0.0885812
-0.05463075 -0.2592288 0.090214245 -0.17644341 -0.01140992 -0.122826226 0.06849967 -0.012452431
-0.13794702 -0.0355955 -0.33730578 0.04129744 -0.09687159 0.084325634 0.007615438 -0.30170864
-0.0554375 -0.00793867 -0.17150486 0.060152404 -0.20743687 0.00897328 -0.040428523 -0.09381418
-0.13392629 0.0717052 -0.07746028 -0.027318848 0.06596005 0.2665589 0.107161745 -0.26324722
-0.5424115 0.012196829 -0.25356242 -0.13371222 -0.031983346 0.09056389 0.00021914768 -0.07932298
-0.05863979 -0.07159605 0.008090181 -0.46622047 -0.25893965 -0.008145192 0.035122443 -0.01679614
-0.07768983 -0.0069544544 -0.18243589 -0.14933427 0.024795936 -0.027533676 -0.09635213 0.110909104
-0.06298353 0.020495439 -0.010569217 -0.33504736 -0.17344534 0.061926555 -0.2645456 0.10569796
-0.24938798 -0.35310328 0.10215037 0.056270186 0.114374965 0.019388253 0.15362135 0.23222132
-0.13137144 -0.048030436 -0.09875901 -0.25607687 0.051856488 -0.100137636 -0.067841865 -0.078839175
-0.036895424 0.016835613 -0.060642444 -0.08395535 -0.62158227 -0.15016761 -0.41367143 0.14619668
-0.15775198 0.07221326 0.021297278 0.08688154 -0.22284357 0.04693945 0.091599 -0.56941307
-0.069106184 0.024862014 0.06000149 0.107901685 -0.10689483 0.1281671 -0.38309947 -0.07585472
-0.21423742 -0.043077562 -0.24678116 -0.3556216 -0.16586834 -0.19386417 0.022598365 -0.28969184
0.073742315 0.03827327 0.06130216 0.018090257 0.09609844 -0.1264111 -0.09169085 -0.12372874
0.011084069 -0.27490622 0.027548468 0.22979686 0.009612355 0.10763569 0.07630099 -0.15249237
-0.07775368 -0.03572409 -0.05185827 -0.39923984 -0.0057565714 -0.17313293 -0.054270525 -0.07506657
-0.050398443 0.1733414 0.08993768 -0.03899017 -0.16964957 -0.21276572 -0.07588725 -0.22260007
0.07575855 0.043145955 0.07072302 0.3989099 -0.0023267174 0.0008301734 0.045040324 -0.16678683
-0.18405323 0.06536001 -0.18762751 -0.037533674 -0.112989 0.04225659 -0.0005421767 -0.19537519
0.018650744 -0.1857148 -0.10889827 -0.06352319 0.21348917 0.09763402 0.074523225 -0.08039721
0.04641099 -0.052190278 -0.04818924 0.0978312 -0.2631017 -0.1491699 0.07521828 0.10448747
0.28737247 -0.27112573 -0.2556447 -0.0024225796 0.014324336 -0.037480254 -0.10875782 0.040269013
-0.15598702 0.07103498 0.07972569 -0.080761775 -0.0210292 0.027593926 0.059696037 -0.045212213
-0.30333528 -0.100344434 0.19453911 0.082946636 0.06768921 0.098695695 0.08014884 -0.08579973
0.012106709 0.058855016 -0.39191973 -0.35525462 -0.0797126 0.1015794 0.13615453 -0.2388106
-0.012892869 0.05530736 0.010158867 -0.08082217 -0.073513195 0.07819164 0.1582917 0.041034725
-0.19345455 -0.01825369 0.00783919 0.1077357 0.08678268 -0.07712872 -0.08050425 -0.26765123
-0.11527558 -0.0075948844 0.13542138 -0.017246587 0.022805387 -0.04674401 0.24891916 -0.022213614
-0.053693675 0.12025795 0.22971939 -0.18066356 0.0827804 -0.14399359 0.16973959 0.033419184
00000000: 39b1 d0bc 58b0 dabd f883 30bf de27 063e
00000010: 12a1 a0bc 99c4 a9be 4490 5cbd 9edb cb3d
00000020: c015 0ebf e2d9 873d 0dc4 6a3c 1039 69be
00000030: 1334 d43c e6ea 723d c1fa 0dbd 0f6a b5bd
00000040: 7ec4 5fbd a3b9 84be 3fc2 b83d 95ad 34be
00000050: acf0 3abc 518c fbbd 8e49 8c3d 4805 4cbc
00000060: fc41 0dbe 96cc 11bd 58b3 acbe 8127 293d
00000070: 9d64 c6bd ebb2 ac3d ed8a f93b 8e79 9abe
00000080: 6f12 63bd 3211 02bc f89e 2fbe 5e62 763d
00000090: 556a 54be aa04 133c 6198 25bd a621 c0bd
000000a0: f923 09be 2dda 923d 7fa3 9ebd c7cb dfbc
000000b0: 1016 873d 687a 883e 9e77 db3d 57c8 86be
000000c0: 7bdb 0abf 35d5 473c efd2 81be dbeb 08be
000000d0: f800 03bd 9079 b93d 02cb 6539 1674 a2bd
000000e0: 4730 70bd f3a0 92bd ae8c 043c 73b4 eebe
000000f0: bd93 84be 6973 05bc 8ddc 0f3d 0f98 89bc
00000100: d81b 9fbd 31e2 e3bb 79d0 3abe 15eb 18be
00000110: d920 cb3c 4e8e e1bc 4454 c5bd 5024 e33d
00000120: 82fd 80bd 0de6 a73c 822a 2dbc 548b abbe
00000130: a89b 31be b3a6 7d3d 8572 87be 2c78 d83d
00000140: 905f 7fbe f4c9 b4be 3734 d13d 917b 663d
00000150: 6c3d ea3d 1dd4 9e3c ea4e 1d3e 6dcb 6d3e
00000160: 3c86 06be 90bb 44bd 2a42 cabd 821c 83be
00000170: 7867 543d f614 cdbd adf0 8abd 6f76 a1bd
00000180: a81f 17bd d7ea 893c 3664 78bd c8f0 abbd
00000190: 0420 1fbf 8ac5 19be becc d3be 95b4 153e
000001a0: bc89 21be 8ce4 933d a177 ae3c f3ee b13d
000001b0: 1b31 64be 9543 403d 4298 bb3d 0ec5 11bf
000001c0: 8b87 8dbd 6cab cb3c 1fc4 753d 8ffb dc3d
000001d0: adeb dabd 3c3e 033e 9d25 c4be b859 9bbd
000001e0: 0e61 5bbe 1972 30bd 33b4 7cbe 0914 b6be
000001f0: 64d9 29be 5484 46be 3520 b93c 7d52 94be
00000200: 3606 973d 6fc4 1c3d f917 7b3d 0532 943c
00000210: 42cf c43d e971 01be 6ac8 bbbd 7e65 fdbd
00000220: f499 353c 82c0 8cbe 53ad e13c de4f 6b3e
00000230: 247d 1d3c 1a70 dc3d b243 9c3d f626 1cbe
00000240: 523d 9fbd 6c53 12bd 5669 54bd 2a69 ccbe
00000250: 9fa1 bcbb c249 31be c54a 5ebd 80bc 99bd
00000260: 996e 4ebd 6880 313e 3f31 b83d 28b4 1fbd
00000270: 9eb8 2dbe 42df 59be c66a 9bbd 46f1 63be
00000280: 4c27 9b3d d0b9 303d 3bd7 903d eb3d cc3e
00000290: d77b 18bb fe9f 593a 347c 383d 2bca 2abe
000002a0: 7378 3cbe 78db 853d 6d21 40be e9bc 19bd
000002b0: c766 e7bd 3f15 2d3d dd20 0eba 6f10 48be
000002c0: 72c9 983c 052c 3ebe 0e06 dfbd 7218 82bd
000002d0: e89c 5a3e 58f4 c73d a29f 983d 4ba7 a4bd
000002e0: 7319 3e3d 79c5 55bd 1562 45bd b95b c83d
000002f0: 44b5 86be ffbf 18be 0b0c 9a3d 87fd d53d
00000300: 7c22 933e fed0 8abe dde3 82be 24c4 1ebb
00000310: 9fb0 6a3c e584 19bd 6cbc debd 1ff1 243d
00000320: 10bb 1fbe ca7a 913d 3947 a33d 6e66 a5bd
00000330: 6e45 acbc a80c e23c d583 743d 7130 39bd
00000340: c34e 9bbe 6281 cdbd 4335 473e eddf a93d
00000350: a4a0 8a3d f820 ca3d 1325 a43d c5b7 afbd
00000360: 385b 463c f511 713d b4a9 c8be efe3 b5be
00000370: 5c40 a3bd dc08 d03d 186c 0b3e c48a 74be
00000380: 9d3c 53bc f889 623d 6071 263c 1886 a5bd
00000390: 168e 96bd f022 a03d 3817 223e 0714 283d
000003a0: f318 46be c388 95bc f26f 003c 89a4 dc3d
000003b0: 1ebb b13d aaf5 9dbd 6adf a4bd 9509 89be
000003c0: 9a15 ecbd 82de f8bb e7ab 0a3e b748 8dbc
000003d0: 5dd2 ba3c a676 3fbd aae4 7e3e 53f9 b5bc
000003e0: e6ed 5bbd cd49 f63d 8f3b 6b3e deff 38be
000003f0: c588 a93d 0e73 13be 37d0 2d3e 8ee2 083d

bias f4 [128]
0.29725516 0.18989421 0.73540086 0.72098386 0.47810435 1.10757 0.40933803 0.33974648
0.3368887 0.15477368 0.17898726 0.4708199 0.45943266 0.17146634 0.09202481 0.94742435
0.6411221 0.66460925 -0.0013742478 0.29960677 0.66348547 0.6374622 0.39437786 0.39770296
0.86462104 0.34860083 0.5483751 0.36482418 0.3271213 0.7183425 0.39823908 0.42355552
0.15257825 0.7044155 0.55758095 0.627793 0.20631047 0.6814526 0.35941675 0.78225565
0.33133528 0.01274349 0.5230187 0.77456504 0.23471081 0.27978987 0.106537424 0.6979952
0.38472944 -0.06359777 0.07094047 0.6586149 -0.07934411 0.83014756 0.33322427 0.3491161
0.36732683 1.0165337 -0.0077349646 -0.21079408 0.8557689 0.69874066 0.40370572 0.8669066
0.7861922 0.73223597 0.28883666 0.4381773 0.20578566 0.6225393 0.004088234 0.53949565
0.16686723 0.3795115 0.43047628 0.09502448 0.57879156 0.9221442 0.96673256 0.65813357
0.8068891 0.3264762 0.043322418 0.4307665 0.03007589 0.30473614 0.7696927 0.033019777
0.042484898 0.82470804 0.7820015 0.33667472 0.109774075 0.7130339 -0.046847057 0.47723442
0.97100705 0.6266713 0.29363576 0.9912575 0.7128743 0.85760283 0.6625968 0.45861042
-0.074274436 0.57634616 0.099964924 0.3301725 -0.017754 0.9192623 0.30669144 0.8100657
0.15275733 1.010269 0.15062276 -0.03515422 0.58041245 -0.07627592 0.35220617 0.36422703
0.6995953 0.0029120494 0.69003356 0.23920693 0.80347705 0.45274544 -0.016133506 0.49210176
00000000: d431 983e a173 423e 3b43 3c3f 6692 383f
00000010: 18ca f43e dbc4 8d3f c194 d13e 40f3 ad3e
00000020: ad7c ac3e fe7c 1e3e 7048 373e 4e0f f13e
00000030: c23a eb3e df94 2f3e 8177 bc3d 678a 723f
00000040: 9420 243f d523 2a3f 1b20 b4ba 0f66 993e
00000050: 2fda 293f b930 233f e5eb c93e b99f cb3e
00000060: ce57 5d3f cf7b b23e 5062 0c3f 3cca ba3e
00000070: 717c a73e 4be5 373f fee5 cb3e 45dc d83e
00000080: 793d 1c3e 9354 343f a0bd 0e3f 0bb7 203f
00000090: 0d43 533e ad73 2e3f 7905 b83e e841 483f
000000a0: c7a4 a93e 12ca 503c 8ee4 053f e549 463f
000000b0: 0858 703e 9e40 8f3e 4b30 da3d d0af 323f
000000c0: 42fb c43e 8c3f 82bd 3d49 913d fc9a 283f
000000d0: 2a7f a2bd 8d84 543f 5f9c aa3e 58bf b23e
000000e0: 4312 bc3e c71d 823f 9675 fdbb 67da 57be
000000f0: ac13 5b3f abe0 323f 84b2 ce3e 97ed 5d3f
00000100: e443 493f d173 3b3f 66e2 933e c658 e03e
00000110: 7ab9 523e bc5e 1f3f 98f6 853b 631c 0a3f
00000120: 3edf 2a3e 554f c23e 6367 dc3e 329c c23d
00000130: af2b 143f a411 6c3f c97b 773f 717b 283f
00000140: 4990 4e3f e327 a73e d972 313d 6d8d dc3e
00000150: b661 f63c 6006 9c3e 950a 453f bf3f 073d
00000160: a504 2e3d 1120 533f 4031 483f a160 ac3e
00000170: 3bd1 e03d 6489 363f b3e2 3fbd 1258 f43e
00000180: eb93 783f 886d 203f 6d57 963e 0dc3 7d3f
00000190: ee7e 363f dc8b 5b3f f29f 293f fcce ea3e
000001a0: 321d 98bd 6c8b 133f 69ba cc3d 5f0c a93e
000001b0: d670 91bc c654 6b3f a906 9d3e 7760 4f3f
000001c0: 6b6c 1c3e 7f50 813f da3c 1a3e dffd 0fbd
000001d0: e995 143f 8d36 9cbd 5e54 b43e f77b ba3e
000001e0: ad18 333f 15d8 3e3b 0aa6 303f a9f2 743e
000001f0: acb0 4d3f 40ce e73e 6a2a 84bc c3f4 fb3e

weight f4 [5, 128]
0.10310233 0.04427408 0.20331503 -0.5051664 -0.36556378 0.29132047 0.03983992 -0.047134835
-0.011921798 -0.16562039 -0.068655506 -0.0803444 0.101607785 -0.02719296 -0.038003895 0.086885266
-0.09502994 -0.1920657 -0.09777482 0.28224456 0.10315097 0.1774262 -0.2082509 0.2148867
0.15165271 0.013452145 0.20170449 -0.06188913 0.1444924 0.10496584 0.07187389 0.46630123
0.18982401 -0.47541687 0.14424238 0.04697426 -0.2474156 -0.084261745 0.0897319 -0.08578393
-0.31225383 -0.01643417 0.09529707 0.07892326 0.10119764 0.07818104 -0.13050742 0.01292991
-0.025565645 0.07001025 -0.0753558 0.13264455 0.06415196 0.13939302 0.0018638456 0.028575748
0.18504274 0.19611491 -0.0022987658 0.044823963 -0.17275044 0.07307048 -0.051838048 0.061238293
0.038313244 -0.17963357 0.08746904 0.023288922 0.022690022 0.060611486 -0.08692792 0.2615926
0.043661777 -0.0732427 0.1259324 0.030629154 -0.10782194 0.1095999 0.20765388 0.15803091
0.09054052 -0.007579464 0.085203595 0.20639846 0.100567736 0.0010150039 0.30835244 -0.05273228
-0.13597344 0.012466948 -0.15873271 0.27151725 -0.021750597 0.016827323 0.03387094 0.011450435
0.08491113 0.109943725 -0.31391525 0.18770218 0.05487337 0.0625399 0.09765819 -0.25093976
-0.020556668 0.18170564 0.005228509 0.00017647307 -0.26853377 0.22649701 -0.009170868 0.24790458
0.23182887 0.07719387 0.15315895 0.02363761 0.16034453 -0.29993045 0.21528497 -0.0399466
0.047615252 -0.12607588 0.08116217 0.12380474 -0.005655014 -0.52242416 -0.3776695 -0.107788846
0.3516677 0.07785541 0.18916321 -0.08445636 -0.45336413 0.26090515 -0.2578144 -0.0748415
0.1777114 0.019867426 -0.29276487 -0.095583715 -0.024130143 -0.5550518 -0.03427863 0.0937777
0.05663814 -0.1321037 -0.21496853 0.3247899 0.13332851 0.08924169 0.12245323 0.1514035
0.11051863 0.047457993 0.10116873 0.074665986 0.43627653 0.13933761 -0.033010922 0.27422017
0.16999213 -0.40639338 0.05003213 0.045005918 -0.26811072 0.02949574 -0.0719635 0.18364973
-0.4988967 0.062362026 0.113600515 0.32911083 0.01747864 0.055517312 -0.16907398 0.050843347
-0.02918693 0.10731543 -0.0058335843 0.11346956 0.17987052 0.042383984 0.012572899 0.10337263
0.290165 0.17059357 0.04195229 0.08407804 -0.14529179 0.07502948 -0.032632906 0.080110155
0.0210173 -0.35293266 0.27120063 -0.01991002 0.298365 0.103392504 0.056528073 0.21151409
0.00880142 0.009730908 0.090129144 0.043548808 -0.20222475 0.05569181 0.305597 0.14806035
-0.034599736 -0.10109113 0.07909974 -0.16239785 -0.0073694843 -0.2241753 0.1833488 -0.085008726
-0.22525533 -0.043390848 -0.02758311 0.20045266 0.1264284 -0.035624456 -0.13171022 -0.21178468
0.17457189 -0.035311367 -0.0141087845 0.11531328 0.019814266 0.05448617 0.10603333 -0.09265169
0.06241418 0.09713609 -0.11808332 -0.009973044 0.18220218 0.21393858 -0.17342387 -0.042140435
-0.020371228 0.13159029 -0.044095226 0.20604943 -0.20925963 -0.08323319 0.012190163 -0.17538907
0.20592536 -0.30378717 -0.07203041 0.3876429 0.067863576 -0.153467 -0.14530529 0.10731261
00000000: 5027 d33d bd58 353d d131 503e 9652 01bf
00000010: 2d2b bbbe f527 953e 2f2f 233d 7510 41bd
00000020: a553 43bc 6498 29be 429b 8cbd 9b8b a4bd
00000030: be17 d03d c5c3 debc f9a9 1bbd e7f0 b13d
00000040: 0f9f c2bd dfac 44be 2a3e c8bd 5c82 903e
00000050: d140 d33d 37af 353e b93f 55be 420b 5c3e
00000060: d94a 1b3e 6366 5c3c 9f8b 4e3e 757f 7dbd
00000070: d1f5 133e 55f8 d63d 9e32 933d 09bf ee3e
00000080: 3a61 423e d769 f3be 46b4 133e 1568 403d
00000090: 845a 7dbe 6c91 acbd 5cc5 b73d 7caf afbd
000000a0: bcdf 9fbe f4a0 86bc 1c2b c33d 85a2 a13d
000000b0: b540 cf3d 621d a03d bda3 05be f9d7 533c
000000c0: 0b6f d1bc 8961 8f3d 2454 9abd f9d3 073e
000000d0: 1a62 833d 0bbd 0e3e 484c f43a b017 ea3c
000000e0: d87b 3d3e 59d2 483e e4a6 16bb 5599 373d
000000f0: 7ee5 30be faa5 953d 2254 54bd 01d5 7a3d
00000100: 59ee 1c3d ddf1 37be f822 b33d 69c8 be3c
00000110: 6de0 b93c c043 783d 4407 b2bd 77ef 853e
00000120: b1d6 323d 4500 96bd 6cf4 003e fee9 fa3c
00000130: c0d1 dcbd ea75 e03d 38a3 543e dbd2 213e
00000140: 4f6d b93d 275d f8bb 397f ae3d 1e5a 533e
00000150: 75f6 cd3d e109 853a 5fe0 9d3e cefd 57bd
00000160: 9f3c 0bbe 2b42 4c3c d48a 22be 4f04 8b3e
00000170: 4f2e b2bc 74d9 893c 41bc 0a3d 9b9a 3b3c
00000180: e3e5 ad3d 2d2a e13d 80b9 a0be 0035 403e
00000190: e6c2 603d eb14 803d 0401 c83d 2d7b 80be
000001a0: 7566 a8bc 0b11 3a3e ea53 ab3b a10b 3939
000001b0: 427d 89be d5ee 673e 6941 16bc b3da 7d3e
000001c0: 8c64 6d3e d217 9e3d b3d5 1c3e a9a3 c13c
000001d0: 5b31 243e 7c90 99be aa73 5c3e 0c9f 23bd
000001e0: 3608 433d 091a 01be 5a38 a63d 578d fd3d
000001f0: b24d b9bb 97bd 05bf e65d c1be 66c0 dcbd
00000200: ca0d b43e a872 9f3d 00b4 413e 75f7 acbd
00000210: 581f e8be 5c95 853e 4000 84be 8046 99bd
00000220: faf9 353e 03c1 a23c 47e5 95be 65c1 c3bd
00000230: 94ac c5bc e017 0ebf c067 0cbd 860e c03d
00000240: 65fd 673d 3146 07be b620 5cbe dd4a a63e
00000250: 4587 083e 59c4 b63d c2c8 fa3d 8509 1b3e
00000260: 9757 e23d 5063 423d 8d31 cf3d 7bea 983d
00000270: a35f df3e 85ae 0e3e 7636 07bd 9666 8c3e
00000280: 6b12 2e3e cb12 d0be 7eee 4c3d 2058 383d
00000290: cf45 89be 0da1 f13c 9961 93bd ad0e 3c3e
000002a0: 636f ffbe 536f 7f3d 63a7 e83d 3781 a83e
000002b0: 5d2f 8f3c 1f66 633d bb21 2dbe 1d41 503d
000002c0: 6e19 efbc 31c8 db3d a727 bfbb bb62 e83d
000002d0: fa2f 383e d49a 2d3d 90fe 4d3c 08b5 d33d
000002e0: 8290 943e 15b0 2e3e 2ad6 2b3d 1c31 ac3d
000002f0: 5fc7 14be 0ea9 993d 15aa 05bd cb10 a43d
00000300: 792c ac3c 97b3 b4be cfda 8a3e 571a a3bc
00000310: 4cc3 983e 73bf d33d fb89 673d 2697 583e
00000320: d533 103c 636e 1f3c a195 b83d 3c60 323d
00000330: 0114 4fbe 181d 643d 3677 9c3e 229d 173e
00000340: 74b8 0dbd de08 cfbd 0bff a13d 9f4b 26be
00000350: b77b f1bb 368e 65be cabf 3b3e 0e19 aebd
00000360: 55a9 66be 9aba 31bd f9f5 e1bc 7643 4d3e
00000370: 7276 013e f3ea 11bd 0bdf 06be 15de 58be
00000380: f9c2 323e a7a2 10bd 8828 67bc 5e29 ec3d
00000390: 8751 a23c e42c 5f3d 0128 d93d 2bc0 bdbd
000003a0: 03a6 7f3d 49ef c63d abd5 f1bd fa65 23bc
000003b0: 3593 3a3e b712 5b3e 0796 31be 739b 2cbd
000003c0: 90e1 a6bc 9bbf 063e 329d 34bd 9ffe 523e
000003d0: 2848 56be 2a76 aabd 40b9 473c 3199 33be
000003e0: 19de 523e fe89 9bbe ae84 93bd 2179 c63e
000003f0: 0ffc 8a3d 7426 1dbe e9ca 14be b7c6 db3d

bias f4 [5]
0.40205303 0.61449593 0.4709441 0.42620394 0.2987862
00000000: e5d9 cd3e 9b4f 1d3f 961f f13e 6737 da3e
00000010: 81fa 983e
