DQN一阶无领航机器人编队控制/models/dqn_3.pt (torch, 206575 bytes, 10 tensors)

weight f4 [128, 2]
00000000: 13f7 87be cbdb 1b3d 0616 6f3e c4c6 b7be
00000010: aefd cbbe f95a 933e 3e04 5d3d a516 623c
00000020: c07a 1abe d780 693d a6c2 d7be e371 cabd
00000030: 13b7 733e cc39 aabd 1e03 7c3d 58b2 f1bd
00000040: 617d b03d 28ec a4bd e2f7 613d e1c7 43bd
00000050: f7e7 7e3d 5e62 e9bd ff8a b53e e1ca 2a3d
00000060: 6788 23bd 956d 63bd 1796 b73e d0f8 06be
00000070: 7af6 d9bd abad bdbe 1979 9f3b 8a09 dc3a
00000080: 2d84 c63d 0e4b 61bd 04fa 2bbe a694 8cbe
00000090: 455a 6e3e 61c9 a8bd d844 933d e943 24be
000000a0: d954 a63d 19ea 10bd e741 873d bc63 b4bc
000000b0: 46bd 3c3e ac94 d7bd 1bb9 2f3d 0d36 1fbe
000000c0: a546 b63d b566 c3bd d4bd d43d 9631 e5bd
000000d0: f5c0 a33d 72c9 fabd a6e7 713d e404 babd
000000e0: 9fad e33d f4a5 f4bd b810 703f 344c 5fbb
000000f0: 3987 ec3d b250 01be 43bc 053e 6dbd 1c3e
00000100: ab65 8c3e 565e 753e 0c15 a2bd 5b80 dbbd
00000110: 5dc4 993c 4d0f 8f3c 3bbc 1fbc 1d73 5ebd
00000120: d61c 3f3e 601c 99bd cda1 b93e 1115 46bd
00000130: edb4 83bc 09a8 943d 8b79 b53e aae9 15be
00000140: 7ab5 863d 7508 1fbe f891 00bd e149 b9bd
00000150: 3123 803e 405a 643e 9308 2cbe a0de 39bd
00000160: bb3a 353f aad0 023d b8aa ff3e 96db 583d
00000170: a334 a63d ee02 3cbd f1ba b73e b823 7bbe
00000180: 0ee1 87bd 5369 87be 04e4 c13d 918b dcbd
00000190: 2c0a e8bd fdad bebd a43f dbbd 05cd 1cbe
000001a0: 84ea b3bd 07e9 0c3e b778 153f aa14 fd3d
000001b0: 2b5f 92bd 7603 dcbd 0341 c53d 8102 18be
000001c0: 930b f53c 9eac 82bc 74be 10be 056c b4bd
000001d0: 57f6 943d 8d28 f2bd a7ca bc3d 745c 61bd
000001e0: b3fc 9fbd f97a 0bbf a6d8 3ebe 3672 a5be
000001f0: ff11 b03d 7a2b 04be e9a1 8cba a518 9dba
00000200: a287 c03b 3bd4 81bc f8c2 dcba 5303 da3b
00000210: 8e64 eebc e255 75be f461 d5bd 9e2e 11be
00000220: e9e9 ad3d 55fc 07be 580c a33d c185 b8bd
00000230: 9784 693d 1063 adbd 1963 fc3d 3e35 24be
00000240: ab1a e1bd a91d 2cbc ecca 303e b691 91be
00000250: 6826 dd3d 759b e8bd 569a b43d af09 fdbd
00000260: 1cc4 793d a9a7 24bf f8bf ddbd 8524 08bf
00000270: be8d 033c e68a 06bf 6ee6 623e 9eae 0e3e
00000280: dd1f 933f 95ef 9fbc 1e6c 913e 85f5 d4bd
00000290: a70d 7c3d 22aa b2bd 1875 1f3f 724b 73bd
000002a0: 6169 b8be 7a62 283e cbea 833e bfd0 333d
000002b0: 5ddd 5fbe 6ba2 c7be 08de 0d3e 3b04 fdbd
000002c0: 6de7 dc3d ab0f e7bd 8c9a 873c 6eae 4dbc
000002d0: 5c3c 563d c87f ae3c 7798 ad3e b606 e6bd
000002e0: 626a c93e 0ae6 0dbe 677d f53d 6fcb 22be
000002f0: 5757 2e3d ffa4 18bd d1cd 0cbe db30 c13b
00000300: e513 793d 980b c2bd 65ad 393e e91a a7bd
00000310: 83fa 1a3d f7bf e73d d896 6d3d 9d64 04be
00000320: 82ab 823d a691 b8bd 42c8 783c ad74 7d3d
00000330: 9274 af3d 7e21 ddbd eeae 893d 0e1d a6bd
00000340: 12f8 a43d 2250 e2bd 28eb e73d 3447 98bd
00000350: 3ff0 093d d713 d2bc d767 7e3c 2a95 ca3b
00000360: 1e43 aa3e ce51 0bbe 84a1 883e 496e bebe
00000370: d258 063d e9fa ddbd 881d febd 99ef febe
00000380: d4bc 833d 9863 b1bc 9cb6 803f c96d 0ebc
00000390: f6be 6c3d d1c0 25be 2063 b63a 789b 503c
000003a0: 2362 93be 8284 ed3b 32a1 a83d a6a6 0bbe
000003b0: aadf a73d 1a56 e4bd 87c3 e73e dc95 b1be
000003c0: 0d6f 3abe cb9f 51be c1d0 453e 1029 023d
000003d0: 56b5 0dbe 611f c2be 9ba6 a63d e954 e6bd
000003e0: f50f 343f ef7a 963d 1659 71bc e3db 0dbf
000003f0: bbc7 a53d 52e5 ddbd 9123 943d 5489 a3bd
-0.2655569 0.038051408 0.23348245 -0.35893834 -0.3984198 0.28780344 0.053959124 0.013799344
-0.15085888 0.057007637 -0.42140692 -0.098850034 0.23800306 -0.08311805 0.06152641 -0.118015945
0.08617664 -0.08052856 0.05516804 -0.04779804 0.062232938 -0.11395715 0.35457608 0.041697387
-0.039925005 -0.055524427 0.35856697 -0.13180852 -0.10642715 -0.3704656 0.004866731 0.0016787511
0.09693179 -0.05500322 -0.16794592 -0.2745716 0.23276623 -0.08241535 0.07190865 -0.1604153
0.08121652 -0.035379503 0.06604367 -0.022020213 0.18431577 -0.10526404 0.04290114 -0.15547962
0.08900193 -0.09541074 0.10387769 -0.111910984 0.07995788 -0.12245454 0.059058808 -0.09082964
0.111171 -0.119457155 0.9377551 -0.003407252 0.11549229 -0.12628439 0.13060097 0.15306635
0.27421317 0.23961768 -0.079141706 -0.10717841 0.018770391 0.01746335 -0.0097494675 -0.054309
0.18663344 -0.07476115 0.36256257 -0.048359934 -0.016077483 0.07258613 0.35444292 -0.14639917
0.06577583 -0.1553057 -0.031389207 -0.090472944 0.2502685 0.22300053 -0.16800146 -0.045378327
0.7079274 0.03193728 0.49934936 0.05294379 0.081155084 -0.04590123 0.35884812 -0.24525344
-0.06634723 -0.26447544 0.09467319 -0.10768808 -0.11330065 -0.093105294 -0.10705498 -0.15312584
-0.08784965 0.13760768 0.5838732 0.12357457 -0.07147058 -0.107428476 0.096315406 -0.14844705
0.029912746 -0.01595145 -0.14135152 -0.088096656 0.07273548 -0.11824141 0.0921834 -0.05501981
-0.078118704 -0.54484516 -0.18637332 -0.323137 0.085971825 -0.1290721 -0.0010729405 -0.0011985494
0.0058755437 -0.01584827 -0.0016842773 0.0066532283 -0.029100683 -0.23958543 -0.10419074 -0.1417794
0.084918804 -0.13279851 0.07961339 -0.090098865 0.057011213 -0.0846616 0.12323589 -0.16035935
-0.10991415 -0.010505118 0.17264909 -0.2843148 0.10798341 -0.11357776 0.088185 -0.123553626
0.06097804 -0.6431833 -0.10827631 -0.53180724 0.008029399 -0.5255569 0.22158214 0.13933799
1.1494099 -0.019523421 0.284028 -0.10398392 0.061536457 -0.087238565 0.62288046 -0.059398122
-0.36017898 0.16443816 0.2576507 0.043900248 -0.21861787 -0.38991103 0.1385423 -0.123543225
0.107863285 -0.11282285 0.016553186 -0.012553794 0.052303657 0.021301165 0.33905384 -0.11231749
0.39338976 -0.13857284 0.11986809 -0.15897916 0.042563763 -0.037266728 -0.13750388 0.0058957166
0.06080999 -0.094748676 0.18132551 -0.081594296 0.037836563 0.11315911 0.058005184 -0.12929006
0.06380369 -0.09012155 0.015184464 0.06187885 0.08567156 -0.10797404 0.06722818 -0.081110105
0.08055128 -0.1105044 0.11324149 -0.07435456 0.033676382 -0.025644226 0.015527687 0.0061823325
0.3325433 -0.13605425 0.26685727 -0.37193516 0.03279955 -0.10838873 -0.124079764 -0.49792174
0.064325005 -0.021653935 1.0055728 -0.008693167 0.057799302 -0.16186835 0.001391504 0.012732379
-0.2878581 0.007248462 0.082338706 -0.1363779 0.081969574 -0.11149235 0.45266363 -0.34684646
-0.18206425 -0.20471112 0.19317915 0.03177744 -0.13838705 -0.37914565 0.08137246 -0.11246664
0.7033685 0.073476665 -0.014730712 -0.55413646 0.08094736 -0.10834755 0.07233346 -0.07985178

bias f4 [128]
00000000: 2057 08be 9997 1bbe b82c 59be 08a3 d63e
00000010: 0486 c13b 26d9 413f 7775 2f3f 0e5b 413f
00000020: 0b7d fc3e d8c1 393e b52d 4d3f a5c4 c53e
00000030: 6689 62bd 809d 5f3f e74d 16be 41aa 8fbd
00000040: aaf3 4d3e 5228 873e 7bfb 293f c319 843f
00000050: 8e6d c13d aa7b f93c 9531 333f f55c 3d3e
00000060: 70b2 0d3f b5ee 2d3f 414d 613f f882 273f
00000070: 9dfd 5a3f 1f60 7d3d 108e 663f e238 a03d
00000080: c491 8a3e d208 403f 2d3b 5abe 528c 203d
00000090: 93ad 8a3e 8135 e13e 80ad cd3e b137 5a3f
000000a0: 00a1 7b3f 694a e1bd ff19 b03b bf09 673e
000000b0: 215c d9bd 99b1 213f 52e5 3b3e 0355 893e
000000c0: 98d2 2abe 503b 603f a562 223f f10d 8c3f
000000d0: e454 f7bd c452 db3e a7a0 423f c7bf 873f
000000e0: 08c3 623d 85d5 1a3f e5d2 573f eddb 2dbd
000000f0: 6cc0 ff3c 1931 dd3e 4100 6c3f 4e6f b8bc
00000100: 6ca3 b8bd 7cba 253f c5da 86bd d34f 803f
00000110: d4f6 743f 1f5e 043f d60a 213f c144 773f
00000120: c097 4e3e a405 98bd 4636 303f e617 6e3f
00000130: c23a 243f 8349 6cbe 38d0 423e b88a d43e
00000140: 17dc 243e e61c 103f fe5f e83e 9cee c43e
00000150: 0fb7 903e bd42 f13d f663 843d 014b 513f
00000160: 3d03 9f3e 0cae 94bd dbc5 df3e 7b1d 2a3f
00000170: 4d48 4f3f 6d8b 713f 8ff6 c13d fcb4 263f
00000180: 3a99 2c3f cc1d 833e 2187 283d 5ee6 453f
00000190: aaca 243f 36b0 68be 2f08 6b3f 6f6a de3e
000001a0: bd23 2d3f 432a ba3e 1b67 30bd a2eb 0abe
000001b0: 98fa 693f 3341 c53c 3864 1d3f 7f37 3cbe
000001c0: 63ec b63b 537a 793d 9a88 623e 4e02 3abe
000001d0: 54b7 7a3d 0102 7e3f 16aa 253f a201 d33e
000001e0: 30a4 9ebd 6008 233f a1cc d23e dcb3 263f
000001f0: bb24 c23d f149 7b3d f235 2a3f 73f4 db3e
-0.13314486 -0.15194549 -0.21208465 0.41921258 0.0059058685 0.7572197 0.6853861 0.75529563
0.4931415 0.18140352 0.8014787 0.3862659 -0.055306815 0.873497 -0.14678155 -0.07014895
0.20112482 0.2639795 0.66399354 1.0320362 0.09444724 0.030454475 0.6999753 0.18492492
0.553504 0.67942363 0.88008505 0.6543422 0.85543233 0.061859246 0.9006052 0.078233495
0.27064335 0.7501346 -0.21311636 0.03919632 0.27085552 0.43986133 0.40171432 0.8524123
0.9829254 -0.11000521 0.0053741927 0.22562312 -0.10613275 0.6316162 0.18349198 0.2682267
-0.16681898 0.87590504 0.6343177 1.0941755 -0.120767385 0.42836583 0.76026386 1.0605401
0.055361778 0.60482055 0.84306175 -0.042446066 0.031219684 0.4320152 0.9218789 -0.022514012
-0.09015545 0.6473768 -0.06584696 1.002436 0.9568913 0.5170612 0.6290716 0.96589285
0.20175076 -0.07422951 0.68832815 0.93005216 0.6415216 -0.23074917 0.19024742 0.41512084
0.16099583 0.56294096 0.45385736 0.38463295 0.28264663 0.117803074 0.064643785 0.8175507
0.31057158 -0.07259759 0.4370564 0.66451234 0.809697 0.9435337 0.094708554 0.6511991
0.67421305 0.2560867 0.041144494 0.7730464 0.6437174 -0.22723469 0.9180936 0.43440577
0.6763266 0.36360368 -0.04306708 -0.1356645 0.91398 0.024078941 0.61481047 -0.18380545
0.0055823787 0.060907673 0.22122422 -0.18164942 0.06120999 0.9922181 0.64712656 0.41212183
-0.0774616 0.63684654 0.41171744 0.65118194 0.09479662 0.061349813 0.66488564 0.42959937

weight f4 [128, 128]
00000000: 2ae4 a5bd be36 e13d f379 64bd 1f29 01be
00000010: 45a2 75bc 17c1 c1bc 226d 8a3d 1b2c f2bc
00000020: d5cc 983d 56a2 36be 43a9 eb3b a6d3 11bd
00000030: 1205 3f3d ceae 8ebd 8036 953c dfca 17bd
00000040: 0c49 023e 53e4 2f3e 1150 f33d 1eb5 0cbe
00000050: ee34 55be c602 7e3d 9e13 08bc 7180 753d
00000060: b458 17be f70a bd3c 7f30 6bbe a15c 633d
00000070: 1cfe 14be 5171 4bbe 1363 90bd 7c14 a7bc
00000080: 2fa3 90be 240f cfbd 81e0 0dbd d226 91bd
00000090: 491f 8d3b 6c1f 403e 3ff4 cc3c 94eb 063c
000000a0: ead9 3e3d dab2 8abc ad6e d83d 0b6e 673c
000000b0: c7da 3abe 6108 e83d d71d 4fbe 9092 fabd
000000c0: 4d4d c73d 80cf 09be e9d7 03be dadd 48bb
000000d0: fbed d03d 2fe6 8bbc d1b5 10bd af41 4c3a
000000e0: 6cb4 033e d006 7e3d 6c1e 063e 08b4 f6bc
000000f0: 8152 2b3e d30b afbd 3b36 22bc 89c3 16be
00000100: 179c 40bd 85ea acbd 4448 b8bd f7cc a8bd
00000110: 597c a2bc b8df 36bd 06f6 98bd f684 c63d
00000120: 96dd d23c 8899 743d 16d4 25be d2e1 e4bd
00000130: 95e3 bbbd 88ff c8bd 9cb3 9ebb 3cc1 c6bc
00000140: 1136 873d ff53 353c 51e5 b1bd 91a1 52bc
00000150: f4dd 22bd 5dd4 f2bc 41dc 30bd 52e9 81bd
00000160: 1e6c ddbd 53ac dbbd 9b1b 393c d925 9a3d
00000170: def2 58be 37ac b1bb 9407 783d 112d 903d
00000180: 7ab3 38bd d490 643c e1fd 50be fa4e 913d
00000190: 3ede e0bd d021 c8bd b12f c0bd aec3 09be
000001a0: 7620 3abe e0a4 0bbd 40cf 663d 7c66 c6bd
000001b0: 472c 253d eeb3 fdbc f46c 953d f867 0b3e
000001c0: 9a40 11bd 4e87 1cbd 2c88 b0bd fdec 003d
000001d0: ca4c 91bc 024f 05be 4edb 163c e22d 82bd
000001e0: d446 673d 4239 4b3d 8b1a a3bd cd6a 62bd
000001f0: 03b8 32bd 989f 37bd c5ce ddbc 88e8 a53c
00000200: 1ff2 7bbe 072a 7fbb 80fb 4ebe 3e1a aabd
00000210: a08d 0abe b551 1ebd 8db7 1e3b 96fc 1b3e
00000220: 258b 2f3d 4d6b 27bc 3961 ea3c 1b96 673d
00000230: ecba a2bd 28cd 693c c69f 38be 8bd1 28be
00000240: 4e6f 063d a80d f3bd e011 eabc 6cab 213e
00000250: 7999 253d 0316 653d b861 75bd 2d58 0b3b
00000260: 87e8 843d da6d 0bbd 9ff8 df3c 4c29 81bc
00000270: 0781 03bc a051 24bd d58a 02be 3313 1b3d
00000280: 601b f3bc a594 f33c e3ab dcbd 9813 53be
00000290: 6920 a5bd 8c35 eb3d 4394 aabd 354b 37bd
000002a0: 81b6 5b3d 0b11 a6bc b5e0 5dbd ca53 bdbd
000002b0: d5f3 67be e2ce cfbb 6ceb b0bb 12cf 27be
000002c0: a47e f5bd a71e 823d 454d 043e 1149 d8ba
000002d0: d951 253d fb2e 093c 6a83 9bbd 6373 59bd
000002e0: 2401 72bc d4c7 e73c 19dc 8d3d 2f12 b53d
000002f0: 0ae5 ff3d c063 f1bd e2a7 0cbe b3e0 7cbc
00000300: 2a2e adbd be8f 1cbe a259 9c3d 42bb a73c
00000310: 3ef4 aabd 46fe 213d ea61 f7bd d773 4a3d
00000320: 4678 01be b3a0 873c 4d77 b9bd 3b90 d1bd
00000330: 51e0 2bbe 04c4 383d 2641 94bc 5dcf 793d
00000340: d5d1 51be aa27 4cbc 22df cc3d be8b 70bd
00000350: 8d17 1abe 9577 b3bd b0e9 edbc c03e 883d
00000360: fab6 df3d 81dd 21be 4172 c5bd 97dd 5ebc
00000370: 9e49 b33d 2e3b 603e cc67 01bd aa84 5b3d
00000380: 6315 06be dafe 273d d015 143d 4689 45bc
00000390: baf3 0ebe 50c3 18be 60de c5bc 16bd cabc
000003a0: 9b90 94bd 7166 08bd c274 be3c 57d2 dabd
000003b0: d40e f3bd 040f 47be b193 053d 2218 fe3c
000003c0: fae3 12be 0ceb 8ebe 6e7c ef3c 6400 823d
000003d0: 960e 5abd 1dc5 cabc 2f09 79bc db18 89be
000003e0: 3a12 a23c 4cd2 74bc 2606 86bd 1beb 9ebd
000003f0: abd4 94bd 1d9a e63b 9b3f eabd 2b86 b7bc
-0.081001595 0.10996769 -0.055780362 -0.12613343 -0.014992301 -0.023651643 0.06759097 -0.029562047
0.074609436 -0.17835364 0.0071918084 -0.035602234 0.046635695 -0.06966935 0.018214464 -0.037058707
0.12723178 0.17176943 0.11880506 -0.13740966 -0.20820972 0.062014364 -0.008305458 0.059936944
-0.14779931 0.023076518 -0.22967719 0.05550826 -0.1455006 -0.19867446 -0.07050147 -0.02039551
-0.282495 -0.1011031 -0.03463793 -0.070874825 0.004306708 0.18761986 0.02501881 0.008234877
0.046594538 -0.016930986 0.10567985 0.014125357 -0.1824752 0.11329723 -0.20226227 -0.12234986
0.09731541 -0.13458061 -0.12875332 -0.0030649812 0.10201641 -0.017077534 -0.035329644 0.000779177
0.12861794 0.062018216 0.13097543 -0.030115142 0.16730691 -0.08547177 -0.009900625 -0.14723028
-0.04702386 -0.084431686 -0.089981586 -0.08242219 -0.019834684 -0.04464695 -0.074688 0.09693329
0.025740426 0.05971673 -0.16194186 -0.11175884 -0.09174267 -0.09814364 -0.0048431884 -0.024262063
0.06602109 0.0110673895 -0.08686317 -0.012855903 -0.039762452 -0.029642278 -0.0431788 -0.063433304
-0.10811637 -0.107262276 0.011298086 0.0752675 -0.21186396 -0.005422141 0.060554102 0.07039846
-0.045093037 0.013950545 -0.20409347 0.07095142 -0.10979889 -0.09772074 -0.093840964 -0.13453552
-0.18176445 -0.034092784 0.056349993 -0.09687516 0.04032543 -0.030969586 0.07296172 0.1361388
-0.035462 -0.038214974 -0.08619723 0.03147601 -0.017736811 -0.1301842 0.00920756 -0.06356408
0.05646403 0.049615152 -0.07964047 -0.055277634 -0.04363252 -0.044829935 -0.027076134 0.020252481
-0.2460408 -0.0038934962 -0.20213127 -0.083057866 -0.13530588 -0.03865214 0.0024218292 0.15233073
0.042857308 -0.010218454 0.028610813 0.056539636 -0.07945809 0.0142701045 -0.18029699 -0.16486184
0.032820992 -0.11867839 -0.028572977 0.15788049 0.040429566 0.055929195 -0.059907645 0.0021262274
0.064896636 -0.03404031 0.027340231 -0.015766762 -0.008026368 -0.040116906 -0.12748273 0.037860107
-0.02967614 0.029733965 -0.10774972 -0.20612943 -0.08062822 0.11484823 -0.0832906 -0.044749457
0.053640846 -0.020271799 -0.054169375 -0.09244497 -0.22651608 -0.006341801 -0.005399158 -0.16387585
-0.119870454 0.06353503 0.12920101 -0.0016501268 0.04036126 0.008373017 -0.075934246 -0.053088557
-0.01477078 0.028293528 0.06926746 0.08841359 0.124948576 -0.11786604 -0.13735917 -0.015434432
-0.08456071 -0.15289208 0.076342836 0.020475034 -0.08347367 0.039549135 -0.120792225 0.04942688
-0.12643537 0.01655612 -0.09055958 -0.10232588 -0.16784789 0.04510881 -0.018097471 0.060988773
-0.20490201 -0.0124606285 0.10003497 -0.05872702 -0.15048046 -0.08763043 -0.029042095 0.066525936
0.10923572 -0.15807153 -0.09640933 -0.013602636 0.08754276 0.21897575 -0.03159313 0.053593315
-0.13094096 0.04101453 0.036153615 -0.012056654 -0.13960162 -0.14918256 -0.024153888 -0.024748366
-0.07254144 -0.03330082 0.023249034 -0.106846504 -0.118680626 -0.19439322 0.032611553 0.031017367
-0.14344779 -0.27913702 0.029234137 0.06347731 -0.053236566 -0.024752194 -0.015199943 -0.26776776
0.019784082 -0.014942717 -0.065441415 -0.077596866 -0.07267126 0.0070374147 -0.11437913 -0.022402843

bias f4 [128]
00000000: bd4d 8a3e f6ec 123f 384c b5bc ab85 223f
00000010: 5900 c93c 9ffc b63e 3251 2c3e 281b 113f
00000020: cdf2 013f 0ec3 173f 84b7 633f 0e67 4c3f
00000030: eaf2 d33e a719 02be 8137 193f 7cfe 663f
00000040: 6388 e13d 17f5 a83d 9308 5c3f 0acb a53e
00000050: 0688 653f 1cde 513f 1702 083e 2c5a 5c3f
00000060: 0b76 623f d204 c33e 2aed a43e 6f6c 403f
00000070: e4c7 7c3e fb75 fe3e 2cc4 563e f31b 393f
00000080: fbc5 193f 158c 433e 6a91 1e3f ceef cfbd
00000090: 947c 773e e78b 3d3f 06c0 b83e 771e 033f
000000a0: 317b 1f3f 0d1c ee3e b9ec dd3e d0c5 a63e
000000b0: 746c 323f faca a03e 9c25 213d abe1 3a3f
000000c0: 5209 583f 404c 043f 3fd0 763d e259 3a3f
000000d0: 620f 123d 6e8c 903e c177 073e ba5e 933e
000000e0: 9169 4a3f d4b0 793e 34a5 173f e20e 023a
000000f0: 03be 0f3f 3047 2b3d c83f 0f3f 84f9 9d3e
00000100: e5a6 763e d6a8 f73e 8614 303f e096 453f
00000110: 0b7c ee3e 05a7 d33e 33ae 5d3f 1d44 1e3f
00000120: e6b5 663e cb7b d23e b396 593e b9dd 233f
00000130: 08bc 133f 7cd0 173f 0c10 b2bd 8ce8 143e
00000140: b02c 2c3f c46c 65bd c2a4 1b3d e7a6 a13e
00000150: 3f19 0f3f 82f0 813e 4fc3 713e adfc 4a3f
00000160: 0541 483f 20a5 023f 3a50 f43e 39e2 3d3f
00000170: 11c2 853e 886c 523f 3662 4d3f 8f4b 583f
00000180: cc85 fb3e cfae 563f de94 d73e a02f a63e
00000190: 456d be3e c001 e43e 49b4 0c3f 357b 4b3f
000001a0: 0c3d bf3e 74bf b03e 001b 213f e315 573f
000001b0: 4b32 733f 94d8 813e 1b10 333f 03b2 3f3f
000001c0: 89bd 403f 4ad1 613f 2263 613f 5a44 1b3f
000001d0: ae10 d43d 3ddd 063f ff13 f33e d70f 6c3f
000001e0: d61e 833e 1b61 443f 3f42 403e 384c b83e
000001f0: c762 773e 4b70 243f 1247 f13e 9b45 653f
0.27012435 0.57392824 -0.02213107 0.6348521 0.024536299 0.3573961 0.16827849 0.5668206
0.5076111 0.59282005 0.889519 0.7984475 0.41396266 -0.12705098 0.5985032 0.9023206
0.11012342 0.08249872 0.85950583 0.3238147 0.8966068 0.81979537 0.13282047 0.8607509
0.8846137 0.38089615 0.32212192 0.75165457 0.24685627 0.49699387 0.20973271 0.7230827
0.6006772 0.19096406 0.61940634 -0.10153161 0.24168617 0.740416 0.36084002 0.5121836
0.6229735 0.46505776 0.43344668 0.32572794 0.69696736 0.3140486 0.039342508 0.7300059
0.8438922 0.5167885 0.060257193 0.727934 0.0356592 0.2823214 0.13229276 0.28783208
0.7906733 0.24383861 0.59236455 0.0004961324 0.5614931 0.041815937 0.559567 0.30854428
0.24087103 0.48371 0.68781316 0.7718334 0.46579012 0.41338363 0.8659393 0.6182268
0.22530326 0.41110072 0.21248893 0.64010197 0.5770879 0.59302497 -0.08694467 0.14541835
0.6725569 -0.05601193 0.037998922 0.3157265 0.558979 0.25378805 0.2360966 0.792918
0.7822421 0.5103321 0.47717458 0.74173313 0.26124623 0.82196856 0.80227983 0.84490293
0.49125516 0.83860487 0.42105764 0.3245821 0.3719274 0.44532585 0.54962593 0.79484874
0.37351263 0.34521067 0.62931824 0.8401777 0.94998616 0.25360548 0.6994645 0.74881
0.7528921 0.88209975 0.8804189 0.6065117 0.10354744 0.5268133 0.47476193 0.9221167
0.25609463 0.7671067 0.18775271 0.3599565 0.24158774 0.64233845 0.47124535 0.89559335

weight f4 [128, 128]
00000000: c2c0 103b c53e e43c 8d92 dc3b 486c 303d
00000010: 5bd6 bfbd 69b5 4abe 4f68 92bd 5fb7 01be
00000020: 218c 483b 1308 97bd 6a02 d13d 93a1 f83c
00000030: 6310 66bd 40fa c5bd faa5 8a3d 6b0a c93d
00000040: f5b1 e7bb 2c9e 3ebe a65a 5f3d 8bb0 5abe
00000050: 8adb 8d3d 93bd 44bd efe7 78be 7b08 693c
00000060: 8e38 4d3c 21c8 ad3d d72a 703d 7127 9cbc
00000070: f9cc 08be cd46 fb3d 8189 88bc c365 f83d
00000080: 5498 f43c 1999 40be cbd7 b43d 4813 16bd
00000090: b0fe 3abe f001 5e3d f0bf 9ebb 4857 2e3d
000000a0: b463 c63c 7175 c03d 6fa6 25bd 2da5 053e
000000b0: db92 9e3c 67e7 3abc 9f35 2ebe 7eb7 bb3c
000000c0: aaa6 d03c 8396 453d 80dc 5abd 0a8b 3bbd
000000d0: e030 5cbe f220 ab3d 92e1 0d3d e8c3 8bbd
000000e0: fd1d 493c 3751 583d c7c2 81be 93e4 acbd
000000f0: a6f1 1abd 7fb0 083d b16b 073e 15b5 f7bc
00000100: d2ee 25bd 0798 1bbe 70b5 503d f3da 323d
00000110: 07ba 0abe a8bf 3b3d ff9b d5bd 2d11 09bd
00000120: 1f72 07bc e29b 343e 8827 72bc 0004 773d
00000130: defe afbd 8492 86bd 27b7 023e 51f5 8b3d
00000140: 0b54 da3c 7162 dbbd 3086 89bd 870c 483d
00000150: c13f f63c 60d0 87be 766d 25bc c4c6 2d3d
00000160: c569 093e 5f3e 14bd 2877 b8bd 577f a63d
00000170: 6b6e 55bd 3714 b03d 8682 16bd 3263 73be
00000180: 9363 c9bd 29b1 4fbd d529 273e 65a0 73bc
00000190: 8407 7b3c 2e28 c73d 0323 45be 21e4 1e3d
000001a0: 6d58 3c3d 2355 443b 6fe2 fd3d 8958 4abd
000001b0: 6d33 2abd 1e18 69bc 1619 3f3d d4f4 1f3c
000001c0: 2596 c7bd b1d9 3abe 58b4 793d 6e93 053e
000001d0: aeba 253e 0762 51bd a741 7ebd 6f24 c43d
000001e0: 27c7 5cbe 746c 113d 1d14 133e 39d3 913c
000001f0: fc94 f1bd d33f b0bd 4e17 8e3d 4230 323d
00000200: e6b5 77bd d379 b2bd ff6a 303b f5ad c43c
00000210: 6460 40be 6db6 1ebe e259 dcbc 7a58 6cbd
00000220: 8dd3 81bd eaff bd3d 3db0 ba3d 2209 8dbd
00000230: f449 b93b 175e 70be 0eb3 cebd 5367 4b3e
00000240: 18fd 34bd 7c6e d9bc e5c0 0cbe 37b7 b93c
00000250: c4f0 e53c ef7a e8bd fbc5 1abe 1f51 173e
00000260: 6369 e6bd 5739 e23c ba03 363e 6759 063e
00000270: 175e d43d 167e a03d 2e24 093e 6c11 cdbd
00000280: 058c 89bd 0d65 31be 8df5 11be 76cd f63c
00000290: eaab 463d 7c9f 23be 5465 ddbd e311 403d
000002a0: c85f 03be 5192 efbb ac3c cdbe 261d a2bd
000002b0: 3b53 c2bd 1054 95bc ab30 2bbe eae6 8cbd
000002c0: 8f7b d5bc 8e6d 933d 8d63 37bc f29b 93bd
000002d0: 7923 5abe 6c6f e93d 4644 e43d dd40 e7bd
000002e0: 5f48 33bc 5f72 d6bd 6e4f aabe 7b89 4ebe
000002f0: 5dc8 2fbd 7a64 5ebd 2e08 28be b67e 4abe
00000300: 9486 b5be 9b2c 023e f9dd e33d 1d7d 7cbc
00000310: 6010 3a3c 63cb 9ebd 8564 353d 85bb 0abe
00000320: 1623 b6bd e1ee 1d3d 24e1 d5bd cc02 ea3d
00000330: 93cc 14be 5690 b6bd 8a9f 8b3c 1659 dcbd
00000340: c716 e23b 9850 69be 9b0a 1dbe f7a2 eebd
00000350: 0c19 bd3c 5816 a43c 77b2 09be a768 033d
00000360: 6b05 4abc 2695 93bd 1e8c e13c a320 733c
00000370: d8f9 953d 93be be3d 699e 803d 543c 01be
00000380: d0da fdbd 130f f1bc b71a aeba e165 fc3c
00000390: 1b9c 99bd d6c9 92bd 75fd 683d 8eef 1bbd
000003a0: 4ca8 14be bfcf 073e 4f03 87bc 4478 3f3d
000003b0: c003 d5bb 93ff 30bd ce95 f43d 373f 6abc
000003c0: c539 4ebd 308c 0bbe 425b d7bc 1ca5 b0bc
000003d0: e42e c73d bc62 49bc 4ea1 793e 9025 1dbe
000003e0: 2762 c73c 1d7d 93bd 6955 aabd 542b a93d
000003f0: 66c9 ad3d f9ad 0fbe 8b1c 6b3d f08c 433d
0.002208755 0.027861962 0.0067313374 0.043072015 -0.09367057 -0.19795765 -0.071488015 -0.12667607
0.0030601101 -0.07374587 0.102055386 0.030350482 -0.05616797 -0.09666872 0.06769939 0.0981644
-0.0070707747 -0.18615025 0.05452981 -0.21356408 0.069266394 -0.048032355 -0.24307226 0.014223213
0.012525691 0.08485437 0.058634605 -0.019061776 -0.13359441 0.122693636 -0.01666713 0.121287845
0.029857792 -0.18808402 0.08830222 -0.03663948 -0.18261218 0.054201066 -0.004844658 0.042563707
0.024217464 0.093974 -0.040441927 0.13051291 0.019357136 -0.01140771 -0.17012642 0.022914644
0.025470097 0.048239242 -0.05343294 -0.045786895 -0.2150302 0.08355893 0.03463895 -0.068244755
0.012275216 0.052811828 -0.25343916 -0.084420346 -0.03782811 0.033371445 0.13224675 -0.030237714
-0.04051096 -0.15194713 0.050954282 0.043665837 -0.13547526 0.045837075 -0.104301445 -0.033463646
-0.008266955 0.1763759 -0.014779933 0.06030655 -0.08593534 -0.065709144 0.1276518 0.068339
0.026651403 -0.107121356 -0.06715047 0.048840072 0.030059697 -0.26526165 -0.010096898 0.042425886
0.13419254 -0.036192294 -0.09007102 0.08129757 -0.052107256 0.08597606 -0.03674557 -0.23768309
-0.098334454 -0.050706062 0.16324551 -0.014869784 0.015321616 0.097244605 -0.19251637 0.03879178
0.045982767 0.0029957972 0.123967044 -0.04940084 -0.04155295 -0.014226941 0.046654783 0.009762961
-0.09745435 -0.18247105 0.060963005 0.13044521 0.16184494 -0.051118877 -0.06207433 0.09577262
-0.21560346 0.03550382 0.14363141 0.017800914 -0.11795995 -0.086059235 0.06938039 0.043503053
-0.060476206 -0.087146424 0.0026919243 0.02400873 -0.1878677 -0.15499277 -0.026898328 -0.057701565
-0.06339178 0.09277327 0.09115646 -0.068865076 0.005654568 -0.23473392 -0.10092746 0.19863634
-0.04418668 -0.02654194 -0.13745458 0.022670371 0.028068908 -0.11351573 -0.15114586 0.14777039
-0.1125057 0.027615232 0.17774859 0.13120042 0.10369509 0.07836549 0.13392708 -0.100130886
-0.0671616 -0.17323704 -0.14253826 0.030127268 0.048503794 -0.15978807 -0.108103424 0.046892058
-0.12829506 -0.0073111434 -0.4008535 -0.07915716 -0.09488531 -0.01822856 -0.16717784 -0.06879981
-0.026059894 0.0719863 -0.011193168 -0.072074786 -0.21302594 0.11398205 0.111458346 -0.112916686
-0.010942548 -0.10471033 -0.33263725 -0.20169632 -0.04291569 -0.05429504 -0.1640937 -0.19774899
-0.35454237 0.12712328 0.11126322 -0.015410689 0.011356443 -0.07753637 0.044285316 -0.13548096
-0.08893411 0.03855789 -0.10443333 0.11426315 -0.14531164 -0.08914249 0.017043848 -0.10759179
0.006899688 -0.2278465 -0.15336077 -0.11652177 0.023083232 0.020030186 -0.13446985 0.032082226
-0.012330393 -0.07206182 0.027532633 0.014839324 0.073230445 0.09313693 0.06280214 -0.1262067
-0.12395251 -0.029426133 -0.0013283108 0.030810298 -0.07500478 -0.071674034 0.05688234 -0.038070254
-0.14517325 0.13262843 -0.01648107 0.046745554 -0.006500691 -0.043212485 0.119426355 -0.014297298
-0.050348062 -0.13627696 -0.026288632 -0.021563105 0.097257406 -0.0122916065 0.24377939 -0.1534636
0.024338795 -0.07201598 -0.08317072 0.08260217 0.08485679 -0.14031209 0.057400268 0.04774183

bias f4 [128]
00000000: b93b 233f c386 463f afbe 763c 975b bf3e
00000010: d9d4 693f 019a 283e 77b7 d43d ac0c 473f
00000020: cefb 223f 9037 3a3f 2f80 213d 3049 343e
00000030: 84dd 213f 6a67 323d 0734 f83e 174c 2d3e
00000040: 4c99 f53d df07 70bb 2beb 673f ac8c 073f
00000050: 1bc0 033f 0b9a e63e 4d38 c83d b214 8a3e
00000060: 62b7 983c 973b 013f 99b3 323f 90a3 f73e
00000070: e906 143f f0a4 743f ea21 153f 5d0c 6e3f
00000080: 14a3 0f3f fc20 233f 7e22 253d 9b0b 493f
00000090: 5d21 2b3f 083c 183e 579b 813e 7913 8c3e
000000a0: 2fb9 053e 7655 08bd b213 ebbd af7d 233f
000000b0: 3b03 423f 769d 2f3d 5381 61be 5eee c43c
000000c0: ae0f b03e c9d9 3e3d 2a11 283f 0162 c83e
000000d0: 625a 023f 5e04 e13e c32b 093f 7777 683f
000000e0: 82f1 263f eea7 e13d 36bd d73e f8d7 983d
000000f0: 66ca 073f 0c55 073f d4c2 ddbd 2632 1c3f
00000100: e71f c73e d282 113f 746d e13d 4ec6 9b3e
00000110: ed7d 633e e868 6f3e 26f9 493f 87da f63e
00000120: af53 513f 9115 6e3f a8a7 4c3f d398 193e
00000130: 4e62 853f 0d08 28be 297a 4c3d 6a29 3f3f
00000140: 6df3 8a3f ff44 123f c281 5f3f 4e3c cbbc
00000150: 223f a83e 8b9e 723f 318b 6e3e 58d1 7b3f
00000160: 835a 1f3f 6ccd 563f 3256 833e 60ed 8b3e
00000170: 4519 813f 27fd cb3e 8737 dd3e e764 0d3f
00000180: 0466 0d3f 069f 6b3e 1bf9 523f 0e5a b03e
00000190: 4c22 38bd 0189 b73e e9bf 4f3f 7289 723f
000001a0: c6e5 1a3f 11d5 723f 741a 4f3f 1deb 833e
000001b0: bc15 abbc f568 78bd 5758 583f b910 5a3f
000001c0: 1e73 143f 2d3c 623f fde0 053f 0f4d 5a3f
000001d0: 635d 703e 8b51 e1bc 38a4 8b3e 0825 8b3e
000001e0: ec92 e23e 50b2 8d3b 2e18 543f 9b51 4cbb
000001f0: 058a d73e 5ba6 7c3e a14b 5d3f b480 4e3f
0.63763005 0.7754938 0.015060111 0.37374565 0.91340405 0.16464998 0.10386556 0.7775371
0.63665473 0.7274103 0.039428886 0.17606044 0.6322863 0.043555655 0.48477194 0.16923557
0.1199213 -0.0036625785 0.9059321 0.52949023 0.51465005 0.450394 0.097763635 0.26968914
0.018642131 0.5048155 0.69805294 0.48366976 0.57823044 0.95564175 0.58254874 0.92987615
0.5610821 0.63722205 0.040316097 0.78533334 0.66847783 0.1486665 0.25313827 0.27358606
0.13058923 -0.033284627 -0.11478366 0.6386365 0.7578618 0.042874776 -0.2202199 0.024039444
0.34386963 0.046594415 0.6565119 0.3913727 0.50919163 0.43948644 0.535824 0.9080729
0.6521226 0.11018358 0.42136544 0.07463068 0.5304321 0.52864146 -0.10828176 0.6101402
0.38891527 0.5684024 0.11007205 0.30424732 0.22216006 0.23379862 0.78895795 0.48213598
0.81768316 0.9300166 0.79943323 0.14999704 1.0420625 -0.16409321 0.04992119 0.7467257
1.0855538 0.5713653 0.8730737 -0.024809029 0.32860667 0.9477317 0.23295285 0.9836631
0.62247485 0.839072 0.256517 0.2732954 1.0085837 0.39841577 0.43206427 0.5523209
0.5523379 0.23009881 0.82411355 0.34443706 -0.044954583 0.35846713 0.81152207 0.94740975
0.60506856 0.94856364 0.8089974 0.25765315 -0.020884387 -0.06064697 0.84509796 0.85181767
0.57988155 0.8837307 0.5229643 0.8527383 0.23473124 -0.027504703 0.27273726 0.2717669
0.44252717 0.004324235 0.82849395 -0.003117657 0.42097488 0.24672835 0.86443526 0.80665135

weight f4 [128, 128]
00000000: f460 cdbe d6ee 25bd a95d d4bc d034 82bc
00000010: 2e01 38be 09be 3b3c 0940 2a3e 195b 7fbe
00000020: e20e 1ebe 948c 853d 4525 70be 36fd 00be
00000030: 38ff 34bc 46d5 b2bd 44b7 5fbc e75f 16be
00000040: 1d2a 2abd 0cf7 f83d ecd7 a9be c9be b4be
00000050: ed28 2d3e c31d e43c 824c 3abe bb8c 60bd
00000060: a9e4 10bd 32d4 76bd a76d 44be 37fd f4bc
00000070: fca4 a0be 9964 c7be ce41 f03c aa9b 96bc
00000080: 3c45 9b3d 0dc3 ecbc f151 43be 1ffe 373e
00000090: 1fc2 583d de9a 0ebd ec88 fd3d 0017 a6bc
000000a0: 328a 463d 5409 d23c 9742 763b 5b68 863b
000000b0: ecd2 a7bc 7099 05bd cde4 ca3d c8d3 b23c
000000c0: 8690 03bd bb83 5bbd 2ae4 69bd 886c b4ba
000000d0: 1049 b5bd 6a9c 613d 36a4 11be e2e3 bcbe
000000e0: d664 f03d cb9e c73d e15c 5b3d ffcd 0bbd
000000f0: 4321 593d 3200 1dbe 45a6 b3bd 367b 09be
00000100: f45b 553e c0ad 88be b039 11be d251 29bd
00000110: e2a1 dcbd 57db 67bd d8a0 1e3e 2853 cebd
00000120: d004 d83b 05bb e0bd de1a 69bf 8b03 e0bd
00000130: fd01 c0be 5ce5 2e3e fe0c 263b 1a08 82be
00000140: 4588 abbe 0d58 efbd 48d8 f2bd 85fd 43be
00000150: 2283 86bd b151 1c3e e9ab 5e3d abbc 30be
00000160: 9900 d93b 2503 8fbe ebfa f8bd e427 89bd
00000170: a2d5 03be 3da4 39bd 12b0 b33d d8ba ccbe
00000180: 6e46 22be 26b9 ac3d f74e e43c 3b36 2c3d
00000190: e425 eeba 5156 0bbe cc9f 873d 8cca 3bbe
000001a0: 5a4f d2bc 5c3a 823d 5159 48be 1773 a7be
000001b0: 09c4 2bbd e22a e6be 6d88 743d c54d cfbc
000001c0: 323d 04bc 9a2e 25be fe4a 0dbe 7b4f 31be
000001d0: b63e 7fbb bc09 153d 60ec 5abd dccd bebd
000001e0: 1483 53be 8003 06be 2ddd 97be 2af0 c33d
000001f0: 7e30 69be 9e82 c23d e32b 01be 3957 cdbd
00000200: ebad c2bd 55bf 59bc 8654 6dbd a451 c43e
00000210: 7a0c 163c 012b b43c 8b49 75bd 3cfd 4f3d
00000220: b438 a6bd e2f4 02be 4529 7f3d b498 d9bd
00000230: 1a2b b93d c12f ac3d a3e6 e83c 81df 213c
00000240: e9a6 b9bd 7c35 743d d09e 98be 48db 87bd
00000250: 68a9 903d 156f 873d ec09 c8bd 904f 813d
00000260: c7eb 6b3d 15a9 c93b 9410 adbd b7f5 c2bd
00000270: 207e 3bbc 0323 c6bb b03e 76be 74cf 823d
00000280: dd1e bbba 8e5b eabd fc01 2d3e 6a99 b53c
00000290: 0178 b93d b753 3cbe b27f bdbd 71df f13d
000002a0: 86ff c3bb 86c8 993d 7841 93bd 0cde 21bd
000002b0: b1d0 cabd 3c3a cbbd c324 f3bd 6574 8abd
000002c0: 122d fa3c f3af 40bd a0c3 133c d1c7 9bbd
000002d0: 9df9 12bd 94b0 0bbe 588d 953d 1928 ccbd
000002e0: d0f0 b5bd 3d26 0dbe 934e f8bc 6412 41bc
000002f0: 6cd2 25be b990 913d e313 b1bc 14de 36be
00000300: 64a8 babd 1038 ccbd d632 073d 8dff 34be
00000310: 4e46 943d 1999 5dbe 5926 e83d 9791 833e
00000320: b3c8 67be 92e1 1bbe 5909 c2bd 22b0 ecbc
00000330: 932c ec3d 75f9 d5be e555 1a3d d57c b53d
00000340: 1030 09be a74f 8ebc 46a4 2abe 7782 6fbd
00000350: 3631 eb3c 4610 47bf b97d 0f3e 913d c4bd
00000360: 006f 5a3a 121f d2be 0911 05be 30dc 343d
00000370: c4b9 afbe 01fd 12bd 2a6d e5bd 8223 33be
00000380: bcb2 0f3e 218d 073e 5f04 96bc 1740 bdbc
00000390: 63b1 993c 7659 02be 7fba a1bd 1ca9 a43d
000003a0: 6b76 1cbe e61c c23d a4e6 d9bc 21b6 8f3d
000003b0: 8b12 003e e386 873e dca0 c23e a2cd 70be
000003c0: ff2a d03c 8676 bfbd 3ebd c1bd 172e 42be
000003d0: c596 793d 18ea abbb b2df a6bb 1e03 92bd
000003e0: 9db2 953d 9622 adbc eeb2 bf3d c2c8 97bb
000003f0: 4e07 0cbd a6e8 afbd 3543 66bc babc e6bd
-0.40113032 -0.040510975 -0.025923567 -0.015894324 -0.179692 0.011458882 0.1662599 -0.24937095
-0.15435365 0.06520954 -0.23451717 -0.12596592 -0.011047177 -0.08732085 -0.013654534 -0.14685021
-0.04154407 0.121564955 -0.33172548 -0.35301808 0.16910143 0.027846223 -0.18193248 -0.05482171
-0.035374317 -0.06026096 -0.19182454 -0.029905898 -0.31375873 -0.38943937 0.029328253 -0.018384773
0.07581565 -0.028901601 -0.19074227 0.17968033 0.052919503 -0.03481566 0.123796314 -0.02027464
0.048471637 0.025639214 0.0037576312 0.0041017956 -0.020486318 -0.032617033 0.099069215 0.0218295
-0.03212025 -0.053592425 -0.05710236 -0.0013765255 -0.08851826 0.05508081 -0.14222798 -0.3689261
0.11737983 0.09747084 0.053555373 -0.034132 0.053010236 -0.15332106 -0.08771948 -0.13425907
0.20835859 -0.2669506 -0.14182162 -0.041337796 -0.10773064 -0.056605663 0.15491045 -0.100744545
0.0065923706 -0.10973171 -0.9105662 -0.10938176 -0.37501517 0.17079681 0.0025337334 -0.25396806
-0.33502403 -0.11686716 -0.118576586 -0.19139679 -0.0656798 0.15265538 0.054363165 -0.17259471
0.0066223857 -0.27932087 -0.12157234 -0.06697062 -0.12874463 -0.045322645 0.08773817 -0.399863
-0.1584718 0.08433752 0.027869685 0.042043906 -0.0018169251 -0.13607146 0.06622276 -0.18338984
-0.025672603 0.063587874 -0.19565322 -0.32704994 -0.041935 -0.44954592 0.05970042 -0.025305638
-0.008071231 -0.16131058 -0.13798138 -0.17315476 -0.003894729 0.036386237 -0.05344808 -0.09316608
-0.20655471 -0.13087273 -0.2966093 0.09567292 -0.22772405 0.094975695 -0.12614398 -0.10026402
-0.095058285 -0.013290246 -0.057941936 0.38343537 0.009158248 0.021993162 -0.05988459 0.050778612
-0.08116284 -0.12788728 0.062295217 -0.10624829 0.09041424 0.08407546 0.028430289 0.009879948
-0.09065039 0.05962132 -0.29808664 -0.066336215 0.07063562 0.06612984 -0.097675174 0.063140035
0.0575979 0.0061541894 -0.08450428 -0.09519523 -0.011443645 -0.006046654 -0.24047351 0.06387225
-0.0014276166 -0.11443244 0.16895288 0.02216788 0.09056092 -0.1839131 -0.092528716 0.11810196
-0.0059813885 0.0750895 -0.071902215 -0.0395184 -0.09903086 -0.09923217 -0.11872246 -0.06760482
0.03053907 -0.0470428 0.009018809 -0.07606471 -0.03588258 -0.13641578 0.0730235 -0.099685855
-0.08883822 -0.13784118 -0.030310905 -0.01178417 -0.16193551 0.07107682 -0.021615928 -0.17858154
-0.09114149 -0.099716306 0.033007465 -0.1767561 0.07239972 -0.21640433 0.11335439 0.25697014
-0.22635154 -0.15222767 -0.09474439 -0.02889258 0.11531939 -0.41791883 0.03767957 0.088617004
-0.1339724 -0.017371966 -0.16664228 -0.05847403 0.028709989 -0.77759206 0.14012803 -0.09582055
0.00083325803 -0.4103933 -0.1299478 0.0441553 -0.34321415 -0.035885815 -0.11202462 -0.17494014
0.14033026 0.1323743 -0.018312631 -0.02310185 0.018761342 -0.12729439 -0.078968994 0.080400676
-0.15279548 0.09478168 -0.026599236 0.0701716 0.12507074 0.26470098 0.3801335 -0.23515943
0.025411127 -0.093487784 -0.09459923 -0.18962894 0.0609348 -0.005246412 -0.0050925845 -0.07129501
0.073094584 -0.021134656 0.093603 -0.0046320865 -0.034186654 -0.08589296 -0.014054109 -0.112664655

bias f4 [128]
00000000: 40f3 ab3e bf26 933e cad5 1b3e 4652 153f
00000010: 94c8 453e aa20 533e 971b df3e 499f 713f
00000020: 15d4 563f 44dd f63e d507 183f d85e 8d3f
00000030: d87c 293f 0136 02bb 51a7 973f be8d 2f3f
00000040: 3dae 363f c8ba 9e3e 1c36 4f3f 2ff5 093f
00000050: 9da6 093f f0c3 403d bcd1 87bd e034 693f
00000060: 7e31 053f 59e9 b0bb ea83 0c3c a5cc 373f
00000070: 02c2 943f bc0d 453f 3e0d 7d3d 061d ea3e
00000080: e6fa 023d 38a1 fe3e 4fe1 4e3f 93c8 563f
00000090: 922a 733f 2b08 773e e18c e63e 545f e23d
000000a0: 5125 973d b1f7 0c3f 78b6 343f ee2c c93e
000000b0: 47d0 1b3e 2e88 383b 6522 7b3f a84e d83e
000000c0: 6d18 153f 5ce8 203f 3a5e cb3e aa9a 5c3f
000000d0: 0c5a 743d e86b 46bd 73cd d93e 41dc 0c3f
000000e0: d3ed 883e f676 3d3f 8a63 0f3f 6ab3 6d3f
000000f0: abfa c33e a8a3 3f3f ada7 6a3e 76a7 f83e
00000100: f1b1 cd3e 44de c63e 37e8 b23e 18b3 2b3f
00000110: e2f6 5e3d dbc6 ce3e a325 623e 3454 643f
00000120: a83b 063f 8a21 1d3f 6861 b53e de35 5a3f
00000130: 516f 8bbb a7ae 083e 9f5a 4c3f e2ee 113f
00000140: cf09 553f 5bec 4f3c 888f 1a3e 812e 003f
00000150: 5717 523f 5bf5 8b3f dd27 2cbd 0969 9e3e
00000160: a8af c43e 29c1 c43e 8050 9e3e cf24 403f
00000170: f015 8f3f 6724 4e3e dda2 5d3f da58 143f
00000180: 74f1 ca3e d81f 713f 7424 f73e b3fc 393f
00000190: 29d1 7d3f 4b2d f33d 99bc 813f 2c34 8b3f
000001a0: 037c 433f e0a8 393f 96a9 993c 3444 3c3f
000001b0: 4f15 7b3f 8f75 533f fb0d 643f 7fb3 e73e
000001c0: 52ca 843e 9609 693f 6aeb 193e 8143 d03e
000001d0: 2fc4 dd3d d178 263f 0f4e 223f d38a 3d3f
000001e0: 1ea0 10bd 75b4 323f 75eb 8a3f 7913 d63e
000001f0: 7223 e93e dd56 0e3e a346 353f 3ad8 8a3f
0.33584023 0.28740498 0.15218273 0.58328664 0.19314796 0.20617929 0.43575737 0.94383675
0.8391736 0.48215687 0.5938695 1.1044569 0.6620612 -0.0019868615 1.1847936 0.68575656
0.71359617 0.31001878 0.8094194 0.53889745 0.53769857 0.04706186 -0.066318005 0.91096306
0.52028644 -0.005398911 0.008576373 0.7179664 1.1621706 0.7697408 0.061780207 0.45725268
0.031977557 0.49732375 0.80812544 0.838998 0.9498683 0.2412421 0.45029357 0.11053339
0.073801644 0.5506545 0.70590925 0.3929209 0.1521617 0.0028157341 0.98099357 0.4224751
0.58240396 0.6285455 0.39720327 0.861735 0.059656188 -0.04844275 0.42539558 0.5502358
0.26743945 0.74009645 0.5601126 0.9285189 0.38277182 0.74859095 0.22915526 0.48565263
0.4017482 0.3884145 0.3494279 0.6707015 0.054434665 0.4038609 0.2208467 0.89190984
0.5243478 0.613793 0.35425878 0.85238445 -0.0042552133 0.13347875 0.79825777 0.5700513
0.8321809 0.012690629 0.15093815 0.5007096 0.82066864 1.0934252 -0.042030204 0.3093951
0.38415265 0.3842862 0.30920792 0.75056165 1.117857 0.20131074 0.86576635 0.57948077
0.3963734 0.94189215 0.4827 0.72651213 0.9914728 0.11873873 1.013568 1.0875297
0.763611 0.7252331 0.018757623 0.7354157 0.9807939 0.82601255 0.8908383 0.45254132
0.25935608 0.9103025 0.1503121 0.406765 0.10828435 0.650281 0.6340036 0.74039954
-0.03530895 0.69806606 1.0853106 0.4181173 0.45534855 0.13900323 0.7081091 1.0847237

weight f4 [5, 128]
00000000: 1c3e b13c de3e a43e 76fa 8cbe 7763 593e
00000010: 6945 64be 12de 383d 63ec b53e 8470 2a3d
00000020: e0e0 883d a484 06be 74b2 6d3e 9ee5 783d
00000030: c941 cfbd 701c b23e 650e 303e 06e4 c3bc
00000040: e2d8 9e3d 3bcf 573e d04d 523e d405 b5be
00000050: d660 52be 1bed 53be 3933 e43c ab7b 4c3b
00000060: 2f4a 9f3e 10d5 b83e 21fa ae3d 83e1 4abd
00000070: 2e2d 933d d796 e6bb e4e4 67bd ae4b 543c
00000080: 3ddd d3bd 8120 8a3d 842e 3b3e 33c2 2d3e
00000090: 9a96 7f3d a755 99bd 5e5b 563e a78a 40be
000000a0: 20ce 433e f7bf 9bbd ead0 ce3d 8f0a 2d3e
000000b0: 7e89 33ba 9194 f2bd ec05 903d 93c1 053e
000000c0: ca76 cdbc a500 e73d fe4b 2c3e c65d 4d3e
000000d0: b949 b43d 18b1 98bd 9cf5 953e bc45 073e
000000e0: 299f f6bc 69f6 013e 3c68 3d3e 42eb ea3d
000000f0: 2f19 723e 8684 903d 303d ffbc 876e ef3d
00000100: fe50 a83e 604f 9b3d 4d35 263d 54b9 75bc
00000110: a5d0 213e 6159 9c3e 7f9d 32bd f4f5 11be
00000120: bb54 2bbe 9a0d 903d 9fdc 6d3e bc43 d43d
00000130: 9693 883e 944a c3bc 6ca5 363d dd53 9c3b
00000140: 9eba a23d 4550 81be 5734 203d 536c 0f3e
00000150: 8716 773d b251 3c3e b442 8ebc e4e8 0bbe
00000160: 2371 e63d 3313 553e f1b9 863e 90e0 423c
00000170: 0804 ab3e 3a2b a3bd a922 143e 41a8 38bd
00000180: 2d16 ccbc d218 be3d 70f1 e7bd 7c2a 8e3c
00000190: eca5 7d3d b30b bfbd 171a 403e c978 253e
000001a0: e4ef 3dbe c1f3 c4bd 7d67 4d3e aa2a 60be
000001b0: 99f8 c1be 9b19 07be 35f9 d2bd 3b7e 713e
000001c0: e56b 4e3e 6e69 25be c5cc be3d 8bb1 903d
000001d0: f852 f0bc 1614 283e 465b d93c 86e1 533e
000001e0: 57d7 b73d a857 bf3e 3024 1e3d feca ca3d
000001f0: 0202 793d c4a3 b43e 6eaa 7b3e f8e0 213e
00000200: f8e3 c5be fb48 263e 3858 863d 846b 02be
00000210: 223f 9abd 48c7 05be 225b 613e e167 11bd
00000220: 6381 0a3e 3cc7 303e 0957 063e 4826 013e
00000230: 71bc 24bd 59a4 8c3e ab3a 763e 0632 a8bc
00000240: bcd7 5a3c fb13 bdbc f52b 8f3d d32b 4a3e
00000250: 09ca 4cbc 8442 4c3c 6e7f 31bf 4627 c63d
00000260: d6ea d23e f787 d93d 2f6a 88be 0e8d d9be
00000270: d070 323e 4228 da3c 72d9 12be 7a7f 003e
00000280: d2d6 743c e490 533d 4b53 ef3d e68b 943d
00000290: eb78 ef3d 97d3 60be 55aa d43d aac4 bcbe
000002a0: 1c9e a23e aab4 b4bd 02fa b03d b8f9 553e
000002b0: 8164 28bb 2754 3fbd 3c21 e7bc 4fab 163e
000002c0: af00 e3bb fd64 ab3d 0168 7c3e f996 883e
000002d0: c7c7 75bb c8ac 15ba 5c4c 95be f39e 563e
000002e0: b6a6 0f3e 9028 903d 6e0f b8bc d1be 18bc
000002f0: 9f9c a5bb 8b6e d3bc fa87 aabd b540 3abd
00000300: 27a9 c5bd dc95 8c3d eee9 a9bd b139 d63e
00000310: eb34 863d 351d 2a3e d3f3 853e ef47 053e
00000320: 5241 f6bd 8376 393e d93d 18ba 010d e93d
00000330: 3186 7c3d 3a60 0cbe 9241 8e3e bd81 a73d
00000340: 84bf ce3d bd27 37bc 847e a83d 484a 793e
00000350: 3fbe 7e3d 60b5 e63d 1cd1 183c 4365 d0bd
00000360: 35b5 efbd 1885 8a3e e6e5 0b3e 31d0 7abe
00000370: 9bc0 233e aa36 8bbd 610e ce3d c21f 433d
00000380: 10f8 8b3d 81bf c43d 7a8b ee3d dcfc 273e
00000390: e230 e33d 4f80 e4bd 2219 643d 91cf 3b3e
000003a0: 30b5 2ebe acac 6cbc 154b 113d 0f8f 3a3e
000003b0: 541b b0bd 2e27 d6bd e3a7 f13d b8ec 623e
000003c0: ed0a 27be 5bc9 2ebe 7fe7 85bc a456 c13c
000003d0: 022d 3ebd 6e0e a7bd 7af7 1fbe cc05 e33d
000003e0: a9cb f73d 9467 c6be aeb2 4e3e acf5 193e
000003f0: 3b32 473e 0fce 92bb 5b7a 5c3d d887 653e
0.021636061 0.32079214 -0.27534837 0.21229349 -0.22292103 0.045133658 0.3553191 0.04161121
0.066835165 -0.13136536 0.23212606 0.060765855 -0.101199694 0.3478732 0.17192991 -0.023912441
0.07756211 0.21075146 0.20537496 -0.3535601 -0.20544752 -0.20695917 0.027856456 0.0031201642
0.31111285 0.36100054 0.08543802 -0.04953147 0.07186352 -0.0070370245 -0.05661477 0.012957497
-0.10344932 0.06744481 0.18279463 0.16968612 0.062399484 -0.0748704 0.20933291 -0.18802892
0.19121599 -0.07604974 0.10098441 0.16898559 -0.0006848796 -0.11844743 0.070323795 0.13062124
-0.025081057 0.1127942 0.16825864 0.20055303 0.08803124 -0.07455653 0.29288948 0.13210195
-0.03010519 0.12691654 0.18496794 0.11470653 0.2364242 0.07056527 -0.031157106 0.11691003
0.32874292 0.07583499 0.040578175 -0.014997799 0.15802248 0.3053694 -0.04360723 -0.1425398
-0.16731541 0.07033844 0.23228692 0.10364482 0.266751 -0.023839273 0.044591352 0.0047707395
0.07945751 -0.25256553 0.039112415 0.14006166 0.060324218 0.1839054 -0.01736579 -0.1366306
0.11252048 0.20808105 0.26313737 0.01189436 0.33401513 -0.07967229 0.14466347 -0.045082334
-0.024912918 0.09282078 -0.113253474 0.017354243 0.061925814 -0.09328403 0.18759952 0.16159357
-0.18548542 -0.09616805 0.20059009 -0.21891275 -0.37884977 -0.13193361 -0.10301439 0.2358331
0.20158346 -0.161535 0.093164004 0.07065114 -0.029336438 0.16413912 0.02653278 0.20691499
0.0897662 0.37371564 0.03860873 0.09901999 0.06079293 0.35281193 0.24576733 0.15808475
-0.3865049 0.16238777 0.06559795 -0.12736326 -0.07531573 -0.13064301 0.2200742 -0.035499457
0.1352592 0.17263502 0.13119139 0.1261226 -0.040218774 0.27469137 0.24045818 -0.020531666
0.013357099 -0.023080816 0.06990806 0.1974328 -0.012499341 0.01246703 -0.6933507 0.096754596
0.4119479 0.10621636 -0.26643512 -0.4249043 0.17425847 0.026630525 -0.14340761 0.12548628
0.014943795 0.05165185 0.11685809 0.07253246 0.11692985 -0.21955715 0.10384051 -0.36868793
0.31761253 -0.088235214 0.08641435 0.20896041 -0.002569467 -0.046711113 -0.02821409 0.14713787
-0.0069275717 0.08368871 0.2464905 0.26677683 -0.003750311 -0.00057096453 -0.2915982 0.20959072
0.14028439 0.07038987 -0.022468295 -0.009322838 -0.005054071 -0.025809547 -0.08326717 -0.045471866
-0.09651404 0.06864521 -0.08296572 0.4184089 0.06553062 0.16612704 0.26162586 0.13015722
-0.120241776 0.18111615 -0.0005807556 0.113794334 0.061651412 -0.13708583 0.277844 0.081790425
0.100951225 -0.011178908 0.08227256 0.24344742 0.06219315 0.11265063 0.009327199 -0.10175564
-0.117044844 0.27054667 0.13661918 -0.24493481 0.15991442 -0.06797536 0.10061336 0.04763771
0.068344235 0.09606839 0.11647697 0.16405052 0.11093308 -0.111572854 0.05568803 0.18340899
-0.17061305 -0.014445465 0.035471994 0.18218635 -0.085989624 -0.10456692 0.117996 0.22160614
-0.16312762 -0.17068999 -0.016345738 0.023600884 -0.04642964 -0.08157049 -0.15621749 0.1108509
0.12099392 -0.387509 0.20185348 0.15035123 0.19452755 -0.0044801305 0.053827625 0.22415102

bias f4 [5]
00000000: 927e 3b3f d66c 843f fb7a 4e3f 38d6 863f
00000010: 879f 8d3f
0.73240006 1.0345714 0.80656403 1.0534124 1.1064309
