DQN一阶无领航机器人编队控制/models/dqn_0.pt (torch, 206575 bytes, 10 tensors)

weight f4 [128, 2]
-0.12538248 -0.017863112 -0.3776157 0.0031122835 -0.09291815 -0.031371903 -0.15802486 -0.13001972
-0.27449375 0.026283909 -0.15362409 0.09422896 -0.093901224 0.13041562 -0.2560938 0.27920032
-0.09158518 0.112638816 -0.14177538 -0.08575356 -0.13082811 -0.09700758 -0.84841293 0.031437695
-0.6499514 -0.07489977 -0.2638465 0.19976032 0.33029997 -0.30997956 -0.21711117 -0.1331921
-0.23243946 -0.38235727 -0.086838074 0.17341015 -0.16204162 0.17290851 -0.123301394 -0.011406595
-0.075865604 0.026869508 -0.14619897 -0.107556514 -0.14043957 0.019079356 -0.46282744 -0.1179307
-0.12031512 -0.068623 -0.026087176 -0.47584343 -0.10533488 -0.053341214 0.38134614 0.11116383
-0.14007339 0.07555983 -0.13366807 -0.07791735 -0.12758647 -0.0718664 0.011033542 -0.00046628845
-0.30109116 0.024866993 -0.7447605 -0.2374741 -0.06532348 -0.59689444 -0.092656516 -0.06863072
-0.083423965 0.15923359 -0.17078726 -0.12184291 -0.48069048 -0.12240421 -0.13661467 -0.008155141
-0.52558315 -0.26866338 -0.13160895 -0.10718885 -0.011550003 -0.07984753 -0.23554018 -0.33288428
-0.46845907 -0.19329502 -0.04737826 -0.1913626 0.2739283 -0.03023766 0.13025175 -0.2986734
-0.26657158 -0.41077235 -0.30195343 -0.18830243 -0.5930918 0.11495511 -0.38616332 -0.16133222
-0.11395271 -0.09362806 -0.05494597 -0.07616531 -0.40575862 -0.16036895 -0.1398917 -0.08235678
-0.090764076 -0.6376719 -0.10172853 -0.024608172 -0.25968382 0.19519746 -0.12190592 -0.020595314
-0.07986863 -0.5863003 -0.33278185 -0.040620893 -0.47825897 -0.054893646 0.023754504 -0.90538305
-0.066027395 0.22293144 -0.25729954 -0.07224735 0.006444407 -0.9415464 -0.11642341 -0.09580785
-0.36179706 -0.041361645 0.028891813 -0.92324317 -0.337341 0.12393542 -0.084130645 -0.040788244
-0.14445299 -0.06601708 -0.115935855 -0.5625709 -0.63421696 0.10484961 0.012252778 0.00044407387
-0.11010077 -0.024867358 0.063434444 -0.9068029 0.14658287 -0.4967821 -0.032977805 -0.035098717
0.004392731 0.041821163 -0.12178832 -0.0860293 -0.018596739 0.020837113 0.1594386 -0.2162374
-0.10200426 0.001522731 -0.19463113 0.13818966 -0.33980194 -0.08188822 -0.37560827 0.13950588
-0.49867356 -0.24680178 -0.12100474 -0.043843728 0.1192511 0.12916057 -0.29256752 -0.1739169
-0.44561404 -0.17581463 -0.11867927 -0.08277396 -0.13211977 -0.010506592 -0.29015297 -0.4100947
-0.08757696 0.18396702 -0.0066460227 0.2881715 -0.178435 0.06908724 -0.096606284 -0.08379977
-0.1441445 -0.10643879 -0.073649734 -0.7090776 -0.2245339 0.17992724 -0.2582526 -0.057273183
-0.22298524 -0.14237347 -0.13449045 -0.054807473 -0.10433675 0.12761573 -0.13373762 -0.10980297
-0.13214168 -0.09290878 -0.30310145 0.16809857 -0.0936396 -0.08871903 -0.27710837 0.17347854
0.118846126 -0.38185596 -0.3329815 0.1626789 -0.23412374 -0.077614844 -0.15946896 -0.13101257
-0.09910575 0.12255253 -0.20342219 -0.28225052 -0.12326832 -0.10031624 -0.23961668 -0.05800105
-0.32095587 -0.1997072 -0.14257361 0.022125252 -0.12105173 -0.06582089 0.025091553 -0.1522138
-0.4439618 -0.07015458 0.0042000283 0.039703764 -0.081388205 0.04328639 -0.0811071 -0.0670967
00000000: 4464 00be a955 92bc d856 c1be 74f7 4b3b
00000010: df4b bebd d37f 00bd 45d1 21be e423 05be
00000020: 728a 8cbe 5a51 d73c a24f 1dbe 1dfb c03d
00000030: 494f c0bd ac8b 053e ba1e 83be 58f3 8e3e
00000040: 0391 bbbd 2eaf e63d 912d 11be 909f afbd
00000050: cef7 05be e9ab c6bd 9731 59bf d0c4 003d
00000060: 3763 26bf 0d65 99bd e316 87be f88d 4c3e
00000070: 141d a93e a4b5 9ebe 6452 5ebe 8363 08be
00000080: 9c04 6ebe 55c4 c3be 29d8 b1bd 6e92 313e
00000090: 3dee 25be ee0e 313e 7185 fcbd bae2 3abc
000000a0: 6d5f 9bbd 711d dc3c 2fb5 15be 9746 dcbd
000000b0: 64cf 0fbe 4f4c 9c3c b8f7 ecbe a785 f1bd
000000c0: c667 f6bd 378a 8cbd c6b4 d5bc c0a1 f3be
000000d0: d0b9 d7bd 517c 5abd cd3f c33e dda9 e33d
000000e0: 666f 0fbe 1dbf 9a3d 48e0 08be 2293 9fbd
000000f0: 07a6 02be b12e 93bd 08c6 343c 2d78 f4b9
00000100: 9f28 9abe ddb5 cb3c a0a8 3ebf 692c 73be
00000110: 51c8 85bd 13ce 18bf b3c2 bdbd 438e 8cbd
00000120: 2fda aabd 210e 233e dbe2 2ebe c788 f9bd
00000130: 101d f6be 0faf fabd b7e4 0bbe 249d 05bc
00000140: 9e8c 06bf 3f8e 89be 7fc4 06be d485 dbbd
00000150: 393c 3dbc 1a87 a3bd 7231 71be cf6f aabe
00000160: ded9 efbe 21ef 45be b50f 42bd 8ff4 43be
00000170: 5540 8c3e f8b4 f7bc b760 053e b8eb 98be
00000180: 127c 88be c150 d2be a499 9abe 5ad2 40be
00000190: ddd4 17bf 966d eb3d 33b7 c5be 4634 25be
000001a0: 0a60 e9bd 11c0 bfbd 070f 61bd 8ffc 9bbd
000001b0: 98bf cfbe c237 24be c53f 0fbe acaa a8bd
000001c0: 84e2 b9bd 773e 23bf 0c57 d0bd 1497 c9bc
000001d0: 47f5 84be d8e1 473e d0a9 f9bd 81b7 a8bc
000001e0: 2a92 a3bd c717 16bf 6262 aabe 1862 26bd
000001f0: 5cde f4be 29d8 60bd ce98 c23c 2fc7 67bf
00000200: 5f39 87bd 2448 643e c4bc 83be 6bf6 93bd
00000210: 9b2b d33b 2f09 71bf 666f eebd e836 c4bd
00000220: 773d b9be d46a 29bd 86ae ec3c aa59 6cbf
00000230: f6b7 acbe dad1 fd3d b04c acbd 9311 27bd
00000240: 7ceb 13be f633 87bd c76f edbd a604 10bf
00000250: 0b5c 22bf 64bb d63d e0bf 483c 96d2 e839
00000260: 837c e1bd a1b6 cbbc ebe9 813d 3c24 68bf
00000270: d219 163e 395a febe bc13 07bd acc3 0fbd
00000280: e6f0 8f3b ab4c 2b3d 286c f9bd 2130 b0bd
00000290: 3058 98bc 98b2 aa3c df43 233e 566d 5dbe
000002a0: 9ce7 d0bd 6096 c73a 624d 47be 9781 0d3e
000002b0: 85fa adbe 03b5 a7bd ba4f c0be a1da 0e3e
000002c0: 2452 ffbe 9bb9 7cbe 55d1 f7bd 7b95 33bd
000002d0: ec39 f43d ab42 043e 69cb 95be 4617 32be
000002e0: 8627 e4be c008 34be 1e0e f3bd 6585 a9bd
000002f0: 684a 07be d723 2cbc ee8e 94be eff7 d1be
00000300: 8d5b b3bd da61 3c3e e1c6 d9bb 378b 933e
00000310: aab7 36be 9c7d 8d3d 84d9 c5bd 379f abbd
00000320: 9e9a 13be 95fc d9bd acd5 96bd 1c86 35bf
00000330: 37ec 65be d93e 383e af39 84be 4997 6abd
00000340: 3e56 64be 5aca 11be ddb7 09be cd7d 60bd
00000350: 82ae d5bd b3ad 023e 84f2 08be 61e0 e0bd
00000360: 2650 07be f546 bebd 1d30 9bbe 0822 2c3e
00000370: 1ec6 bfbd 53b2 b5bd 26e1 8dbe 5ca4 313e
00000380: 9965 f33d a082 c3be 8d7c aabe 4c95 263e
00000390: 22be 6fbe 88f4 9ebd d54b 23be 2928 06be
000003a0: f5f7 cabd d2fc fa3d e84d 50be 2483 90be
000003b0: 1a74 fcbd 9a72 cdbd 135e 75be 8292 6dbd
000003c0: 5454 a4be 0b80 4cbe d1fe 11be 0440 b53c
000003d0: f8e9 f7bd 1acd 86bd cd8c cd3c efdd 1bbe
000003e0: f64e e3be 34ad 8fbd 64a0 893b 6aa0 223d
000003f0: dcae a6bd 124d 313d 7b1b a6bd ff69 89bd

bias f4 [128]
0.74229693 1.0530225 0.5802205 0.98348075 0.51606697 0.9859578 0.8594498 0.4273367
0.7322361 0.8813963 0.25382724 -0.03677103 0.82311046 -0.05501366 0.046543777 -0.024891533
0.4337904 0.58220756 0.26371944 0.747858 0.7013899 1.1054006 0.8772949 0.3743669
0.7772178 0.22027187 0.667479 0.38780805 -0.13018344 0.8684336 0.8308506 -0.13984
0.55261517 -0.15295 0.46119392 0.7069518 0.55548847 1.057863 0.590666 0.831416
0.45977446 0.8208008 0.3885488 0.32221067 0.611537 0.7274692 0.112993434 0.3425291
0.4512018 -0.04117804 0.3416163 0.27090916 0.7079449 0.021642422 0.16739762 0.90731394
0.65993035 0.6193415 -0.04932134 0.7585831 0.53992987 0.40559083 0.49738377 0.41265288
0.052615676 0.25688517 0.14399044 0.72121006 0.46930015 0.1614414 0.49717733 0.51363486
0.30374888 0.76149327 0.17129709 -0.1548233 0.6774444 -0.028040145 0.026470354 -0.11298937
-0.32819706 0.8946587 -0.31518793 -0.15826002 0.6175934 -0.006442085 0.22388278 0.123601966
0.2586728 0.20284899 -0.04627535 -0.006077792 0.19530301 0.5458448 0.9361459 0.44851735
0.5790776 -0.12696938 -0.089736894 0.47859815 1.0423924 0.5683635 -0.08577145 0.20970942
0.022449298 0.5242423 0.8851667 0.8292838 0.9555628 0.19324674 0.5000448 0.09463216
0.6850871 0.3888096 0.279311 0.99270594 0.9152998 0.20621015 0.76889616 0.18424383
-0.03640781 0.21305999 0.74022704 0.5346943 0.48616385 0.008315542 0.76250887 -0.08683514
00000000: 2c07 3e3f 71c9 863f 5589 143f 65c5 7b3f
00000010: f71c 043f bb67 7c3f e704 5c3f e0cb da3e
00000020: d373 3b3f 30a3 613f a5f5 813e 389d 16bd
00000030: 5eb7 523f 0156 61bd b0a4 3e3d 54e9 cbbc
00000040: c619 de3e 8e0b 153f 3c06 873e 9f73 3f3f
00000050: 4a8e 333f c47d 8d3f 6696 603f 05ad bf3e
00000060: bff7 463f f38e 613e e7df 2a3f c78e c63e
00000070: cf4e 05be aa51 5e3f a0b2 543f 3832 0fbe
00000080: 3078 0d3f ed9e 1cbe 9c21 ec3e cbfa 343f
00000090: 7e34 0e3f 0e68 873f e335 173f aed7 543f
000000a0: 8f67 eb3e 0020 523f deef c63e ccf8 a43e
000000b0: b08d 1c3f 6c3b 3a3f 1a69 e73d f95f af3e
000000c0: ec03 e73e 4eaa 28bd 55e8 ae3e 9bb4 8a3e
000000d0: e13b 353f 734b b13c 486a 2b3e ba45 683f
000000e0: 32f1 283f 2a8d 1e3f 2c05 4abd 8132 423f
000000f0: d838 0a3f 9aa9 cf3e 16a9 fe3e 3d47 d33e
00000100: 8983 573d 7486 833e 3b72 133e 39a1 383f
00000110: 1c48 f03e e550 253e 078e fe3e 937d 033f
00000120: f984 9b3e 39f1 423f 8168 2f3e 008a 1ebe
00000130: ff6c 2d3f 72b4 e5bc 5bd8 d83c f966 e7bd
00000140: 7209 a8be 5a08 653f 5060 a1be ea0e 22be
00000150: 9a1a 1e3f 2018 d3bb 8741 653e 0723 fd3d
00000160: c370 843e a5b7 4f3e 398b 3dbd 3728 c7bb
00000170: 83fd 473e 7cbc 0b3f 42a7 6f3f 11a4 e53e
00000180: 6e3e 143f 4304 02be fac7 b7bd d10a f53e
00000190: 1d6d 853f 4580 113f f1a8 afbd 11be 563e
000001a0: 97e7 b73c be34 063f 499a 623f f14b 543f
000001b0: c39f 743f 79e2 453e f002 003f 82ce c13d
000001c0: de61 2f3f 0d12 c73e da01 8f3e fa21 7e3f
000001d0: 1651 6a3f c128 533e 61d6 443f 6aaa 3c3e
000001e0: 5b20 15bd 662c 5a3e 857f 3d3f bae1 083f
000001f0: 78ea f83e e93d 083c c833 433f 9fd6 b1bd

weight f4 [128, 128]
0.18429475 -0.04694558 -0.19728854 -0.07111425 0.14044492 -0.13825342 0.06719695 -0.17663719
0.014437413 -0.06740033 -0.017246583 -0.045416947 0.058145773 0.097486526 -0.018698037 0.0015299747
-0.08516224 0.054838464 -0.000113248825 -0.04334063 0.03464392 -0.13741103 -0.17782752 0.28334993
-0.12932797 -0.13228388 -0.17089464 -0.0086034825 0.023719175 -0.11438599 -0.1454151 -0.024780067
0.09019553 0.075595036 -0.1132966 -0.15133214 -0.04494168 -0.053243246 0.10654209 -0.14380656
0.118106596 -0.026181338 0.046642058 -0.021389404 -0.033543944 0.06154774 0.029323574 -0.15227027
-0.06597673 -0.16937046 0.08720502 0.017227337 0.013944643 -0.13724382 0.090098545 0.0068317396
0.03469466 0.07836128 -0.06419776 -0.12727736 -0.06992231 0.12791523 0.031303212 -0.050530408
-0.17150246 0.07631543 0.012810285 -0.01360598 0.06702236 -0.041207 -0.105697624 -0.10645765
-0.07989076 -0.05067639 -0.10780077 0.0006047886 -0.19784212 -0.14558342 0.064792275 -0.018220132
-0.019558366 -0.15863615 0.0056813783 -0.09740652 0.03578189 -0.07697184 -0.041027118 -0.16103388
0.070695356 -0.014169588 -0.16248898 0.025861287 0.16633236 -0.10095943 -0.0054832604 0.029822022
-0.089091696 -0.017894927 0.14078465 0.11430502 0.01587864 -0.16335584 0.0036008116 -0.094117254
-0.15405376 0.0007110732 -0.12226472 -0.056459308 0.0013145716 -0.08035498 -0.01077739 0.020743426
0.091515034 0.09851907 0.039395224 -0.16516027 0.0063323407 0.077575505 0.061934866 -0.13934869
0.0081823375 0.022411136 0.042173114 -0.124507114 0.10082242 0.012650734 -0.21469319 -0.040971566
-0.16132423 -0.07787156 -0.0332816 -0.083531305 0.13433148 -0.08248632 -0.29709685 -0.079848215
-0.23848994 -0.020158118 -0.044660203 0.08858653 0.0032287955 -0.08252016 -0.042330675 -0.023283372
-0.00681266 -0.1453137 -0.12238867 0.063558444 -0.113748364 -0.008054509 0.00023748366 0.02209331
-0.0051128664 0.037678815 0.05644784 -0.04780322 -0.15588072 -0.05040062 0.0741445 0.0470505
0.15827823 0.010660917 -0.15867873 -0.110434294 -0.11527703 -0.090745896 0.05521715 0.053066492
0.08643004 -0.0034790041 0.0006790496 0.06837475 -0.093723595 0.06980296 0.08183536 -0.09901491
-0.107587665 -0.047992513 0.035083644 -0.07821507 -0.096485615 -0.04784697 -0.09357882 -0.047436662
0.15303546 -0.12462288 -0.01911071 0.02078435 -0.0018844918 -0.013514625 -0.013677717 0.062610775
-0.06257095 -0.03597256 -0.09080609 -0.20884067 -0.024349632 -0.0033777563 0.03780652 -0.14725856
-0.09458097 -0.03795709 -0.027240355 0.08857959 0.11556193 -0.2805056 0.0038701226 0.085233286
0.03998838 -0.03847281 -0.056209136 -0.090769455 0.030816942 -0.2728049 0.1198548 -0.1101534
-0.053471506 -0.04851412 0.0008745563 -0.25105023 0.03638068 -0.22169024 -0.1079521 0.14356945
-0.12933268 0.0136165535 0.018793834 -0.07405304 -0.07686172 0.16808976 -0.3048976 0.14464411
0.041323274 -0.036609855 -0.01677705 -0.055951066 -0.00013220403 -0.11263049 -0.0013779143 0.13298137
0.06714517 0.048631202 -0.08536679 0.18907124 0.0081898235 -0.16104342 -0.11363065 0.10062485
-0.16069491 -0.0806413 -0.11779228 -0.0917216 -0.067628056 0.057386756 0.08368656 -0.014599916
00000000: c3b7 3c3e 024a 40bd 0206 4abe 59a4 91bd
00000010: cbd0 0f3e 4e92 0dbe 8e9e 893d 61e0 34be
00000020: e68a 6c3c 2f09 8abd b548 8dbc 1f07 3abd
00000030: 432a 6e3d 04a7 c73d a02c 99bc 6f89 c83a
00000040: 8a69 aebd 4c9e 603d 0080 edb8 f285 31bd
00000050: c8e6 0d3d 7ab5 0cbe 6b18 36be 3e13 913e
00000060: 8d6e 04be 6d75 07be 01ff 2ebe 9ff5 0cbc
00000070: b74e c23c 3443 eabd b2e7 14be 91ff cabc
00000080: 6fb8 b83d 92d1 9a3d 0c08 e8bd d0f6 1abe
00000090: c414 38bd 9715 5abd bd32 da3d 0742 13be
000000a0: dfe1 f13d 3f7a d6bc be0b 3f3d d538 afbc
000000b0: 6065 09bd 7c19 7c3d fe37 f03c bdec 1bbe
000000c0: cf1e 87bd 736f 2dbe 8c98 b23d 5820 8d3c
000000d0: 1278 643c a589 0cbe 9685 b83d c9dc df3b
000000e0: fd1b 0e3d e17b a03d 1d7a 83bd ff54 02be
000000f0: 6e33 8fbd 36fc 023e cc37 003d f9f8 4ebd
00000100: 579e 2fbe 444b 9c3d 3be2 513c 9eeb 5ebc
00000110: 0543 893d acc8 28bd ff77 d8bd 7806 dabd
00000120: c49d a3bd 0c92 4fbd a6c6 dcbd ad8a 1e3a
00000130: 2097 4abe d213 15be d0b1 843d 6342 95bc
00000140: de38 a0bc 8471 22be db2a ba3b 127d c7bd
00000150: 0890 123d 69a3 9dbd 0d0c 28bd 11e6 24be
00000160: bac8 903d 8f27 68bc 8363 26be 0ddb d33c
00000170: 0853 2a3e d1c3 cebd ecac b3bb 504d f43c
00000180: b575 b6bd 6298 92bc da29 103e c018 ea3d
00000190: ec13 823c c146 27be 98fb 6b3b 8cc0 c0bd
000001a0: 45c0 1dbe 5167 3a3a ed65 fabd e041 67bd
000001b0: b44d ac3a 2791 a4bd a693 30bc 1eee a93c
000001c0: 3c6c bb3d 5ec4 c93d e35c 213d c61f 29be
000001d0: 867f cf3b e8df 9e3d 6aaf 7d3d 6cb1 0ebe
000001e0: 360f 063c 8f97 b73c b7bd 2c3d 96fd febd
000001f0: fc7b ce3d 0645 4f3c 88d8 5bbe cdd1 27bd
00000200: 2e32 25be 207b 9fbd 4952 08bd 7612 abbd
00000210: 318e 093e 96ee a8bd 141d 98be 7687 a3bd
00000220: b536 74be a322 a5bc 9eed 36bd db6c b53d
00000230: 339a 533b 5400 a9bd ee62 2dbd c5bc bebc
00000240: bc3c dfbb 1dcd 14be e9a6 fabd ee2a 823d
00000250: e7f4 e8bd 0ff7 03bc 0905 7939 07fd b43c
00000260: d589 a7bb 1a55 1a3d da35 673d 4fcd 43bd
00000270: 329f 1fbe e170 4ebd 12d9 973d 06b8 403d
00000280: b013 223e 20ab 2e3c ad7c 22be 602b e2bd
00000290: 5d16 ecbd fcd8 b9bd 612b 623d 405c 593d
000002a0: 3c02 b13d 0100 64bb 3f02 323a 1008 8c3d
000002b0: 28f2 bfbd dbf4 8e3d 4c99 a73d 54c8 cabd
000002c0: ec56 dcbd cc93 44bd deb3 0f3d 392f a0bd
000002d0: 409a c5bd 2ffb 43bd 41a6 bfbd f24c 42bd
000002e0: 54b5 1c3e 483a ffbd 108e 9cbc f143 aa3c
000002f0: 0d01 f7ba 726c 5dbc 8118 60bc 143a 803d
00000300: 3325 80bd f757 13bd 8bf8 b9bd 54da 55be
00000310: e178 c7bc 595d 5dbb 02db 1a3d f3ca 16be
00000320: abb3 c1bd e578 1bbd 2a27 dfbc 3769 b53d
00000330: bcab ec3d 6e9e 8fbe e2a1 7d3b ca8e ae3d
00000340: dbca 233d aa95 1dbd 8d3b 66bd 56e5 b9bd
00000350: d073 fc3c 15ad 8bbe 6f76 f53d 1b98 e1bd
00000360: f004 5bbd beb6 46bd 7b42 653a a889 80be
00000370: e803 153d c402 63be fe15 ddbd df03 133e
00000380: c96f 04be f717 5f3c 87f5 993c 1fa9 97bd
00000390: ad69 9dbd b91f 2c3e 8a1b 9cbe 961d 143e
000003a0: 9842 293d 37f4 15bd 0670 89bc f22c 65bd
000003b0: 40a0 0ab9 d0aa e6bd 229b b4ba 452c 083e
000003c0: 6883 893d 8331 473d c9d4 aebd e49b 413e
000003d0: 9c2e 063c 91e8 24be 30b7 e8bd 6714 ce3d
000003e0: 358d 24be 4427 a5bd 143d f1bd 89d8 bbbd
000003f0: 9480 8abd 600e 6b3d dc63 ab3d 7c34 6fbc

bias f4 [128]
0.2710161 0.11307919 0.47873476 0.5922267 0.16529071 -0.14090903 0.09481478 0.46829784
0.1131869 0.5780581 0.16965915 0.46057788 0.5667874 0.26449308 0.9204421 0.6586795
0.09913381 0.6734257 0.7987559 0.5342707 0.16173634 0.8106405 0.87893516 0.58425325
0.7712993 0.44919744 0.750376 0.74410325 0.12666397 0.41144451 0.0704939 0.806969
0.11042786 0.27984518 0.42927396 0.6847932 0.8830509 0.5538321 0.17567912 0.69055885
0.24861088 0.61088693 0.10719437 -0.0015552276 0.22370958 0.71069646 0.09214169 0.7232813
0.61729175 0.65739185 0.5864021 0.077274255 0.026448326 0.5626668 0.105419345 0.89808506
0.29158235 -0.08342243 0.67368406 -0.0025062086 0.3063149 0.1963839 0.80348873 0.27288687
0.46900725 1.0489119 0.6490576 -0.034105532 0.08591614 0.79796195 0.39993888 0.85940105
0.8383281 0.87358683 0.59370697 0.24846512 0.9810752 -0.036671378 0.9722869 0.14301457
0.80174476 0.33425358 0.03149162 0.925176 0.21960348 0.84081244 0.8160982 0.16709888
0.6625379 0.5082419 0.94049746 0.066108406 0.59709024 0.36187214 0.61993957 0.7027826
-0.05201144 0.70843065 0.8924597 0.61377084 0.61540174 0.31942666 0.33460516 0.17979153
-0.0339722 0.9089854 0.7434637 0.7293489 0.52342 0.7586475 0.045436304 0.58267194
0.59914786 0.22773157 0.59391624 0.5799598 0.27214554 0.47456285 0.57263434 0.08490682
0.09408738 0.7665794 0.8704848 0.5693816 0.5224368 0.3149695 0.42064255 0.6380605
00000000: 9fc2 8a3e 1096 e73d b91c f53e 2b9c 173f
00000010: f841 293e 754a 10be 402e c23d bcc4 ef3e
00000020: 89ce e73d 9efb 133f 21bb 2d3e ddd0 eb3e
00000030: fb18 113f a36b 873e 18a2 6b3f 389f 283f
00000040: ab06 cb3d a065 2c3f 447b 4c3f f7c5 083f
00000050: 369e 253e 2386 4f3f e501 613f 9f91 153f
00000060: df73 453f 35fd e53e a418 403f 8d7d 3e3f
00000070: 33b4 013e dba8 d23e 1b5f 903d 8595 4e3f
00000080: 0028 e23d de47 8f3e ccc9 db3e 9b4e 2f3f
00000090: a00f 623f f1c7 0d3f 3ae5 333e 77c8 303f
000000a0: da93 7e3e 1663 1c3f b988 db3d c7d8 cbba
000000b0: 2014 653e 34f0 353f c8b4 bc3d f728 393f
000000c0: d506 1e3f d54a 283f 731e 163f f741 9e3d
000000d0: 29aa d83c ee0a 103f 19e6 d73d e7e8 653f
000000e0: 484a 953e 61d9 aabd 8f76 2c3f 343f 24bb
000000f0: 4ed5 9c3e dc18 493e 70b1 4d3f d4b7 8b3e
00000100: b821 f03e bf42 863f a428 263f 3eb2 0bbd
00000110: cdf4 af3d 3c47 4c3f cac4 cc3e b501 5c3f
00000120: ac9c 563f 63a3 5f3f 2efd 173f a46d 7e3e
00000130: bf27 7b3f ba34 16bd cbe7 783f 6972 123e
00000140: 253f 4d3f 4923 ab3e 5bfd 003d 56d8 6c3f
00000150: bcdf 603e 7c3f 573f d0eb 503f f81b 2b3e
00000160: 159c 293f 241c 023f 71c4 703f d863 873d
00000170: e8da 183f 4e47 b93e 5cb4 1e3f 8fe9 333f
00000180: f309 55bd b65b 353f 3d78 643f 1620 1d3f
00000190: f88a 1d3f e48b a33e 5e51 ab3e 451b 383e
000001a0: 6f26 0bbd 44b3 683f a353 3e3f 9cb6 3a3f
000001b0: dafe 053f b936 423f 6b1b 3a3d fd29 153f
000001c0: c161 193f 7732 693e e50a 183f 3f78 143f
000001d0: a956 8b3e e7f9 f23e 2a98 123f a0e3 ad3d
000001e0: e2b0 c03d 8c3e 443f 18d8 5e3f fec2 113f
000001f0: 6bbe 053f af43 a13e 765e d73e ef57 233f

weight f4 [128, 128]
-0.07284368 0.028532114 -0.0019826316 0.026899258 0.073679626 -0.05272914 -0.052355997 0.14846756
-0.002159376 -0.2516444 -0.07097573 -0.076516956 -0.03735426 -0.0096894065 -0.036713533 -0.0063214353
0.009963563 -0.1646715 -0.10578745 0.0002741693 0.03260967 0.05524532 -0.068768404 -0.09619184
-0.046736762 0.13649116 0.05086162 -0.08147576 0.07677522 -0.06397121 0.018346533 -0.16173959
-0.11335087 -0.023886701 -0.02927594 -0.19017383 -0.07099568 0.082860954 -0.16959666 -0.009131478
0.018452764 -0.07177753 -0.06074966 0.1163224 -0.045876037 -0.121893466 0.07710326 -0.040336635
0.077290334 0.0029159877 -0.14318873 0.094738856 0.047532193 -0.02999167 0.113868184 -0.0822698
0.025108673 -0.10377969 0.014214171 -0.13562019 0.027251502 -0.048438583 -0.1630899 0.052602533
-0.05851256 -0.08949357 0.03207959 0.0049060252 -0.025639845 -0.103703886 0.049889345 0.11740092
-0.071914785 0.0111192595 -0.0920154 -0.01911285 -0.016366709 -0.053254552 -0.037944417 -0.12501892
0.014865374 0.10954264 0.050817046 -0.002750869 0.036098078 -0.093820654 -0.08072316 0.09337612
-0.10810744 -0.091009274 -0.06531245 -0.069441 0.12855327 -0.07144621 -0.09243987 0.0332919
-0.17420521 0.02599338 -0.072363995 -0.0069358633 -0.00070543477 -0.057003517 0.06924336 -0.16297404
-0.06020719 0.22142625 -0.08038187 0.0465549 0.03055793 0.014377312 0.11525857 -0.030088156
0.08433648 -0.09283712 -0.031248512 0.0154302195 0.13156599 -0.14914864 -0.0915072 0.011448515
0.07843453 -0.1005083 0.08016574 0.02689972 -0.13018703 -0.09984536 -0.08301652 0.011310437
0.0744228 0.018740002 0.06617719 0.032548368 0.14710772 -0.2367013 -0.12596916 -0.13637088
-0.09143403 0.034483436 -0.5318044 -0.1491993 0.022147266 -0.0028845684 0.1811055 -0.012160606
-0.07919242 -0.20970587 0.045253795 -0.06983396 -0.40540078 0.0093572885 -0.027407173 0.011541504
0.07555263 0.022635937 -0.097872995 0.042512372 -0.10128454 0.07348108 0.052952737 -0.081510216
0.050479572 -0.055488374 -0.18564163 0.10936646 0.08187572 0.011428734 -0.09014054 -0.086793184
0.12752938 -0.27193448 -0.193926 0.060736857 -0.031597994 -0.1863869 0.023446333 0.03935711
0.19681373 -0.059699528 0.087792456 0.026072819 0.03448707 -0.037237734 -0.045474656 0.13283609
0.13198632 -0.3146809 0.06479513 -0.054239288 0.060828403 -0.021122409 -0.17541896 0.09876609
-0.011901913 0.17531905 0.027351638 0.05203747 -0.008264634 0.065925576 -0.0779962 -0.13958123
-0.17305465 -0.046713077 0.17031358 0.09591594 -0.020211171 0.06096577 0.1601297 -0.015836142
0.10967865 -0.07509351 -0.12252363 -0.29038772 -0.2787702 -0.009870885 0.06117889 0.08601076
0.22239515 -0.052822184 -0.1349135 -0.029067183 -0.18622495 -0.5870653 0.0017922341 -0.037413318
-0.350258 0.09572551 0.09365134 -0.08264875 -0.056930885 -0.05614924 0.10738342 0.18556008
0.14322259 -0.110198684 0.08205335 -0.11873248 0.16832414 0.035562072 -0.040241722 0.14026168
-0.17267695 -0.08649831 -0.08553264 -0.13698651 0.15719318 0.18117817 -0.12150417 -0.00345268
-0.046096615 -0.41073406 -0.0476048 0.07278017 -0.00020715567 -0.24954742 0.059844296 -0.08035409
00000000: 112f 95bd 2ebc e93c 0aef 01bb d55b dc3c
00000010: 58e5 963d 83fa 57bd 3e73 56bd e107 183e
00000020: 5184 0dbb 89d7 80be b95b 91bd ecb4 9cbd
00000030: c800 19bd 51c0 1ebc ee60 16bd 0b24 cfbb
00000040: 363e 233c a59f 28be 17a7 d8bd 61be 8f39
00000050: b891 053d eb48 623d 73d6 8cbd 3a00 c5bd
00000060: 0c6f 3fbd 57c4 0b3e 4654 503d c3dc a6bd
00000070: 543c 9d3d 5603 83bd 784b 963c 109f 25be
00000080: 8024 e8bd 0bae c3bc 19d4 efbc eebc 42be
00000090: 2f66 91bd 01b3 a93d bfaa 2dbe 329c 15bc
000000a0: 402a 973c 1900 93bd a3d4 78bd 703a ee3d
000000b0: 83e8 3bbd 48a3 f9bd 50e8 9d3d 0738 25bd
000000c0: 654a 9e3d 281a 3f3b 11a0 12be 7206 c23d
000000d0: 1eb1 423d 17b1 f5bc b933 e93d 127d a8bd
000000e0: b4b0 cd3c 728a d4bd 8ee2 683c 05e0 0abe
000000f0: 8b3e df3c 8967 46bd 0a01 27be c175 573d
00000100: deaa 6fbd 6848 b7bd e365 033d b9c2 a03b
00000110: a70a d2bc b462 d4bd c558 4c3d e56f f03d
00000120: 0f48 93bd 8e2d 363c 9272 bcbd 8d92 9cbc
00000130: 7a13 86bc 7221 5abd 9b6b 1bbd f604 00be
00000140: e68d 733c e457 e03d 8925 503d ec47 34bb
00000150: 94db 133d 0b25 c0bd 2f52 a5bd fb3b bf3d
00000160: 6f67 ddbd 1263 babd 89c2 85bd 1537 8ebd
00000170: 78a3 033e 6452 92bd 1d51 bdbd 165d 083d
00000180: da62 32be 12f0 d43c 9333 94bd 3d46 e3bb
00000190: edec 38ba 857c 69bd 76cf 8d3d abe2 26be
000001a0: d19b 76bd 90bd 623e 409f a4bd 5ab0 3e3d
000001b0: a054 fa3c d18e 6b3c af0c ec3d 707b f6bc
000001c0: 9bb8 ac3d 6321 bebd e1fc ffbc 08cf 7c3c
000001d0: 3cb9 063e 6cba 18be 2068 bbbd 8d92 3b3c
000001e0: 48a2 a03d 4cd7 cdbd ef2d a43d cd5c dc3c
000001f0: c04f 05be b97b ccbd 9104 aabd 694f 393c
00000200: fb6a 983d a284 993c e887 873d 7051 053d
00000210: 68a3 163e d361 72be 0ffe 00be cfa4 0bbe
00000220: c441 bbbd 813e 0d3d 5524 08bf b4c7 18be
00000230: 2f6e b53c 070b 3dbb b873 393e 473d 47bc
00000240: a32f a2bd 23bd 56be 0b5c 393d 1b05 8fbd
00000250: b190 cfbe 504f 193c 0285 e0bc 9418 3d3c
00000260: 56bb 9a3d 006f b93c a371 c8bd 7421 2e3d
00000270: 456e cfbd 407d 963d f8e4 583d d4ee a6bd
00000280: abc3 4e3d c747 63bd d718 3ebe 86fb df3d
00000290: 75ae a73d 963f 3b3c 9a9b b8bd a0c0 b1bd
000002a0: 1097 023e ff3a 8bbe 8a94 46be 36c7 783d
000002b0: e66c 01bd 35dc 3ebe 8612 c03c ec34 213d
000002c0: 8a89 493e 7e87 74bd 88cc b33d aa96 d53c
000002d0: 5042 0d3d 9886 18bd a243 3abd 2f06 083e
000002e0: 6c27 073e db1d a1be 4fb3 843d 042a 5ebd
000002f0: 3427 793d e708 adbc 07a1 33be e045 ca3d
00000300: 3e00 43bc d686 333e 8b10 e03c 3e25 553d
00000310: 6368 07bc fd03 873d 79bc 9fbd 62ee 0ebe
00000320: 3d35 31be 3656 3fbd af66 2e3e 946f c43d
00000330: e691 a5bc 3eb7 793d 0af9 233e ccba 81bc
00000340: 339f e03d a0ca 99bd abed fabd b3ad 94be
00000350: f8ba 8ebe 7eb9 21bc b796 7a3d 6926 b03d
00000360: 8ebb 633e 135c 58bd c426 0abe 4d1e eebc
00000370: c1b1 3ebe e949 16bf 66e9 ea3a b53e 19bd
00000380: 0455 b3be bc0b c43d 46cc bf3d bf43 a9bd
00000390: 5c30 69bd bffc 65bd d7eb db3d 7603 3e3e
000003a0: f1a8 123e d9af e1bd 960b a83d 042a f3bd
000003b0: 2a5d 2c3e 89a9 113d 81d4 24bd c2a0 0f3e
000003c0: 3ad2 30be 0726 b1bd bd2b afbd 3146 0cbe
000003d0: 40f7 203e c586 393e 2ed7 f8bd 5c46 62bb
000003e0: cecf 3cbd bc4b d2be 40fd 42bd c50d 953d
000003f0: ed37 59b9 5c89 7fbe 4b1f 753d af90 a4bd

bias f4 [128]
0.2920201 0.26186505 0.4958734 0.23005423 0.03002094 0.85152984 0.8303366 0.65541947
0.61624885 0.94045347 0.42159015 0.012382078 0.8415335 0.058320437 0.35792783 0.6395002
0.45114014 0.28339672 0.4296942 0.5317781 0.6527705 0.33358198 0.11756563 0.25041777
0.893098 0.15318172 -0.0064070667 0.025466254 0.484111 0.017597437 0.6889236 1.004955
0.096188694 0.419723 0.25766516 -0.007410461 0.9800284 0.662265 0.16992858 0.75310105
0.570501 0.27155548 0.137051 0.934389 -0.17069858 0.3646912 0.4218284 0.19913895
0.5476509 0.9120281 0.5233993 0.89808667 0.8167231 0.075045586 0.116225325 0.76533645
0.24514903 0.44606066 0.11575167 0.6293933 -0.10762284 0.71168876 0.61053795 -0.0059438194
-0.021063529 0.5416134 0.07083873 0.21768984 0.5714084 0.08478132 0.7730065 0.22127534
-0.008508659 -0.0652623 0.044999555 0.5048475 0.06954056 0.9987651 0.31372875 0.7022668
0.11511388 0.6884325 -0.061022934 0.17802715 0.4500776 0.205397 0.17038803 0.796955
0.63028234 0.34812966 0.20333771 0.36119583 0.67326534 0.73121285 0.7454549 0.48189068
0.80055207 0.52391595 0.6748281 0.7060919 0.11844619 0.35268068 0.34013078 0.7316893
0.67345625 0.43838477 0.17052223 0.23573692 0.7670265 0.6033922 0.81930715 0.13241169
0.36062893 0.37527457 0.6386326 0.5740729 0.61637366 0.08488693 0.13751917 0.50529456
0.5763016 0.96692014 0.05322943 0.24092029 0.4523631 0.06142455 0.79107237 0.6795385
00000000: a983 953e 2d13 863e 1ee3 fd3e 5693 6b3e
00000010: 79ee f53c dcfd 593f f090 543f 92c9 273f
00000020: 7cc2 1d3f 8fc1 703f aada d73e 33de 4a3c
00000030: bd6e 573f 69e1 6e3d 5142 b73e 49b6 233f
00000040: d7fb e63e 6019 913e e100 dc3e 9c22 083f
00000050: f81b 273f 42cb aa3e 40c6 f03d c236 803e
00000060: 12a2 643f abdb 1c3e 5ff2 d1bb 9b9e d03c
00000070: 66dd f73e 8028 903c 4c5d 303f 5ea2 803f
00000080: 94fe c43d efe5 d63e b0ec 833e 74d3 f2bb
00000090: 24e3 7a3f 338a 293f c201 2e3e 3bcb 403f
000000a0: 5b0c 123f 5209 8b3e 1957 0c3e 1e34 6f3f
000000b0: 9ccb 2ebe ceb8 ba3e e4f9 d73e 15eb 4b3e
000000c0: d932 0c3f ac7a 693f 7ffd 053f 02e9 653f
000000d0: c414 513f 80b1 993d 8b07 ee3d 17ed 433f
000000e0: 5908 7b3e 1062 e43e 360f ed3d eb1f 213f
000000f0: 5d69 dcbd 3c31 363f 374c 1c3f 5fc4 c2bb
00000100: 6c8d acbc 2da7 0a3f e513 913d 16ea 5e3e
00000110: d247 123f d4a1 ad3d c1e3 453f 0196 623e
00000120: e767 0bbc 3ea8 85bd 7451 383d b03d 013f
00000130: 486b 8e3d 12af 7f3f 0ea1 a03e c2c7 333f
00000140: d3c0 eb3d 1d3d 303f 2ff3 79bd c04c 363e
00000150: 9270 e63e 9753 523e 337a 2e3e 3e05 4c3f
00000160: 2f5a 213f 0d3e b23e c337 503e a9ee b83e
00000170: 1e5b 2c3f c430 3b3f 22d6 3e3f 60ba f63e
00000180: fbf0 4c3f 5b1f 063f 89c1 2c3f 70c2 343f
00000190: eb93 f23d 9092 b43e 9f25 ae3e fd4f 3b3f
000001a0: a167 2c3f f873 e03e 619d 2e3e 0565 713e
000001b0: d95b 443f e977 1a3f 1dbe 513f ee96 073e
000001c0: 5ba4 b83e fd23 c03e 6d7d 233f 71f6 123f
000001d0: aaca 1d3f 33d9 ad3d d3d1 0c3e fc5a 013f
000001e0: 8088 133f 1488 773f 1a07 5a3d cfb3 763e
000001f0: 239c e73e 4f98 7b3d b883 4a3f 3cf6 2d3f

weight f4 [128, 128]
0.012510256 -0.116624646 -0.018664815 -0.048904486 0.06592689 -0.5388633 -0.20774561 -0.065795384
-0.0642529 0.034068044 0.059471406 -0.15487012 -0.25760895 0.067832775 -0.47440714 -0.11337142
-0.11911776 -0.006014489 0.091548376 -0.0532423 0.032021645 -0.13106091 0.1228657 -0.15148349
-0.17866679 -0.07434523 -0.058604497 -0.022410702 -0.03802778 -0.049647033 -0.22259791 -0.2789482
-0.037387326 0.059996706 -0.12611273 -0.085464954 -0.43209076 -0.01709855 -0.08854872 -0.031223297
-0.013763641 0.15234177 0.051297694 -0.16909175 -0.046473954 -0.13425128 0.071182884 -0.0953637
0.07783824 -0.08872777 0.060127664 -0.093554065 -0.0061256057 0.14226873 0.119736515 0.02809651
0.083087385 -0.09319751 0.016055081 -0.03563649 0.13985692 -0.22955282 0.16476966 -0.20685999
0.045598924 -0.37342706 -0.062843904 -0.021798395 -0.3144334 0.036190398 -0.14422959 0.03481251
-0.006963809 0.035740368 -0.002373777 0.0029768497 0.017397895 -0.05897896 0.13078667 -0.0051126983
0.20496653 -0.0039100456 -0.023057887 0.14201182 0.04106444 -0.12482632 0.07248747 0.22281492
0.21321498 0.08528616 -0.005310281 0.016019527 -0.036292896 -0.054780044 0.036214363 0.08676851
0.0015466866 -0.11749969 -0.05893064 -0.033797633 -0.054666128 -0.11808085 0.02020124 -0.14833854
-0.25472796 -0.26908118 0.04863014 -0.081810415 0.049724706 -0.05322977 -0.013904259 0.018033106
0.04931975 0.15732956 0.00036069372 -0.009698752 -0.029756712 -0.03974926 0.28914464 -0.009690141
0.1614963 0.02671954 0.03890169 -0.17434704 -0.41077545 -0.053811282 -0.15233457 -0.120795704
-0.13535634 -0.23126718 -0.20630851 -0.123034745 -0.042643342 0.21989144 0.033856027 -0.0434675
-0.002246032 -0.061136134 0.038694207 0.042893227 -0.34397557 -0.20664753 -0.41296476 0.02130187
0.235428 -0.23853186 -0.3603333 0.094811864 -0.2187537 -0.023422275 -0.3892593 -0.03765865
-0.12498941 0.050202716 0.1477096 -0.015958749 -0.17957254 -0.030639548 -0.011197594 0.122887865
-0.089623325 0.041982744 0.060823616 0.020523496 0.18494248 -0.44589996 -0.07427111 0.13170302
0.12290137 -0.07567957 -0.13638403 0.0007183633 -0.18512888 -0.034565996 -0.17989905 0.046751413
0.029257333 -0.062267017 0.16719046 -0.10985536 0.034946535 -0.013906472 -0.2114752 0.082701445
0.15855871 -0.04990365 -0.0015464034 -0.038128614 -0.052920155 -0.34648004 -0.018724745 -0.15515079
-0.25149179 -0.16034724 -0.06374991 -0.026748037 0.26244676 0.057481505 -0.117407925 0.19004428
0.13641794 -0.103538334 -0.056887772 -0.14799538 0.014214984 0.067436166 0.11150951 -0.11189905
-0.053784903 -0.052092858 -0.009716599 -0.22459707 0.060616873 -0.6044305 0.042505976 0.03770101
0.040379096 -0.16303368 0.017458057 0.040970348 0.010652297 0.24022408 -0.0878168 0.17000474
0.09961721 -0.24182971 -0.032906752 0.19612183 -0.09253272 -0.36271977 -0.28844622 -0.08192592
-0.03725649 -0.06649829 0.03882232 -0.14371476 -0.2698411 -0.045321755 0.2636862 -0.32315284
-0.055159315 -0.27413714 -0.03097767 -0.0810585 -0.09639382 0.0811632 -0.102578014 -0.0061456393
0.021251788 -0.4264421 0.060399435 0.012470722 -0.17501822 0.1039375 -0.0024222229 -0.024910716
00000000: d1f7 4c3c e7d8 eebd f4e6 98bc 1250 48bd
00000010: ad04 873d f2f2 09bf 44bb 54be bbbf 86bd
00000020: 0697 83bd ef8a 0b3d 4a98 733d 4696 1ebe
00000030: 52e5 83be e9eb 8a3d 7ee5 f2be 462f e8bd
00000040: 03f4 f3bd 3115 c5bb b77d bb3d 9914 5abd
00000050: 2129 033d d534 06be 03a1 fb3d 7d1e 1bbe
00000060: 6df4 36be 5042 98bd 450b 70bd a696 b7bc
00000070: 04c3 1bbd b05a 4bbd b5f0 63be 4cd2 8ebe
00000080: 7423 19bd 1bbf 753d b223 01be 4008 afbd
00000090: 003b ddbe 4212 8cbc 0859 b5bd 00c8 ffbc
000000a0: e580 61bc 7bff 1b3e 881d 523d 6326 2dbe
000000b0: 795b 3ebd 2b79 09be 55c8 913d 0b4e c3bd
000000c0: a869 9f3d e8b6 b5bd 6d48 763d 4699 bfbd
000000d0: 4eb9 c8bb e5ae 113e 6b38 f53d a72a e63c
000000e0: b829 aa3d 56de bebd f285 833c 91f7 11bd
000000f0: a736 0f3e e50f 6bbe 61b9 283e 1bd3 53be
00000100: f0c5 3a3d d531 bfbe 4eb4 80bd 8c92 b2bc
00000110: 6afd a0be 623c 143d ecb0 13be 9097 0e3d
00000120: aa30 e4bb 7e64 123d 5f91 1bbb 4017 433b
00000130: 0886 8e3c ec93 71bd f1ec 053e 6c88 a7bb
00000140: bfe2 513e d71f 80bb e5e3 bcbc 8c6b 113e
00000150: 3033 283d f1a4 ffbd 5074 943d 9829 643e
00000160: 0755 5a3e 83aa ae3d de01 aebb 623b 833c
00000170: dca7 14bd 0a61 60bd 8355 143d b0b3 b13d
00000180: 31ba ca3a ada3 f0bd 4161 71bd 636f 0abd
00000190: 97e9 5fbd 5fd4 f1bd 127d a53c 0fe6 17be
000001a0: b46b 82be 02c5 89be 6630 473d 388c a7bd
000001b0: 22ac 4b3d 7607 5abd b0ce 63bc 2aba 933c
000001c0: 8203 4a3d 001b 213e 7e1b bd39 84e7 1ebc
000001d0: 59c4 f3bc 1fd0 22bd c40a 943e 66c3 1ebc
000001e0: 495f 253e f0e2 da3c 6157 1f3d 0888 32be
000001f0: 2951 d2be 3869 5cbd 98fd 1bbe bd63 f7bd
00000200: da9a 0abe 4ed1 6cbe 8a42 53be a4f9 fbbd
00000210: c9aa 2ebd 392b 613e 9eac 0a3d fa0a 32bd
00000220: 2a32 13bb e269 7abd d17d 1e3d cfb0 2f3d
00000230: 911d b0be 699b 53be 1e70 d3be 4281 ae3c
00000240: 0a14 713e b241 74be 9b7d b8be b92c c23d
00000250: f800 60be 12e0 bfbc ff4c c7be f53f 1abd
00000260: 73fa ffbd 5da1 4d3d 2f41 173e ecbb 82bc
00000270: dde1 37be caff fabc 1d76 37bc a2ac fb3d
00000280: 6f8c b7bd 19f6 2b3d 2f22 793d e420 a83c
00000290: 9061 3d3e 004d e4be 741b 98bd 28dd 063e
000002a0: b7b3 fb3d e4fd 9abd 41a8 0bbe 8c50 3c3a
000002b0: 6d92 3dbe 1395 0dbd 7537 38be 697e 3f3d
000002c0: 13ad ef3c b30b 7fbd fa33 2b3e d9fb e0bd
000002d0: 1924 0f3d f9d7 63bc f48c 58be 605f a93d
000002e0: 375d 223e c567 4cbd b0b0 caba c02c 1cbd
000002f0: cec2 58bd d565 b1be a364 99bc d9df 1ebe
00000300: 88c3 80be 1132 24be 508f 82bd b31e dbbc
00000310: 6c5f 863e ba71 6b3d 9173 f0bd f89a 423e
00000320: 25b1 0b3e e80b d4bd 2703 69bd 1a8c 17be
00000330: f7e5 683c f91b 8a3d 195f e43d 542b e5bd
00000340: 8f4d 5cbd 525f 55bd 5f32 1fbc c6fc 65be
00000350: 6649 783d f5bb 1abf bf1a 2e3d 606c 1a3d
00000360: 8d64 253d 4df2 26be 3304 8f3c 86d0 273d
00000370: f986 2e3c 4dfd 753e 4bd9 b3bd b915 2e3e
00000380: 1c04 cc3d 35a2 77be 3bc9 06bd 29d4 483e
00000390: cb81 bdbd 68b6 b9be 39af 93be c7c8 a7bd
000003a0: 439a 18bd 4130 88bd 2704 1f3d f629 13be
000003b0: 9d28 8abe 4ea3 39bd e101 873e 4a74 a5be
000003c0: bcee 61bd b45b 8cbe e2c4 fdbc 0002 a6bd
000003d0: 206a c5bd e438 a63d 6c14 d2bd 5c61 c9bb
000003e0: 3b18 ae3c 9e56 dabe 6665 773d 0052 4c3c
000003f0: fa37 33be 2fdd d43d 28be 1ebb 8f11 ccbc

bias f4 [128]
0.02142483 0.7573078 0.48329088 0.07360869 0.025570346 1.008718 0.38068023 0.19072132
0.07428733 0.7974415 0.37681687 0.1857569 0.7642748 0.82028127 -0.15186366 0.18858327
0.3974555 0.3767829 0.44345927 0.37688187 0.92571294 0.08423618 0.8746439 0.16709714
0.14270423 0.19687109 0.87803864 0.29998252 0.58958906 0.8787731 0.5614438 0.6663056
-0.017453738 0.27255958 -0.03785927 -0.0090221055 0.32711995 -0.019584417 0.8819664 0.54341304
0.47366154 0.7483327 -0.096807085 0.4986421 0.15388072 0.011222227 0.2525058 -0.0038425077
0.22746606 0.9224152 1.0520222 -0.033048745 -0.089337446 0.8211242 0.31675586 0.4079448
0.67667896 0.32888812 0.39732113 0.007860965 0.43800682 -0.01891662 0.66870046 0.22187519
0.8621698 0.38843638 0.78785485 -0.058757465 0.6710324 -0.14513355 0.8133786 -0.08379531
0.27741897 0.48929197 -0.06154745 0.3409793 0.4992556 0.33035624 0.21039055 0.5099914
0.3158671 -0.04153714 0.3001591 0.8331662 0.57044643 0.90870655 0.8245027 0.5927977
1.0133673 0.42897224 0.8808281 0.77865964 0.7841613 0.9611887 0.21785592 0.5315218
0.22970212 0.7872892 0.76263535 0.1171521 0.6969573 0.21272914 0.28012326 0.23443046
0.5283175 0.06541186 0.8724436 0.25117266 0.69518536 -0.04105987 0.71482944 0.5134206
-0.058929984 0.20082305 0.45077604 0.5045931 0.07269573 0.124083 0.6024449 0.5270458
0.045536067 0.1989355 0.29170495 0.17687622 0.5622154 1.0244327 0.42334473 0.37059295
00000000: 2083 af3c edde 413f e771 f73e 27c0 963d
00000010: e778 d13c ac1d 813f 85e8 c23e 734c 433e
00000020: f523 983d 2025 4c3f 24ee c03e 0f37 3e3e
00000030: 83a7 433f f4fd 513f 2682 1bbe f91b 413e
00000040: 4a7f cb3e b0e9 c03e 180d e33e a9f6 c03e
00000050: 86fb 6c3f 0584 ac3d aae8 5f3f 831b 2b3e
00000060: 0f21 123e 9398 493e 24c7 603f 4f97 993e
00000070: 4fef 163f 46f7 603f c8ba 0f3f 0193 2a3f
00000080: 24fb 8ebc ee8c 8b3e 5212 1bbd 74d1 13bc
00000090: 447c a73e 806f a0bc 8dc8 613f 1e1d 0b3f
000000a0: c483 f23e bb92 3f3f cb42 c6bd 044e ff3e
000000b0: e892 1d3e 6edd 373c 7148 813e 95d2 7bbb
000000c0: ddec 683e 6723 6c3f aaa8 863f 1f5e 07bd
000000d0: 8df6 b6bd 3235 523f d32d a23e 24de d03e
000000e0: d53a 2d3f 0664 a83e ad6d cb3e 47cb 003c
000000f0: 6e42 e03e 07f7 9abc f42f 2b3f 4033 633e
00000100: 29b7 5c3f 22e1 c63e dbb0 493f abab 70bd
00000110: c8c8 2b3f e49d 14be 9439 503f e09c abbd
00000120: dc09 8e3e 7a84 fa3e 2e19 7cbd d794 ae3e
00000130: 6e9e ff3e 7424 a93e 9f70 573e cc8e 023f
00000140: 55b9 a13e d922 2abd 74ae 993e 614a 553f
00000150: c708 123f fea0 683f 9c12 533f 97c1 173f
00000160: 05b6 813f 40a2 db3e f37d 613f 3d56 473f
00000170: ccbe 483f 7610 763f 9f15 5f3e d011 083f
00000180: 0837 6b3e c98b 493f 123c 433f 71ed ef3d
00000190: cb6b 323f abd5 593e 516c 8f3e 8a0e 703e
000001a0: d13f 073f a7f6 853d 7758 5f3f b499 803e
000001b0: abf7 313f 652e 28bd 10ff 363f 886f 033f
000001c0: 9160 71bd 8fa4 4d3e 1ecc e63e 032d 013f
000001d0: 80e1 943d 3a1f fe3d d439 1a3f 79ec 063f
000001e0: 0784 3a3d bfb5 4b3e 5a5a 953e 0a1f 353e
000001f0: 59ed 0f3f 9c20 833f a4c0 d83e 5cbe bd3e

weight f4 [5, 128]
0.0006326599 0.03210677 0.045589834 0.06541554 0.08720948 0.1661165 0.40653014 -0.2924481
0.0029763347 0.034950413 0.027183592 0.012645614 0.346031 -0.07351187 -0.025824338 0.06065956
-0.3115273 -0.2811913 -0.019377379 0.2299921 0.23212405 0.007460148 0.1887998 -0.063418806
-0.14037046 0.02539571 7.816186e-05 0.06207028 0.087324716 0.163882 0.07881105 0.011888741
-0.20542286 0.10825897 0.056509897 -0.0016755619 -0.0019582508 -0.08115163 -0.030382242 -0.10922738
0.13716702 -0.36723897 -0.200333 0.38982183 -0.064228736 -0.050178435 0.2535878 0.17977995
0.21092464 0.17028229 0.14121594 -0.13680139 -0.20273276 -0.21973823 0.20353714 0.034164447
0.12607461 0.06210726 -0.09375096 -0.15388687 -0.20399183 -0.31758818 0.0804874 0.015480887
0.119101055 0.011924802 0.08096865 0.07489509 0.14962664 -0.046509214 0.13812418 -0.18545379
-0.2711999 -0.22899294 -0.14796732 -0.03435308 -0.09566977 0.18305862 0.12239057 0.12242462
0.018523956 -0.03284095 -0.19066931 -0.06013407 -0.22042201 -0.03983495 -0.16471599 0.038572047
0.1261475 0.060328636 0.24643114 0.16391657 0.112929896 0.2122789 0.40787625 -0.011604737
0.13249929 0.00058839936 -0.008994921 0.1583643 -0.070683 0.042928204 0.4461178 -0.06849615
-0.10307297 -0.04113122 0.21833664 -0.033669297 -0.29284233 -0.21001822 -0.012017064 0.06489632
-0.08187046 0.1514034 0.24783628 -0.0030693312 0.16821216 0.30657104 -0.026386257 0.06768539
-0.11938051 -0.0038905726 0.0136365965 -0.07210468 0.022203365 0.017572034 -0.532777 0.060616747
-0.1698596 0.4080522 0.06957988 -0.003974622 0.05463254 0.12776083 -0.04507372 0.3011537
0.005073737 0.02264759 0.04516276 -0.0997063 0.18532497 -0.014563716 0.001688343 -0.016075194
-0.34668982 -0.09148062 -0.271478 0.1365903 0.12789945 -0.013427684 0.15593703 -0.095346384
0.06899597 0.044558782 -0.19728915 -0.32816905 0.03659246 0.09000015 0.09907689 0.01653297
-0.14532769 -0.013178769 -0.116197474 -0.15071803 0.008386229 0.010139456 0.12922706 0.0764421
0.06250368 0.3825933 0.06829341 0.10897078 0.08991124 -0.11836475 -0.4354189 0.030913493
-0.03649597 0.14557752 0.19617504 0.10849336 -0.09686786 -0.4744134 0.12406318 0.13545711
0.01585764 0.1227298 -0.7144983 -0.09260035 -0.33531907 0.10377267 0.4054669 0.09324775
0.045110006 0.10638325 0.08867208 -0.040709965 0.058714084 -0.21271005 0.18425712 0.17134826
-0.22650483 0.1909894 0.10036525 0.18420067 -0.04789958 0.038271934 0.038939584 0.13550001
0.032847796 0.0277755 0.01832897 0.08274113 0.20619926 0.06651938 -0.047387164 0.10668883
0.059306283 -0.00607059 0.14236107 0.050326392 0.08305616 0.120307446 0.10255206 -0.23215157
-0.2846051 0.1396734 0.10505959 0.1300583 0.031612914 0.017693762 0.23719835 -0.15145336
0.016130619 0.026662013 0.09952112 0.082903065 -0.05731663 0.041422695 0.03793885 0.25370622
0.17373541 0.2834941 0.20027462 0.10223473 -0.37373704 0.072836585 -0.28631893 0.01694262
0.020613022 -0.17248769 0.025465187 0.041609798 0.13386063 0.20693505 -0.1178295 -0.13105588
00000000: 16d9 253a 6382 033d 68bc 3a3d 95f8 853d
00000010: e29a b23d 721a 2a3e b824 d03e c2bb 95be
00000020: 9c0e 433b 2a28 0f3d 20b0 de3c 8d2f 4f3c
00000030: fa2a b13e 648d 96bd 908d d3bc 2976 783d
00000040: 8280 9fbe 4ef8 8fbe 4fbd 9ebc 0d83 6b3e
00000050: edb1 6d3e 4274 f43b bc54 413e b8e1 81bd
00000060: 46bd 0fbe aa0a d03c d4ea a338 683d 7e3d
00000070: 4dd7 b23d afd0 273e b067 a13d fec8 423c
00000080: 5f5a 52be e1b6 dd3d ec76 673d 879e dbba
00000090: ff55 00bb d332 a6bd 2ee4 f8bc 9bb2 dfbd
000000a0: 8375 0c3e bf06 bcbe 1824 4dbe ba96 c73e
000000b0: 5b8a 83bd e787 4dbd 43d6 813e 3c18 383e
000000c0: a1fc 573e 7b5e 2e3e e99a 103e aa15 0cbe
000000d0: 2d99 4fbe 0f03 61be 0a6c 503e 05f0 0b3d
000000e0: b419 013e 2f64 7e3d 8100 c0bd 8594 1dbe
000000f0: 3ce3 50be eb9a a2be 94d6 a43d 8ca3 7d3c
00000100: 41eb f33d 3f60 433c e4d2 a53d 9962 993d
00000110: ba37 193e 7280 3ebd 6d70 0d3e 99e7 3dbe
00000120: b7da 8abe 207d 6abe bf84 17be d1b5 0cbd
00000130: 83ee c3bd b873 3b3e e8a7 fa3d c2b9 fa3d
00000140: 8dbf 973c 3b84 06bd d13e 43be 254f 76bd
00000150: 4fb6 61be f929 23bd 4fab 28be b9fd 1d3d
00000160: cf2c 013e 291b 773d 7258 7c3e bfd9 273e
00000170: ca47 e73d a45f 593e 28d5 d03e cb21 3ebc
00000180: e5ad 073e d03e 1a3a 6f5f 13bc 402a 223e
00000190: 40c2 90bd 7cd5 2f3d 8d69 e43e b647 8cbd
000001a0: ec17 d3bd 3679 28bd a493 5f3e d1e8 09bd
000001b0: 6eef 95be 040f 57be 38e3 44bc 5de8 843d
000001c0: b3ab a7bd 7e09 1b3e cbc8 7d3e d526 49bb
000001d0: cf3f 2c3e e1f6 9c3e fe27 d8bc a39e 8a3d
000001e0: c57d f4bd faf8 7ebb 086c 5f3c 9eab 93bd
000001f0: d5e3 b53c 3af3 8f3c 1364 08bf 4449 783d
00000200: adef 2dbe 38ec d03e e57f 8e3d 8c3d 82bb
00000210: 5fc6 5f3d bcd3 023e 399f 38bd d130 9a3e
00000220: 9741 a63b 7087 b93c 96fc 383d d132 ccbd
00000230: d4c5 3d3e a79c 6ebc 644b dd3a 20b0 83bc
00000240: 5481 b1be 315a bbbd 2aff 8abe 54de 0b3e
00000250: 13f8 023e caff 5bbc f5ad 1f3e f744 c3bd
00000260: c24d 8d3d 4583 363d 2b06 4abe c605 a8be
00000270: fae1 153d 0052 b83d d3e8 ca3d 2770 873c
00000280: c8d0 14be c3eb 57bc f1f8 edbd d455 1abe
00000290: 6566 093c f61f 263c 1954 043e ad8d 9c3d
000002a0: ee01 803d 45e3 c33e 6add 8b3d 132c df3d
000002b0: 6223 b83d 3869 f2bd 3aef debe 4b3e fd3c
000002c0: cc7c 15bd 4612 153e 1ce2 483e c431 de3d
000002d0: a862 c6bd 50e6 f2be d614 fe3d 45b5 0a3e
000002e0: e2e7 813c c359 fb3d 5ce9 36bf 41a5 bdbd
000002f0: f1ae abbe c486 d43d 5c99 cf3e adf8 be3d
00000300: 45c5 383d 76df d93d b599 b53d 7ebf 26bd
00000310: 2e7e 703d aad0 59be e6ad 3c3e eb75 2f3e
00000320: e2f0 67be ba92 433e 4c8c cd3d 1a9f 3c3e
00000330: 5a32 44bd 08c3 1c3d 1d7f 1f3d 84c0 0a3e
00000340: 698b 063d 7289 e33c a326 963c 2e74 a93d
00000350: e625 533e 503b 883d 0b19 42bd ac7f da3d
00000360: 25eb 723d cdeb c6bb 1ac7 113e 0c23 4e3d
00000370: 5919 aa3d c063 f63d d006 d23d 24b9 6dbe
00000380: c2b7 91be 8b06 0f3e 7b29 d73d 012e 053e
00000390: 8b7c 013d 82f2 903c 20e4 723e 9716 1bbe
000003a0: 5c24 843c 4b6a da3c bbd1 cb3d 15c9 a93d
000003b0: d8c4 6abd d8aa 293d c465 1b3d c8e5 813e
000003c0: b2e7 313e 2426 913e ca14 4d3e 7160 d13d
000003d0: 765a bfbe 592b 953d 6598 92be 40cb 8a3c
000003e0: a4dc a83c 9da0 30be 5e9c d03c 096f 2a3d
000003f0: c312 093e c8e6 533e 9850 f1bd 8333 06be

bias f4 [5]
0.10374334 1.1018119 0.7411865 0.45159227 0.76841486
00000000: 6377 d43d 2c08 8d3f 66be 3d3f 1a37 e73e
00000010: d6b6 443f
