DQN一阶无领航机器人编队控制/models/dqn_2.pt (torch, 206575 bytes, 10 tensors)

weight f4 [128, 2]
0	0x3dffd4d5	0.12491766
1	0x3e750353	0.2392705
2	0x3dadbb13	0.08482947
3	0x3d774767	0.06037083
4	0x3e6d49ce	0.23172686
5	0x3c1373bb	0.00899976
6	0x3e2504c3	0.16115098
7	0x3e036d29	0.1283461
8	0x3db99dab	0.09063276
9	0x3d86ac8b	0.06575879
10	0x3da9336b	0.0826176
11	0x3d842c89	0.06453807
12	0x3e09703b	0.13421719
13	0x3dfa303d	0.12216232
14	0x3d108300	0.03528118
15	0x3e3b4db2	0.18291357
16	0x3ca8c209	0.020600336
17	0x3e70924b	0.23493306
18	0x3e060680	0.13088417
19	0x3dd2f455	0.10300509
20	0x3df48fc4	0.119414836
21	0x3dc69e69	0.09698183
22	0x3dd836b7	0.10557311
23	0x3dc34ee3	0.09536531
24	0x3d8e8fc3	0.06961014
25	0x3d76824c	0.060182855
26	0xbe0e547d	-0.13899417
27	0x3e607c57	0.21922432
28	0x3dc88d67	0.09792595
29	0x3d8ce827	0.06880217
30	0x3daad120	0.08340669
31	0x3ed9067e	0.42387766
32	0x3f3941c7	0.72365993
33	0xbdf13292	-0.11777224
34	0x3ebbbcb0	0.36667395
35	0x3eb2f84b	0.34955058
36	0x3e4db03c	0.2008676
37	0x3c8d554d	0.017252589
38	0x3db68752	0.08912529
39	0x3d06f1f5	0.032945592
40	0x3d98e063	0.07464673
41	0x3d2787da	0.040901043
42	0x3dadb0ff	0.08481025
43	0xbdd60743	-0.10450604
44	0x3da911d3	0.08255353
45	0x3d8bc46d	0.068245746
46	0x3eda2895	0.42609087
47	0x3ce6cc85	0.028173694
48	0x3d811370	0.063025355
49	0x3d9b8463	0.0759361
50	0xbda2197e	-0.079150185
51	0xbe0d37f0	-0.1379087
52	0x3dea6615	0.11445252
53	0x3dcbf9fe	0.099597916
54	0xbe49486e	-0.19656536
55	0xbe506c71	-0.20353867
56	0xbbc9bd0b	-0.006156569
57	0xbdbd4fdb	-0.09243747
58	0xbbe4d559	-0.006983441
59	0x3f97e027	1.1865281
60	0x3de5e02f	0.112244
61	0x3d8f5fb4	0.07000676
62	0x3d86b556	0.06577556
63	0xbdd837f0	-0.10557544
64	0xbd4fffc8	-0.05078104
65	0x3d89d509	0.06730086
66	0x3d87ed9f	0.066371195
67	0x3dcc9fd6	0.09991424
68	0x3dd25405	0.10269932
69	0x3d74659f	0.059667226
70	0xbe658524	-0.2241407
71	0x3e900ab4	0.28133166
72	0x3d5163e4	0.051120654
73	0x3e2f2f03	0.17107777
74	0x3db25f1f	0.08709549
75	0x3db396c9	0.08768994
76	0x3daca65e	0.084301695
77	0x3e281644	0.16414744
78	0x3ec42c1a	0.38314897
79	0xbddf1159	-0.10891981
80	0x3dfb6b90	0.12276375
81	0xbc803f22	-0.015655104
82	0xbc2f380e	-0.010694517
83	0x3b8767ed	0.004132262
84	0xbe6044f6	-0.21901307
85	0x3c52cbbf	0.01286596
86	0x3e18cf56	0.14922842
87	0xbc91fdea	-0.017821271
88	0xbd828de4	-0.0637472
89	0x3f8beea5	1.0932204
90	0x3e027afe	0.1274223
91	0x3df2837c	0.11841485
92	0x3ebbe3a6	0.3669712
93	0x3e40b80f	0.18820213
94	0x3e19264d	0.14956017
95	0x3e231b61	0.15928413
96	0x3e3085eb	0.17238586
97	0x3d38015f	0.044923183
98	0x3dd018e4	0.101609975
99	0x3d907ad7	0.0705468
100	0x3d1209a3	0.03565372
101	0x3e927c58	0.28610492
102	0x3de8700f	0.113494985
103	0x3e354f31	0.1770599
104	0x3db8c031	0.090210326
105	0x3d8ece55	0.069729485
106	0x3e956788	0.2918055
107	0x3e90699c	0.28205574
108	0xbeb71ef4	-0.35765803
109	0xbdcc564a	-0.09977396
110	0x3cd7ee46	0.026358735
111	0xbc6e799f	-0.014555364
112	0x3d9c7e03	0.07641222
113	0x3dfa7bb1	0.122306235
114	0x3e0ad26a	0.13556829
115	0x3e05d2e4	0.1306873
116	0xbd57909e	-0.052628152
117	0x3d0d7db6	0.034543715
118	0x3e12d376	0.14338478
119	0xbc98f10e	-0.018669631
120	0x3b966376	0.0045894934
121	0x3f6a5385	0.9153369
122	0x3ea02f04	0.3128587
123	0x3e984816	0.29742497
124	0x3e2d81c9	0.1694404
125	0x3e12768b	0.14303033
126	0x3dfce9a2	0.123492494
127	0x3dc0e6a7	0.094189934
128	0x3da36cc4	0.0797973
129	0x393b76cc	0.00017877965
130	0xbdb314ef	-0.08744227
131	0x3d0298a7	0.031883862
132	0x3e26c6f5	0.16286834
133	0xbc913b66	-0.017728519
134	0x3dd8a9af	0.105792396
135	0xbd604cdb	-0.054760795
136	0x3dd60615	0.10450379
137	0x3e66e0e0	0.2254672
138	0x3dd478ca	0.10374601
139	0x3c0188be	0.007906137
140	0x3de8f1ec	0.11374268
141	0x3cd71a2c	0.026257597
142	0x3dad12ca	0.08450849
143	0x3d77ecae	0.06052845
144	0x3dc79e18	0.09746951
145	0x3e6776b9	0.22603883
146	0x3d98ca75	0.074604906
147	0x3da1a6f7	0.07893174
148	0xbe012344	-0.12611109
149	0xbda1c2aa	-0.07898457
150	0x3dfb96f9	0.12284655
151	0x3e122123	0.14270453
152	0x3db0e717	0.08637827
153	0x3d914611	0.07093442
154	0x3dd265c8	0.102733195
155	0x3d8134db	0.063089095
156	0xbcc0170f	-0.023448495
157	0x3fafba6b	1.3728765
158	0x3d1dd979	0.038537476
159	0x3dc6046f	0.096688144
160	0x3d9f22fb	0.07770344
161	0x3dad4661	0.08460689
162	0x3ce98b0e	0.02850869
163	0xbe04adac	-0.12956876
164	0x3d4e7517	0.050404634
165	0x3e63579c	0.22201389
166	0x3dd01566	0.101603314
167	0x3cff1c4f	0.031141428
168	0x3dea6c08	0.114463866
169	0x3e3e1dfe	0.18566129
170	0xbcb7016f	-0.02233955
171	0x3f457f22	0.77147114
172	0x3e277a3c	0.16355222
173	0x3db2b95e	0.08726762
174	0x3bfb2f15	0.0076655247
175	0x3c11227a	0.0088583175
176	0x3db2b8ce	0.08726655
177	0x3d0eb407	0.034839656
178	0x3c90c2d2	0.017671023
179	0x3ef1c0d3	0.47217426
180	0x3ec17c12	0.3778997
181	0xba8d31fb	-0.0010772342
182	0x3e081968	0.13290942
183	0x3e4e5b14	0.20151931
184	0x3dfb7fe6	0.12280254
185	0x3ded81a2	0.11596991
186	0xbba36a18	-0.0049870126
187	0x3b79094c	0.0037999926
188	0x3c3e7961	0.011625619
189	0x3b7df199	0.003874874
190	0x3e0b799c	0.13620609
191	0xbc8bddf9	-0.017073618
192	0x3f0b749d	0.5447481
193	0x3ea94c3b	0.33065972
194	0xbe4afbe9	-0.19822659
195	0x3e26cc06	0.16288766
196	0xbb1008c6	-0.0021977886
197	0x3ef4d5b3	0.4781929
198	0x3dbccb6b	0.092184864
199	0x3e05860a	0.13039413
200	0x3dde4411	0.108528264
201	0x3da4e219	0.08050937
202	0x3da1d514	0.079019696
203	0x3d6b9811	0.05751807
204	0xbdacac03	-0.08431246
205	0x3f843264	1.0327878
206	0x3df76825	0.12080411
207	0xbb5ab747	-0.0033373402
208	0x3f04118e	0.51589286
209	0xbd121b42	-0.035670526
210	0xbe671f49	-0.22570528
211	0xbcbc10ed	-0.02295729
212	0xbdd285f0	-0.10279453
213	0x3df33e21	0.118770845
214	0x3d65a334	0.056063846
215	0x3f052aeb	0.5201861
216	0x3ec23b5b	0.3793591
217	0x3e488710	0.19582772
218	0x3db456d4	0.08805624
219	0x3d7d6d5f	0.061871883
220	0x3dcdc0c3	0.10046532
221	0x3d6cd158	0.057816833
222	0x3ec12f6d	0.37731495
223	0x3ba5308e	0.0050411886
224	0x3dbb8951	0.091570504
225	0x3dad4175	0.084597506
226	0x3da06d61	0.07833362
227	0xbe69868a	-0.22805229
228	0xbe4a6e18	-0.1976856
229	0x3ea9e1eb	0.33180174
230	0x3e241de9	0.16027035
231	0xbc945736	-0.018107992
232	0x3d89ab51	0.06722129
233	0x3db4efd8	0.08834809
234	0xbe0bea16	-0.13663515
235	0x3d0c6b14	0.034281805
236	0x3d6fed53	0.05857594
237	0x3e23fe8c	0.1601507
238	0x3e0a1bba	0.1348714
239	0xbdc35d63	-0.095392965
240	0xbe899fe1	-0.2687979
241	0x3e33bef4	0.17553312
242	0x3db9aa91	0.09065736
243	0x3d8be167	0.068301015
244	0x3e51b6f7	0.20479952
245	0xbdda5a88	-0.10661799
246	0x3dac76ed	0.08421121
247	0x3dfd21cf	0.12359964
248	0x3dae874c	0.085218996
249	0x3d9510d7	0.072786026
250	0x3e0faab7	0.14029966
251	0xbc3ea669	-0.011636355
252	0x3dd04482	0.10169317
253	0xbc4f4195	-0.012649913
254	0xbdf2b5a7	-0.11851054
255	0x3ce3738c	0.027765058

bias f4 [128]
0	0x3e53ccf3	0.2068365
1	0x3eae91c6	0.3409559
2	0x3d08fbc8	0.033443242
3	0x3f8a8a81	1.0823518
4	0x3f576b1f	0.8414783
5	0x3f0653e1	0.5247174
6	0x3f80a49b	1.0050234
7	0x3dad13b7	0.08451026
8	0x3ef7f434	0.484285
9	0x3f563953	0.8368122
10	0x3f4264aa	0.7593485
11	0x3f41331e	0.75468624
12	0x3ecc1a48	0.398638
13	0x3e2d5ed1	0.16930701
14	0x3f1f17c6	0.6214565
15	0x3f4d130f	0.80107206
16	0x3ae70ae2	0.0017627145
17	0x3c73d7f2	0.014883028
18	0x3e9a44ac	0.30130517
19	0x3eaa2dc0	0.3323803
20	0x3f197162	0.59938633
21	0x3f0e4950	0.55580616
22	0x3f06b094	0.52613187
23	0x3eb3d4bd	0.35123244
24	0x3e70f4a6	0.23530826
25	0xbe3bf281	-0.18354227
26	0x3f422abf	0.75846475
27	0x3ee1898f	0.4405026
28	0xbe587b04	-0.21140677
29	0x3db73624	0.089458734
30	0x3f362ab8	0.71158934
31	0xbdb97347	-0.090551905
32	0x3ed5fdbb	0.41795143
33	0x3afdb974	0.0019357638
34	0x3f38c6c7	0.7217831
35	0xbd3cb7e1	-0.046073798
36	0x3decff9d	0.11572192
37	0x3ef35430	0.47525167
38	0x3dfe474c	0.124159425
39	0x3e979c52	0.2961145
40	0x3f46a4fe	0.7759551
41	0xbdf13580	-0.117777824
42	0x3f3a545c	0.7278497
43	0x3f717935	0.9432557
44	0xbcd364f6	-0.025804978
45	0x3f785226	0.9700035
46	0xbdafa768	-0.08576852
47	0xbc96a75d	-0.018390352
48	0x3f8cc090	1.0996265
49	0x3f6b0722	0.9180776
50	0x3f04caf3	0.51872176
51	0x3f3d9959	0.74062115
52	0x3f65d516	0.8977827
53	0x3ccea13d	0.025223369
54	0x3eeb3ddd	0.45945635
55	0xbe6973e7	-0.2279812
56	0x3eaabd07	0.3334734
57	0x3e50d738	0.203946
58	0x3e97dcd7	0.29660675
59	0x3f686374	0.90776753
60	0x3df0302d	0.11727939
61	0x3c8e15a7	0.017344309
62	0x3ed00273	0.4062687
63	0x3f49058b	0.7852408
64	0x3efe4a34	0.49665987
65	0x3eeeb89e	0.46625227
66	0x3f843e52	1.0331519
67	0xbe8f3089	-0.27966717
68	0x3f6f8a6f	0.9357061
69	0x3f3824da	0.7193123
70	0x3f6b513e	0.9192084
71	0x3f098886	0.53723943
72	0x3ec0fb55	0.3769175
73	0x3ed61b1d	0.4181756
74	0xbe222498	-0.15834272
75	0x3d9f4453	0.07776704
76	0x3f0d2d2e	0.55147064
77	0x3f2611e3	0.6487104
78	0x3d517793	0.051139425
79	0x3d9bf740	0.076155186
80	0x3efc12d2	0.4923311
81	0x3e2a4e91	0.16631533
82	0x3d88d5f0	0.0668143
83	0x3f39f248	0.72635317
84	0x3f3d59f6	0.73965394
85	0x3dbc8246	0.09204535
86	0x3f91e5f4	1.1398301
87	0xbe3981d0	-0.18115926
88	0x3f4ed0a3	0.80787104
89	0x3f806929	1.0032092
90	0xbd0063e8	-0.031345278
91	0x3f5ee17d	0.8706282
92	0x3f6896d9	0.90855175
93	0xbd9c30c4	-0.07626489
94	0xbd897c7d	-0.067131974
95	0x3f5cac58	0.86200476
96	0x3d4f0daa	0.05055014
97	0xbe0f90f7	-0.14020143
98	0x3f6b20ee	0.9184712
99	0x3f16d9a8	0.5892587
100	0x3f30f6b5	0.69126445
101	0x3f005325	0.5012687
102	0xbdbf23c6	-0.09332995
103	0x3f438ba4	0.7638495
104	0x3e285d59	0.1644186
105	0x3ee6c4ba	0.45071965
106	0xbe596645	-0.21230419
107	0x3ec596b3	0.38591537
108	0xbea0bacb	-0.31392512
109	0x3f437ed6	0.7636541
110	0x3f537364	0.8259795
111	0x3e8e7fa6	0.27831763
112	0xbca91bd1	-0.020643147
113	0x3f02af32	0.51048577
114	0x3ea93646	0.3304922
115	0x3f8214e6	1.0162628
116	0x3e7cf475	0.24702628
117	0x3f1fe25e	0.62454784
118	0xbd0eb53e	-0.034840815
119	0xbdcdd497	-0.10050314
120	0xbc434f98	-0.011920832
121	0x3f572a49	0.840489
122	0x3f0d1004	0.5510256
123	0x3eb1c381	0.3471947
124	0x3ea9d8b8	0.33173156
125	0x3f62979b	0.8851258
126	0x3f21cc75	0.632026
127	0x3ec43dc8	0.38328385

weight f4 [128, 128]
0	0xbe6f2728	-0.2335478
1	0xbd7f0138	-0.06225702
2	0x3d1f0ae2	0.038828738
3	0x3bd9235e	0.0066265306
4	0xbdd17e37	-0.10229152
5	0x3ddd06dc	0.10792324
6	0xbe1d17ea	-0.15341154
7	0xbd5d6c9f	-0.054058667
8	0xbd7557b6	-0.0598981
9	0xbda7583c	-0.08171126
10	0xbc223208	-0.009899624
11	0xbd4d7fc8	-0.05017069
12	0x3d408533	0.04700203
13	0x3dd4e587	0.10395341
14	0xbd4fffa2	-0.0507809
15	0xbe2993a1	-0.16560222
16	0x3e0dbdda	0.13841954
17	0x3d5f4c36	0.05451604
18	0xbe28c8b9	-0.1648282
19	0x3d3c335e	0.045947425
20	0xbd58b928	-0.052910954
21	0xbd4bc455	-0.049747784
22	0xbd9c3d47	-0.07628875
23	0x3d29e2f7	0.041476216
24	0xbe1054e9	-0.1409489
25	0xbcecb50c	-0.028894924
26	0xbb8c3fce	-0.004280067
27	0xbd87cdb7	-0.06631034
28	0xbdf35ef4	-0.11883345
29	0xbe271cd1	-0.16319586
30	0x3d819884	0.06327918
31	0xbc1a8a18	-0.009432338
32	0xbe19aa0a	-0.15006271
33	0xbe56c1a6	-0.20972309
34	0xbcad8c50	-0.02118507
35	0xbbd2e0f1	-0.0064355065
36	0xbd854eb8	-0.06509155
37	0x3d895d4b	0.06707247
38	0xbd1583ce	-0.036502652
39	0xbe493a1f	-0.19651078
40	0x3e405616	0.18782839
41	0xbda96566	-0.08271293
42	0xbda87400	-0.0822525
43	0xbd03b60e	-0.032156043
44	0xbd712f09	-0.058882747
45	0xbba70de4	-0.0050980914
46	0xbdcabffd	-0.098999
47	0x3c0ea660	0.008706659
48	0xbdba52e7	-0.090978436
49	0x3d06763d	0.032827605
50	0xbde6b450	-0.11264861
51	0xbdc39dad	-0.09551559
52	0xbd94115d	-0.07229874
53	0x3da31903	0.07963755
54	0xbdf745f4	-0.120738894
55	0x3d518c92	0.05115945
56	0xbe406cc9	-0.18791498
57	0x3d59f83e	0.053215258
58	0x3d4fba2c	0.050714657
59	0x3e0e1e76	0.13878807
60	0x3d36916b	0.044572275
61	0x3cbfd706	0.02341796
62	0x3d871f84	0.06597808
63	0xbe0cd932	-0.13754728
64	0xbd430e9d	-0.04762136
65	0x3bc69c4e	0.0060611134
66	0xbd66196c	-0.056176588
67	0xbd532c41	-0.051555876
68	0xbdaecbe9	-0.085349865
69	0x3e2ab877	0.1667193
70	0x3ca9c515	0.020723859
71	0xbe81e86a	-0.2537263
72	0x3e1e21f4	0.1544264
73	0xbd9562b1	-0.072942145
74	0xbd8913df	-0.06693243
75	0xbd4f0ae4	-0.050547495
76	0x3d55a45c	0.0521587
77	0xbcbfcfa6	-0.023414444
78	0xbd847e9c	-0.06469461
79	0xbda2b6b4	-0.07945004
80	0xbb8a2d2a	-0.0042168098
81	0xbd01bd57	-0.03167471
82	0xbe484706	-0.19558343
83	0xbdccdf94	-0.10003582
84	0xbdff62c0	-0.12470007
85	0xbcf78a02	-0.030217174
86	0xbdc3c2ca	-0.095586374
87	0xbd425f2f	-0.047454055
88	0xbe00a11e	-0.12561461
89	0x3c6123be	0.013741432
90	0x3c4d1853	0.012518006
91	0xbe0df09e	-0.1386132
92	0xbe4e9416	-0.20173678
93	0xbd4b0c4d	-0.049572278
94	0x3dc5b433	0.09653511
95	0x3cc12a81	0.023579838
96	0x3d80b4b3	0.06284466
97	0x3e273fe6	0.16332969
98	0xbe1827d8	-0.14858949
99	0xbe219c6d	-0.15782328
100	0xbdda9212	-0.10672392
101	0x3c88518b	0.016640445
102	0x3d194b33	0.03742523
103	0xbd3abd52	-0.045590706
104	0xbe0149ac	-0.1262576
105	0xbd8dbe28	-0.06921035
106	0x3d613f2e	0.054991893
107	0xbda798bf	-0.08183431
108	0x3d3216bc	0.043478712
109	0xbb5e425c	-0.0033914065
110	0xbcf957e9	-0.030437427
111	0xbc16130f	-0.009159817
112	0x3c4f735d	0.012661782
113	0xbb5cde77	-0.0033701935
114	0xbd66a58a	-0.056310214
115	0xbc728895	-0.0148030715
116	0x3c8935c3	0.016749268
117	0xbd1f9b97	-0.03896674
118	0xbde94c6c	-0.113915294
119	0x3dbdf796	0.09275739
120	0xbccfd2a2	-0.025368992
121	0x3da8cd8a	0.082423285
122	0xbe1da40b	-0.15394609
123	0x3d543cd3	0.05181582
124	0xbdf73128	-0.12069923
125	0xbda961e3	-0.082706235
126	0xbe456cc1	-0.19279768
127	0xbd8937f2	-0.06700124
128	0xbdf97e0b	-0.12182244
129	0x3db10d2e	0.08645092
130	0x3e434c81	0.19072153
131	0xbe27b765	-0.16378553
132	0xbd87fce3	-0.06640031
133	0xbe23c6fa	-0.15993872
134	0xbd755f7f	-0.059905525
135	0x3dc21c66	0.09478073
136	0xbe37de2a	-0.17955843
137	0xbdb795b9	-0.08964104
138	0x3d0b41ab	0.033998173
139	0xbe28593f	-0.16440295
140	0xbd5a436b	-0.05328695
141	0x3e04608b	0.12927453
142	0xbd3472a3	-0.04405464
143	0xbbe369ef	-0.0069401185
144	0xbdb8bee8	-0.090207875
145	0x3d09883c	0.03357719
146	0x3da6bdc5	0.081416644
147	0x3cf0c6d1	0.029391678
148	0xbdb7082d	-0.08937106
149	0xbdc33e66	-0.09533386
150	0xbcf1b18b	-0.029503604
151	0x3e019921	0.1265607
152	0x3e38a36b	0.18031089
153	0xbd6be01b	-0.05758677
154	0x3ca06570	0.01957962
155	0xbdbc5dc7	-0.09197574
156	0xbe04217b	-0.12903397
157	0xbe037c6a	-0.12840429
158	0xbcf078fc	-0.029354565
159	0xbd190977	-0.037362542
160	0xbd531a6c	-0.05153887
161	0x3d88e841	0.06684924
162	0xbe2e8a43	-0.1704493
163	0x3e03d208	0.1287309
164	0x3d7f6c73	0.062359285
165	0x3c669a38	0.014074855
166	0x3e1b469b	0.15163653
167	0xbd93a6f2	-0.07209577
168	0xbd3ff3fd	-0.046863545
169	0x3e8342a8	0.25636792
170	0xbc967929	-0.01836832
171	0x3e5caf52	0.21551254
172	0xbe428614	-0.18996459
173	0xbe12d562	-0.14339212
174	0x3e23f498	0.16011274
175	0xbd9e2b6f	-0.07723128
176	0xbd57b8a6	-0.05266633
177	0xbc1e2ded	-0.009654504
178	0x3d861926	0.065477654
179	0xbcfb1f1d	-0.030654484
180	0xbdd5c8b5	-0.104386725
181	0xbc1613f5	-0.009160032
182	0xbdbf836c	-0.093512386
183	0xbd43a6a0	-0.047766328
184	0x3cc73b4c	0.024320267
185	0xbda36269	-0.079777546
186	0xbdec9417	-0.115516834
187	0xbc9332d3	-0.01796857
188	0x3a2fc3c6	0.0006704893
189	0x3d837d69	0.064204045
190	0xbbd3e49a	-0.0064664604
191	0xbd714680	-0.058905125
192	0xbe948b48	-0.29012513
193	0x3cc61411	0.02417949
194	0xbc44ce67	-0.012012101
195	0xbe0c1b96	-0.13682398
196	0x3d7e5476	0.062092267
197	0x3d96c38f	0.073615186
198	0x3cc2df0c	0.023787998
199	0xbddd0f63	-0.107939504
200	0x3e3a46f7	0.18191133
201	0xbdba8b2e	-0.09108578
202	0xbcd0ca56	-0.025487106
203	0x3d792542	0.060826547
204	0x3c278f83	0.010227087
205	0xbdfebebe	-0.12438725
206	0x3e55102f	0.20806955
207	0xbe0be34c	-0.13660926
208	0x3dc9e82f	0.09858739
209	0x3cf8cbe2	0.030370656
210	0x3cdd8602	0.027041439
211	0xbe4fd1f6	-0.20294937
212	0x3de62600	0.11237717
213	0xbe7459e6	-0.23862419
214	0xbd6271aa	-0.05528418
215	0x3bea10fd	0.0071431384
216	0xbe181dff	-0.14855193
217	0xbe21d7b3	-0.15804939
218	0xbaa2b5d8	-0.0012413813
219	0xbd95f741	-0.073225506
220	0x3ce93cd8	0.028471395
221	0xbd63db3c	-0.055629
222	0x3da283d9	0.07935304
223	0x3c2f53c4	0.010701124
224	0xbe3d3714	-0.18478042
225	0xbd04bb6c	-0.032405302
226	0x3d19f488	0.03758672
227	0xbcf7f973	-0.030270314
228	0xbcb86db0	-0.02251324
229	0xbdaea1f0	-0.08526981
230	0xbdbe7d49	-0.0930124
231	0x3db6b139	0.08920521
232	0x3e060906	0.1308938
233	0xbde61b10	-0.112356305
234	0xbd3c7f32	-0.04601974
235	0xbdb705ce	-0.08936654
236	0x3d59486d	0.053047586
237	0x3d221baf	0.039577182
238	0xbe82c805	-0.25543228
239	0xbcb64e75	-0.022254208
240	0xbd4f45c0	-0.05060363
241	0xbcb4f12d	-0.022087658
242	0xbd8c3d68	-0.0684765
243	0xbd583ea8	-0.05279413
244	0xbd9afdb9	-0.07567925
245	0x3c88501f	0.016639767
246	0xbdb71304	-0.08939174
247	0xbda84625	-0.08216504
248	0x3c1d3158	0.009594284
249	0x3d215b76	0.039393865
250	0xbd664eca	-0.056227483
251	0x3df825b4	0.12116566
252	0x3d9225b3	0.07136097
253	0xbd539109	-0.05165199
254	0x3d92baf1	0.071645625
255	0x3d8f11fa	0.06985851

bias f4 [128]
0	0x3bb03dbd	0.0053784535
1	0x3e9d0892	0.306706
2	0x3f17b677	0.59262794
3	0x3e8f865d	0.280322
4	0x3ed4e431	0.41580346
5	0x3df0b0d1	0.11752475
6	0x3deb5e40	0.11492586
7	0x3f4fcd52	0.8117267
8	0x3d0f1cef	0.034939703
9	0x3ea43ca9	0.3207753
10	0x3f3532d5	0.7078069
11	0x3f0aee9b	0.54270333
12	0x3c67488e	0.0141164195
13	0x3b8ca9bb	0.0042926944
14	0x3f1daaca	0.6158873
15	0x3ee48096	0.44629353
16	0x3f0c901f	0.5490741
17	0x3d47a9d5	0.04874595
18	0x3d4e8f61	0.050429706
19	0x3ed1cf4c	0.40978467
20	0x3e57502b	0.21026675
21	0x3d048d60	0.03236139
22	0x3dc93f24	0.09826496
23	0x3f162ed4	0.58665204
24	0x3dbd5289	0.09244258
25	0x3f400276	0.75003755
26	0x3f1c6186	0.6108631
27	0x3e8450ec	0.25842988
28	0x3e9d5c43	0.30734453
29	0x3ed472e4	0.41493905
30	0x3f1c0af5	0.6095422
31	0x3ed87bf8	0.4228208
32	0x3f56642c	0.837466
33	0x3ee55fa3	0.44799528
34	0x3ebb265e	0.3655271
35	0x3eeb2639	0.459276
36	0xbc927630	-0.017878622
37	0x3f6951b7	0.9114031
38	0x3f68b055	0.9089406
39	0x3f6d6577	0.9273295
40	0x3e11e5a5	0.14247759
41	0x3f2b7d1d	0.6698778
42	0x3f3b9b67	0.73284
43	0x3dbfcba6	0.09365015
44	0x3eacc20a	0.3374179
45	0x3d6b180e	0.057395987
46	0x3f5c7998	0.8612304
47	0x3f4785d8	0.77938604
48	0x3e84f31a	0.25966722
49	0x3f2a42b1	0.66508013
50	0x3f632db4	0.8874161
51	0x3f16a574	0.5884621
52	0x3eb7c331	0.35891107
53	0x3f3f0476	0.7461618
54	0xbc633a10	-0.013868824
55	0x3f12d863	0.5736143
56	0x3e119367	0.14216386
57	0x3e888f84	0.26671994
58	0x3ef29419	0.47378615
59	0x3f72b084	0.9480059
60	0x3f1fe09f	0.6245212
61	0x3f12812b	0.57228345
62	0x3f57ec54	0.84344983
63	0x3f6bdc25	0.9213279
64	0x3f0e2ef0	0.5554037
65	0x3f254cc8	0.64570284
66	0x3f63cdb8	0.88985777
67	0x3f516c41	0.8180581
68	0x3f1b45c4	0.6065333
69	0xbe3ef2b1	-0.18647267
70	0x3f7d7ae9	0.9901567
71	0x3e842a80	0.25813675
72	0x3f4bcf59	0.7961326
73	0x3e27d79b	0.1639084
74	0x3ea7b79b	0.32757267
75	0x3f49bf1d	0.7880724
76	0x3e957965	0.2919418
77	0x3f5edcbf	0.8705558
78	0x3f07a8a8	0.52991724
79	0x3f20d8d7	0.6283087
80	0x3eb8c781	0.3608971
81	0x3e1e1a5c	0.15439743
82	0x3f147561	0.57991606
83	0x3f01447b	0.5049512
84	0x3f28d655	0.65952045
85	0x3f6149c9	0.8800321
86	0x3e8af230	0.271379
87	0x3f675b52	0.9037372
88	0x3f17e1a9	0.59328705
89	0x3ea84ed9	0.32872656
90	0x3f24bd49	0.64351326
91	0x3eb0b7e8	0.3451531
92	0x3e93b548	0.28849244
93	0x3f18e567	0.5972504
94	0x3e839f93	0.25707683
95	0x3f49f761	0.78893095
96	0x3d68064c	0.05664663
97	0x3f0de2b7	0.55424064
98	0x3f3edc45	0.74554855
99	0x3f5c6785	0.8609546
100	0x3e1e4c52	0.15458801
101	0x3f0c56d4	0.5481999
102	0x3f1b75f3	0.6072685
103	0x3f0f303d	0.5593298
104	0x3f5b2795	0.8560727
105	0x3efeb112	0.4974447
106	0x3e1d4d61	0.15361549
107	0x3f6dc622	0.9288045
108	0x3cd77407	0.026300443
109	0x3f59ac8f	0.8502893
110	0x3f775f12	0.9662944
111	0x3f56619c	0.8374269
112	0x3f53d144	0.8274119
113	0x3dd84d98	0.10561675
114	0x3ed8737c	0.42275608
115	0x3f29ec73	0.6637642
116	0xbcb244b4	-0.021761276
117	0x3f70e261	0.94095427
118	0x3eb21a51	0.34785703
119	0x3da7256f	0.08161437
120	0x3f16f6f6	0.5897058
121	0x3f29a616	0.6626905
122	0x3ef1e879	0.47247675
123	0x3d301eab	0.042997997
124	0x3f620fc6	0.8830532
125	0x3dde0ed7	0.10842674
126	0x3f2b027f	0.66800684
127	0x3e667c5e	0.2250838

weight f4 [128, 128]
0	0xbde08763	-0.10963323
1	0x3cb72fef	0.022361724
2	0x3c970f22	0.018439833
3	0xbdcc2b7c	-0.099692315
4	0xbdc1987b	-0.094529115
5	0xbe2871c0	-0.16449642
6	0x3dd8c79c	0.105849475
7	0xbd3a7e09	-0.045530353
8	0xbb8bc3b2	-0.004265272
9	0x3db46bc7	0.088096194
10	0xbe41bd8b	-0.18919961
11	0xbe41f381	-0.18940546
12	0xbdbaa446	-0.09113364
13	0x3cf3c4e5	0.029756973
14	0xbe7d55ae	-0.24739715
15	0xbb4b377e	-0.0031008418
16	0xbcd51354	-0.026010193
17	0xbc7a4f15	-0.015277644
18	0xbd3b437c	-0.045718655
19	0xbde19993	-0.1101562
20	0xbd36664b	-0.044531148
21	0x3c937531	0.018000217
22	0xbbb1ba3e	-0.005423813
23	0xbda0738f	-0.07834541
24	0x3dc8e5f7	0.09809487
25	0xbce6074a	-0.028079648
26	0xbd8e65ad	-0.06952987
27	0xbe46138e	-0.19343397
28	0xbd4852dd	-0.04890715
29	0xbe0eb80a	-0.13937393
30	0xbe83ecc2	-0.2576657
31	0xbd5e337a	-0.05424831
32	0xbe030f3d	-0.12798782
33	0xbdd607c6	-0.104507014
34	0x3cc9055e	0.024538692
35	0x3d43bf8b	0.04779009
36	0xbc026a4f	-0.007959916
37	0xbc9b8ca1	-0.018987956
38	0x39a4ff98	0.0003147095
39	0xbd885969	-0.06657679
40	0xbdb17f8f	-0.08666908
41	0xbddb4351	-0.10706199
42	0x3dea28d0	0.114335656
43	0x3cc90722	0.024539534
44	0x3dde48c1	0.108537205
45	0xbe276ab0	-0.16349292
46	0x3d3e0591	0.046392027
47	0xbe44c980	-0.19217491
48	0xbdb03042	-0.086029544
49	0xbd479cb4	-0.048733428
50	0xbcb10b4f	-0.021611838
51	0x3c8d24f6	0.017229538
52	0xbd49e704	-0.04929258
53	0xbdba2151	-0.09088386
54	0xbddcf53a	-0.10788961
55	0x3cadbd16	0.021208327
56	0x3d849212	0.06473173
57	0xbdad23be	-0.08454083
58	0xbe880ae3	-0.26570806
59	0xbdf15d9b	-0.11785432
60	0xbd13f618	-0.036123365
61	0x3cfd3c51	0.03091255
62	0xbd1e635e	-0.038668983
63	0xbdcbae87	-0.09945398
64	0x3de04c91	0.10952104
65	0xbd683b4d	-0.05669718
66	0xbc5ab842	-0.013349595
67	0xbe1176b8	-0.14205444
68	0xbc5ecf38	-0.0135992095
69	0xbd6e3cd7	-0.05816349
70	0x3e061e51	0.13097502
71	0xbd67c50a	-0.056584395
72	0x3e0e9c39	0.13926782
73	0x3df74a71	0.120747454
74	0xbe373c36	-0.17894062
75	0xbcbad39e	-0.022805985
76	0xbd507054	-0.050888374
77	0x3dcb89cb	0.09938391
78	0x3c8934a3	0.016748732
79	0xbd1d8eb1	-0.03846616
80	0x3d64902b	0.05580155
81	0x3d1bcaa4	0.03803505
82	0xbe42def3	-0.19030361
83	0x3c6f3a68	0.0146013275
84	0xbdd4333e	-0.10361336
85	0xbd01226c	-0.031526968
86	0x3d9bfd02	0.07616617
87	0x3d947a18	0.0724985
88	0xbd21fad8	-0.039545864
89	0xbdf71564	-0.12064627
90	0xbd0e04af	-0.034672435
91	0x3ddb458d	0.10706625
92	0x3cbc52f4	0.022988774
93	0xbc18ecfb	-0.009333844
94	0xbc988758	-0.018619224
95	0xbd03202b	-0.0320131
96	0xbd930bbd	-0.07179973
97	0x3e333eb2	0.17504385
98	0xbde67193	-0.11252131
99	0x3ca70fa2	0.020393196
100	0x3dcf41cb	0.10119971
101	0x3d77ff38	0.06054613
102	0xbeaf6c1c	-0.34262168
103	0xbce9645f	-0.028490243
104	0xbe0d5194	-0.13800651
105	0x3df761d0	0.12079203
106	0xbede7b9f	-0.4345369
107	0xbe22dea0	-0.15905237
108	0xbc5d44c7	-0.013505167
109	0xbe8316d5	-0.25603357
110	0x3d8cd7ce	0.06877099
111	0xbd7ebfc0	-0.062194586
112	0x3daaafa9	0.08334286
113	0x3c9c6373	0.01909039
114	0x3dd83de1	0.105586775
115	0x3e5518dc	0.20810264
116	0xbcde236a	-0.027116496
117	0x3ce03dc3	0.0273732
118	0xbdb5ef61	-0.088835485
119	0xbdb1d0e2	-0.08682419
120	0x3cb2b0d5	0.021812836
121	0x3d9caf3a	0.07650609
122	0xbdd12c6d	-0.10213552
123	0xbca4767d	-0.02007603
124	0x3d9df29f	0.07712292
125	0xbdb3c8e5	-0.08778552
126	0x3d384656	0.044988953
127	0x3d9565f9	0.0729484
128	0x3d950774	0.07276812
129	0xbddbe89c	-0.10737726
130	0xbdc9777d	-0.09837244
131	0xbd8c6979	-0.06856055
132	0xbd98aadb	-0.07454463
133	0xbd92227a	-0.07135482
134	0xbddeb9ae	-0.10875259
135	0xbe00c645	-0.12575634
136	0x3d0fb314	0.03508289
137	0x3e3220f8	0.17395389
138	0xbd94c689	-0.0726443
139	0x3d8cf0a8	0.06881839
140	0xbe17c7d3	-0.1482232
141	0x3d025384	0.031817928
142	0x3c2c51ff	0.010517596
143	0x3aa6d5a4	0.0012728465
144	0xbdd07ef6	-0.10180466
145	0xbde88807	-0.1135407
146	0xbdbabf98	-0.09118575
147	0x3d327d11	0.043576304
148	0x3cc88b7f	0.02448058
149	0x3e1ad186	0.1511899
150	0x3d8de2b7	0.06928008
151	0xbab0b8d5	-0.0013482819
152	0xbbaa991e	-0.0052062413
153	0x3cdc805a	0.026916672
154	0x3d3798dd	0.044823516
155	0xbd3235ea	-0.043508448
156	0xbd751a88	-0.059839755
157	0x3df118d8	0.11772317
158	0xbd9d1e42	-0.07671787
159	0xbc9873e0	-0.018609941
160	0xbd4a0343	-0.049319517
161	0xbe00a78d	-0.12563916
162	0x3d4c4c0f	0.049877223
163	0xbdc6bd42	-0.09704067
164	0x3d175014	0.036941603
165	0xbdbad5b1	-0.0912279
166	0x3d516d23	0.05112947
167	0xbde2ee54	-0.11080614
168	0xbe6644d1	-0.22487189
169	0x3c320950	0.010866478
170	0xbd138fae	-0.036025696
171	0xbdbf8fcd	-0.093536
172	0x3cd54fa6	0.026038956
173	0x3d79c9b0	0.06098336
174	0xbd80fde3	-0.06298425
175	0x3caa8d89	0.020819442
176	0xbdece6b5	-0.115674414
177	0x3d3ae262	0.04562605
178	0xbc4f2ec1	-0.012645424
179	0xbe135d73	-0.14391117
180	0xbdf6dd74	-0.120539576
181	0x3dc294e0	0.09501052
182	0xbdfd7696	-0.12376134
183	0x3ce52cef	0.027975528
184	0x3d82a5c2	0.06379272
185	0xbdf0edeb	-0.11764129
186	0xbc6575b3	-0.014005112
187	0xbce37c6e	-0.027769294
188	0xbd13dec9	-0.036101136
189	0xbdcae204	-0.0990639
190	0xbdf18470	-0.117928386
191	0xbd02570c	-0.031821296
192	0x3df6571b	0.12028333
193	0xbe5f695c	-0.21817535
194	0xbeb8e335	-0.36110845
195	0x3d4cf23f	0.05003571
196	0xbdd981fd	-0.106204964
197	0xbd072543	-0.03299452
198	0xbd3451b4	-0.04402323
199	0xbdb4e941	-0.08833552
200	0x3c7f49e9	0.015581586
201	0x3d8b5b76	0.06804554
202	0xbd0baebb	-0.034102183
203	0xbd9755bb	-0.07389399
204	0xbd2ee0c7	-0.042694833
205	0x3cd5b50a	0.026087303
206	0x3c89afd8	0.016807482
207	0x3df6e175	0.12054721
208	0xbe1905fc	-0.14943689
209	0xbc554117	-0.013016007
210	0xbd85ceb1	-0.06533564
211	0xbd1c0659	-0.03809199
212	0xbd256ec5	-0.04038884
213	0x3ccd6b05	0.025075445
214	0xbdc8212d	-0.09771953
215	0xbd953167	-0.072848134
216	0xbb593cfb	-0.003314792
217	0x3cd4dbdd	0.025983745
218	0xbe250a4d	-0.1611721
219	0xbe32db5b	-0.1746649
220	0xbdae22ba	-0.08502717
221	0x3dc6ea4c	0.09712657
222	0x3b81a03d	0.0039558695
223	0xbcd94dca	-0.02652635
224	0x3df5027e	0.11963366
225	0x3c0258a6	0.007955706
226	0xbe5963f6	-0.21229538
227	0xbe03b947	-0.12863646
228	0xbdaa886d	-0.083268024
229	0xbec11dcb	-0.37718043
230	0xbe4c2cb9	-0.19938935
231	0xbe28765f	-0.16451405
232	0xbc18653e	-0.009301482
233	0x3d57938d	0.05263095
234	0x3d0587fb	0.032600384
235	0xbe72a94c	-0.23697394
236	0xbde6a247	-0.11261421
237	0xbe136965	-0.14395674
238	0xbdc62b81	-0.096762665
239	0x3c9a0e92	0.018805776
240	0xbd433576	-0.047658406
241	0xbb8c35e1	-0.004278884
242	0x3d9640dd	0.073365904
243	0xbd711574	-0.05885835
244	0x3d27e7fd	0.040992726
245	0xbd8959af	-0.06706559
246	0x3defae7e	0.117032036
247	0xbe05abd4	-0.13053828
248	0xbd9e1a5d	-0.07719872
249	0xbda65e97	-0.0812351
250	0xbe1114f9	-0.14168157
251	0x3e63e236	0.22254261
252	0xbe4856a7	-0.19564305
253	0xbd8ee910	-0.06978047
254	0xbdd147ce	-0.10218774
255	0xbe73ff8b	-0.2382795

bias f4 [128]
0	0x3e111020	0.14166307
1	0x3eca7641	0.39543346
2	0x3ed5f5cc	0.4178909
3	0x3d141f7b	0.036162835
4	0x3f1a98c0	0.6038933
5	0x3ed46927	0.41486475
6	0x3f0cc003	0.54980487
7	0x3eca8fdc	0.3956288
8	0x3bceb591	0.0063082655
9	0x3ea5701f	0.32312104
10	0x3e5402c0	0.20704174
11	0xbd8acf22	-0.06777789
12	0x3f11d9a7	0.56972736
13	0x3ea43f71	0.32079652
14	0x3cb117cc	0.021617793
15	0x3e7fc3f7	0.24977098
16	0x3f3d4360	0.7393093
17	0x3f2e7073	0.68140334
18	0x3e2bafec	0.16766328
19	0x3efdfc13	0.4960638
20	0x3f39f2db	0.72636193
21	0x3ecb552f	0.39713427
22	0x3c89229b	0.016740134
23	0x3f37fa0f	0.71865934
24	0x3ddeb3b9	0.10874123
25	0x3f25a967	0.6471161
26	0x3eea2095	0.45727983
27	0x3f68610b	0.90773076
28	0x3f529023	0.82251185
29	0x3dd050d9	0.101716705
30	0x3dd695b0	0.104777694
31	0x3f3b6283	0.7319719
32	0x3e0f9860	0.1402297
33	0x3eacdcbf	0.33762166
34	0x3e95bfbc	0.29247844
35	0x3e69b7a5	0.22823961
36	0x3f0b85b5	0.54500896
37	0x3ea125a9	0.31474045
38	0x3f0a1d9a	0.5395142
39	0x3ea5ef55	0.32409158
40	0x3f4d38c6	0.80164754
41	0x3e32ce8a	0.17461601
42	0x3e9465a6	0.28983802
43	0x3f2dd712	0.67906296
44	0x3f11079e	0.5665225
45	0x3ede2ecc	0.43395078
46	0x3f45cf18	0.77269125
47	0x3f800958	1.0002851
48	0x3e8f0677	0.2793462
49	0x3e5e4892	0.21707371
50	0xbda7f0f4	-0.08200255
51	0x3eba1072	0.36340672
52	0x3d810d83	0.06301405
53	0xbdd68006	-0.10473637
54	0x3f1b88de	0.6075572
55	0x3b953389	0.0045532626
56	0x3d1b52e5	0.03792085
57	0x3e2e9570	0.17049193
58	0x3e823f08	0.25438714
59	0x3d8deea3	0.06930282
60	0x3e030869	0.12796177
61	0x3f43ce01	0.7648621
62	0xbc7efaec	-0.015562754
63	0xbe30abb2	-0.17252997
64	0x3ec267d8	0.37969851
65	0x3f2d3106	0.6765293
66	0x3f4d6d4a	0.80244887
67	0x3f4968c1	0.78675467
68	0x3f23b3b3	0.63946074
69	0x3f26c8b9	0.6515003
70	0x3d32f362	0.04368914
71	0x3d1c2554	0.038121536
72	0x3f5b8fb9	0.8576618
73	0x3c33a799	0.010965251
74	0x3e59ecfb	0.21281807
75	0x3e8c7669	0.2743409
76	0xbdba474f	-0.09095632
77	0x3f5658d0	0.8372927
78	0x3ef9abd1	0.48763898
79	0x3efd3fbb	0.49462685
80	0x3eb5d1a8	0.35511518
81	0x3f33c1a1	0.7021733
82	0x3f55f03c	0.83569694
83	0x3efa92ad	0.4894003
84	0x3cf0369f	0.02932292
85	0x3f5561a9	0.8335214
86	0x3dc5a82c	0.09651217
87	0x3d8a22dc	0.0674493
88	0x3f19f9f7	0.6014704
89	0x3e0d6837	0.13809286
90	0x3f1dd09c	0.6164644
91	0x3f3ef462	0.7459165
92	0x3e8e6dba	0.2781809
93	0x3ecced87	0.4002497
94	0xbc82d0e5	-0.01596875
95	0x3ec8b640	0.39201546
96	0x3ddd358f	0.10801231
97	0xbc3df252	-0.011593418
98	0x3d3b261b	0.045690637
99	0x3f09b14a	0.53786147
100	0x3f735cc5	0.9506343
101	0x3d6582ad	0.056032825
102	0x3d17bbe2	0.037044413
103	0x3e99e4e6	0.30057448
104	0x3f590119	0.847673
105	0x3f850109	1.0390941
106	0x3f09a9ed	0.5377491
107	0x3f1067f5	0.56408626
108	0x3f54152d	0.8284481
109	0x3dcd56d7	0.10026329
110	0x3e3d80c0	0.18506145
111	0x3e373075	0.17889579
112	0x3f75fef1	0.96092135
113	0x3f5fed22	0.8747121
114	0x3dda2102	0.10650827
115	0x3f5f13ac	0.8713939
116	0x3f4a5231	0.79031664
117	0xbccf3743	-0.025294906
118	0x3f422024	0.7583029
119	0xbd5d209f	-0.053986188
120	0x3e9405e8	0.28910756
121	0x3eb796ea	0.35857326
122	0x3e27e9d8	0.16397798
123	0x3f2e36f8	0.68052626
124	0x3ec642b2	0.3872276
125	0x3d87757f	0.066142075
126	0x3d55cffc	0.052200302
127	0x3e49773b	0.19674389

weight f4 [128, 128]
0	0xbd8bc62e	-0.06824909
1	0x3bfe2f5f	0.007757112
2	0x3c93a986	0.018025171
3	0x3d39800a	0.045288123
4	0x3cb1ab67	0.021688176
5	0xbe223403	-0.15840153
6	0x3d773e2b	0.060362022
7	0x3da226a6	0.07917528
8	0x3dd966ed	0.10615335
9	0xbb271e93	-0.0025500401
10	0xbd4fc8ca	-0.050728597
11	0x3cc2764f	0.023738055
12	0xbea760ff	-0.3269119
13	0x3c9ffe7e	0.019530531
14	0x3d70afb9	0.058761332
15	0xb8af3fcb	-8.3565326e-05
16	0x3cb959ab	0.022625765
17	0xbc2d35fb	-0.010571952
18	0xbd91d49f	-0.071206324
19	0xbd715a68	-0.05892411
20	0x3c9ab25b	0.018883875
21	0xbd252e2b	-0.040327232
22	0xbdfd9e5e	-0.12383722
23	0x3df5497c	0.11976907
24	0x3e2b825a	0.16748944
25	0x3e94e10f	0.29077956
26	0xbd8eb8b1	-0.06968821
27	0x3d5c84ea	0.053837694
28	0x3e7225e7	0.23647271
29	0xbc76b3d6	-0.015057525
30	0x3dc5b6db	0.096540175
31	0x3d8136d4	0.06309286
32	0x3e49b9dd	0.19699807
33	0x3e4777d0	0.19479299
34	0x3bf552c6	0.007486674
35	0x3e51baaa	0.20481363
36	0x3e29d3a5	0.16584642
37	0xbe020261	-0.1269622
38	0x3dc4d395	0.096106686
39	0x3db85966	0.090014264
40	0x3e38d7f3	0.18051128
41	0x3ec73e6a	0.38914806
42	0x3dcfcad2	0.10146107
43	0xbc984a1c	-0.018590026
44	0x39a79125	0.00031960863
45	0x3d139ce9	0.036038313
46	0x3dfaf4ee	0.12253748
47	0x3e270e2d	0.16314001
48	0xbcc2f12a	-0.023796637
49	0x3c374a7c	0.011187192
50	0xbc65f94c	-0.014036488
51	0x3e0e68d0	0.1390717
52	0x3db3b5ea	0.08774932
53	0x3dfa8dc8	0.12234074
54	0x3e471c02	0.19444278
55	0xbe28167b	-0.16414826
56	0xbc21ebe1	-0.009882898
57	0x3afc4791	0.0019247403
58	0xbdcbe119	-0.09955043
59	0x3d5f52d5	0.054522354
60	0x3e97e9b4	0.2967049
61	0xbc9f4018	-0.019439742
62	0x3c8541cd	0.016266728
63	0xbd3d07ab	-0.04614989
64	0x3dd6cf93	0.104888104
65	0xbd116165	-0.035493273
66	0x3ce05aad	0.027386988
67	0xbca8c398	-0.020601079
68	0xbd1915ee	-0.03737443
69	0x3e94d021	0.2906504
70	0xbe41ff98	-0.18945158
71	0x3da35996	0.079760715
72	0x3d96f419	0.07370777
73	0x3e283e36	0.16429982
74	0x3e612b65	0.2198921
75	0xbe15c360	-0.14625311
76	0x3ce38c4f	0.027776865
77	0x3dd6996e	0.10478483
78	0xbcab8d4c	-0.020941399
79	0xbdb041a6	-0.086062714
80	0xbe92a99b	-0.28645024
81	0x3e40ecfd	0.18840404
82	0x3cda28bc	0.026630752
83	0x3c76029d	0.0150152715
84	0xbc9de546	-0.019274365
85	0x3e3dc90d	0.18533726
86	0xbd0e5181	-0.034745697
87	0xbccc4f4e	-0.02494016
88	0x3d2b027d	0.04175042
89	0x3e20fd54	0.15721637
90	0x3d6e7030	0.05821246
91	0x3cc70d1a	0.02429824
92	0x3e1f19cd	0.15537186
93	0x3d0874ee	0.033314638
94	0xbd4df22c	-0.05027978
95	0x3d401cfb	0.046902638
96	0x3db3e16c	0.0878323
97	0x3dcc91e7	0.09988766
98	0x3e1051e4	0.14093739
99	0xbd60c03d	-0.054870833
100	0xbd57cc4c	-0.052685067
101	0x3e388927	0.1802107
102	0x3e76d771	0.24105622
103	0xbd1d3a61	-0.038385753
104	0x3daea491	0.08527482
105	0x3e26be4e	0.16283533
106	0x3d7e4c89	0.06208471
107	0x3e10d9c6	0.14145574
108	0xbc1f73ca	-0.009732196
109	0x3ba3857c	0.004990278
110	0xbd72306b	-0.059128206
111	0x3b5a54b0	0.0033314638
112	0x3e0fed6a	0.1405541
113	0x3c9248ba	0.017856944
114	0x3d87bab1	0.066274054
115	0xbbe8d579	-0.007105526
116	0x3e289b8d	0.16465588
117	0x3daa0beb	0.083030544
118	0x3cbf4d83	0.02335239
119	0x3ccd8961	0.025089921
120	0xbc06d952	-0.008230524
121	0xbd8b9596	-0.06815641
122	0x3d4f06bb	0.050543528
123	0x3dd7b6ff	0.105329506
124	0x3d9a4c28	0.07534057
125	0x3d134891	0.035957877
126	0x3ce69614	0.028147735
127	0x3d36ce0c	0.044630095
128	0x3b299d98	0.0025881287
129	0x3dbb963c	0.09159514
130	0xbda2b5c3	-0.079448245
131	0xbdf711e4	-0.12063959
132	0xbda3afce	-0.079925165
133	0x3e5f3e7e	0.21801183
134	0xbe11ccfa	-0.14238349
135	0x3cd7d472	0.026346419
136	0xbc40f254	-0.0117765255
137	0x3daf6623	0.08564403
138	0xbe20af7a	-0.15691939
139	0xba8a9c95	-0.001057523
140	0x3de7c39d	0.11316607
141	0x3eb61913	0.35566005
142	0x3df22604	0.11823657
143	0xbc44001a	-0.011962915
144	0xbe141a57	-0.14463173
145	0xbded050e	-0.1157323
146	0xbcd7a056	-0.026321571
147	0xbe818d43	-0.25303087
148	0x3df8bb12	0.12145056
149	0xbe61a75d	-0.220365
150	0xbd0fa9b5	-0.035073955
151	0xbe4178ca	-0.18893734
152	0x3e4b16c6	0.19832906
153	0xbc9efecc	-0.019408606
154	0x3bbf1290	0.0058310702
155	0xbc8dd69b	-0.017314246
156	0xbd2262df	-0.039645072
157	0xbe6b1433	-0.22956924
158	0xbdca5442	-0.09879352
159	0x3d8ebae6	0.06969242
160	0xbe78be42	-0.24291328
161	0x3db06342	0.08612682
162	0x3e0162aa	0.12635294
163	0xbce67a28	-0.02813442
164	0xbc5368fa	-0.012903446
165	0xbdfd39ad	-0.123645164
166	0x3e2f6e38	0.17131889
167	0x3ce2213b	0.027603736
168	0xbcccce61	-0.025000753
169	0xbdf02ad4	-0.11726919
170	0x3e114f13	0.1419032
171	0x3dcfc8ff	0.10145759
172	0xbdf5243f	-0.11969804
173	0x3b419b77	0.0029542127
174	0xbe882c38	-0.26596236
175	0x3c9652b0	0.018349975
176	0x3d29d83e	0.04146599
177	0x3e17da18	0.1482929
178	0xbd66dbb3	-0.056361865
179	0xbdd14bad	-0.10219512
180	0x3e1557c6	0.14584264
181	0xbdfb63ab	-0.122748695
182	0x3cc6cfa7	0.024268938
183	0xbdc6cdc0	-0.097072124
184	0xbd397064	-0.0452732
185	0x3dbe5168	0.09292871
186	0x3dafe110	0.08587849
187	0x3e4888f8	0.195835
188	0x3d845f87	0.06463533
189	0xbbc1f950	-0.005919613
190	0x3c127e14	0.008941192
191	0x3dd7df01	0.105405815
192	0xbd726aea	-0.059183992
193	0xbd9b89a1	-0.0759461
194	0xbecd40a0	-0.40088367
195	0xbd9295db	-0.07157489
196	0xbd942193	-0.07232966
197	0xbe6a2869	-0.22866978
198	0x3de1d5b9	0.110270925
199	0xbabdda6a	-0.0014484648
200	0xbe274ca7	-0.16337834
201	0xbde146b1	-0.109998114
202	0xbd57b931	-0.052666847
203	0xbda239dd	-0.07921193
204	0xbddd953e	-0.10819481
205	0xbe84827f	-0.2588081
206	0xbc68eb5c	-0.01421627
207	0x3c735551	0.014851884
208	0xbdb44bf9	-0.08803553
209	0xbe4ca1c1	-0.19983579
210	0x3daeb941	0.08531428
211	0x3dfc4665	0.12318114
212	0xbcf01389	-0.02930619
213	0x3c1f80b6	0.009735277
214	0xbda3a053	-0.07989564
215	0x3d01d923	0.03170122
216	0xbda0ee29	-0.078579254
217	0xbe835cee	-0.25656837
218	0xbeb2a3b0	-0.3489051
219	0xbd8f2e10	-0.069912076
220	0x3e303f9e	0.17211768
221	0x3b9ff041	0.0048809354
222	0x3db703cf	0.08936273
223	0xbd55ed2b	-0.052228134
224	0x3e3c1481	0.18367197
225	0xbcabbdf6	-0.020964604
226	0x3e66a442	0.22523597
227	0xbde47fef	-0.11157214
228	0xbce08836	-0.0274087
229	0xbe88ee62	-0.26744372
230	0xbeb891f5	-0.36048856
231	0xbe29b30a	-0.16572204
232	0xbdce9b96	-0.100882694
233	0xbe72f72b	-0.237271
234	0x3e302247	0.17200576
235	0xbd4f0ad3	-0.050547432
236	0x3e34be29	0.17650665
237	0x3d34599d	0.044030774
238	0xbd88a5a5	-0.06672219
239	0x3e26d9e6	0.16294059
240	0xbe2659f2	-0.16245249
241	0x3e160429	0.14650024
242	0x3d9490c3	0.072541736
243	0xbd716e66	-0.058943175
244	0xbb1e41ab	-0.0024148028
245	0x3e4484d8	0.19191301
246	0xbe8f7c34	-0.28024447
247	0xbe2488fa	-0.16067877
248	0xbd984e26	-0.07436781
249	0xbdb1d320	-0.08682847
250	0xbd499708	-0.0492163
251	0xbd8a636d	-0.06757245
252	0x3bb7df97	0.005611371
253	0x3d445755	0.04793485
254	0xbd7c167c	-0.06154488
255	0x3b7b5c9e	0.0038354765

bias f4 [128]
0	0x3f28beb6	0.65916
1	0x3de894ac	0.11356482
2	0x3c4eadc9	0.012614676
3	0x3eacfc71	0.33786348
4	0x3ebb8ac8	0.3662932
5	0x3e983088	0.29724526
6	0x3ed4d20b	0.415665
7	0x3e93be84	0.2885629
8	0x3efd31a0	0.49451923
9	0x3e6c8e28	0.23101103
10	0x3e747e8e	0.23876402
11	0xbe02339a	-0.12714997
12	0x3e90af3f	0.28258702
13	0x3f2c09b6	0.6720232
14	0x3e8ff51f	0.281167
15	0x3eecfcdd	0.4628667
16	0x3f1f4684	0.62216973
17	0x3f24d008	0.6437993
18	0x3ed98109	0.4248126
19	0x3f43640b	0.7632453
20	0x3b5e863c	0.0033954522
21	0xbc816f66	-0.01580019
22	0x3f947d2c	1.16007
23	0x3f516447	0.81793636
24	0x3d85cda5	0.06533364
25	0x3d4b251c	0.049595937
26	0x3f4fe77f	0.8121261
27	0x3e8ab002	0.27087408
28	0x3f02fe26	0.5116905
29	0x3ef40603	0.47660837
30	0x3f759c0d	0.9594124
31	0x3ec0edc2	0.37681395
32	0x3e9cde77	0.30638477
33	0xbd38970c	-0.045065925
34	0x3f146f0d	0.5798195
35	0x3f86833e	1.0508802
36	0x3e583266	0.21112975
37	0x3e062ae5	0.131023
38	0x3f1e36dd	0.61802465
39	0x3f4e1f72	0.8051673
40	0x3f847b52	1.0350134
41	0x3eb02fa2	0.3441134
42	0x3f600d4b	0.87520283
43	0x3ec09e79	0.37620905
44	0xbdc7f5bf	-0.09763669
45	0x3ed73286	0.42030734
46	0x3f44a452	0.7681323
47	0x3f57c804	0.84289575
48	0x3f4e09b1	0.8048354
49	0x3ef2c5e0	0.47416592
50	0x3e8d6c4c	0.27621686
51	0x3e3830aa	0.17987314
52	0x3f573bb0	0.8407545
53	0x3f5ddbd0	0.8666353
54	0x3f51ca83	0.81949633
55	0x3f7b4724	0.98155427
56	0x3ef2b851	0.47406247
57	0xbdc763dd	-0.09735844
58	0x3e310398	0.17286527
59	0x3f50a909	0.8150793
60	0x3e4a9cf7	0.1978644
61	0x3de042c6	0.10950236
62	0x3ec58407	0.3857729
63	0xbb2e45bf	-0.0026591865
64	0x3e8d225a	0.2756527
65	0x3ee5adb5	0.4485909
66	0x3fa08962	1.2541926
67	0x3ea999ea	0.3312524
68	0x3f75d695	0.9603055
69	0x3e4b5937	0.19858252
70	0x3f5a1ca5	0.8519996
71	0x3f1cda71	0.61270815
72	0x3f4f401e	0.8095721
73	0x3f0bb7f9	0.54577595
74	0x3e9a6a34	0.30159152
75	0x3f9820a7	1.1884965
76	0x3f0f6d26	0.5602592
77	0x3eecce86	0.46251315
78	0x3f712652	0.941991
79	0x3e6a627b	0.2288913
80	0x3f7ef555	0.99593097
81	0x3e370d2e	0.17876121
82	0x3f1ed723	0.6204702
83	0x3ef0068b	0.46879992
84	0x3f6260f7	0.88429207
85	0x3f12c65a	0.5733391
86	0x3e0c8700	0.13723373
87	0x3f8bb6eb	1.0915197
88	0x3f12e657	0.5738272
89	0x3ebf024d	0.37306443
90	0x3e9e2728	0.3088925
91	0x3f715cd6	0.9428228
92	0x3e1d1ce0	0.15343046
93	0x3ec73f3b	0.3891543
94	0x3f2bd7a3	0.6712591
95	0x3f1de005	0.6166995
96	0x3f48d25b	0.78445977
97	0x3f07ecbd	0.5309561
98	0x3d9abe5d	0.0755584
99	0x3e886d91	0.26646093
100	0x3f626075	0.8842843
101	0x3ed6d3f0	0.4195857
102	0x3e8fb50e	0.2806782
103	0x3f8720df	1.0556906
104	0x3f6c3dfb	0.92282075
105	0x3f40ea4d	0.75357515
106	0x3f11a414	0.5689099
107	0x3da9befa	0.08288379
108	0x3eed5917	0.46357033
109	0x3f2d8ee1	0.6779614
110	0x3f134111	0.5752116
111	0x3ebb4961	0.3657942
112	0x3f8a26ec	1.0793128
113	0x3e32c2b7	0.1745709
114	0x3ec5e81a	0.38653642
115	0x3f84f7e8	1.0388155
116	0x3f239e78	0.6391368
117	0x3eab053b	0.33402428
118	0x3dc2249c	0.09479639
119	0x3f45a391	0.7720271
120	0x3e100687	0.1406499
121	0x3f75ccbb	0.9601552
122	0x3ee9c4f8	0.45658088
123	0x3f2adb39	0.6674076
124	0x3f6b8bbc	0.9201009
125	0x3f1ee469	0.62067276
126	0x3ea37799	0.31927183
127	0x3f895c49	1.0731288

weight f4 [5, 128]
0	0x3dee3598	0.11631316
1	0x3ded8d7e	0.11599253
2	0xbb3e644c	-0.002905148
3	0x3db2c0a8	0.087281525
4	0x3cb7eab4	0.022450782
5	0xbda4f7a3	-0.080550455
6	0x3da1af23	0.07894733
7	0x3d52e49d	0.051487554
8	0x3e009ada	0.12559071
9	0x3cc12e3e	0.02358162
10	0x3e0a9298	0.13532484
11	0x3dafc17b	0.08581825
12	0xbdc7f252	-0.09763016
13	0x3df4073a	0.11915441
14	0x3e158d7e	0.14604756
15	0xbda2219b	-0.07916566
16	0x3e9d0970	0.30671263
17	0x3d81f776	0.063460276
18	0x3cbba00a	0.022903461
19	0x3da57ef6	0.080808565
20	0xbda2af45	-0.07943586
21	0x3e370263	0.17872004
22	0x3e00f67b	0.12594025
23	0x3e970e91	0.295033
24	0xbd3caaf2	-0.046061464
25	0xbdc51473	-0.09623041
26	0x3d0b820c	0.03405957
27	0x3dc3b466	0.09555893
28	0x3d19c4ba	0.03754113
29	0x3e09d122	0.13458684
30	0x3e6cf62c	0.23140782
31	0xbe09bd5e	-0.13451144
32	0x3d9e98a1	0.077439554
33	0xbe380ef9	-0.17974462
34	0x3bcca95b	0.0062457747
35	0x3e5d68da	0.21622029
36	0x3d51862a	0.05115334
37	0xbdf75202	-0.120761886
38	0xbdd09dd4	-0.10186353
39	0x3da79c28	0.08184081
40	0x3e8a6928	0.27033353
41	0xbcb860fa	-0.02250718
42	0x3dd3f8e3	0.10350206
43	0x3dd90a04	0.105976135
44	0x3e8a4e62	0.27012926
45	0x3da16811	0.07881177
46	0x3e2dcc67	0.16972505
47	0x3d9d9929	0.076952286
48	0x3e05950e	0.13045141
49	0xbcc7f415	-0.02440838
50	0x3d9cd9b7	0.07658713
51	0x3e5927c9	0.21206583
52	0x3ded3bae	0.115836486
53	0x3e4af981	0.1982174
54	0x3e142d03	0.14470296
55	0x3e16c88a	0.14724937
56	0x3d8b833b	0.068121396
57	0x3d646d62	0.055768378
58	0x3e810fa4	0.25207245
59	0x3d06c2fa	0.032900788
60	0x3d0c0c31	0.034191314
61	0x3e1b5284	0.15168196
62	0x3dfcd9dc	0.12346241
63	0xbe14506a	-0.144838
64	0x3c7b0720	0.015321523
65	0x3db37f32	0.08764495
66	0x3e8fd311	0.28090718
67	0x3e146f8a	0.14495674
68	0x3e89c984	0.26911557
69	0x3c272311	0.010201232
70	0x3e2d66c8	0.16933739
71	0xbe58dc86	-0.21177873
72	0x3dc32947	0.095293574
73	0xbd9acc81	-0.07558537
74	0x3da63fc3	0.0811763
75	0x3ea770c6	0.32703227
76	0x3e8dd15a	0.27698785
77	0xbe1a594d	-0.15073128
78	0x3e600049	0.21875109
79	0xbcdc97be	-0.026927825
80	0xbe438c4f	-0.19096492
81	0x3cbe4946	0.023228299
82	0xbde5aebb	-0.11214968
83	0x3e4874ba	0.19575778
84	0x3e118e64	0.14214474
85	0x3d8847c6	0.06654315
86	0xbe67d990	-0.22641587
87	0x3e6cf95d	0.23142
88	0x3d54cb66	0.05195179
89	0x3cf21fa4	0.029556103
90	0x3c82aa70	0.015950412
91	0x3d94406b	0.07238849
92	0xbc43180b	-0.011907588
93	0x3cc80fc8	0.024421588
94	0x3e54210f	0.20715736
95	0xbc867c1b	-0.0164166
96	0x3d1f74c6	0.038929723
97	0x3d7a45ed	0.061101843
98	0xbe14a32b	-0.14515369
99	0x3e17f13b	0.14838116
100	0x3eabe7f0	0.33575392
101	0xbed5bd91	-0.4174619
102	0xbd68b1d7	-0.056810226
103	0x3e3cd25c	0.1843962
104	0x3ed10a8e	0.40828365
105	0x3e3ec1d4	0.18628627
106	0x3d9bf013	0.0761415
107	0xbcd8d918	-0.026470706
108	0x3f054fc3	0.5207483
109	0x3e0ae7f8	0.13565052
110	0x3d227109	0.03965858
111	0x3e4c4398	0.1994766
112	0x3e879095	0.26477495
113	0x3c835820	0.016033232
114	0x3cfb905f	0.03070849
115	0x3dd7b64d	0.10532818
116	0xbdc6fb5f	-0.09715914
117	0x3daaec5a	0.08345862
118	0xbe4b7672	-0.19869402
119	0x3ddaae5b	0.10677787
120	0x3ca82cd0	0.02052918
121	0x3e3656f2	0.17806605
122	0x3ec3d37f	0.38247296
123	0x3ddac448	0.10681969
124	0x3d9315ad	0.07181869
125	0x3e0d8561	0.13820411
126	0x3e4ceb18	0.20011556
127	0x3e62ddd7	0.22154938
128	0x3e42d2c6	0.19025716
129	0x3c84b35b	0.016198805
130	0x3d6c6469	0.057712946
131	0x3d968726	0.07349996
132	0x3e4a1cef	0.197376
133	0x3e042767	0.12905656
134	0x3e32ac34	0.17448503
135	0x3ca953d1	0.02066985
136	0x3dd3636d	0.10321698
137	0x3e590bf7	0.2119597
138	0xbe06290e	-0.13101599
139	0x3d1f1358	0.038836807
140	0xbe221bcc	-0.15830916
141	0x3e50835e	0.20362613
142	0xbdc8f28e	-0.09811889
143	0x3c8344c8	0.016024008
144	0x3e22ce4c	0.15899009
145	0x3dc937fc	0.09825131
146	0xbddc20dc	-0.10748455
147	0x3e344740	0.17605305
148	0x3d30c4da	0.043156482
149	0x3d051adb	0.032496314
150	0x3e25a244	0.1617518
151	0x3e859885	0.26092926
152	0x3d3292a8	0.043596894
153	0x3dc0c514	0.0941259
154	0x3dac4921	0.08412386
155	0x3e4e6782	0.20156673
156	0x3cecf313	0.0289245
157	0x3e9ee97b	0.31037506
158	0x3dc74717	0.09730356
159	0x3d9596cb	0.07304152
160	0x3d8ad2b5	0.067784704
161	0xbe50fd1f	-0.20409058
162	0x3d62cfd4	0.05537398
163	0x3dc8287b	0.09773346
164	0x3e470cb4	0.1943844
165	0xbdbc2410	-0.09186566
166	0x3ec6671e	0.38750547
167	0x3e184e12	0.14873531
168	0x3e417699	0.18892898
169	0x3eb7f2ab	0.35927328
170	0x3cd7b48e	0.026331212
171	0x3db5e738	0.08881992
172	0xbe242b66	-0.1603218
173	0x3d3ec55c	0.046574935
174	0x3e1351e0	0.14386702
175	0xbae0f1bc	-0.0017161886
176	0x3daac4fc	0.08338353
177	0x3e057c14	0.13035613
178	0x3ee05ca3	0.43820676
179	0xbea969bd	-0.33088484
180	0x3d1092a1	0.035296086
181	0x3decce55	0.11562792
182	0x3ea324a3	0.3186389
183	0xbb850ef9	-0.004060623
184	0x3dd861d9	0.10565538
185	0xbda21e9e	-0.07915996
186	0x3e564ad8	0.20926988
187	0x3cf3e2e2	0.029771272
188	0xbd1094f6	-0.03529831
189	0xbcac455f	-0.021029172
190	0xbdebd0b7	-0.115144186
191	0x3af5e793	0.0018761031
192	0xbd802e01	-0.062587745
193	0x3e3e1213	0.18561582
194	0x3e340bf6	0.17582688
195	0xbdbdd222	-0.09268595
196	0x3d9059df	0.070483916
197	0x3e79f8cc	0.24411315
198	0xbdbfac65	-0.093590535
199	0xbd7f99bf	-0.062402483
200	0x3de86ee8	0.11349279
201	0xbdef86f0	-0.11695659
202	0xbd000ebb	-0.031264048
203	0x3e5b5354	0.21418506
204	0x3e39b677	0.18136011
205	0x3d32e344	0.04367377
206	0x3e48c60c	0.19606799
207	0xbd81d155	-0.06338755
208	0xbc2bdcf2	-0.010489689
209	0x3eac32f2	0.33632618
210	0x3d830195	0.06396786
211	0x3da3070f	0.07960331
212	0x3d9f9eb2	0.077939406
213	0x3dab31e2	0.08359124
214	0xbebbc9e8	-0.3667748
215	0x3e27dafd	0.16392131
216	0x3ea2de88	0.31810403
217	0x3d25062d	0.040289093
218	0x3e07858b	0.13234536
219	0xbd326766	-0.04355564
220	0x3e49392d	0.19650717
221	0x3e1853ba	0.14875689
222	0x3dcc8501	0.09986306
223	0x3dfe52a8	0.12418109
224	0xbc2e6ed7	-0.010646543
225	0x3db7c96f	0.08973967
226	0xbe5cf8d4	-0.21579295
227	0x3e11659f	0.14198922
228	0x3e3b8844	0.183137
229	0x3ea34da1	0.31895164
230	0x3dd4dc48	0.10393578
231	0x3e0836b6	0.1330212
232	0x3e1ef445	0.15522869
233	0x3ec56723	0.3855525
234	0x3e1a39f2	0.15061167
235	0xbdde27d4	-0.1084744
236	0x3b1bcb84	0.0023772428
237	0x3e7f3b6e	0.24925014
238	0xbe8a7930	-0.27045584
239	0x3d2fc87f	0.042915817
240	0x3dfddfe3	0.12396219
241	0x3d87f59a	0.06638642
242	0x3e75f086	0.24017534
243	0xbc2a5954	-0.010397274
244	0x3df3ce13	0.1190454
245	0x3db5bd30	0.08873975
246	0xbcf09122	-0.02936608
247	0x3e3259ed	0.17417116
248	0x3ddc4636	0.10755579
249	0xbdde71bd	-0.108615376
250	0x3dad9c65	0.084770955
251	0x3c982a9f	0.01857501
252	0x3e26629b	0.16248553
253	0x3e916498	0.2839706
254	0xbd5d74be	-0.054066412
255	0x3e83dd67	0.25754854

bias f4 [5]
0	0x3f62b21e	0.88553035
1	0x3f7e7b8c	0.9940727
2	0x3f35bc60	0.7099056
3	0x3f0f735d	0.56035405
4	0x3f4bdc74	0.7963326
