DQN Formation Control/dqn_3.pt (torch, 206575 bytes, 10 tensors)

weight f4 [128, 2]
0	0xbd440270	-0.047853887
1	0xbdefe935	-0.117144026
2	0xbced79d3	-0.028988754
3	0xbd9ff3aa	-0.07810147
4	0x3dea3a1d	0.114368655
5	0xbe62f567	-0.22163926
6	0xbde03f72	-0.10949601
7	0x3bcf96f4	0.0063351337
8	0xbdcafff2	-0.09912099
9	0xbce420b0	-0.027847618
10	0xbe488f70	-0.19585967
11	0x3c9451b4	0.018105365
12	0x3e47c912	0.19510296
13	0x3c7dc333	0.015488434
14	0xbe86241c	-0.26199424
15	0x3dd011b5	0.10159627
16	0xbcc5e25c	-0.024155788
17	0x3e30af42	0.17254356
18	0xbdf1e69c	-0.118115634
19	0xbdcc992d	-0.099901535
20	0xbe47f834	-0.19528276
21	0xbcd7c466	-0.026338767
22	0xbe5cc674	-0.21560079
23	0x3cd0abb5	0.025472501
24	0xbdda712f	-0.10666119
25	0x3c061067	0.008182622
26	0xbe1d7fe3	-0.15380816
27	0x3b9119bf	0.004428118
28	0xbe61f575	-0.2206629
29	0x3e74f68d	0.23922177
30	0xbd7147ba	-0.058906294
31	0xbd928d04	-0.07155803
32	0xbe2a2155	-0.16614278
33	0x3c70dd58	0.01470121
34	0xbe3c3041	-0.18377782
35	0x3b371646	0.002793686
36	0x3e3304f5	0.1748236
37	0x3dc007f2	0.093765154
38	0xbe10dbc3	-0.14146332
39	0x3e1c8a3d	0.15287109
40	0xbe4f95e4	-0.20272022
41	0xbd669ef0	-0.05630392
42	0x3d3e4eb1	0.046461765
43	0xbe370f8f	-0.17877029
44	0xbebf441d	-0.37356654
45	0x3e1b4682	0.15163615
46	0xbe8241d5	-0.2544085
47	0xbd8a775d	-0.06761048
48	0xbe881d6a	-0.2658494
49	0x3d2c7f0b	0.042113345
50	0x3d9335d5	0.07188002
51	0xbd49049a	-0.049076654
52	0xbe381d7c	-0.17979997
53	0xbca80369	-0.020509439
54	0x3d3f6b14	0.046732977
55	0x3e220044	0.15820414
56	0x3b906947	0.0044070813
57	0xbe521562	-0.2051597
58	0x3d89461d	0.06702826
59	0xbe18f9f7	-0.14939104
60	0x3e06ede3	0.13176684
61	0xbe96c08e	-0.29443783
62	0xbd9165a8	-0.070994675
63	0xbdf95450	-0.121742845
64	0xbe841839	-0.2579973
65	0x3daa030b	0.08301362
66	0x3debe1c1	0.115176685
67	0xbe34baba	-0.17649356
68	0xbb923aa1	-0.0044625555
69	0xbe231507	-0.1592599
70	0xbe61da5a	-0.22055951
71	0x3ce5cc9f	0.028051673
72	0xbe07b8fb	-0.13254158
73	0xbe4a6d8c	-0.19768351
74	0xbc1a33b8	-0.009411745
75	0xbdfca8d8	-0.12336892
76	0xbe5dd3fa	-0.21662894
77	0xbcf408c5	-0.029789338
78	0xbe8fd9fd	-0.28096
79	0xbde9ac3e	-0.11409806
80	0x3da89d03	0.082330726
81	0xbdd29ac8	-0.102834284
82	0x3cf7aba7	0.030233217
83	0x3e6766a9	0.22597755
84	0x3eab7a69	0.3349183
85	0x3d51c7d4	0.05121596
86	0xbe5b91ed	-0.21442385
87	0xbd0d7d40	-0.034543276
88	0xbe355e37	-0.17711721
89	0xbd7c3c0d	-0.061580706
90	0x3ba3c45a	0.004997772
91	0xbdaac7a6	-0.08338861
92	0xbe9bf284	-0.30458462
93	0x3d9088e9	0.070573635
94	0x3da2502e	0.07925449
95	0xbe53c808	-0.20681775
96	0xbcfb95dc	-0.030711107
97	0x3df0e385	0.11762146
98	0xbe3f66b9	-0.1869153
99	0xbc46e4a6	-0.012139475
100	0xbe825709	-0.25457028
101	0x3c0e2920	0.008676797
102	0xbe30c8db	-0.1726412
103	0xbd8c63e7	-0.06854992
104	0xbe1c6c1f	-0.1527562
105	0xbe8f2aec	-0.27962434
106	0xbe1101b0	-0.141608
107	0xbe87e0fd	-0.2653884
108	0xbe141186	-0.1445981
109	0xbdafbc9f	-0.085808985
110	0x3caefec5	0.021361718
111	0xbd26ab8e	-0.04069095
112	0xbdc4fc87	-0.09618478
113	0xbd40c3ad	-0.04706161
114	0x3db4f016	0.08834855
115	0xbe63f66a	-0.22261968
116	0xbe75cb31	-0.24003293
117	0x3e2be3ca	0.16786113
118	0xbe7a81a6	-0.2446352
119	0x3e6c6591	0.2308562
120	0xbe80a4c5	-0.2512571
121	0x3da506ee	0.08057962
122	0xbe1bb2cf	-0.15204929
123	0xbe3ecaa0	-0.18631983
124	0xbdf5ac40	-0.11995745
125	0xbd8fb09d	-0.07016108
126	0xbde769cf	-0.11299478
127	0x3e0170e2	0.12640718
128	0x3e2bacea	0.1676518
129	0xbe33485e	-0.17508075
130	0x3deba1a6	0.11505441
131	0xbde2f9e2	-0.110828176
132	0xbe48762e	-0.19576332
133	0x3c9e94a2	0.019357983
134	0xbddde46a	-0.10834582
135	0x3d14307d	0.036179055
136	0xbe0d57e2	-0.13803056
137	0x3cec84f4	0.02887199
138	0xbdcd9bb5	-0.100394644
139	0xbdf6d501	-0.12052346
140	0x3d77d479	0.060505364
141	0x3d0486e2	0.032355197
142	0x3e7c2fa4	0.24627548
143	0xbe9ceb4f	-0.30648276
144	0x3cfa4736	0.030551534
145	0xbe2828bf	-0.16421793
146	0xbe94a161	-0.29029372
147	0xbc98e1ca	-0.018662352
148	0xbc8c0ebb	-0.017096868
149	0xbdfad28e	-0.12247191
150	0xbe92677c	-0.28594577
151	0x3d9a4f12	0.07534613
152	0xbe0e243c	-0.1388101
153	0x3a2d5501	0.0006612093
154	0xbe22be59	-0.15892924
155	0xbea70d77	-0.3262746
156	0x3e724df5	0.23662551
157	0xbeabff70	-0.3359332
158	0xbd514e8f	-0.05110031
159	0x3c51cb49	0.012804815
160	0x3e157cf0	0.14598441
161	0xbeae5dcc	-0.34055936
162	0x3ce858e8	0.028362706
163	0xbe652cc9	-0.22380365
164	0xbd9b4abd	-0.075826146
165	0xbe4e6739	-0.20156564
166	0xbd2a2b20	-0.041545033
167	0x3e9ccaee	0.30623573
168	0xbd963041	-0.073334225
169	0xbddf3859	-0.10899419
170	0xbd99cb61	-0.075094946
171	0xbe0e3fed	-0.13891573
172	0x3d386309	0.045016322
173	0xbe5e1d03	-0.21690755
174	0xbd383ec6	-0.04498174
175	0x3e093ad8	0.13401353
176	0xbe2ad52d	-0.16682883
177	0x3d9f6ecb	0.07784804
178	0xbe7a0740	-0.24416828
179	0x3e8a98a2	0.27069575
180	0xbec27f42	-0.37987715
181	0xbe0ad7b3	-0.13558845
182	0x3ec85a69	0.39131477
183	0x3c59fad6	0.013304433
184	0xbe52a878	-0.20572078
185	0x3dcfd58d	0.101481535
186	0x3e160327	0.1464964
187	0xbcfe89af	-0.031071512
188	0xbdf9cfb5	-0.1219782
189	0xbbb82951	-0.0056201597
190	0x3c885818	0.016643569
191	0xbe6927e7	-0.22769128
192	0xbd8572d7	-0.065160446
193	0xbdb3298e	-0.0874816
194	0xbdd7fc82	-0.10546209
195	0x3d8aaa87	0.06770807
196	0xbdf0bc7e	-0.11754702
197	0x3b8db9cd	0.0043251277
198	0x3daac44c	0.08338222
199	0xbd853338	-0.0650391
200	0xbdd0b6c7	-0.10191112
201	0xbd3159be	-0.043298475
202	0xbdcd11c1	-0.10013152
203	0xbdab7115	-0.08371178
204	0x3dcef1ce	0.10104714
205	0x3f040412	0.5156871
206	0x3df27e52	0.118405
207	0xbdce84fd	-0.10083959
208	0xbea38c9d	-0.31943217
209	0xbdee5576	-0.11637394
210	0xbec7e6fd	-0.39043418
211	0xbe012091	-0.1261008
212	0xbe2779da	-0.16355076
213	0xbd92dd59	-0.07171125
214	0xbe0f785a	-0.14010754
215	0x3e761e6a	0.2403504
216	0x3da60ec2	0.081082836
217	0xbe39801d	-0.18115278
218	0xbe111449	-0.14167894
219	0x3c1981dc	0.00936934
220	0xbcdef160	-0.027214706
221	0xbe547865	-0.20749052
222	0xbb242424	-0.0025045956
223	0xbe4d887b	-0.20071594
224	0xbc243688	-0.010022767
225	0xbe0f79a2	-0.14011243
226	0xbe6a02d3	-0.2285264
227	0x3c6219ca	0.013800094
228	0xbe271955	-0.16318257
229	0xbc67f65e	-0.01415786
230	0x3e15a846	0.14614972
231	0xbda60775	-0.08106891
232	0xbe80359c	-0.250409
233	0x3cfca078	0.030838236
234	0xbd4d8eeb	-0.050185125
235	0x3e1d2f32	0.15350035
236	0xbdfafaac	-0.12254843
237	0xbeddf86c	-0.43353593
238	0xbe4987e0	-0.19680738
239	0xbd4d3431	-0.0500986
240	0x3e4b4951	0.19852187
241	0xbe8526f3	-0.26006278
242	0xbd8e50ad	-0.069489814
243	0xbea0098e	-0.3125729
244	0xbe235bf6	-0.15953049
245	0x3c5c2a1d	0.013437775
246	0xbd7c39ca	-0.06157855
247	0xbd9c33e8	-0.07627088
248	0xbe5a27da	-0.21304265
249	0x3ce9eb0a	0.028554458
250	0xbd764b4d	-0.060130406
251	0xbccb7b7a	-0.024839152
252	0xbe31b2f8	-0.17353427
253	0xbccb2b3a	-0.024800885
254	0xbe2fc8fa	-0.1716651
255	0xbe13ca98	-0.14432752

bias f4 [128]
0	0x3efc78d9	0.4931095
1	0x3e3c73dc	0.18403572
2	0x3f0fa3f1	0.5610953
3	0x3ead7e4f	0.33885428
4	0x3e56fe25	0.20995386
5	0x3f185b15	0.5951398
6	0x3ea17bf4	0.3153988
7	0x3f6782e6	0.9043411
8	0x3e167bd8	0.1469568
9	0x3f5a3de1	0.8525067
10	0x3f4d3342	0.8015634
11	0x3f280213	0.65628165
12	0x3e621d2b	0.22081439
13	0x3ee954bf	0.4557247
14	0x3e80291a	0.25031358
15	0x3e969875	0.2941319
16	0x3efc11b9	0.4923227
17	0x3f1ab484	0.60431695
18	0xbe1b4f25	-0.1516691
19	0x3c6fb683	0.0146309165
20	0x3f6fc154	0.9365437
21	0x3ec2db52	0.38057953
22	0x3f7d242f	0.98883337
23	0x3d6d5e69	0.057951365
24	0x3f4947d2	0.78625214
25	0x3e029551	0.12752272
26	0x3f296f06	0.66185033
27	0x3e00872f	0.12551568
28	0x3f2b0892	0.6680995
29	0x3ecf8665	0.40532222
30	0x3f4c90ef	0.7990865
31	0x3f4dfcc0	0.8046379
32	0x3e4d910f	0.20074867
33	0x3e8131fc	0.25233448
34	0x3f293247	0.6609234
35	0x3f277e33	0.6542694
36	0x3ed3751c	0.41300285
37	0x3dcf61ef	0.10126101
38	0x3f6bea7b	0.92154664
39	0x3ec02f11	0.3753591
40	0x3e499bf0	0.19688392
41	0x3c88baa0	0.016690552
42	0x3d0a400f	0.033752497
43	0x3f7039f3	0.93838423
44	0x3e8ac721	0.27105048
45	0x3ea06dc1	0.31333736
46	0x3f577495	0.84162265
47	0x3f367253	0.71268195
48	0x3f51aec7	0.81907314
49	0x3f340149	0.7031446
50	0x3f54767c	0.8299329
51	0xbd03eb2f	-0.03220671
52	0x3eeae0cd	0.45874634
53	0x3ed65668	0.41862798
54	0x3f6a1e04	0.9145205
55	0x3f339ab9	0.70157963
56	0x3f04d8fc	0.5189359
57	0x3f494f49	0.78636605
58	0x3ea106b3	0.31450424
59	0x3ebacb90	0.3648343
60	0x3e49174c	0.19637793
61	0x3f07440c	0.52838206
62	0x3f2234f5	0.63362056
63	0x3ced1911	0.028942617
64	0x3f29afef	0.6628408
65	0x3f5a2690	0.8521509
66	0x3f15296d	0.58266336
67	0x3e478046	0.19482526
68	0x3ec75ab3	0.38936386
69	0x3f4fd80b	0.8118903
70	0xbe1bbb5e	-0.15208194
71	0x3efd8333	0.4951416
72	0x3f1b6893	0.6070644
73	0x3f7dc3b9	0.99126774
74	0x3dcddef6	0.10052292
75	0x3f467c27	0.7753319
76	0x3e9d1570	0.30680418
77	0x3edd7c45	0.43258873
78	0x3f1c51da	0.61062396
79	0xbae4228c	-0.0017405315
80	0x3f5ee0f3	0.87061995
81	0x3c2a6fda	0.010402644
82	0x3ec8f11e	0.39246458
83	0x3e240db3	0.16020851
84	0x3f5341b3	0.82522124
85	0x3f4c48ef	0.7979879
86	0x3f4ad47c	0.79230475
87	0x3da08147	0.07837158
88	0x3ea1deb2	0.31615216
89	0x3e8e1340	0.27749062
90	0x3e436ad8	0.19083726
91	0xbd43e4a6	-0.047825478
92	0x3ec34b87	0.3814356
93	0x3d3ad337	0.045611586
94	0x3ed0f44d	0.40811387
95	0x3f396fd6	0.72436273
96	0x3e9c78a0	0.3056078
97	0x3ee642dc	0.44972885
98	0x3ec289a0	0.37995625
99	0x3edd608d	0.43237725
100	0x3eff50ee	0.49866432
101	0x3ea36a4f	0.31917045
102	0x3e0ce814	0.13760406
103	0x3b2dd41d	0.0026524134
104	0x3dab17a3	0.08354118
105	0x3e6246ae	0.22097275
106	0x3f683e9b	0.9072053
107	0x3e8c5369	0.27407387
108	0x3ecae503	0.39627847
109	0x3ee4ed6f	0.44712397
110	0x3f771adc	0.9652536
111	0x3f359436	0.70929277
112	0x3daf080d	0.085464574
113	0x3f38f0a8	0.7224221
114	0x3f134535	0.57527477
115	0x3f19d3d7	0.60088867
116	0x3f38ae7f	0.7214126
117	0x3e2436cf	0.16036533
118	0x3f5bb6ca	0.8582579
119	0x3d5f4eeb	0.05451862
120	0x3e218d6f	0.15776609
121	0x3efe7dd5	0.49705377
122	0x3efac46e	0.4897799
123	0x3f13c093	0.5771572
124	0x3f2600b4	0.6484482
125	0x3e944a40	0.28962898
126	0x3f2bca27	0.67105335
127	0x3dd12953	0.1021296

weight f4 [128, 128]
0	0x3bdf394c	0.0068122502
1	0xbe164e59	-0.14678325
2	0xbe1eff19	-0.15527
3	0x3e072fd9	0.13201846
4	0xbdbf39ac	-0.09337172
5	0xbce2580a	-0.02762987
6	0x3d7b80b7	0.06140205
7	0xbe2380d7	-0.15967117
8	0xbe3e59c5	-0.18588932
9	0xbd94a95f	-0.072588675
10	0xbd62b957	-0.055352535
11	0xbe32a476	-0.1744555
12	0x3c82f313	0.015985047
13	0xbd18f784	-0.037345424
14	0x3e0e8ab3	0.13920097
15	0xbe058dce	-0.13042375
16	0xbe24b1ba	-0.16083422
17	0xbccd7e2e	-0.025084581
18	0xbd9704e8	-0.07373983
19	0xbcc566d8	-0.024096891
20	0x3bd4115e	0.006471797
21	0x3def7a72	0.116932765
22	0xbe05caad	-0.13065596
23	0xbd3ec389	-0.046573196
24	0xbe11a2b3	-0.14222221
25	0xbe4f62f5	-0.20252593
26	0x3dc354b2	0.09537639
27	0xbe07d781	-0.13265802
28	0xbcaf4649	-0.02139582
29	0xbd959788	-0.07304293
30	0x3c7a0d33	0.015261936
31	0xbcb96b58	-0.022634193
32	0x3db8107f	0.089875214
33	0xbdb43577	-0.0879926
34	0x3d9b1403	0.07572176
35	0xbda56514	-0.0807592
36	0xbdc777d9	-0.09739656
37	0xbd395cea	-0.045254625
38	0x3ce5755a	0.02801006
39	0x3caf6a5a	0.021413017
40	0xbde47745	-0.11155561
41	0xbe5ff50f	-0.21870826
42	0xbd90a38d	-0.07062445
43	0xbdedf664	-0.11619261
44	0xbd0593c8	-0.03261164
45	0xbd4d9c82	-0.050198086
46	0xbd265358	-0.040606827
47	0x3e34c6a2	0.17653897
48	0xbe316a25	-0.17325647
49	0x3d7226fe	0.059119217
50	0x3d0a6982	0.033792026
51	0xbdfb342b	-0.122658096
52	0xbe15098f	-0.14554428
53	0xbc16c84d	-0.009203029
54	0xbceba2f8	-0.028764233
55	0xbce7d661	-0.028300466
56	0xbe4e95de	-0.20174357
57	0xbc2f76b5	-0.010709454
58	0xbbfab228	-0.0076506324
59	0xbe1f5290	-0.15558839
60	0xbc21ca24	-0.009874854
61	0xbb22fbdc	-0.0024869358
62	0xbcf6156c	-0.030039512
63	0xbd86943c	-0.06571242
64	0xbc39e3cd	-0.011345816
65	0xbd794cbb	-0.06086419
66	0x3dbf5f38	0.093443334
67	0xbde0378b	-0.10948094
68	0x3dd1f467	0.10251694
69	0xbdc15ac0	-0.09441137
70	0x3e0a634f	0.13514446
71	0x3d790649	0.06079701
72	0x3da46d9e	0.0802872
73	0xbc8a64fa	-0.016893853
74	0xbd49fbcd	-0.0493124
75	0xbd5bb30e	-0.053637557
76	0x3c8a31be	0.016869422
77	0xbd1785d3	-0.03699286
78	0x3d865de2	0.065608755
79	0xbe219e0a	-0.15782943
80	0xbdaf095c	-0.08546707
81	0x3dc21194	0.09476009
82	0xbce65144	-0.028114922
83	0xbdf4cdbd	-0.11953304
84	0xbc91145d	-0.017709905
85	0xbe394ee6	-0.18096504
86	0xbe175046	-0.14776716
87	0xbe50208e	-0.20324919
88	0xbe449845	-0.19198711
89	0xbdece25a	-0.11566611
90	0xbd1054f9	-0.035237286
91	0x3d9e895d	0.07741044
92	0xbe33e268	-0.17566836
93	0xbd1a20f4	-0.037629083
94	0x3d458e0b	0.048231166
95	0xbe08314f	-0.1330006
96	0x3d116922	0.035500653
97	0xbe06f841	-0.13180639
98	0xbdace372	-0.08441819
99	0xbbc7afbe	-0.006093948
100	0xbdf465d4	-0.11933485
101	0xbb7173e6	-0.0036842762
102	0xbe8e82c8	-0.27834153
103	0xbd31f85b	-0.04344974
104	0xbe298b07	-0.16556941
105	0xbe626063	-0.22107081
106	0x3c290a71	0.010317431
107	0xbdf68661	-0.120373495
108	0xbe18d04e	-0.14923212
109	0x3bbfb9e9	0.0058510196
110	0x3d72ce77	0.05927893
111	0x3c574ab9	0.013140374
112	0xbcd142bc	-0.025544517
113	0x3daa3fd9	0.08312959
114	0xbca4996b	-0.020092687
115	0xbe01be07	-0.12670146
116	0xbd9f20ca	-0.07769926
117	0xbe4a43cd	-0.19752426
118	0x3ccade61	0.024764242
119	0xbcbf2f9d	-0.023338133
120	0x3c9fe98f	0.01952055
121	0xbda48eb3	-0.0803503
122	0xbc3b147f	-0.011418461
123	0xbd3db3a9	-0.046313915
124	0xbc926520	-0.017870486
125	0xbe158162	-0.14600137
126	0xbe353a04	-0.17697912
127	0xbe0876bc	-0.13326544
128	0x3d50bb3f	0.05095982
129	0x3cfee3a0	0.0311144
130	0x3d3b6283	0.045748245
131	0x3e1a5457	0.15071236
132	0x3d568519	0.052373026
133	0x3dab39ac	0.083606094
134	0xbe2aab10	-0.16666818
135	0xbd3612d2	-0.044451542
136	0xbd23162f	-0.039816078
137	0xbd316d46	-0.043317102
138	0xbdf53b82	-0.11974241
139	0x3d1e0d23	0.038586747
140	0x3d944b80	0.07240963
141	0xbe437031	-0.19085766
142	0x3d7fa38e	0.062411837
143	0x3cd60794	0.02612666
144	0xbd00857e	-0.031377308
145	0x3dda1ab7	0.10649627
146	0xbd628a33	-0.05530758
147	0x3e84ba78	0.25923514
148	0xbda725be	-0.081614956
149	0xbdddffed	-0.108398296
150	0x3e851055	0.25989023
151	0xbda3342b	-0.079689346
152	0x3dcea162	0.10089375
153	0xbe2266ed	-0.15859576
154	0x3e06c0b2	0.13159445
155	0xbd9b782e	-0.07591282
156	0x3e0ebe67	0.1393982
157	0x3d4788f4	0.048714593
158	0x3cbf132f	0.023324577
159	0xbda24709	-0.07923705
160	0x3efb584b	0.490908
161	0xbbafa95c	-0.0053607654
162	0xbdac7c12	-0.08422102
163	0x3e36d4c8	0.17854607
164	0xbda43668	-0.0801819
165	0xbdacedc8	-0.08443791
166	0x3e72feb4	0.23729974
167	0xbe05edbf	-0.13078974
168	0xbe0a819f	-0.13526009
169	0xbcb765e4	-0.022387452
170	0xbe47a120	-0.19495058
171	0xbd73622f	-0.059419807
172	0xbdf5410c	-0.11975297
173	0xbcdfe620	-0.027331412
174	0x3e17a3d8	0.14808595
175	0xbe84a844	-0.25909626
176	0xbe53d939	-0.20688333
177	0xbcd4c4af	-0.025972692
178	0xbdc97c0f	-0.098381154
179	0xbdf5afa8	-0.119963944
180	0xbdf3fb08	-0.11913115
181	0xbe0632e2	-0.13105348
182	0xbcda9fb3	-0.026687479
183	0xbd8a7afc	-0.06761739
184	0x3e3ff9c3	0.1874762
185	0xbe1b9262	-0.1519256
186	0x3e5089ec	0.20365113
187	0x3eb51012	0.35363823
188	0xbdb51907	-0.08842664
189	0x3ce6c727	0.028171135
190	0x3e2ed748	0.17074311
191	0x3e686c58	0.2269758
192	0xbe23da77	-0.16001306
193	0xbe19a349	-0.15003695
194	0xbd91669c	-0.07099649
195	0x3d990fd5	0.07473723
196	0x3e1a7fa7	0.15087758
197	0xbe053f91	-0.1301253
198	0xbe839c2e	-0.25705093
199	0xbe285f0c	-0.16442508
200	0x3c839065	0.016060064
201	0x3dbfa62e	0.09357868
202	0xbe60189f	-0.21884392
203	0x3d7098b0	0.058739364
204	0xbe05734c	-0.13032264
205	0xbd436b1e	-0.047709577
206	0xbd3cf796	-0.046134554
207	0x3d23a376	0.03995081
208	0xbdb5aa50	-0.08870375
209	0xbdb36aa3	-0.08760574
210	0x3d2876c6	0.041128896
211	0x3dec0b24	0.115255624
212	0x3d6c2c20	0.05765927
213	0xbe29b89d	-0.1657433
214	0x3d6329f3	0.055459928
215	0xbcd80b89	-0.026372688
216	0xbc607c45	-0.013701503
217	0x3e82784f	0.25482413
218	0xbe3a93ee	-0.18220493
219	0xbe511fa5	-0.20422228
220	0x3dd9aa65	0.10628203
221	0xbd45866e	-0.048223905
222	0x3d91dd87	0.07122331
223	0xbe993f44	-0.2993108
224	0xbd6e0d59	-0.058118198
225	0x3d1e90f1	0.038712446
226	0x3e0373a9	0.1283709
227	0xbcced669	-0.025248723
228	0x3cb7fd83	0.022459751
229	0xbe222f51	-0.15838362
230	0x3e0467d4	0.12930232
231	0xbe4111e4	-0.18854481
232	0xbc0348e4	-0.008012984
233	0x3bb9dedb	0.0056723184
234	0xbdad9dca	-0.084773615
235	0x3dcae73a	0.09907384
236	0xbd7883ab	-0.060672443
237	0x3e26f5c8	0.16304696
238	0xbdbbe18b	-0.09173878
239	0x3bc2a311	0.005939849
240	0x3c13bb0d	0.009016764
241	0x3b6b7309	0.003592672
242	0x3e303eaa	0.17211404
243	0xbd2e3b4c	-0.04253702
244	0x3e413e6e	0.18871471
245	0x3d94815e	0.07251237
246	0xbabbcc06	-0.0014327771
247	0x3d609eb5	0.054838855
248	0x3d95d393	0.07315745
249	0xbd4e2f64	-0.050338164
250	0x3d24149e	0.040058725
251	0xbcc0e06f	-0.023544518
252	0x3e19fc99	0.15037765
253	0xbe13f147	-0.14447509
254	0xbd199ff8	-0.037506074
255	0xbdf48fb1	-0.119414695

bias f4 [128]
0	0x3f6ecda9	0.9328256
1	0x3d64dc73	0.0558743
2	0x3f6db95e	0.9286097
3	0x3f014fcf	0.50512403
4	0x3f455a6a	0.77091086
5	0x3e78f1ce	0.24310991
6	0x3f3fd04c	0.7492721
7	0x3d1daa88	0.03849271
8	0xbc10f57e	-0.008847592
9	0x3f07e54b	0.5308425
10	0x3eb0e45f	0.34549233
11	0x3edea8e1	0.4348822
12	0x3ec3e1fc	0.3825835
13	0x3e399280	0.18122292
14	0x3f069fab	0.52587384
15	0x3f11963a	0.5686985
16	0x3efddad0	0.49581003
17	0x3da712bd	0.08157871
18	0x3f08a5c0	0.53377914
19	0x3efa2786	0.4885828
20	0x3ee7da9c	0.45283973
21	0x3ee5aa30	0.44856405
22	0x3eadacde	0.3392095
23	0x3efe3613	0.4965063
24	0x3ea696bd	0.3253688
25	0x3eb0b0b0	0.34509802
26	0x3e0556f1	0.13021447
27	0x3f2036cc	0.62583613
28	0x3cd2f798	0.025752828
29	0x3e02b92d	0.12765951
30	0x3df98de6	0.12185268
31	0x3ca0e170	0.019638747
32	0x3f3077be	0.6893271
33	0x3e858a8e	0.2608227
34	0x3f5132ed	0.8171833
35	0xbd439b05	-0.04775526
36	0x3ea9419f	0.33057877
37	0x3d308a10	0.043100417
38	0x3ec70d79	0.38877466
39	0x3ec52714	0.38506377
40	0x3ee768ec	0.45197237
41	0x3f59bdc7	0.850552
42	0x3f60ec91	0.8786097
43	0x3edae576	0.4275319
44	0x3f37b87f	0.71765894
45	0x3f2db746	0.6785778
46	0x3ead9903	0.339058
47	0x3ebf9d07	0.3742449
48	0x3edc4fbe	0.43029588
49	0x3f2e1f88	0.6801686
50	0x3f23f2f6	0.64042604
51	0x3f17fa34	0.59366155
52	0x3f20a8aa	0.6275736
53	0x3f3b8ec8	0.7326474
54	0x3d48a447	0.048984792
55	0x3f4cb950	0.79970264
56	0x3f29e6f1	0.66368014
57	0x3f626957	0.88441986
58	0x3e6e91a4	0.23297745
59	0x3f0a77b7	0.5408892
60	0x3f36c84c	0.7139938
61	0x3f19692a	0.5992609
62	0x3f1f39b7	0.6219744
63	0x3f503bd6	0.813413
64	0x3f422e59	0.7585197
65	0xbc00f785	-0.007871513
66	0x3defb6ce	0.11704789
67	0x3f4b5013	0.7941906
68	0x3dc6090d	0.09669695
69	0x3f4117d4	0.75426984
70	0x3f79fc06	0.9765018
71	0xbc7879e4	-0.01516578
72	0x3f4b8ef5	0.7951501
73	0x3f644bc4	0.8917811
74	0x3f44b896	0.76844156
75	0x3ee89fa0	0.45434284
76	0x3c8e5e81	0.017379047
77	0x3f4b362e	0.79379547
78	0x3f75c662	0.96005833
79	0x3d112967	0.035439875
80	0x3f4f8c54	0.810735
81	0x3f13bfc1	0.5771447
82	0x3f2eff3e	0.6835822
83	0x3f4d8ac3	0.8028986
84	0x3dca59cc	0.09880409
85	0x3e9d8560	0.3076582
86	0x3e860c00	0.2618103
87	0x3efcf834	0.49408114
88	0x3e2bd2a1	0.16779567
89	0x3f6b71b1	0.91970354
90	0x3f8376f1	1.0270673
91	0x3f619a11	0.8812571
92	0x3ec60c5b	0.386813
93	0x3da83684	0.08213523
94	0x3f643b07	0.8915257
95	0x3f442fc7	0.766354
96	0x3f59fcdb	0.8515145
97	0x3f3243ba	0.6963459
98	0x3f35ed72	0.7106544
99	0x3d1dc6a4	0.038519517
100	0x3f27666b	0.6539065
101	0x3f3eea5a	0.7457634
102	0x3e231ab5	0.15928157
103	0x3f4cdc7f	0.8002395
104	0x3ed25818	0.41082835
105	0x3eec1c4b	0.46115336
106	0x3f22672b	0.6343867
107	0x3f55d777	0.835319
108	0x3f1d454d	0.6143387
109	0x3f63ed9d	0.89034444
110	0x3f6b4823	0.91906947
111	0x3f3fa5bc	0.74862266
112	0x3edff7a5	0.43743625
113	0x3f6ac0fe	0.9170073
114	0x3dfc9d80	0.12334728
115	0x3e929510	0.2862935
116	0x3f0b74f4	0.5447533
117	0x3eb0db05	0.345421
118	0x3ea0aca4	0.31381714
119	0x3f3321c3	0.6997339
120	0x3ebee565	0.3728439
121	0x3e86e71e	0.26348203
122	0x3e71bed8	0.23607957
123	0x3eab16bb	0.3341578
124	0x3eca1ef3	0.39476737
125	0x3d673d72	0.056455083
126	0x3ea193c1	0.3155804
127	0x3e0cefd4	0.13763362

weight f4 [128, 128]
0	0xbc8dbbc7	-0.017301453
1	0x3bc26787	0.0059327516
2	0xbb62df03	-0.0034617789
3	0x3d9ac2d0	0.07556689
4	0xbb42de8a	-0.0029734694
5	0xbe0cac20	-0.13737535
6	0x3cdfe043	0.027328616
7	0x3e69b3df	0.22822522
8	0xbc8d06e8	-0.017215207
9	0xbda97496	-0.0827419
10	0x3bf11fba	0.0073585184
11	0x3d91aed5	0.07113425
12	0xbdbe4841	-0.09291125
13	0xbb890fda	-0.004182798
14	0xbdd58775	-0.10426227
15	0x3e30c0dc	0.1726107
16	0x3d5276da	0.051382877
17	0xbd152898	-0.036415666
18	0xbe0ceee7	-0.13763009
19	0xbd9fcbb1	-0.07802523
20	0xbc899911	-0.01679662
21	0xbb0e1360	-0.002167903
22	0x3da081f3	0.07837286
23	0x3b64a945	0.0034890932
24	0x3d819af0	0.0632838
25	0xbda6ca21	-0.08144022
26	0xbd717441	-0.05894876
27	0x3c9bb8dd	0.019009048
28	0xbd7214e7	-0.059101965
29	0xbe065dd8	-0.13121736
30	0xbc1ab129	-0.009441652
31	0xbd474558	-0.048650116
32	0x3c95a22b	0.018265804
33	0x3d0d6a3d	0.034525145
34	0x3e10b088	0.14129841
35	0xbd881f4b	-0.06646594
36	0x3d764d49	0.0601323
37	0x3da75ffb	0.08172604
38	0xbd76bba3	-0.060237538
39	0xbd08731c	-0.0333129
40	0x3d0f0d13	0.034924578
41	0x3ddfb5df	0.10923361
42	0x3dc5b68a	0.09653957
43	0x3e4787e5	0.19485433
44	0xbdae287d	-0.08503816
45	0xbd8b80ec	-0.06811699
46	0x3d1379d5	0.03600486
47	0xbd8aa660	-0.06770015
48	0xbd1757e7	-0.036949065
49	0xbe460c22	-0.19340566
50	0xbdb1d3fb	-0.0868301
51	0xbd2d6ed2	-0.042342015
52	0xbd59ea63	-0.053202044
53	0xbe0eab38	-0.13932502
54	0x3e1b2798	0.15151823
55	0xbc6db692	-0.01450886
56	0x3e042c0b	0.12907426
57	0x3cff6b9a	0.031179238
58	0xbca1e3e7	-0.019761993
59	0xbdcac151	-0.099001534
60	0x3dc7dcc1	0.09758902
61	0xbe02d462	-0.1277633
62	0xbd3760c6	-0.044770025
63	0x3cc31a42	0.023816232
64	0x3d3bade4	0.045820132
65	0x3d10a914	0.035317495
66	0x3c978920	0.018498003
67	0xbd95978a	-0.073042944
68	0x3da94f67	0.08267098
69	0xbd98d1ee	-0.07461916
70	0xbdabf926	-0.08397131
71	0xbde7f07c	-0.11325166
72	0xbe1dda8c	-0.154154
73	0x3d9a3ee8	0.0753153
74	0x3d5834a6	0.052784584
75	0x3c83e7c6	0.01610173
76	0x3d9c7920	0.0764029
77	0x3cd58041	0.026062133
78	0xbd63e8ff	-0.055642124
79	0x3daae98e	0.08345328
80	0x3e02b15f	0.12762974
81	0x3e29b74c	0.16573828
82	0xbd4695ae	-0.04848259
83	0xbc86bc59	-0.016447233
84	0xbd23429b	-0.03985844
85	0x3d977702	0.07395746
86	0xbd0bd379	-0.034137223
87	0x3e167cf9	0.14696111
88	0x3cbf9662	0.023387138
89	0x3e4c274a	0.19936863
90	0x3c9c0a06	0.019047748
91	0xbd3a1e2c	-0.04543893
92	0xbe202d1f	-0.15642212
93	0xbd5886a6	-0.052862786
94	0x3db53f93	0.088500164
95	0xbe36f685	-0.17867477
96	0x3cc41709	0.023936765
97	0x3de42fb9	0.11141915
98	0xbd24d592	-0.04024274
99	0x3c984927	0.01858957
100	0xbdac700c	-0.08419809
101	0xbdc080a5	-0.09399537
102	0xbdf417d7	-0.119186096
103	0x3c0cbae6	0.008589482
104	0xbd2b078b	-0.04175524
105	0xbc3a239f	-0.011361032
106	0x3e342e2c	0.17595738
107	0xbe10643b	-0.14100735
108	0x3d79bf57	0.06097349
109	0x3dbe62ab	0.09296163
110	0x3d5fa1ae	0.05459755
111	0x3e1f713b	0.15570538
112	0xbcfe9df6	-0.031081181
113	0xbe1435d5	-0.1447366
114	0xbd83eab5	-0.06441251
115	0x3e454bda	0.19267216
116	0x3c94ed76	0.018179636
117	0x3ad2b637	0.0016076033
118	0x3d64aa19	0.05582628
119	0x3dce116f	0.10061919
120	0xbd0e6f58	-0.034774154
121	0x3dd44fc3	0.10366776
122	0x3d1f446a	0.038883604
123	0xbd93780f	-0.07200634
124	0xbc63d971	-0.013906823
125	0x3e175877	0.1477984
126	0x3d8e05e2	0.06934716
127	0x3c4123d9	0.011788332
128	0x3cd8404f	0.026397852
129	0xbe11d1c0	-0.1424017
130	0x3b91ae23	0.0044458075
131	0xbc08b4c0	-0.008343875
132	0xbc8bcae6	-0.017064523
133	0xbe1badb8	-0.15202987
134	0xbe2309c6	-0.15921697
135	0x3ca48e6e	0.020087447
136	0xbcbf1acd	-0.02332821
137	0xbe45c553	-0.19313554
138	0xbd0ff315	-0.03514393
139	0xbde567bf	-0.112014286
140	0x3cf5cdfc	0.030005448
141	0xbd404ccc	-0.04694824
142	0x3dbb157a	0.09134956
143	0x3d8d912d	0.06912456
144	0x3d930bb4	0.071799666
145	0xbd959923	-0.07304599
146	0x35b85d20	1.3736171e-06
147	0x3e141081	0.1445942
148	0xbe6083f5	-0.21925338
149	0xbe294b40	-0.16532612
150	0xbd817918	-0.06321925
151	0xbcec44a7	-0.02884133
152	0x3d82b1be	0.06381558
153	0x3d62725c	0.055284843
154	0xbe335d54	-0.1751607
155	0xbd4fff3f	-0.05078053
156	0xbca36f99	-0.019950675
157	0x3d850372	0.06494798
158	0x3be098c3	0.006854148
159	0x3e153533	0.14571075
160	0xbd034216	-0.032045446
161	0xbb957364	-0.004560875
162	0xbd56da28	-0.052454144
163	0x3bd59f02	0.0065191993
164	0x3df859a9	0.12126476
165	0xbd06fdfd	-0.032957066
166	0xbe37929e	-0.17927024
167	0xbd36189c	-0.044457063
168	0x3eb80c7c	0.35947025
169	0xbd1d2e47	-0.03837421
170	0x3dd80aa5	0.10548905
171	0x3bd675f3	0.0065448224
172	0x3d076725	0.03305735
173	0x39789429	0.00023706317
174	0xbcc52023	-0.024063176
175	0x3e253818	0.1613468
176	0xbd8bc57e	-0.06824778
177	0x3e202f03	0.15642934
178	0x3d6de3f0	0.058078706
179	0xbbb55302	-0.005533577
180	0xbd790622	-0.060796864
181	0xbdaad91c	-0.083421916
182	0xbd5b9a50	-0.05361396
183	0x39dbb344	0.00041904498
184	0x3d56d17c	0.052445874
185	0x3d235162	0.039872535
186	0xbdfceaab	-0.12349447
187	0xbea4ee0f	-0.32212874
188	0x3d4fa44f	0.050693806
189	0x3d538805	0.05164339
190	0x3d9098a3	0.07060363
191	0xbd4dcce7	-0.05024424
192	0x3cd461de	0.025925573
193	0x3e2d9f65	0.16955335
194	0xbdcd7372	-0.10031785
195	0x3d2bdc28	0.041958004
196	0xbc0069c4	-0.0078377165
197	0xbe3dc53a	-0.18532267
198	0xbbe228f9	-0.006901857
199	0xbe335ae4	-0.17515141
200	0xbc8d9419	-0.017282533
201	0xbd760fb0	-0.060073555
202	0xbc8e710a	-0.017387886
203	0xbdc6290d	-0.096757986
204	0x3da91763	0.08256414
205	0xbd0ea862	-0.03482855
206	0x3e0068d2	0.12539986
207	0x3da82a03	0.08211138
208	0x3dfa346f	0.12217032
209	0x3df788cf	0.12086641
210	0xbe22b778	-0.158903
211	0x3e2eaea4	0.17058808
212	0x3df8f4d6	0.12156074
213	0xbd11ef7d	-0.035628784
214	0x3cd39cc8	0.025831595
215	0xbdcccd03	-0.100000404
216	0x3ce6d701	0.028178694
217	0x3e0457b1	0.12924077
218	0xbdb596ec	-0.08866677
219	0xbcd2f717	-0.025752587
220	0xbd390781	-0.045173172
221	0x3e090c0e	0.13383505
222	0x3df61598	0.120158374
223	0x3ae58ac1	0.0017512665
224	0xbd8c357f	-0.06846141
225	0x3e057590	0.13033128
226	0xbd8251dc	-0.0636327
227	0xbe3382b2	-0.17530325
228	0x3de52204	0.111881286
229	0xbdb2e9b3	-0.08735981
230	0xbd9ada9e	-0.07561229
231	0xbc6f3f32	-0.014602469
232	0x3ba38060	0.0049896687
233	0x3e1f6509	0.15565886
234	0x3e3b8a13	0.1831439
235	0xbdcb9479	-0.09940428
236	0xbd459550	-0.0482381
237	0x3c2d6747	0.010583705
238	0xbce91fb2	-0.028457496
239	0xbe4716f8	-0.19442356
240	0xbd09aa6b	-0.03360979
241	0x3cd03559	0.025416063
242	0x3e426bc1	0.18986417
243	0x3cdec800	0.027194977
244	0xbc54df89	-0.012992748
245	0xbd99a594	-0.07502285
246	0x3d502186	0.05081322
247	0xbc5aa912	-0.013345974
248	0x3d34abb8	0.044109076
249	0x3d8186da	0.06324549
250	0x3e2b1467	0.16707002
251	0x3c292ce6	0.010325646
252	0xbdcc993b	-0.09990164
253	0xbe45e5d2	-0.1932595
254	0xbdfc50aa	-0.12320073
255	0xbde79ddc	-0.11309406

bias f4 [128]
0	0x3e93f3fe	0.2889709
1	0x3e212629	0.15737213
2	0x3dd65860	0.10466075
3	0x3ea24926	0.31696433
4	0x3f4fe670	0.81210995
5	0x3f60ea52	0.87857544
6	0x3f361c14	0.71136594
7	0x3f785049	0.96997505
8	0x3f0681f0	0.5254202
9	0x3f7a8eb1	0.9787398
10	0x3f09e4af	0.5386457
11	0x3ea6f604	0.3260957
12	0x3f0a4359	0.54009014
13	0x3e4ba366	0.1988655
14	0x3f0791ce	0.52956855
15	0x3f33defb	0.70262116
16	0x3d7241b5	0.059144694
17	0x3ec69806	0.3878786
18	0x3ec8d576	0.39225358
19	0x3eb2d0ac	0.3492483
20	0x3f7b7705	0.98228484
21	0x3eeade14	0.45872557
22	0x3f4528ba	0.7701527
23	0x3f417a77	0.7557749
24	0x3f41486d	0.7550114
25	0x3f1a9cb4	0.6039536
26	0x3f7b2fa1	0.9811955
27	0x3efe64f7	0.49686405
28	0x3f0f8fec	0.5607898
29	0x3defeec0	0.1171546
30	0x3ec2259e	0.37919325
31	0x3f7601f5	0.96096736
32	0x3f0b5f08	0.5444188
33	0x3f7d6d0d	0.98994523
34	0x3f4900de	0.7851695
35	0x3e29381b	0.16525309
36	0x3f2a3281	0.6648331
37	0x3e47a7db	0.19497626
38	0x3f643903	0.8914949
39	0x3e6c4557	0.23073326
40	0xbd566ca1	-0.05234969
41	0x3d9d8169	0.07690699
42	0x3f124031	0.571292
43	0x3e3f16de	0.18661067
44	0x3ed10d56	0.40830487
45	0x3aa996cf	0.0012938621
46	0x3f5caf8d	0.8620537
47	0x3f0f1ede	0.55906475
48	0x3f05e108	0.52296495
49	0x3ed031e1	0.40663055
50	0xbc2c2847	-0.01050765
51	0x3ef681af	0.48145816
52	0x3d5726c6	0.05252721
53	0x3f05565e	0.5208491
54	0x3f5e0b68	0.86736155
55	0x3e4b44f2	0.1985052
56	0x3f5f1092	0.8713466
57	0x3d86be3d	0.06579254
58	0x3f7fa3ba	0.998592
59	0x3d9db1d7	0.07699936
60	0x3f1a7e8a	0.60349333
61	0x3de08b64	0.10964087
62	0x3d879317	0.06619852
63	0x3f05dbf7	0.52288765
64	0x3f49c992	0.78823197
65	0x3eb47c37	0.35251018
66	0x3f85a5a7	1.0441178
67	0x3ecf16f4	0.404472
68	0x3f641585	0.89095336
69	0x3d1f6b84	0.038920894
70	0x3dc6d6b8	0.09708923
71	0x3ebcfe47	0.36912748
72	0xbca605bf	-0.020266412
73	0x3da81485	0.08207039
74	0x3eba8982	0.36433035
75	0x3f67c97c	0.90541816
76	0xbc05405c	-0.00813302
77	0x3e98e70b	0.29863772
78	0x3f2ff26b	0.68729275
79	0x3f6857ff	0.9075927
80	0x3f081e42	0.5317117
81	0x3c96c8bd	0.018406266
82	0x3e9cfc62	0.30661303
83	0x3f71db27	0.94475025
84	0x3f6c3f87	0.92284435
85	0x3f04f6b0	0.51938915
86	0x3e54987b	0.20761292
87	0x3f2b06f1	0.66807467
88	0x3de4d1a9	0.11172802
89	0x3e80b123	0.25135145
90	0xbc88ad86	-0.016684305
91	0x3f6356fc	0.888046
92	0x3f269e49	0.65085274
93	0x3f33abcb	0.7018401
94	0x3f1bb40a	0.6082159
95	0x3eb01d2c	0.34397256
96	0x3dac4374	0.08411303
97	0x3ea04ae9	0.31307152
98	0x3f0e57e9	0.5560289
99	0x3ed5ec8c	0.41782033
100	0x3c95f78e	0.01830652
101	0x3f5129a5	0.8170417
102	0x3ef1c869	0.47223213
103	0x3ee789cc	0.45222318
104	0xbc78577e	-0.0151575785
105	0x3df6bb76	0.12047474
106	0x3ed531ab	0.41639456
107	0x3ebc3913	0.36762294
108	0x3f7204c7	0.9453854
109	0x3e1d884e	0.15384027
110	0x3ed3fada	0.41402322
111	0x3e910613	0.28324947
112	0x3e6b9911	0.23007609
113	0x3f44e1f6	0.7690729
114	0x3eae36b4	0.3402611
115	0x3f44d8bd	0.76893216
116	0x3f291da5	0.6606086
117	0x3e06f1bd	0.13178153
118	0x3f5dc1e0	0.86623955
119	0x3f06c820	0.52649117
120	0xbc6e9d24	-0.014563832
121	0x3f180a15	0.59390384
122	0x3ef56e5a	0.47935754
123	0x3f45a8fd	0.7721098
124	0x3e346444	0.17616373
125	0x3f294728	0.661242
126	0x3f4f6845	0.8101848
127	0x3f4fe9fa	0.81216395

weight f4 [128, 128]
0	0xbd65920e	-0.05604749
1	0x3cb99d07	0.022657884
2	0x3e1e2878	0.15445125
3	0x3ddb587a	0.10710235
4	0x3ddbde1d	0.10735724
5	0x3ddc8dce	0.107692346
6	0xbcc31e22	-0.02381808
7	0x3e0eabf6	0.13932785
8	0x3de53eee	0.111936435
9	0xbcd22064	-0.02565021
10	0xbe5ece1f	-0.21758316
11	0x3d1e68e7	0.03867426
12	0xbd61b8d2	-0.0551079
13	0x3dfc3596	0.12314908
14	0x3ca7218d	0.02040174
15	0x3d8161dc	0.06317493
16	0x3d831ea4	0.064023286
17	0x3dcd85b6	0.10035269
18	0xbdde6e7d	-0.10860918
19	0xbc513294	-0.012768406
20	0xbc5410ab	-0.012943427
21	0xbc26d9a8	-0.010183729
22	0xbd2d6344	-0.042330995
23	0xbd6b1cea	-0.05740062
24	0xbe32a7fa	-0.1744689
25	0xbdf9d8b0	-0.12199533
26	0xbbf2e605	-0.0074126744
27	0x3dfa3d45	0.122187175
28	0xbcc26f38	-0.023734674
29	0xbd5951da	-0.053056575
30	0x38ccd5ba	9.767288e-05
31	0xbd958f90	-0.07302773
32	0x3d67603e	0.056488268
33	0x3d3ede67	0.04659882
34	0xbde5321a	-0.11191197
35	0x3d3e02ad	0.04638927
36	0x3dff5a22	0.12468363
37	0x3e7a219a	0.2442688
38	0x3c9939d1	0.018704327
39	0x3d078171	0.03308243
40	0x3dac9953	0.08427682
41	0xbb3fab95	-0.0029246558
42	0x3d1a6409	0.037693057
43	0x3c5f5325	0.013630663
44	0xbd2f4116	-0.04278668
45	0xbd3633d8	-0.044483036
46	0x3d299f70	0.041411817
47	0xbd61ba2d	-0.05510919
48	0xbe40f8d7	-0.18844925
49	0x3d4efa57	0.05053171
50	0x3d466500	0.048436165
51	0x3de4137f	0.11136531
52	0xbdf33f05	-0.118772544
53	0x3db70cb2	0.08937968
54	0x3be7f55c	0.0070788097
55	0x3e828b09	0.254967
56	0x3d027a4a	0.031854905
57	0xbc80679c	-0.015674405
58	0xbddf2d92	-0.10897364
59	0x3d9bc902	0.076066986
60	0x3d52ee73	0.051496934
61	0x3d40326e	0.046923093
62	0xbdc2256a	-0.094797924
63	0xbd94f80a	-0.07273872
64	0x3dce3b67	0.10069924
65	0x3e69bf54	0.22826892
66	0x3d6984c9	0.0570114
67	0x3dc0fc0e	0.094230756
68	0x3d940686	0.07227807
69	0xbe342a1f	-0.17594193
70	0x3d1a0612	0.037603445
71	0x3cf2d9a0	0.029644787
72	0xbdb37338	-0.087622106
73	0xbe06ffba	-0.1318349
74	0x3e0a98f9	0.13534917
75	0x3cfbb177	0.03072427
76	0xbdd388d5	-0.10328833
77	0x3e159fd9	0.14611758
78	0x3ca8d728	0.020610407
79	0x3d55176d	0.052024294
80	0xbc4556f1	-0.012044654
81	0x3d04ae38	0.03239271
82	0x3e5dd0e1	0.21661712
83	0x3e0b39e0	0.13596296
84	0xbd8670eb	-0.06564506
85	0xbd679b4a	-0.05654458
86	0xbdcfe01a	-0.10150166
87	0x3db6ecba	0.08931871
88	0xbd3087d2	-0.04309828
89	0xbbbb94ba	-0.0057245167
90	0xbdcbe339	-0.09955449
91	0xbc8ad59d	-0.016947562
92	0xbe113b93	-0.14182882
93	0x3dedd9b6	0.11613791
94	0x3d9ef822	0.07762171
95	0x3e6adefb	0.22936623
96	0xbd4d23fb	-0.05008314
97	0x3d9a713e	0.075411305
98	0x3e656059	0.22400035
99	0x3d26b39c	0.040698633
100	0xb9d591ed	-0.0004073525
101	0xbe2e9065	-0.1704727
102	0xbd919398	-0.071082294
103	0x3d15d0db	0.036576133
104	0xbc8432fd	-0.016137594
105	0xbdb15637	-0.08659022
106	0x3e13a527	0.1441847
107	0xbcd7b6a6	-0.02633221
108	0x3eb71245	0.35756126
109	0x3ba791c5	0.0051138126
110	0x3d6cbdd6	0.05779823
111	0xbdba19c0	-0.09086943
112	0x3d0d821c	0.03454791
113	0x3d806746	0.06269698
114	0xbe04cd4a	-0.12968937
115	0x3dcd3858	0.10020512
116	0x3d2694e5	0.04066934
117	0x3c86afb0	0.016441196
118	0x3c7bb745	0.015363519
119	0xbe1a5863	-0.1507278
120	0xbda9c4da	-0.082894996
121	0x3c137fc1	0.009002627
122	0x3cacd4aa	0.0210975
123	0xbc319c80	-0.010840535
124	0x3d96d37f	0.073645584
125	0x3c7b8906	0.015352493
126	0xbdbe7347	-0.09299331
127	0x3e0b0609	0.13576521
128	0xbd8eaea1	-0.069669016
129	0xbd53754e	-0.051625542
130	0xbd8106c2	-0.06300117
131	0xbe4c8641	-0.19973089
132	0x3d70e13e	0.058808558
133	0xbe502099	-0.20324935
134	0xbc48da99	-0.012259149
135	0x3dff03b3	0.124518774
136	0xbea6f9b9	-0.32612398
137	0xbcf5f2eb	-0.030023059
138	0x3e0f8e8e	0.14019224
139	0xbb22cd3a	-0.0024841563
140	0x3c7e0aac	0.015505474
141	0xbdb94e70	-0.09048164
142	0x3c364f96	0.011127373
143	0xbdb24f1c	-0.08706495
144	0xbdc8d374	-0.098059565
145	0xbda4056a	-0.08008845
146	0xbe9cfdef	-0.30662486
147	0xbc853973	-0.016262745
148	0xbe21e4ca	-0.15809932
149	0xbe5127a0	-0.20425272
150	0xbd9177a5	-0.071028985
151	0xbe023c7e	-0.12718388
152	0x3e94f471	0.29092744
153	0x3dca9b58	0.09892911
154	0xbe0ba1e3	-0.13635974
155	0x3d769c4c	0.06020765
156	0xbd91de71	-0.071225055
157	0x3b92224b	0.0044596544
158	0x3e04640a	0.12928787
159	0x3e374ced	0.17900439
160	0xbdbd706d	-0.09249959
161	0x3e5ff46e	0.21870586
162	0xbcd0f4ae	-0.025507297
163	0x3cfdb7e5	0.030971477
164	0x3ca3c2af	0.019990293
165	0xbe52b792	-0.20577839
166	0x3d4d7ee3	0.050169837
167	0xbded073e	-0.11573647
168	0xbd3a2ca7	-0.04545274
169	0xbe23c116	-0.15991625
170	0xbe4df97b	-0.201147
171	0xbcbb0e06	-0.022833835
172	0x3d9c7c8c	0.07640943
173	0xbdb2f75f	-0.087385885
174	0xbe3d09c5	-0.18460758
175	0xbd220d00	-0.03956318
176	0xbe467acc	-0.19382781
177	0x3e0a15fa	0.13484946
178	0xbb110371	-0.0022127295
179	0x3cb58a78	0.022160754
180	0xbdcfe365	-0.10150794
181	0xbbbaf03c	-0.0057049077
182	0x3d2f608d	0.042816687
183	0x3bbc825f	0.005752846
184	0xbd2e4c14	-0.042553023
185	0xbd960289	-0.07324702
186	0xbd4dbb84	-0.050227657
187	0xbe761e9b	-0.24035113
188	0x3d39a6c7	0.045325067
189	0xbe3fd66b	-0.18734138
190	0xbe0c0c69	-0.13676609
191	0xbdb076c1	-0.086164005
192	0x3e22f5b8	0.15914047
193	0xbe0ddf85	-0.13854797
194	0x3bf40ddf	0.0074479426
195	0xbdda912c	-0.106722206
196	0xbe233aa4	-0.15940338
197	0x3da71fc0	0.08160353
198	0xbde6ac69	-0.112633534
199	0x3dd2bad5	0.10289542
200	0xbc69b096	-0.014263293
201	0xbc6faad9	-0.014628136
202	0x3ca27840	0.01983273
203	0x3c2c1aa9	0.010504403
204	0x3cd7a299	0.02632265
205	0x3da10cf2	0.07863797
206	0xbdc9bc60	-0.09850383
207	0x3e5d73ea	0.21626249
208	0x3d6f139d	0.058368314
209	0xbdc0f614	-0.09421936
210	0xbe381d86	-0.17980012
211	0x3d1f7ec5	0.038939256
212	0x3e4f84da	0.20265523
213	0xbde5feda	-0.1123025
214	0x3d92f6de	0.071759924
215	0x3d81ea42	0.06343509
216	0x3ca4d621	0.020121636
217	0x3dc8c8fe	0.09803961
218	0xbd3831f2	-0.044969507
219	0xbd56c450	-0.052433312
220	0x3da99f07	0.08282285
221	0xbe191dd0	-0.14952779
222	0xbe118a92	-0.14213017
223	0x3d8be0c1	0.06829978
224	0x3d759965	0.05996074
225	0x3da73312	0.08164038
226	0x3cde7df3	0.027159667
227	0xbe05bf62	-0.13061288
228	0xbb875c36	-0.0041308654
229	0xbd7b157a	-0.06129978
230	0xbe502d1e	-0.20329711
231	0xbde4dba7	-0.11174708
232	0x3da84c8c	0.08217725
233	0x3d30a06b	0.043121736
234	0xbe3ebe80	-0.18627357
235	0xbd0b8971	-0.03406662
236	0xbd9bd34e	-0.076086625
237	0xbe8cef56	-0.2752635
238	0x3db2ffc5	0.087401904
239	0x3d2b3650	0.041799843
240	0xbdb9a56a	-0.09064753
241	0x3d702192	0.058625765
242	0x3cd6ea65	0.026234815
243	0x3cd210c1	0.025642755
244	0xbccbf889	-0.024898784
245	0xbd43bd97	-0.04778823
246	0x3bceacc1	0.006307215
247	0x3dc4b630	0.09605062
248	0xbcb692a7	-0.022286726
249	0x3e01967e	0.12655064
250	0x3d5fe007	0.05465701
251	0x3c02d159	0.007984483
252	0x3d0ceb63	0.03440417
253	0xbd04d78c	-0.032432124
254	0xbc1658ee	-0.009176476
255	0x3d1658b7	0.0367057

bias f4 [128]
0	0x3f22c247	0.63577694
1	0x3e629c36	0.22129902
2	0x3e615de9	0.2200848
3	0x3f30226c	0.68802524
4	0x3f6e758e	0.93148124
5	0x3f0487fa	0.51769984
6	0x3ec23478	0.37930655
7	0x3efd128c	0.49428213
8	0x3eb20905	0.34772506
9	0x3da9c2d6	0.08289115
10	0x3d8b05f3	0.06788244
11	0x3e2d5aeb	0.16929214
12	0x3f649dfa	0.89303553
13	0x3f2c3e59	0.67282635
14	0x3f4d8084	0.80274224
15	0x3f19aa3f	0.600254
16	0x3ef92f90	0.486691
17	0x3f7055af	0.9388074
18	0x3f5a1e0d	0.85202104
19	0x3f3e67f2	0.7437736
20	0x3eea528f	0.45766112
21	0x3f310996	0.6915525
22	0x3e219dae	0.15782806
23	0x3e628e5b	0.22124617
24	0x3b19a49a	0.0023444057
25	0x3f4bd3fc	0.7962034
26	0x3f115c1d	0.5678118
27	0x3f19e168	0.6010957
28	0x3f621f3a	0.883289
29	0x3f1bda55	0.60880023
30	0x3f66f466	0.9021667
31	0x3f553a0e	0.8329171
32	0x3e8171e1	0.25282195
33	0x3e8fca09	0.28083828
34	0x3f24cec3	0.64377993
35	0x3d6fff11	0.05859286
36	0x3ecaea4e	0.39631885
37	0x3f74b387	0.95586437
38	0x3f414836	0.7550081
39	0x3ecf892f	0.4053435
40	0x3de66769	0.11250193
41	0x3ec23b53	0.37935886
42	0x3e9ee2f9	0.3103254
43	0xbd12a35a	-0.035800315
44	0x3f2d0b40	0.6759529
45	0x3f746533	0.9546692
46	0x3e258c07	0.16166697
47	0x3dcacfe0	0.0990293
48	0x3ec65a70	0.38740873
49	0x3ecd3a4c	0.4008354
50	0x3f4d3c8d	0.8017052
51	0x3ef710d8	0.48255038
52	0x3c331746	0.010930842
53	0x3e640d86	0.22270784
54	0x3f35b50d	0.70979387
55	0x3eb22ea4	0.3480121
56	0x3ed770e3	0.42078313
57	0x3f4d4603	0.80184954
58	0x3ef0547f	0.46939465
59	0xbbc8f011	-0.006132134
60	0x3eebf0a2	0.46082026
61	0x3f51accc	0.8190429
62	0x3ef81e33	0.4846054
63	0x3cbb8d93	0.022894656
64	0x3dbb8595	0.09156338
65	0xbd178d0e	-0.036999755
66	0x3f2c91d6	0.6741003
67	0x3e47c928	0.19510329
68	0x3f1cc6da	0.61240923
69	0x3f89ec5e	1.0775259
70	0x3f3291e9	0.6975389
71	0xbcffa999	-0.0312088
72	0x3f5e1d11	0.867631
73	0x3f0bf74d	0.54674226
74	0x3e1039db	0.1408457
75	0x3f226fcc	0.6345184
76	0x3dc0f10d	0.09420977
77	0x3f5b4b8a	0.8566214
78	0x3f5f8195	0.873071
79	0x3f53ba51	0.8270617
80	0x3e98cd98	0.29844356
81	0x3f19e698	0.60117483
82	0x3f5fcc32	0.8742095
83	0x3f7f71bd	0.99782926
84	0x3d39e89c	0.04538785
85	0x3f29824d	0.6621445
86	0x3e1eb7f2	0.15499857
87	0x3f3138f4	0.6922753
88	0x3f7d6baa	0.9899241
89	0x3ebfdf73	0.37475166
90	0x3c2866e2	0.010278435
91	0x3ec8be38	0.39207625
92	0x3f521f61	0.8207913
93	0x3e2c99a8	0.1685549
94	0x3f1be491	0.6089564
95	0x3ea9680e	0.330872
96	0x3f6901bc	0.9101827
97	0x3e5b8da6	0.21440753
98	0x3f81448a	1.0099041
99	0x3f4158e2	0.7552625
100	0x3f4ff360	0.81230736
101	0x3f7a8d71	0.9787207
102	0x3f4b2bff	0.7936401
103	0x3d9a1bf0	0.0752486
104	0x3f1fb258	0.62381506
105	0x3f11fa83	0.57022876
106	0x3e7a7111	0.24457194
107	0x3f1d2775	0.6138833
108	0x3f02c739	0.5108524
109	0x3f5a3900	0.85243225
110	0x3f05d408	0.5227666
111	0x3f71dc97	0.9447722
112	0x3cd60a60	0.026127994
113	0x3ee5b66d	0.44865742
114	0x3f6e1048	0.92993593
115	0x3efb7cbc	0.49118602
116	0x3f34d20f	0.70633024
117	0x3ea4e741	0.32207683
118	0x3e02678d	0.12734814
119	0x3e7b8b82	0.24564937
120	0x3f4155ec	0.7552173
121	0x3ee0fb5f	0.4394178
122	0x3f3f9cce	0.7484864
123	0x3ed33e8d	0.4125866
124	0x3f63348f	0.88752073
125	0x3f4085ef	0.75204366
126	0x3d112bf2	0.0354423
127	0x3f66ce5c	0.9015863

weight f4 [5, 128]
0	0x3df203cd	0.11817131
1	0xbda985b4	-0.08277455
2	0xbcceb3ea	-0.025232274
3	0x3d43d333	0.047808837
4	0xbd52afb2	-0.051437087
5	0xbe07b283	-0.1325169
6	0xbcc8731c	-0.02446895
7	0x3da7f3aa	0.08200772
8	0x3c817dd4	0.01580707
9	0x3daf294a	0.08552797
10	0x3db1150a	0.08646591
11	0xbe209b95	-0.1568435
12	0x3da95866	0.08268814
13	0x3de3d9d7	0.11125534
14	0x3d06fd5e	0.032956474
15	0x3d144a99	0.036203954
16	0x3ddd6699	0.108105846
17	0xbc0c0044	-0.008544985
18	0xbe7b0a0e	-0.24515554
19	0xb8e47cea	-0.00010895154
20	0x3e1603dc	0.1464991
21	0x3d0f5f16	0.03500279
22	0xbe3ff935	-0.18747409
23	0xbe0bce3c	-0.13652891
24	0xbdc48f0d	-0.09597597
25	0x3e0550f1	0.13019158
26	0xbe6f36b4	-0.23360711
27	0xbe3aec36	-0.1825417
28	0x3e226b53	0.15861253
29	0xbe9ad2c7	-0.30238935
30	0x3e1a9de9	0.150993
31	0x3d83926e	0.064244136
32	0x3dfe62b6	0.12421171
33	0x3e1e810c	0.15478915
34	0x3e32f7c4	0.17477328
35	0xbc925bed	-0.0178661
36	0xbdef6f02	-0.11691095
37	0x3df9ada1	0.1219132
38	0xbc8fd2d5	-0.017556587
39	0xbde6b786	-0.11265473
40	0xbd875f51	-0.06609977
41	0x3d764436	0.060123645
42	0xbd9d90b1	-0.07693613
43	0xbdc5492e	-0.096330985
44	0x3d6b9d94	0.057523325
45	0x3ca23399	0.019799994
46	0x3e02949a	0.12752
47	0x3c8fa417	0.017534299
48	0xbcc94046	-0.02456678
49	0x3e27a1df	0.16370343
50	0x3e30bc3c	0.17259306
51	0x3e6fd5c1	0.23421384
52	0xbd30b648	-0.043142587
53	0x3b997f1b	0.0046843416
54	0xbc64bfe0	-0.013961762
55	0xbe06b6f7	-0.13155733
56	0x3e14bc99	0.1452507
57	0xbd10e6b5	-0.03537627
58	0xbd76b7e9	-0.060233984
59	0xbd995393	-0.07486644
60	0x3e71f605	0.23629005
61	0x3eaf64b9	0.34256533
62	0x3cee2762	0.029071514
63	0xbd2d214e	-0.04226809
64	0xbc272403	-0.010201457
65	0xbe51a7c6	-0.20474157
66	0x3c1691d3	0.009190041
67	0xbdac4afc	-0.0841274
68	0xba9693b7	-0.0011488114
69	0x3df48d4c	0.11941013
70	0xbd84d1ba	-0.06485315
71	0x3cc67156	0.024223965
72	0x3d8fb4fc	0.07016942
73	0x3da04068	0.078247845
74	0x3e7dfd25	0.24803598
75	0x3e3e7374	0.1859873
76	0xbd86c669	-0.065808125
77	0xbe0b1df5	-0.13585646
78	0x3c3c36b3	0.011487651
79	0x3dab5f02	0.08367731
80	0x3cb03868	0.021511272
81	0x3d110377	0.035403695
82	0x3a0231e6	0.0004966542
83	0x3e83c6f5	0.2573773
84	0xbde3cefe	-0.11123465
85	0xbd4ea75d	-0.05045258
86	0xbde0306a	-0.10946734
87	0x3d014e87	0.03156903
88	0x3da3e1f0	0.080020785
89	0x3d9759ee	0.073901996
90	0xbd190413	-0.0373574
91	0x3ebd5491	0.36978582
92	0xbcc38b6c	-0.023870192
93	0x3e0b380a	0.13595596
94	0x3da233b2	0.07920016
95	0x3d9f457d	0.07776926
96	0x3e2360f9	0.15954961
97	0xba95f3ce	-0.0011440457
98	0x3d05a52d	0.032628227
99	0xbe15aa36	-0.14615712
100	0x3e494ff5	0.19659407
101	0xbe1363bd	-0.14393516
102	0x3de882d2	0.11353077
103	0x3edf0365	0.43557277
104	0x3e09c97e	0.1345577
105	0x3e6f35af	0.23360322
106	0x3e1a809e	0.15088126
107	0xbe35ce6e	-0.17754528
108	0xbd912992	-0.07088007
109	0xbc9552b8	-0.01822792
110	0x3ea4bae2	0.3217383
111	0x3e4cd061	0.20001365
112	0x3ca31ad9	0.019910263
113	0x3d74808f	0.059692916
114	0xbde2386f	-0.1104592
115	0x3e143f31	0.1447723
116	0xbe1c683f	-0.15274142
117	0x3c44e2db	0.012016977
118	0x3ccef8f8	0.025265202
119	0xbea2d342	-0.31801802
120	0x3d806e67	0.062710576
121	0x3e192cb2	0.14958456
122	0xbf0fc52c	-0.56160235
123	0x3e0e4a4a	0.13895527
124	0xbe1d465d	-0.15358873
125	0x3e4d2b8b	0.20036142
126	0xbd2806e5	-0.0410222
127	0xbea55c15	-0.32296816
128	0x3d8f66ed	0.070020534
129	0xbdb0b0f4	-0.08627501
130	0x3d1bb0dc	0.038010463
131	0xbe189fef	-0.1490476
132	0x3d07e9b5	0.033181865
133	0xbddd309f	-0.10800289
134	0xbd63bee0	-0.055601954
135	0x3cd2c85b	0.025730303
136	0x3e0e1feb	0.13879363
137	0x3e553fc4	0.20825106
138	0x3e3e4752	0.18581894
139	0xbe1a0d44	-0.15044123
140	0xbe2dc789	-0.16970648
141	0x3de009ef	0.10939395
142	0x3dc734ff	0.09726905
143	0xbbe211a7	-0.006899077
144	0x3d191416	0.03737267
145	0x3d919522	0.07108523
146	0xbeecabce	-0.46224827
147	0xbdd8ab82	-0.105795875
148	0xbd4906a8	-0.049078614
149	0x3dd17ac0	0.10228491
150	0xbd8356e9	-0.06413061
151	0xbdb7d577	-0.08976262
152	0xbdce1f58	-0.10064572
153	0x3b246c6d	0.002508904
154	0xbe21545b	-0.15754835
155	0x3e081876	0.13290581
156	0xbbabb796	-0.005240391
157	0xbe8e6cac	-0.27817285
158	0xbab5418b	-0.0013828737
159	0x3e8558ff	0.2604446
160	0x3e8d2c57	0.2757289
161	0x3cf04da7	0.029333903
162	0xbe4106f2	-0.18850306
163	0xbd45ccb0	-0.04829091
164	0xbda89356	-0.08231227
165	0xbc860a5f	-0.016362367
166	0x3e084c47	0.13310347
167	0x3e1984e1	0.14992096
168	0x3de24a97	0.11049383
169	0xbd373f97	-0.04473838
170	0x3d9c9f01	0.07647515
171	0x3c6266b9	0.013818436
172	0x3ead5801	0.33856204
173	0x3e2e16db	0.17000906
174	0x3d50331e	0.05083
175	0xbe0d9f8b	-0.13830392
176	0xbda37761	-0.07981754
177	0x3e0f38d6	0.13986525
178	0x3ab41540	0.0013739243
179	0x3e049106	0.12945947
180	0xbe7bbfe7	-0.24584924
181	0x3e4c4de8	0.19951594
182	0xbc94a7b5	-0.018146375
183	0xbddceb2d	-0.10787044
184	0x3e786d67	0.24260484
185	0x3d706183	0.058686744
186	0x3de2373e	0.11045693
187	0x3dec3fd0	0.11535609
188	0x3cb46218	0.022019431
189	0xbd7909fc	-0.060800537
190	0x3e188c6b	0.14897315
191	0xbd104dc4	-0.035230413
192	0xbb1b6135	-0.0023709063
193	0xbd1bb669	-0.038015757
194	0xbb128092	-0.0022354466
195	0xbd087f52	-0.033324547
196	0x3d872181	0.06598187
197	0x3e46e05d	0.19421525
198	0xbe66da19	-0.22544135
199	0xbe774aeb	-0.24149673
200	0x3df1b666	0.11802368
201	0x3e375ea7	0.17907201
202	0xbdf4b97c	-0.11949441
203	0x3cb507c8	0.022098437
204	0x3e5103c8	0.20411599
205	0xbd76aa9c	-0.0602213
206	0x39cd631e	0.00039174495
207	0x3dc69596	0.096965
208	0xbd589ca4	-0.05288376
209	0x3dfc626f	0.12323462
210	0x3e8048f9	0.25055674
211	0x3e3ba3e7	0.18324243
212	0x3c8c4f83	0.017127758
213	0xbd125ce9	-0.035733137
214	0xbc8be974	-0.017079093
215	0x3d96b244	0.0735822
216	0x3e4aaa41	0.19791509
217	0xbe788274	-0.24268514
218	0xbe20a645	-0.15688427
219	0x3dbbf134	0.09176865
220	0x3cea44bc	0.028597228
221	0x3db7de9b	0.089780055
222	0x3e086cf5	0.13322814
223	0x3dc9928b	0.09842404
224	0xbd0a3fa4	-0.0337521
225	0x3e801f4f	0.25023887
226	0x3e213ab2	0.15745047
227	0x3ded4ce4	0.11586931
228	0x3e11f522	0.14253667
229	0xbdd810ce	-0.1055008
230	0x3ebc39d4	0.3676287
231	0x3e155cf1	0.14586236
232	0x3e47647a	0.19471923
233	0x3c42f7d8	0.011899911
234	0x3dbeeadc	0.093221396
235	0xbd9ff1cb	-0.0780979
236	0xbd17049a	-0.036869623
237	0x3e97a817	0.2962043
238	0xbe2125b8	-0.15737045
239	0x3e2c8b71	0.16850068
240	0x3dfae9cc	0.122516245
241	0x3d2381c4	0.039918676
242	0xbdc964ab	-0.09833654
243	0x3e34a357	0.17640434
244	0x3d2905af	0.041265186
245	0x3c86115e	0.016365703
246	0x3e16e7c2	0.14736846
247	0xbdffe467	-0.12494736
248	0x3da97d9d	0.08275912
249	0x3e2f8269	0.17139591
250	0xbf12496f	-0.571433
251	0x3c86d449	0.016458647
252	0x3e40b380	0.18818474
253	0x3e6a4d05	0.22880943
254	0x3dd08cd9	0.101831146
255	0x3d38501d	0.044998277

bias f4 [5]
0	0x3ed338c4	0.41254246
1	0x3f84f81a	1.0388215
2	0x3f34ea27	0.7066979
3	0x3e5c4711	0.21511485
4	0x3eda7f3c	0.42675197
