DQN Formation Control/dqn_2.pt (torch, 206575 bytes, 10 tensors)

weight f4 [128, 2]
00000000: 26d5 c63d 24e1 66bd 322a 793c a8ca b6be
00000010: c559 c53d d526 7dbd f4ca 273d 063d 723d
00000020: 0da2 093e fa86 eebd 3405 d03d 58fd a9bd
00000030: e6d6 893d 181d 9bbd 3546 1abe 99c2 e73c
00000040: 2512 c33d 30ec 49bb d410 eb3d 52d1 ccbd
00000050: bb63 b43d dc14 78bd daf2 cb3e a670 403e
00000060: 99ee ad3d 4409 02bd c903 ffbd 50f7 5c3c
00000070: 794f bbbd d25c 4bbb c332 ebbd 6101 1b3e
00000080: ca98 50be 4a5b 393e a8a9 6abc 0d5d cebd
00000090: f550 6fbe 1a9e e73d 2f70 b83e d799 26bd
000000a0: da87 8abd 91d5 063e ef8d f93d 1316 04bd
000000b0: 9844 733e f381 3b3e 2f66 bebd ffb8 ea3c
000000c0: 5cc3 983e ad69 733d 4971 62bd 5f71 ae3e
000000d0: a0f5 ec3d 837e e53c 05d5 293e ca11 36bd
000000e0: 8479 043e 587f bfbd c755 e53d 4830 1b3c
000000f0: bcfe 1c3e 78c6 08be aaa0 cb3e 4227 ce3b
00000100: ba12 73bd 304a ab3d c613 ef3d fa82 d0bd
00000110: d13e 1e3e 1087 bdbd a740 5c3d 4a15 b2bd
00000120: 5b19 c43c 7f6e 17bf 35ed d2bc 2ce2 d23c
00000130: 16c6 823d 0488 91bd 0036 f43d 4d2d ce3c
00000140: 43aa b53d 9e94 b2bd df9c b43e f29e 993d
00000150: 2ff5 af3b c9b1 34bf f3e9 163e 3d97 dbbd
00000160: 755c 263d baa3 1e3c 7005 003e 4b76 dabd
00000170: e08e 543e 9413 383d 83fc 3bbc 71f0 34bd
00000180: 583f d33e 3fe7 bf3d 104b 093e 95a9 bfbd
00000190: 6630 9bbd 9258 dabe aeb8 e53d 3658 b2bd
000001a0: 987c c73d 2c53 2d3e 81e4 8e3d 4228 003c
000001b0: f5cd 26bc afea 863e 2b64 413e 1498 2fbd
000001c0: e878 d13d d99a 78bd e0a0 243c 0af9 8e3d
000001d0: 820b 0b3e 8325 f1bd 6af3 ef3d 42f2 d5bd
000001e0: b2f8 7e3e 9b80 b5bc ed64 983d e8b4 7ebd
000001f0: 6a8a fbbc 2ab8 2cbf 948f 593d cdb5 f6bc
00000200: 1e36 013e 7b51 88be 4815 ed3d 2c93 80bd
00000210: 021b 9d3d a90a 47bd bae4 353e 48ff acbd
00000220: 004a e23d 89df a1bd bca0 643e f5b2 cc3d
00000230: 452f f03d 78b0 86bd e97a 303d 0465 713e
00000240: 166c 043e d7b5 a7bd 7dbe 1a3d d43f 063d
00000250: 77f7 97bc 2b24 3fbf e18e ac3d 599f 73bd
00000260: 4086 523d 3f75 bbbe 9831 6a3e 8d5a d6bd
00000270: 958c 093e 5dd9 c7bd 653e cb3d 1f06 923c
00000280: 7a18 eb3d 8816 4cbe 8a24 b33d 220f 93bd
00000290: 5c88 033e e66b b4bd fc51 d03d e840 6cbd
000002a0: 333d 043b fb26 0d3c 1019 5dbe 1172 313c
000002b0: c623 7c3d e181 45bd c9fc d03d 40e6 b9bd
000002c0: 2e53 243d 4b84 0bbf 7447 b7bd c898 983e
000002d0: 71c6 043e d17c b7bd bc42 be3d 05ef 4fbd
000002e0: cc13 ae3d b8ba 0038 2acc c83d b5de 35bd
000002f0: 240f 67bd 25f0 5c3d 67c4 d23e e9bc a4bd
00000300: d9f7 ad3e 88a8 c63c 8a59 293e 02d0 10be
00000310: 4d56 b23e 3fa0 593d 0b15 c93d 3e1c 923d
00000320: 5e4f 3a3b 07b2 c53d 8732 c53d 3095 493d
00000330: 5629 073e 2e67 44bc 5b36 a23d 7272 fabe
00000340: 4d8e ec3e 6133 c83d f8fa d43d eecc 96bd
00000350: 51a1 813e 678b 60bd a00f ab3d 7695 57bd
00000360: c21c d93d 785b 96bd 37da f93d 9856 d3bd
00000370: d982 f93d b48e 26be f59c 2b3e 7758 17be
00000380: 8f9c 0ebe 2a4f 05bf 3458 08be 0f7a 223e
00000390: 3209 083e b82b cdbd 6b50 673e 3007 09bd
000003a0: 2469 b23d 0359 d93d 3cad eabd e070 12bf
000003b0: 7d77 5abd 3e08 633d 6e88 cd3d dc3a dabc
000003c0: b155 a83d 01cf b3bc c53e 063e a355 0e3d
000003d0: f05e 093d 2b50 82ba cad2 673d 8638 2ebd
000003e0: 6aa3 813d 476f 15bd ffdd 1d3e c3f9 8ebd
000003f0: 5643 b23d 4504 86bd d582 563d 31cc c6bc
0.097086236 -0.056367055 0.015207814 -0.3570149 0.09636263 -0.06180461 0.040965036 0.059140228
0.13440724 -0.116468385 0.101572424 -0.083002746 0.06730442 -0.075739086 -0.15065844 0.028291034
0.09524945 -0.0030810945 0.11477819 -0.10000862 0.088080846 -0.060566768 0.3983372 0.18792972
0.084927745 -0.031747118 -0.12451894 0.013486698 -0.091460176 -0.0031030667 -0.114842914 0.15137245
-0.20370784 0.1810123 -0.014322676 -0.10076342 -0.23370726 0.11309452 0.3602309 -0.040674057
-0.06764193 0.13167407 0.12185275 -0.032247614 0.23756635 0.1831129 -0.09296834 0.028652666
0.29836547 0.059426952 -0.05528382 0.3407087 0.11570287 0.028014427 0.16585167 -0.04445056
0.1293698 -0.09350461 0.11198001 0.00947196 0.15331548 -0.1335696 0.39771014 0.006291301
-0.05934403 0.083637595 0.11673693 -0.10181232 0.1545365 -0.09254277 0.053772595 -0.08695467
0.023937872 -0.5915298 -0.025747875 0.025742613 0.06385438 -0.07106021 0.11924362 0.025168085
0.088703655 -0.08719753 0.35275933 0.075010195 0.0053698043 -0.7058378 0.14737682 -0.10722206
0.040615518 0.00968259 0.12502074 -0.10667094 0.20757627 0.044940546 -0.011473778 -0.044174615
0.41259265 0.093702786 0.1340754 -0.09358517 -0.07577591 -0.426457 0.112168655 -0.08708231
0.09740561 0.16926259 0.069771774 0.007822098 -0.01018094 0.26350924 0.18885867 -0.042869642
0.10228139 -0.06069455 0.010048121 0.06981094 0.13578609 -0.11774733 0.117163494 -0.10446598
0.24899557 -0.02215605 0.07441125 -0.062184244 -0.03070565 -0.6746851 0.053115442 -0.030115986
0.126183 -0.26624665 0.11576325 -0.06278071 0.07671167 -0.04859415 0.17763034 -0.084471285
0.11049271 -0.07903964 0.2232694 0.09995071 0.11727766 -0.065766275 0.043085966 0.2357369
0.12931857 -0.0818898 0.03777932 0.032775715 -0.018550618 -0.7466456 0.084256895 -0.059478138
0.051397562 -0.3661289 0.22870481 -0.1046649 0.13432534 -0.09758256 0.0992401 0.017825184
0.11479278 -0.1993047 0.08747204 -0.07180621 0.12844986 -0.088096425 0.10171887 -0.057679087
0.002017808 0.008615251 -0.21591592 0.010830418 0.061557554 -0.048219565 0.10204465 -0.0907712
0.04011839 -0.5449874 -0.089491755 0.29804063 0.12966324 -0.08959354 0.09290072 -0.050765056
0.0849987 3.0691474e-05 0.09804566 -0.044401843 -0.056410924 0.053939957 0.41165468 -0.08043844
0.33978155 0.024250284 0.16538063 -0.14141849 0.34831467 0.05313134 0.09818467 0.07134293
0.0028428654 0.09653097 0.09628778 0.049214542 0.13199362 -0.011987491 0.07920524 -0.4891544
0.46202317 0.09775425 0.10399431 -0.07363306 0.25318387 -0.054820444 0.083525896 -0.05263277
0.10601188 -0.07341665 0.12199824 -0.10319251 0.1218316 -0.16265374 0.16759093 -0.1477984
-0.1392691 -0.5207392 -0.13314897 0.15866874 0.13284758 -0.10018104 0.22589271 -0.03345412
0.0871146 0.10612681 -0.11458823 -0.57203484 -0.05333661 0.055427782 0.100357875 -0.026639394
0.08219469 -0.021949293 0.13109882 0.03474964 0.033537805 -0.0009942105 0.05659751 -0.042534374
0.06329997 -0.036483075 0.15416716 -0.06981232 0.087042496 -0.06543783 0.052370865 -0.024267288

bias f4 [128]
00000000: 2108 b43e 2922 4e3f 58f1 d23e 5973 ba3e
00000010: 8d0c 583f b775 173f ed8f 2c3e e9d1 2b3f
00000020: 03a7 1f3f 200f d13c ef9c d63e d75a 443f
00000030: 150f c73e c6e7 a2bc 0ce9 3f3e dc7f 4abc
00000040: 65fa e03e 2eab fd3d fec8 223f 0595 133f
00000050: 5cf2 ad3e e7fd 423f 017d c73d cbf7 c63d
00000060: 610e 9ebd b290 d93e 43f8 3d3f a169 813f
00000070: b5b3 523f 83bf 393f 9b66 753f 8828 ba3e
00000080: 04f1 373f 2e08 3b3f dd1c 253f 4219 373f
00000090: c71f 163e 2f49 0f3f 60a7 1a3f d633 513f
000000a0: e400 5e3f e02c 8c3d a9c3 c93e ddfd 6f3f
000000b0: 9e98 06be 4e87 443f 9e0c 4f3f 0d0a 3fbe
000000c0: 25e6 0dbe 9565 4b3f a4b9 bc3e 3c59 323f
000000d0: f4d4 683f 3cee 323f c67f 023f 487c 6f3c
000000e0: 532d da3e d510 ee3e a089 553f 646a 403f
000000f0: d5f6 e23d d83c 433e 2111 3f3d 7c0d 993d
00000100: b878 563f 1991 d63e 2b3b 023f 8ae9 5f3e
00000110: 2212 333f 9114 04be e53d 4e3f 06e7 3f3f
00000120: d0e6 0b3f 2e6f ce3e ecf5 e9bc e556 6b3e
00000130: fd90 393e 39e2 2f3f ea1c 5b3f 0da4 293f
00000140: 80d6 df3b 89a2 013f de02 2b3e bd51 ef3e
00000150: 8634 033f a533 b83e 8b16 bd3d 4ec9 283f
00000160: 1b75 0a3e 2a20 b33d e44c 0f3e cb1b ab3e
00000170: b1cd 383f 4f78 903e a33a bd3e ffa7 4f3f
00000180: 3c22 613f 93c0 853f 08dd f8bb 560e 373f
00000190: e0a1 1c3f 9c7a 293f ae61 583f 81d1 3c3f
000001a0: fba9 cd3d 6c69 223f 08c6 8fbd c0e4 583e
000001b0: bc9c 1e3f cef6 423f cfc6 2e3f 625d 873f
000001c0: bd87 1d3e 2874 ba3e c8e9 cc3d 11bc 9d3e
000001d0: c655 3e3f a98d 3b3e 5d01 03be 2633 233f
000001e0: 42eb 08bd af73 e73e 442a b63e fb90 4d3e
000001f0: 5a92 9e3e 1493 203e f4cf 2d3f 106f 4e3d
0.35162452 0.80520874 0.41199756 0.36416128 0.8439415 0.59163994 0.16851778 0.6711717
0.62364215 0.025519907 0.41916606 0.7670111 0.38878694 -0.019885909 0.18741244 -0.012359586
0.43941036 0.123861656 0.6358794 0.5764926 0.33973968 0.76168674 0.097406395 0.097152315
-0.07717586 0.42493206 0.7420694 1.011036 0.8230546 0.7255785 0.9585969 0.36359048
0.71852136 0.73059356 0.64497167 0.71522915 0.1466056 0.55971044 0.60411644 0.8171972
0.8672011 0.06844497 0.3940709 0.9374674 -0.13144156 0.7676896 0.8087863 -0.18656178
-0.13857324 0.79451877 0.36860383 0.6966741 0.9094994 0.69894767 0.50976217 0.014617033
0.42612705 0.46497217 0.83413124 0.7516234 0.11082236 0.19066179 0.046647195 0.07473275
0.8377795 0.41907576 0.50871533 0.21866432 0.69949543 -0.1289847 0.80563194 0.7496189
0.54649067 0.40319198 -0.028559648 0.22982366 0.18121715 0.68704563 0.85590994 0.66265947
0.0068309903 0.50638634 0.16700312 0.4674205 0.5125202 0.35976902 0.09232815 0.65932167
0.13521235 0.08746369 0.13994175 0.33419642 0.7218886 0.28216788 0.369588 0.81115717
0.8794286 1.0449394 -0.0075947084 0.7150625 0.611845 0.6620271 0.8452405 0.7375718
0.10042187 0.6344211 -0.07020193 0.21181011 0.6195791 0.76157844 0.6827211 1.0575373
0.15383811 0.36416745 0.10005528 0.30807546 0.7434963 0.18315758 -0.12793489 0.6374992
-0.033427484 0.45205447 0.3557912 0.20074837 0.30971032 0.15681106 0.67895436 0.050398886

weight f4 [128, 128]
00000000: b989 76bc b110 1ebc 09ce 893d 43f0 f2bc
00000010: 7b86 6bbd 86b2 903d a9b7 863d 152d a4bc
00000020: 95a9 35be 62b9 783d b10b 903d 1c0e 46be
00000030: b376 d0bc d4e3 c5bd c25b 64be c26a a7bd
00000040: a786 12be d10d b33d 559a f33d fc7a bbbd
00000050: 53a0 293c e4c9 d13c 97be 0cbe a143 2a3d
00000060: 4e5d 463d 423d 42be bb31 103e 1caa 83be
00000070: bf1c 133c 1760 02bd ffae cbbc fed2 b63d
00000080: 5b39 833d 4959 85bd d08b 193e afaa 4cbe
00000090: ebf0 bb3d 22b6 c43c 211a a43d ef03 f03c
000000a0: a6c7 9cbd 7788 023e 0955 963b 8ae8 6d3c
000000b0: 5257 60bd b90c 023d 3193 49bb 60dd a5bd
000000c0: ce4c 1dbe 045b 27bd bf72 2abd 7951 d13d
000000d0: 27f0 813d 7d04 77bd 4da2 d03c 7b7d b13c
000000e0: 1fb8 abbb 46ae 7ebc 74ef 573d 5a0e e4bd
000000f0: 34d2 1b3d a599 e1bb 64f2 ebbd 6ddd b33d
00000100: 5605 833c 2715 79bd 5eb9 18be 8d7d 0a3d
00000110: 709c b73d 1e7e af3d 7f71 02be 3cad cabd
00000120: c775 0abd 5ac0 bfbc ea83 c3bd 6e8f 47bc
00000130: 63cd 20be 00d2 373d b630 8ebd 2a16 c6bd
00000140: 246b 99bd 64fc 6ebd 5475 2bbe 0e99 bcbd
00000150: 203b c4bc 9f9f ccbd 698f cb3d 1c48 853a
00000160: 7578 ec3d e20e 933c 04a0 cabd d8a2 9e3c
00000170: 5dc0 a6bd 5ed6 9dbd c9db d4bc 3e83 773d
00000180: d877 67bd 66e9 003d 3875 e63d f4e3 b93d
00000190: 7ddc 4bbe ad45 0e3b e748 d9bd bc0d a63d
000001a0: 5ac0 883d 9aca 203e 6221 8dbc 7c2c 2c3e
000001b0: 6283 b03d 6914 06bb 9ae6 1d3c 4b5d d33c
000001c0: 8dd3 60bd fa5c 683d ab6e 31bd a474 46be
000001d0: 6ce4 1a3e c1bc 04be 612b e33d 9779 fe3b
000001e0: 856b 36bd 6d7e 66bd 8af4 b53c 3f0d 083d
000001f0: d14a b1bd fff1 0d3e ae43 0bbb 1dd0 febd
00000200: bc70 173d af6a 853d c5c2 16be 6752 bfbc
00000210: d90f 5fbd 1b0b bb3c c6e4 87bd 2e89 143c
00000220: d84b 2e3e 7b72 99bd b29e 8c3c bb19 f9bd
00000230: f387 473d d922 293d 4287 513d d759 76bd
00000240: 9d4e b8bc f51e 963c b8c7 0fbe c8fe b5bc
00000250: 52e1 4ebd 86af acbd 1943 873d 8a8e 90bd
00000260: f952 d73d a523 6c3d 45d7 fdbd 6271 0ebe
00000270: 8f53 163e d110 15bd 21f1 053d 445b 903d
00000280: c27f 1e3d da92 e5bd aee5 e5bd 824e 933d
00000290: 6029 2cbb f6fc e7bd cb7a 0c3e d5cf 36be
000002a0: 4b11 50be 8418 3bbe 8d23 4e3d 3ca6 82bd
000002b0: 127d f53d 492a 273d 5d81 143d f85e 153a
000002c0: 2acf cabc 3fc8 5abc f4b9 33be efa4 9dbd
000002d0: 8c93 b93c 09de 11bc b964 7e3c e4f2 c93c
000002e0: 4110 e9bd dd75 5bbd 032a b0bd 7a9d a73d
000002f0: 68a1 813d 9a15 50bd 94a6 5cbc f5e0 9a3b
00000300: f83a c43d a4f5 023d 6851 d03d 4b81 413e
00000310: 8718 18bd c17f 3abd 25f3 b6bd ad94 003e
00000320: cf85 91bd d882 c63b 57a8 f5bc 8087 16be
00000330: 3653 b43d f801 4c3d 1c0a dbbd 3e10 b9bd
00000340: 59ee e53d 6894 d63c 0108 abbc 4eeb 30bb
00000350: 6e0f cdb9 3ab6 823d 9374 26bd 281d 5e3c
00000360: 6e9c de3d e461 b8bd bddf c5b9 97dd 16be
00000370: 1a5c 3fbe f5ea acbc b413 a4bc 0465 c9bb
00000380: 7ddc cebb a532 d7bc ae54 24be ec64 f13b
00000390: 6fb3 a4bd 5df4 813d b4fc 0ebd 685f 863c
000003a0: e14d a1bd 40a8 9b3d b954 093c 76ca 9e3d
000003b0: 73a2 af3d ee0a e73d 45a2 9f3d 9145 1e3e
000003c0: d51c a3bd 5210 c73d c68c c93c 1beb 623d
000003d0: ca42 7a3d a5c1 693c b1c6 263d dce5 ebbc
000003e0: 51c2 e0bd 1b40 fbbd b542 20bd f1d6 bcbd
000003f0: a7ef 343e d888 2e3e c7d9 28be ee9c ac3a
-0.015047484 -0.009647534 0.06728751 -0.029655581 -0.057501297 0.07065301 0.06577999 -0.020041028
-0.17740472 0.06072367 0.0703348 -0.1934132 -0.025447225 -0.096625954 -0.22300628 -0.08174659
-0.14309178 0.0874287 0.11894671 -0.09154317 0.010353166 0.025608964 -0.1374458 0.041568402
0.048428826 -0.1896868 0.1408147 -0.2571572 0.008979022 -0.03182992 -0.024863718 0.08926962
0.06407424 -0.065111704 0.1499474 -0.19986986 0.09176811 0.024012629 0.08012796 0.02929875
-0.076552674 0.1274737 0.0045877737 0.014520774 -0.054770775 0.031750415 -0.00307579 -0.080988646
-0.1536133 -0.040858284 -0.041613337 0.10220618 0.063446335 -0.060307015 0.025468016 0.021666279
-0.005240455 -0.01554448 0.052718595 -0.1113555 0.038042262 -0.006884771 -0.11520842 0.08782468
0.015993755 -0.060811188 -0.14914462 0.03381114 0.08965385 0.08568977 -0.12738608 -0.09896323
-0.033803727 -0.02340715 -0.09546645 -0.012180192 -0.15703349 0.044878006 -0.069428846 -0.09672196
-0.074911386 -0.058346167 -0.16743976 -0.0920888 -0.023953974 -0.09991383 0.09939463 0.0010168585
0.11546413 0.017951433 -0.09893802 0.01936476 -0.08142159 -0.07706903 -0.025983708 0.060427897
-0.056510776 0.031472586 0.112528265 0.09076682 -0.19908328 0.002170901 -0.10609608 0.081080884
0.06677313 0.15702286 -0.017227832 0.16813844 0.08618809 -0.0020458943 0.009637499 0.025801321
-0.05488925 0.056729294 -0.04331843 -0.19380432 0.15126199 -0.12962629 0.11092258 0.0077659595
-0.044536132 -0.056272913 0.022211332 0.033215757 -0.08656848 0.13861845 -0.0021250057 -0.12442038
0.036972746 0.06514489 -0.14722736 -0.023354722 -0.054458473 0.022832444 -0.06635432 0.009065909
0.1702112 -0.074925385 0.017165516 -0.12163111 0.048713636 0.041293 0.051154383 -0.06014427
-0.022498423 0.018325308 -0.1404103 -0.022216216 -0.05050785 -0.08431916 0.06604595 -0.07058437
0.10513873 0.05765118 -0.12394575 -0.1391044 0.14680313 -0.03639299 0.03270066 0.070486575
0.038696058 -0.1120965 -0.112254485 0.071927086 -0.0026269779 -0.11327545 0.13718717 -0.17852719
-0.20319097 -0.1827107 0.050326873 -0.06379363 0.11986746 0.04081181 0.036256183 0.00056980504
-0.024756987 -0.013353406 -0.17551404 -0.07697474 0.022653364 -0.008903035 0.015526944 0.024651952
-0.11380053 -0.0535792 -0.08601763 0.08184333 0.06329614 -0.05080185 -0.01346745 0.004726524
0.0958156 0.031972542 0.10171777 0.18896978 -0.037132766 -0.045531992 -0.08933095 0.12556715
-0.071056 0.0060580783 -0.029987497 -0.14700127 0.08804934 0.049806565 -0.106952876 -0.09036301
0.11227102 0.026193812 -0.02087784 -0.0026995721 -0.00039112143 0.06382413 -0.040638518 0.013556756
0.1086968 -0.09003046 -0.00037741466 -0.14732967 -0.18687478 -0.02110813 -0.020028926 -0.006146075
-0.0063129053 -0.026269266 -0.16047928 0.007366767 -0.08042037 0.06345437 -0.034908965 0.016402915
-0.07876182 0.076004505 0.008382016 0.0775346 0.085759066 0.112813815 0.07794622 0.15456225
-0.07964484 0.0971991 0.024603259 0.055399995 0.06109885 0.01426736 0.04071683 -0.028796129
-0.10974563 -0.122680865 -0.039126117 -0.09220684 0.17669545 0.17044389 -0.16489325 0.0013169327

bias f4 [128]
00000000: 28bd dd3e 21b8 273e 18d2 a83d ca2b 3a3f
00000010: 52f5 0c3f 350b a63e 3947 cc3e 2538 443f
00000020: 7369 6c3f be7b 183f 8df5 613e bb68 5fbc
00000030: f216 333f 2be2 1b3f 0694 4a3f fa8b 073f
00000040: eb90 6b3f 78cd c33c 96f3 753f 481a 013f
00000050: 1482 d53e 722b d03e c9ba 173d ea3b 163f
00000060: d8f3 633f 4f59 1b3f 5ab2 8b3e 2300 003f
00000070: a924 703e 3c5a 1e3e e08e f63c 034d 163f
00000080: 7e28 993e e58a 1c3f 3377 7cbb e9ed 163f
00000090: 6a3c 9e3c 7e10 f8bc 4792 1f3f 3b02 763f
000000a0: ca7f 483f 59fe a13e f9cc 843f 1b6b 733f
000000b0: 9bfe 253e b458 fc3d c4ee 763f 4ad0 9c3e
000000c0: e1a7 663f 34f7 4c3f 72f7 3e3f fab3 073e
000000d0: 78b0 c03d 8cdb 8f3b 8529 e73e e5c3 ea3c
000000e0: 8cfb 703f a822 743f e98d a23e b2f0 3a3f
000000f0: 1232 dc3e bcab 753e 6191 073f a7b4 d63e
00000100: 37f2 083d 3d21 7b3e 65d8 793f 4a81 2b3f
00000110: 2952 283f b0fc 103f 80af 013e 6145 483e
00000120: b554 913d a701 583f d691 e73e bad5 3a3f
00000130: a42f 073f 5504 2c3f c812 7d3e 0747 953e
00000140: 95bb a53e f7b8 273e a3e3 ce3d 6aba 003f
00000150: 654d 0c3f 6548 833d d0f8 0ebd 0041 653b
00000160: 7a97 3e3e dcfe dd3e b7ac aa3d 4b9e c53e
00000170: 5aea 263d 0c64 163f a17b ddbc 3943 243f
00000180: a2f0 993d 0b45 953c 25da 513f 86a9 583f
00000190: 31c6 453e bcf8 353e be59 f43e 264e 943e
000001a0: 30ae 523f aade 2c3f ef25 d33d bc1e 423f
000001b0: 1168 a63c 3e93 af3e 45d0 243f e5e5 0d3f
000001c0: b666 833f c6d0 523f 33ee 733f f9d9 623f
000001d0: 3e42 e03e 8aeb 4c3f 13ed 053f b29b 923e
000001e0: 9071 013f 7528 6f3f b425 5b3f 4bfb 273f
000001f0: 6679 233e 77c4 393f 03e4 213f 4a11 113f
0.43308377 0.16378833 0.08243197 0.72723067 0.5506183 0.32430425 0.3989809 0.7664817
0.923484 0.59563816 0.22066326 -0.0136358095 0.69956887 0.6089198 0.79132116 0.5294796
0.92018 0.023901686 0.9607481 0.50430727 0.41700804 0.40658146 0.037043367 0.5868517
0.8904395 0.6068315 0.2728451 0.5000021 0.23451485 0.15464109 0.030097425 0.5871126
0.29913706 0.61149436 -0.0038523197 0.5895677 0.019315917 -0.030281302 0.62332577 0.96097153
0.7831999 0.31639364 1.0375053 0.95085305 0.16210406 0.12321606 0.9645808 0.30627662
0.9009991 0.800647 0.7459632 0.1325225 0.09408659 0.0043901857 0.45148864 0.028657863
0.9413383 0.9536538 0.31748894 0.7302352 0.4300695 0.23991293 0.52956206 0.41934702
0.03343412 0.24524398 0.97595817 0.66994154 0.65750366 0.5663557 0.12664604 0.19557716
0.07096235 0.8437752 0.45228451 0.7298237 0.5280707 0.6719411 0.24714196 0.29155752
0.32369676 0.16379152 0.10102012 0.50284445 0.54805595 0.064102925 -0.034905255 0.003498137
0.18612471 0.43358505 0.08333724 0.3859733 0.04075084 0.5874641 -0.02703649 0.64165074
0.075166 0.018221399 0.8197349 0.8463367 0.19313885 0.17770666 0.47724718 0.28965873
0.8229704 0.6752726 0.1030997 0.75828147 0.020313295 0.34292024 0.64380294 0.55428916
1.026572 0.82349813 0.9528534 0.8861385 0.4380054 0.80046904 0.5231487 0.2863441
0.5056391 0.9342111 0.85604405 0.6561782 0.15964279 0.72565407 0.63238543 0.56667006

weight f4 [128, 128]
00000000: e669 fc3d fcc5 803d 84a8 473e 5e22 2bbe
00000010: 2073 db3d df6c e53c 0848 a73d c560 1fbe
00000020: a856 d03d bc85 b5bd 0f98 513e 72dd 53bc
00000030: 1d87 cebb 5b24 52be 3857 00be e483 09bd
00000040: 23bd 463b 4a9c 21bd 413c 893d e417 23bd
00000050: 6ccd 4b3e ec4f 09bd af6d af3d 9f3b 1f3d
00000060: 9354 b8bd d490 213c 6096 edbc 7269 863d
00000070: 3132 813b efaf 41be e476 d13c d40a 26bd
00000080: 689b 10bd fa8e 5cbe 1ac8 68bd 5047 e73c
00000090: 7e71 6cbc fae3 01be b7fe 13be f789 7bbd
000000a0: 534e 61be eb05 6d3c dd03 13bd bab7 323b
000000b0: 5da1 8d3c d4fd 083c 10f1 babb 1306 98bd
000000c0: 558d b83c 8efd 2ebd 5b23 b8bd d984 90bd
000000d0: 60a1 80bd 3cec 00bd 0a51 babd 2293 003e
000000e0: c7dd c5bd 6864 82bd c2dd 09be 061c 9abe
000000f0: 20d3 803d 8e61 1e3e d707 0bbe 7031 34bb
00000100: 4359 85bc 78d0 b8bd 65aa 233e 3293 febd
00000110: 8c1f a23d 8204 0f3e ae9f ddbc ab09 873d
00000120: f932 093d 48bd 7fbd e486 7c3e 973d e0bd
00000130: 3c5f 38bd e842 143e a145 813c 0926 823c
00000140: 2a4a 78bc 5b20 4d3c e22f 91be 5800 75bd
00000150: 6711 0e3e 0bf7 a03c f237 cfbd 1933 dcbd
00000160: 912c 88bd b76a 88bd 412f d6be e5d4 013b
00000170: 068f 923a a2af 223e 65ad 99bd 7adb f4bd
00000180: cb12 3abd 5675 273e 5aa2 09bd 94bb a2bd
00000190: 2224 14bd d3cc c9bd 55de 06bd cd55 c63c
000001a0: d400 c2bd 334e 3d3d 8d04 a53d 6082 c93b
000001b0: 7789 eebe bbaa 273c f068 c2bd 4e57 25be
000001c0: bbf0 393d 5295 17be 8942 96bd 5b52 f6be
000001d0: 36c2 4b3e 6d98 003e d10e 65be a19a 553d
000001e0: d7e8 53bc dca7 b6bd 4d13 a6bd cc65 eebd
000001f0: 285b 773e bfb2 563e 6744 07be 40ab cebd
00000200: eb2b d43d 8dcd 443d 9a19 a5bd 0f68 c43a
00000210: aa26 f8bc c6d2 24bc 0afd bf3a 7b49 0eba
00000220: 28ae 7bbe 522d 6e3d b1bf 74bd afef 5ebd
00000230: fa80 23bc 3385 b6bd 0172 6bbd 9142 f3bd
00000240: 44a2 04bd 73bc 113e 0523 cdbc bc4a 933d
00000250: bdcf adbd 6c8c 1f3e e394 c43d 5934 19bd
00000260: ffd4 383d 16f8 49be 7551 d73b eb66 453b
00000270: 88ec 0fbe aa9a 9abd f16e 9e3d 1245 c83b
00000280: 6306 aebd c325 d4bd 57c2 9a3c 488d b5bd
00000290: d06c 9e3d de2a 87bd 2634 3cbe 9f71 bebd
000002a0: 5a27 3dbd 738a 0e3d 5d13 fa3c 4151 0ebd
000002b0: 5c19 28be afc6 6d3d 05a3 c8bc 5f38 30bd
000002c0: 9824 4e3e 84f6 e4bd 0605 88be 3cf1 01be
000002d0: 3e29 a3bb 08e1 78bd 8953 5cbe 5761 9bbd
000002e0: db3c febd 574e 39bd e067 acbc 7914 efbc
000002f0: f0f2 6bbc 15fa 98bd 9518 983d b792 c03d
00000300: ef26 9bbd 80cb 98bd 5ef3 1bbe 30a0 f13c
00000310: be4f e03d 1b58 9fbd 6eb5 0f3c e021 2cbd
00000320: 1a21 01bd 6031 d33d 988a aabc a772 e5bc
00000330: c111 df3d 092b 1c3e 16a5 ebbc 9bb0 db3d
00000340: 1be7 9b3d a361 943c a5dd 633d c58c e13d
00000350: 70dc b93b 8413 1ebe a1f2 68bc cf24 16be
00000360: d50f 323e 8e25 65bd 1240 593c b615 b4bd
00000370: e6f9 013d 034a 683d 7fd3 13bc 445f e8bb
00000380: fecb c5bb c8ae 193e 5280 9a3d a370 0bbe
00000390: 6764 a3bc 5d21 103d bdf3 a4bd 1ce1 c03c
000003a0: ff88 e43c 728b e53d 7667 02be 49b8 7d3d
000003b0: 79aa c93b 2f2c 373c b705 143d 72cf 31be
000003c0: 50e0 6f3d 8ffb a63d ea96 fa3b aaee 1c3d
000003d0: 72a4 10bd 46b5 71bd 8681 76bd a537 293e
000003e0: e390 8abd 2938 5cbd 1133 11be feec 9bbd
000003f0: 31db 33be cc9d a5bc ebe9 eebc 6803 f1bc
0.12324886 0.062877625 0.19497877 -0.16712329 0.10715318 0.028006015 0.08168036 -0.15564258
0.10172778 -0.088633984 0.20468162 -0.012931215 -0.006302728 -0.20521681 -0.12533271 -0.033573046
0.0030325137 -0.03945569 0.06700946 -0.039817706 0.19902581 -0.033523485 0.08565842 0.03887522
-0.09000506 0.00986119 -0.029002368 0.06563081 0.003942751 -0.1891477 0.025569387 -0.04053767
-0.035304457 -0.21538916 -0.056831457 0.028232247 -0.0144313555 -0.12684622 -0.14452635 -0.06141087
-0.22002535 0.014466743 -0.035892356 0.0027270154 0.017288858 0.008361299 -0.0057050064 -0.074230336
0.02252833 -0.042722277 -0.089911185 -0.07056589 -0.0628078 -0.03147529 -0.09097488 0.12556127
-0.09661441 -0.06366807 -0.134635 -0.30099505 0.06290269 0.15466902 -0.1357721 -0.0027495287
-0.016277915 -0.09024137 0.15982969 -0.12430419 0.07916173 0.13966563 -0.02705368 0.06593641
0.033495877 -0.062436372 0.24660832 -0.10949247 -0.045012698 0.14478648 0.015780272 0.015887277
-0.015154401 0.012519921 -0.28356844 -0.05981478 0.13873826 0.01964905 -0.101180926 -0.107519336
-0.06649125 -0.06660979 -0.41832927 0.0019810733 0.001118154 0.15887311 -0.075037755 -0.11955924
-0.04542808 0.16353354 -0.033602096 -0.07945934 -0.03616727 -0.0985352 -0.032926876 0.024210835
-0.09472814 0.046217155 0.080575086 0.006149575 -0.46589252 0.010233576 -0.094926715 -0.16146585
0.045395594 -0.14803055 -0.07336909 -0.48109707 0.19898304 0.12558146 -0.22368933 0.05214942
-0.012933931 -0.089187354 -0.0810915 -0.1164051 0.24155867 0.20966624 -0.13209687 -0.10091257
0.10359939 0.04804759 -0.08061524 0.0014984625 -0.030291874 -0.010060018 0.0014647555 -0.00054278196
-0.24578154 0.05814869 -0.059753124 -0.0544278 -0.009979481 -0.089121245 -0.05748177 -0.11877931
-0.03238131 0.14232044 -0.025041113 0.07191989 -0.084868886 0.1558091 0.095987104 -0.03740344
0.045125004 -0.19723544 0.0065709897 0.0030121158 -0.14055073 -0.07549031 0.07736004 0.0061117494
-0.08497312 -0.10358765 0.018891497 -0.08864838 0.07735598 -0.06599973 -0.18379268 -0.09299015
-0.046180107 0.034800004 0.030526811 -0.03474546 -0.16415924 0.058050808 -0.024491796 -0.04302251
0.20131147 -0.111798316 -0.26566333 -0.1268968 -0.0049792817 -0.06076148 -0.21516241 -0.075869255
-0.12413951 -0.045240726 -0.021045625 -0.029184567 -0.0144011825 -0.07469574 0.07426564 0.09402984
-0.07575785 -0.074606895 -0.15229556 0.029495329 0.109527096 -0.07780477 0.008771284 -0.042024493
-0.03152571 0.10312152 -0.02081804 -0.028008772 0.10892058 0.15250792 -0.028765243 0.10727044
0.07612439 0.018112963 0.0556313 0.11013178 0.00567203 -0.15437132 -0.0142180035 -0.14662479
0.17388852 -0.055944018 0.013259904 -0.087932035 0.031732462 0.056711208 -0.009022593 -0.0070914347
-0.0060362807 0.1500808 0.075440064 -0.13617186 -0.019945337 0.035188068 -0.08054302 0.02354484
0.027897356 0.11208238 -0.1273478 0.061943326 0.006154355 0.011179968 0.036138263 -0.1736429
0.05856353 0.0815345 0.007647385 0.038313545 -0.035313077 -0.059010766 -0.060182117 0.16525133
-0.06765916 -0.053764496 -0.14179637 -0.07613562 -0.17564084 -0.020216845 -0.029164275 -0.02942057

bias f4 [128]
00000000: bbd2 2a3f d41e aa3d 411a 2d3f b22e 1f3f
00000010: 6765 d13e fc8e 5a3f 8a7d 593f ddaf bd3e
00000020: 7f57 063e ba23 6d3f ef29 303f b25f 2d3e
00000030: 8cc7 103f 5d6f ba3d 7cba 263f d631 283e
00000040: 69a8 2b3f 5489 313f 6091 6a3f 200d 0d3f
00000050: f114 fb3e 01d7 543d 9190 003f c10c 133f
00000060: 0c7b f73d 5e94 313f e1c7 553e 93ac 4b3f
00000070: 3ad5 263e 2e2b 633e 69c4 193f f087 1f3f
00000080: 4e8d ec3e d0e2 833f b255 563f 9ecb 273e
00000090: 7161 263e 3a3e 103f 4fd7 4f3e 39bc 883f
000000a0: f450 ca3e e77e 873f fbba 493d 6c6b 823e
000000b0: c179 fd3e 3fe2 913d ba5b 483f ecfd c03d
000000c0: 15c6 783f d862 763f d16a 423f 0784 d1bc
000000d0: bb2a 713f 6b77 e83e 9945 563f 8fc4 2c3f
000000e0: 5277 1f3f 59c9 2f3f 54c8 fa3e 4705 5c3f
000000f0: 3ed6 f63c 353b fb3e 0a21 713d b333 ff3e
00000100: 9445 4f3e 93f4 bd3e 6f97 4f3f 488d bbbb
00000110: 18bf 74bc e7e5 df3e c418 803e 2422 c83e
00000120: 4d0c 883f 5380 1e3f 8f38 87bc 879f 673e
00000130: 38cd 533f bf73 1c3d 4c63 ee3d 77c5 a63e
00000140: 4d56 523f 3929 133f bd47 273f fb1a e33c
00000150: 08d8 823c 88d9 7a3e 4559 5e3f 59a9 ec3e
00000160: 8534 183f 7ba9 293f d390 673e cc62 173f
00000170: 30ba 5c3f 0870 543f f855 6d3e 5f55 8b3f
00000180: 76f8 5a3f 036e 883f 1b9b 6b3f ea3c aa3d
00000190: 516e 80bc fab3 0e3f 3897 043f 8e90 6fbd
000001a0: 4800 973e 4884 db3e b445 f73d 29aa 2f3f
000001b0: 56ab 853e 66d5 be3e 0c2a 763e 0394 303f
000001c0: 4214 2c3e 6d12 0e3f b57e 083f 823a c33e
000001d0: afeb 5d3f cdc9 903e 07f8 a8bd a8e8 813e
000001e0: 597e 443f 00d4 fb3c 8a9f f5bc f0ec 1b3f
000001f0: 1223 f73e 0ede 3e3e 7a76 3d3e 5e55 8c3d
0.667278 0.08306661 0.67618185 0.62180626 0.40897676 0.85374427 0.8495718 0.37048236
0.13119315 0.9263264 0.68813986 0.16931036 0.56554484 0.09103272 0.651283 0.16425261
0.6705385 0.6935017 0.91628075 0.5509815 0.49039415 0.051962856 0.5022059 0.57441336
0.12084016 0.69367015 0.20877029 0.795602 0.16292277 0.2218444 0.60065323 0.623168
0.46201557 1.0303593 0.8372451 0.16386268 0.16248108 0.5634495 0.20296977 1.0682441
0.39514887 1.0585603 0.049250584 0.2547258 0.49506953 0.07123231 0.78264964 0.09423432
0.9717725 0.96244574 0.7594424 -0.02557565 0.94205827 0.4540361 0.8369995 0.67487425
0.62291443 0.6866661 0.48980963 0.8594555 0.030131456 0.4906861 0.0588694 0.4984413
0.20241386 0.37100658 0.81090444 -0.005723629 -0.014938138 0.4373009 0.25018895 0.39088547
1.0628754 0.6191456 -0.016506461 0.22619449 0.82735014 0.03819632 0.11640033 0.3257253
0.82162935 0.57484776 0.6534384 0.027722826 0.015972152 0.24497044 0.86854964 0.46222952
0.5945514 0.6627423 0.2261384 0.5913513 0.862216 0.82983446 0.23177326 1.0885428
0.8553537 1.0658573 0.9203355 0.083124 -0.015677603 0.5574337 0.5179324 -0.058487467
0.29492402 0.4287436 0.12073842 0.6861902 0.2610728 0.37272185 0.24039477 0.6897585
0.16804603 0.55496866 0.5331834 0.38130575 0.8668775 0.28278962 -0.082504325 0.25372815
0.7675529 0.030740738 -0.0299833 0.6090841 0.48268944 0.18639395 0.18502226 0.0685222

weight f4 [128, 128]
00000000: 660c c4bd c384 313d 6b5d 1cbd 9558 7ebb
00000010: 4071 193c 9e36 98bd 289d f8bd 598a 41bb
00000020: bb1d 1fbd 51f7 27be 0d3d 6abe 1335 c83d
00000030: ac73 1abd 5717 543d 9673 0cbc 5eea 95bc
00000040: fccc 563d 6c53 1d3b ef42 bbbd 1afd 07bc
00000050: 195a 0e3c e10b b2bc 5a79 18bd 2c30 aebd
00000060: a6cf f9bc 8727 19be 0e3c b53d fc6e 56be
00000070: 12d6 93bb 3d75 b43d 8e78 093d cde2 45bd
00000080: f42d e6bd cfeb 3ebe 99de 23be 1b22 dfbd
00000090: 77bb 96bd 7e5e e6bc c292 ca3c b74f aabd
000000a0: 649c 023e 7ca6 ccbd 0cdb 92bc 42b2 9f3b
000000b0: 191e 18bd d743 9abd 5b8f 34be b4f7 18be
000000c0: 603a 9fbd 6062 acbd 1071 a33c 8e38 57bd
000000d0: 8762 29be b40b 743c 71d5 96bd a805 45bd
000000e0: 55c0 e1bb a60a 7bbd 4f3c 143b 77cf 413e
000000f0: 9996 5aba 35e4 e1bc f0e5 5f3d 68f2 67bd
00000100: 8178 093b e61e 1ebd c4fd 003c 52d3 ad3d
00000110: 7fd5 be3c 8630 04bd 2636 e0bd f751 a03d
00000120: cd92 cf3c 0277 f03d 8147 ba3d f030 4fbc
00000130: 181a 80bd 600d b1bd eeb6 e9bd 683d 25bd
00000140: 2b26 d53c 7781 85bd cc3f 55bd c7fe 313c
00000150: 1f7b 1abd 9f10 203c 3beb cb3d 6306 673d
00000160: c114 86bd 0dad f73d 8a59 c93c 4016 debc
00000170: b42e 4cbd 4112 293d 105b a2bc 275e 19be
00000180: f136 933d 42c5 2bbb e186 0cbd c334 abbd
00000190: 5677 183b 9e02 bdbd 9792 0ebe 177f aabb
000001a0: aa7d c33d 026f febd 96a0 413c f9de d93d
000001b0: 340f 98bd d396 cabd 3e46 003d da3b 0bbe
000001c0: a15d db3b 45a6 793d 42ef 913d 4bdc b13b
000001d0: 308e 80bd 5ad3 113d c63d c83c 54e5 3fbb
000001e0: b7e0 353d 456d debd 7345 9dbd 7839 5c3d
000001f0: 419c a3bd 255c a33d 49a4 5dbc 910a 993d
00000200: ad59 543e b59c 0c3e c836 5dbe 03a0 86bd
00000210: 95b0 40bc 7109 b1ba e58f 1fbc 2cc1 1cbc
00000220: ba9b 293e add0 b43d d72c 383e 88c6 8abd
00000230: 2a0e 463e 004f a6ba 3e12 4a3d 023e a0bb
00000240: b2c7 84bd 0e9d 593d 28d5 803d de1c dabd
00000250: e876 15be f1cf 19bd 533a 573d 12bf 9c3d
00000260: 6df6 63be 1fbc e73c 1159 983d c5af c8bd
00000270: 0335 ec3d e3e9 5f3d a325 e1bd bb08 b93c
00000280: d1db 203e dcb4 9dbd c3c5 4ebd c462 6b3c
00000290: c801 0ebe ac03 a23a 0e01 2d3d d2dc 2e3e
000002a0: eca0 20bb 0204 733d dd3c 473d c55d 3b3d
000002b0: bb41 233d 167d f93c 70cc 1a3e 91a7 8b3d
000002c0: afcf b2bc 4abd 5cbd 2479 cdbd 4f40 22be
000002d0: f38a 353d 0d7b 463d e63b 5b3e 87e1 a03d
000002e0: 7408 b8bd 3be5 6cbd 1d72 9fbd 01da ba3a
000002f0: b569 16be d661 b33d 4296 e8bb ea9f 573c
00000300: 37d6 13bd 734e 483d 183e e9bd d036 7e3d
00000310: aaa6 af3d 38ad a0bd ffc0 763d 2bb4 8b3e
00000320: 2f94 9e3d 072e ddbc a3bd 02be b1a4 eebd
00000330: 0766 3cbe 976c 25bd 0ee5 0abc e931 413e
00000340: acc2 0e3e 2eac 0b3e a1cb 403e c53b 053c
00000350: f7a3 993e 6844 0fbd 2c2c 883d 03ef 2dbe
00000360: d163 233e 9e84 1a3d 56aa b63d 63dd 793d
00000370: a37f 3b3d e437 3cbe bf85 d13d 4d0d 9e3d
00000380: 719b 80bc 9451 313e e6b1 7abc 9a5c f2bd
00000390: dc2e 06bd f9c1 083e 70ab 103e e5c1 e93d
000003a0: 7597 04be 11cb bdbd 4ef8 0f3d fad1 2fbc
000003b0: de80 e6bd 8761 163e 6f60 443d de25 a53e
000003c0: 2b15 873d be43 833d c341 aabd 97e7 c33d
000003d0: 1ace e53d b2e1 253e 8d5d b33d ff73 d03a
000003e0: eaec 963c 5f53 6bbe 45c4 c0bd c006 05be
000003f0: 4688 763e 7f12 a2bd 7aa8 05be af3d c8bd
-0.09572677 0.043339502 -0.038175028 -0.0038810123 0.00936538 -0.074322924 -0.1213935 -0.0029531925
-0.038846713 -0.16402937 -0.22874852 0.09775748 -0.03770797 0.05178007 -0.00857248 -0.018300232
0.052441582 0.0024006022 -0.09143626 -0.00830009 0.008688473 -0.02173418 -0.037225105 -0.08505282
-0.030494522 -0.14956485 0.08849345 -0.20940775 -0.004511603 0.08811424 0.033562236 -0.048311997
-0.112392336 -0.18644641 -0.16002883 -0.10895177 -0.07359975 -0.02812123 0.024728183 -0.08315986
0.12754971 -0.09992692 -0.017926715 0.004873545 -0.03713808 -0.07532471 -0.17632811 -0.14938241
-0.07774806 -0.08417201 0.019951373 -0.05254417 -0.16541491 0.014895368 -0.073649295 -0.048101097
-0.006889383 -0.061289452 0.0022618955 0.18926798 -0.0008338481 -0.027574638 0.054662645 -0.05662766
0.0020976367 -0.038603686 0.007873002 0.08487572 0.023295162 -0.032272838 -0.10947828 0.078281336
0.025338555 0.11741449 0.090956695 -0.012645945 -0.06254977 -0.08645129 -0.11411844 -0.040341765
0.026019176 -0.06518834 -0.052062795 0.010863966 -0.037715074 0.009769588 0.09956976 0.056402575
-0.06546927 0.12093554 0.024578828 -0.027110219 -0.049849227 0.041277174 -0.019818813 -0.14977323
0.071882136 -0.0026210104 -0.034308318 -0.08359673 0.002326449 -0.09229015 -0.13923107 -0.0052031386
0.09545453 -0.12423517 0.011818072 0.10638232 -0.07424775 -0.09892049 0.03131699 -0.1359705
0.006694511 0.060949583 0.07125713 0.0054278723 -0.0627712 0.03560195 0.024443518 -0.0029280977
0.044403758 -0.10860685 -0.07679262 0.053765744 -0.079887874 0.079765595 -0.013527938 0.074727185
0.20737334 0.13731654 -0.21602929 -0.065734886 -0.01176085 -0.0013506842 -0.009738897 -0.00956754
0.16563311 0.08828864 0.17985855 -0.06776148 0.1934134 -0.0012688339 0.049333803 -0.0048902044
-0.06483401 0.053128295 0.06290656 -0.10650037 -0.1459614 -0.037551824 0.052545857 0.07653631
-0.22261973 0.028287945 0.07438863 -0.097991504 0.11533549 0.05466641 -0.10993507 0.02258717
0.15708853 -0.07700512 -0.05048157 0.014366809 -0.13867867 0.0012360713 0.042237334 0.17076424
-0.002450998 0.059329994 0.048642028 0.045743722 0.039857607 0.030455153 0.15117049 0.0681907
-0.021827547 -0.053891458 -0.10032871 -0.15844844 0.044321965 0.048457194 0.21409568 0.07855516
-0.08985987 -0.0578358 -0.07785437 0.0014255644 -0.14688762 0.08758895 -0.0070979903 0.013160685
-0.036092963 0.04890294 -0.113887966 0.062063992 0.085767105 -0.07845539 0.06024265 0.27285895
0.077431075 -0.026999487 -0.12767653 -0.11652506 -0.18398295 -0.040386762 -0.008477462 0.18866695
0.13941449 0.136399 0.18827678 0.008131926 0.30007908 -0.034977347 0.0664905 -0.16985707
0.15956046 0.03772413 0.08919208 0.061002146 0.04577602 -0.18380696 0.10230588 0.07717381
-0.01569912 0.17316276 -0.015301203 -0.118340686 -0.032759532 0.13355245 0.14127898 0.114139356
-0.12948401 -0.092672475 0.03514891 -0.010731215 -0.11255048 0.14685641 0.04794353 0.32255453
0.06595834 0.06409405 -0.08313324 0.09565657 0.112209514 0.16199377 0.08758078 0.001590371
0.018423516 -0.22981022 -0.094124354 -0.12990856 0.24075422 -0.07913684 -0.1305255 -0.0977739

bias f4 [128]
00000000: f7c4 0a3f 7263 ae3e 2de7 713f 1bd4 3c3f
00000010: 34f9 8b3f e10a b23e e28b 453f 58e1 253f
00000020: aee8 6e3f 6af3 903d f873 ca3e 7c52 aabc
00000030: ff17 323f 971d 803f 72e6 873c b634 6a3f
00000040: 7609 5c3f bbbb 5a3e 70ea f63e ba26 353f
00000050: 0178 343f 8e6d d13e 651a 053f 6a5e 713f
00000060: 912e c83e 6a76 233e ffd5 eb3e c94c 763f
00000070: b988 773f 1710 3e3f c2c9 763f 07e9 103f
00000080: eaf4 763f 0408 8a3e b58d 4e3f c9de 753f
00000090: ab5f bb3e 511b 393f 321f 143f 9f8d 863e
000000a0: 27f8 4a3e 2a83 583e 3322 eb3e 9980 2b3f
000000b0: 8896 d93d 6eb4 453f c951 6b3f bfd4 993e
000000c0: a572 823f 8543 0e3f 6941 853f fed0 5f3f
000000d0: c2e9 103f 81c9 6f3f 1d15 203f 8848 213d
000000e0: 2d07 393f 5813 183e dad5 25bd 47a2 b33e
000000f0: 6a3e 253f a41d 643f 0003 643f c15e 3ebd
00000100: acc9 2f3f 7796 c93e 71af 253f 38ee 103f
00000110: 1ca8 293f 136b 423e 6687 1f3f f7bf 983e
00000120: 76b2 593f cc8f 413f 4392 303f 0476 febc
00000130: 1929 013f 8189 9a3e 90a0 a23d 3f1a 4a3d
00000140: ec27 7a3f 470b 233f a294 b23e e0d1 483f
00000150: d182 333f 6e1d d73d bad8 323f 7d74 2d3f
00000160: 5d9a f43d 9f83 803d 658d 4cbd d67b b53e
00000170: 9da1 033f bb19 943e c9a8 ed3d a83e 093f
00000180: 61ea 1d3f 357c 203f d340 763f 6ddf 3b3f
00000190: fec2 bf3e f848 d03e 9836 cd3e 9aba 023f
000001a0: 8e48 6a3f d331 443e a513 0c3f 7764 2b3f
000001b0: 69df 213f 4394 273f eac1 833f 3cce 453e
000001c0: c626 593f 65b7 fd3e c7d5 dc3e dee4 583f
000001d0: 8065 8e3d 7503 813f fba8 143d 392d 033e
000001e0: 7f87 c53e f1d2 013e eaad 613f 596b 2f3e
000001f0: 105e ba3e dbb0 323f 9d96 993e da9a cb3d
0.54206795 0.34060246 0.9449337 0.7376115 1.0935426 0.34773925 0.7716657 0.6479697
0.9332379 0.070776775 0.39541602 -0.020791285 0.69567865 1.000903 0.016589377 0.9148668
0.85951936 0.21360676 0.48225737 0.7076222 0.7049561 0.40903896 0.519934 0.9428469
0.39098027 0.1596314 0.46061704 0.96210915 0.96693 0.742433 0.9640161 0.5660557
0.9646746 0.2695924 0.8068498 0.9604307 0.36596426 0.72307307 0.578601 0.26279923
0.19821225 0.21143785 0.4592453 0.669931 0.10624415 0.7722844 0.9192167 0.30045125
1.0191237 0.55571777 1.0410587 0.8742827 0.56606686 0.93666846 0.62532216 0.03937581
0.72276574 0.14851129 -0.040487148 0.35084745 0.6454836 0.8910773 0.8906708 -0.046477083
0.686671 0.39372608 0.6472083 0.5661349 0.6627214 0.18986158 0.62315977 0.29833958
0.85037935 0.7561004 0.6897318 -0.031062134 0.50453335 0.30183032 0.07940781 0.049341436
0.97717166 0.6368908 0.34879023 0.78445244 0.70121485 0.1050366 0.6986195 0.6775587
0.11943505 0.06275105 -0.04993953 0.35446042 0.5141848 0.2892588 0.11604459 0.5361123
0.6168576 0.62689525 0.96192664 0.73387796 0.37453455 0.4068067 0.40080714 0.5106598
0.9151696 0.19159631 0.54717475 0.6695017 0.6323152 0.65460604 1.0293553 0.19316953
0.8482479 0.4955398 0.4313185 0.84724224 0.06952953 1.007918 0.036293965 0.1281022
0.38579938 0.12678124 0.88155997 0.17130794 0.3639989 0.6980111 0.2999772 0.09941645

weight f4 [5, 128]
00000000: 4f2b e53c b2c4 2f3e 1e7d 5fbe a6f1 78be
00000010: 9b86 a93d 7cb5 263d 20c4 783e 9f7c 243d
00000020: 9fdf e83d dc27 bf3d 5925 fa3d 6cbf d33d
00000030: 37c9 0d3e 97b5 893e 85c8 d1bc 238f 973b
00000040: 14ed 9e3e 1935 1bbd 492e 793d 5f65 3a3e
00000050: 73d5 2fbe 542f 37bd 4779 963d 9a23 b53d
00000060: f2eb b3bb b8d5 9c3d cd62 8c3d 4854 1a3c
00000070: eb93 b73d 92a2 dfbd 8f51 843d 37ba 82bd
00000080: ab8b 88be 934b 9fbd 1729 4d3e 1d3f 5b3e
00000090: aa89 193d 4ab3 f5bd e480 96be 56d5 ea3c
000000a0: b005 b2bd caf9 bc3c b59e cb3b 4811 b03d
000000b0: 7755 edbc 5fa1 cd3d 0874 933d c465 38be
000000c0: f2c2 103e 8d0a 9b3d e31f c03d 7cde e63d
000000d0: f7b1 e73d 34c2 213d ac33 54be 407f b93d
000000e0: 5439 583d 5e6e 29bd 928e 93be 8044 003e
000000f0: ac3c 9e3b d561 683d 98d5 773d 242a 14be
00000100: 86e5 a4be a128 3dbd f41b db3d ca1a 893d
00000110: 8944 3e3d e26e 9b3d 77ef babe 165a 983d
00000120: 1aa6 61be f4a0 d1bc 4ad0 6fbe 630b 71be
00000130: 48fb efbd 5190 d03b e5da b9bc 7770 4c3d
00000140: c172 5d3e c745 11be f540 bfbd a750 b1be
00000150: 1a18 6ebd da7b c4bd 7878 36be 33b8 9a3d
00000160: e0b5 e83c 9f6c b23d 851f 07be e445 7fbe
00000170: 9b2c 97be ecc0 57be 530a 9fbd 7ef6 94be
00000180: 879c 913d 66fe 013e 5eb8 243e 2714 3c3d
00000190: 6ffb 0e3e fa27 acbd 69dd 933c 0818 ac3e
000001a0: fcb7 babe d1a8 08bc 7cfc 4bbe 0c8a 89bd
000001b0: 396d 35be f7e6 c1bd 69d3 51bd 5496 7a3c
000001c0: de2c 523e 5596 a93d 1a1d 8ebd 6963 0d3e
000001d0: 6cf9 b3bd 7479 923d c05c 403b cf11 bb3d
000001e0: 9638 873c 5b89 6c3d f783 1d3e 9be7 033e
000001f0: 3450 38bd 5148 0e3e db19 d4be 9f84 103d
00000200: 1fec 173d 06db bd3d 2532 5abe 8626 d4bd
00000210: 68a1 843e 8061 fdbd bf8b acbc b43b 7f3d
00000220: d3ab f13d b6cd b53d a6de 943e dcb8 f5bd
00000230: 0b02 e03d 0701 023e 95a5 953d a1e9 bc3d
00000240: 1f3e b23d 98ee 783d 887d 173e 61e0 a63c
00000250: d0d8 31be 3e40 4f3d 77b0 ffbd 9d24 893d
00000260: 6e5b ffbe b3d6 8fbd 7d04 213e 291a 183e
00000270: 5686 1c3e 4d06 7cbe d27c 5c3c a184 fb3d
00000280: 68a3 f8bd 21c8 3c3d b7c0 743b b0b4 a63d
00000290: db7c 85bd da30 26bd e7ca 79bd 8d50 fbbd
000002a0: 53de 8dbd d4fe 0b3d 9ef5 a63c 0429 313e
000002b0: bf59 6fbe 231e 14be e5d8 9e3c b9fe c23b
000002c0: 9319 803d b79c f5bb de0a 1c3e 2f60 9f3d
000002d0: d9c1 d43d d6bc 433d 4b60 aabd 48a0 ad3d
000002e0: 699a b93c 31a4 543d 8e1a 00be b47a 3cbd
000002f0: 9de7 203e 8642 fb38 946a d13d 2de2 c43d
00000300: 7cbb 153e 35da ef3c f11a a7bc 63a3 9c3d
00000310: c8cc 173e b913 54bd 6ff4 38be 78e3 35be
00000320: 07ad 3cbd 45ae da3d 2e73 3c3d 7d99 e73d
00000330: 0e9c 26bd 6097 af3d ca13 8f3c d1d5 d7bc
00000340: 16c1 9ebb 177b a13d cad6 0cbd 90e6 eebe
00000350: 6564 013d 3313 0a3c a80c 54bd 79b3 eebd
00000360: 3b84 e63d b308 93bd 2a5f 1abd 124f 0ebe
00000370: 24a3 a8be a9bf 11be 3214 24be 0583 673d
00000380: aa66 783e 73ff 96bc dea7 933d 3890 2dbc
00000390: b01e 6d3d 601c 3abc c745 2e3c d82d 393d
000003a0: a179 abbe 7dc0 853e e0f7 05be 42ae 8abe
000003b0: f58b 18bb 9231 04be aa58 273e a5c0 f6bd
000003c0: 23af bfbe 5be1 333d b3b3 c7bd 9af1 ab3d
000003d0: 79e0 a8bc 57c4 223d 8780 bc3d c44f b53c
000003e0: 7372 d23d 9b31 20bc 65fa 3c3d f1b7 42bd
000003f0: 9271 b53e 52d6 763e 529b 7cbe 9021 9a3d
0.027974753 0.17164877 -0.21825072 -0.24310932 0.08277627 0.04070042 0.24293566 0.04015791
0.11370777 0.093337744 0.12214155 0.10339245 0.13846289 0.26896355 -0.02560831 0.0046252175
0.3104025 -0.037892435 0.060835157 0.18202733 -0.17171268 -0.04472287 0.073473506 0.08844681
-0.0054907734 0.07657951 0.06854782 0.009419508 0.0896376 -0.1091968 0.064608686 -0.06383174
-0.26669058 -0.077780865 0.20035206 0.21410795 0.037484802 -0.11997087 -0.2939521 0.02866618
-0.08692491 0.023068327 0.0062139877 0.08597046 -0.028971417 0.10040545 0.071998656 -0.1800757
0.14136866 0.07570372 0.09381082 0.11272904 0.11313241 0.039491847 -0.20722836 0.09057474
0.052789047 -0.04136502 -0.2881971 0.1252613 0.00482901 0.056733925 0.060506433 -0.144692
-0.32206362 -0.046181325 0.10698691 0.06694563 0.04645208 0.075895086 -0.36510822 0.074390575
-0.22036019 -0.025589444 -0.234193 -0.235395 -0.1171785 0.00636486 -0.022687385 0.049911942
0.21625806 -0.14186774 -0.093385614 -0.34631845 -0.058128454 -0.09593935 -0.17819393 0.075546645
0.028407037 0.08712124 -0.13195617 -0.24929005 -0.2952622 -0.21069688 -0.07765641 -0.2909431
0.07109933 0.12694702 0.16085956 0.045917656 0.13963102 -0.084060624 0.018049913 0.33612084
-0.36468494 -0.00834103 -0.19920534 -0.067157835 -0.17717446 -0.09467881 -0.051227007 0.01529463
0.20524928 0.08280627 -0.069391444 0.13807453 -0.08787808 0.071520716 0.0029352158 0.09134256
0.016506474 0.05774818 0.15382372 0.12881319 -0.044998363 0.13894774 -0.41425976 0.035282727
0.037090417 0.09270291 -0.21308191 -0.1035891 0.25904393 -0.12372112 -0.02106273 0.062312797
0.11800351 0.08877127 0.29076117 -0.1199815 0.1093789 0.12695704 0.07306973 0.09224249
0.08703255 0.060774416 0.1479398 0.020370664 -0.17367864 0.050598375 -0.1248483 0.066964366
-0.49874443 -0.070233725 0.15724368 0.1485373 0.1528562 -0.24611779 0.013457494 0.12281156
-0.12140542 0.046089295 0.0037346312 0.08139932 -0.06517955 -0.040573932 -0.06098452 -0.12271223
-0.069271706 0.03417857 0.020380791 0.17300802 -0.23374079 -0.14464621 0.019390533 0.0059507755
0.06254878 -0.0074954885 0.1523852 0.077820174 0.10388536 0.04778751 -0.08319148 0.08477837
0.022656636 0.051914398 -0.1251013 -0.046015456 0.15713353 0.000119810036 0.10225406 0.09613452
0.14622301 0.029278854 -0.020398589 0.07648351 0.14824212 -0.05177662 -0.18061994 -0.17762554
-0.04606345 0.106777705 0.04600828 0.113085724 -0.04067617 0.08573794 0.01746549 -0.026347073
-0.004844795 0.07884806 -0.034384526 -0.4666028 0.031589884 0.008427429 -0.051769882 -0.116553254
0.1125569 -0.071793936 -0.03768841 -0.1389735 -0.32936966 -0.14233269 -0.16023329 0.056521434
0.24257913 -0.018432355 0.072097525 -0.010593466 0.057890594 -0.011359304 0.010636753 0.045209736
-0.33491233 0.2612342 -0.13082838 -0.27086073 -0.002327678 -0.12909535 0.16342416 -0.12048463
-0.37438306 0.043916088 -0.09751072 0.08395691 -0.02061485 0.039738026 0.09204202 0.022132762
0.10275736 -0.009777452 0.046137232 -0.0475387 0.3543821 0.24105194 -0.24668625 0.07525933

bias f4 [5]
00000000: fa8a 0d3e 3086 783f 26b2 753f 1dca 1f3f
00000010: 9600 0a3e
0.13822547 0.97079754 0.9597496 0.62417775 0.13476786
