DQN Formation Control/dqn_0.pt (torch, 206575 bytes, 10 tensors)

weight f4 [128, 2]
00000000: 8394 cfbd 314c 193e 5488 22bc 09b5 7dbf
00000010: 2e77 943c 7b5d 57be 503f 323e edd5 99be
00000020: 2bb7 8ebe ff9d 72bc dbd2 df3b 570f 4dbf
00000030: 359b 5dbd c248 babd 6ebc 9abd 4134 0ebe
00000040: 0894 d7bd 20cb 75bc 56a5 2abd ef67 a2bd
00000050: d712 293d 070f 5b3d c486 a7bd 0659 c4bd
00000060: 61f4 78be 7f2a 6a3e 4cd9 193e 7edf aebe
00000070: c58a cd3d 9e31 e23c d2fb d5bb 0f09 8fbd
00000080: a9f6 a4bc 9b8d 4dbe a6b8 6ebd c191 06be
00000090: bd17 13bd 1922 50be 0cdb b5bd 9c27 89be
000000a0: 0584 9cbd 027d fcbe 5524 a6bd ad03 10be
000000b0: 7bc7 44bc a794 843e 8e87 ddbd f417 253d
000000c0: a684 b7be 30fd 803d 057b 413d a25f b23d
000000d0: 1151 303d ae2a 8f3d 4dab 6f3c 639f 063e
000000e0: bb84 9ebd 8e93 d1bc f728 13bd 112c 113e
000000f0: d38f e2bc 0dd1 00be 7673 76be e2e4 b9be
00000100: 96e8 96bd 283f b3bd f6ef 5bbd c9c9 ffbd
00000110: ba36 5cbe bf82 573e 20f3 e7bc 0d6a 10be
00000120: 4c6d 053e d510 87ba de97 88bd 71ee 26be
00000130: ea78 df3d 2afe a33e 396b b9bd 3101 163e
00000140: 4d82 a9bd 46a3 d43d 5196 3ebc 3001 78bc
00000150: 6d2a a3bd 5dd7 1d3e d671 a2be 58a0 1a3e
00000160: e07c 003e 837a 06bf f8be 3fbd e5a5 02be
00000170: 14d8 02be 71be df3d bb7d 97bd 4450 ddbc
00000180: e99a 34be ec29 543e 6cda cfbe ae9c fa3d
00000190: 9b07 5dbd 255c 9fbd c957 5cbd e941 c1bb
000001a0: 0fa6 34be ee25 a43e 89cc 9e3d 76d5 03be
000001b0: d972 0d3e 444a 64be 0342 6cbd 0adc c93e
000001c0: 0611 473e bfa9 07bf 33c2 103d df27 463e
000001d0: 83ac 03be 4c90 ea3e b62a c8bd 95d1 563e
000001e0: e581 a3bd 3ab4 0cbe 5b46 e2bd b519 503d
000001f0: d323 86be 3af3 9c3e 9a97 16be d48d 3fbe
00000200: d62d cabc 9d9c 7839 0da7 663e 6093 c1bd
00000210: 20e1 37be e6b6 4f3e d044 23bd b879 a5bd
00000220: 3087 c23d 9e87 e5be 3548 90bd 5333 6f3a
00000230: 5a82 85bd d820 8ebd 2c13 93bd 073c 2abe
00000240: b81f 523c 5196 93bd df8a b4be 0d94 203e
00000250: d04a 73be a221 853e f732 84bd 42dd 0abe
00000260: c823 aebd e7a6 11be 866f 90bd 598e fcbd
00000270: 4019 6f3c 966d 26be ac67 a8bd 4959 15be
00000280: c31a 67bd 4ab6 6fbc 20ee d5bd 5e93 3abe
00000290: 54fd abbd 664f 42be 2b39 cf3d 0218 50be
000002a0: f483 25be 6093 95be 4ecc 93bd f3e5 f9bb
000002b0: c338 06be 9ada 84be aef3 aabd 60ef 9dbc
000002c0: a70e 3cbd e9d2 d3bd 8dc4 50bd 414a b23e
000002d0: 8183 79bd d0df 0dbf 5611 b43a a61d 20bc
000002e0: 90db b33d 0253 07be b536 97be b480 aebc
000002f0: c898 b03c cbc4 2f3e 63ee 25bf e91d 87be
00000300: 4afb 92bc 0ba3 c0be 1eb2 36bd 1e5b 6dbe
00000310: 73aa 293d b49e 32bf ddde 503e 01a8 abbe
00000320: 4d48 59bc fd36 4dbe 0d16 07bd 3e6d 5fbd
00000330: b86b 03be dedc 26be 4a78 5cbe c4f5 d53d
00000340: f008 683e b924 0e3e 7c87 b0bd e31a 0cbe
00000350: dc16 b4bd 5b00 ae3c 0a1d 9cbd 744f 0ebc
00000360: 0476 9abe d985 1f3e 5c33 8dbd 1e3d f8bd
00000370: 54cf 50bd f1f1 8abc bf7c b7bd cf99 af3d
00000380: 4d20 adbd 2a61 13bd b28a 88bd 6ffb 22be
00000390: e5e8 3b3d cf78 a1be 360b e5bc d3cd 1d3e
000003a0: 915f b53c 4e9d 0bbf 5e63 c4bd 1a3e a1bc
000003b0: 9e4f 55be cc41 a6bd debb 83bd 370b 4fbe
000003c0: 78f9 f33d bad6 dcbc 781d 26be f43d 5b3e
000003d0: dcbf fe3d 463c af3d e45c 0ebe e17e 69be
000003e0: 005f d53d ae92 1b3e 6c87 93bd 0ce9 f4bd
000003f0: a4ca b8bd b5c2 13be da0e a5bb 9d5a 8e3c
-0.10135748 0.14970471 -0.0099201985 -0.9910436 0.018123236 -0.21031754 0.17406964 -0.30046025
-0.2787412 -0.014808177 0.006830556 -0.8010153 -0.054103095 -0.09095909 -0.07555471 -0.13887121
-0.105262816 -0.015002042 -0.041661583 -0.0792998 0.041277733 0.053481128 -0.081800014 -0.095872924
-0.24311973 0.22867773 0.15024298 -0.34154886 0.10036234 0.02761155 -0.0065302635 -0.0698415
-0.020137148 -0.2007355 -0.058281563 -0.13141538 -0.03591131 -0.20325507 -0.088796705 -0.26788032
-0.07642368 -0.49314123 -0.081123985 -0.14063902 -0.0120104505 0.25894663 -0.10816871 0.040306047
-0.3584339 0.06298292 0.04723646 0.08709647 0.04304606 0.069905624 0.014628244 0.13146739
-0.0774016 -0.025583055 -0.03592774 0.14176966 -0.027656471 -0.12579747 -0.24067482 -0.36307436
-0.07368581 -0.087522805 -0.05369564 -0.12489659 -0.21505252 0.2104597 -0.028314173 -0.14102955
0.13029975 -0.0010304699 -0.06669591 -0.16301896 0.109117344 0.3202985 -0.09053654 0.14648892
-0.08276806 0.103827044 -0.011632518 -0.015137002 -0.079670765 0.15414186 -0.31727475 0.15100229
0.12547636 -0.5253069 -0.04681298 -0.12758596 -0.1277774 0.10924996 -0.07397028 -0.027015813
-0.17637219 0.20719117 -0.4059633 0.122369155 -0.05396233 -0.07781247 -0.053794656 -0.0058977497
-0.17641471 0.32060188 0.07753856 -0.12874398 0.13813342 -0.22293955 -0.05768014 0.3942569
0.19440088 -0.52993387 0.035341453 0.19351147 -0.12858777 0.45813215 -0.097737715 0.20978387
-0.0798376 -0.13740626 -0.110485755 0.050805766 -0.26199207 0.30654317 -0.14706269 -0.18706447
-0.02468006 0.00023709466 0.22524662 -0.09451938 -0.17956972 0.20284614 -0.039860547 -0.08079857
0.09498441 -0.4483003 -0.070450224 0.00091247744 -0.06519003 -0.06939858 -0.07181391 -0.16624461
0.012824945 -0.07206405 -0.352622 0.15681477 -0.23759007 0.26002222 -0.06455033 -0.13560966
-0.085029185 -0.14223824 -0.070525214 -0.12331838 0.014593422 -0.16252741 -0.08222899 -0.14584841
-0.056422006 -0.014630863 -0.10445809 -0.18220279 -0.08397928 -0.189756 0.10118326 -0.20321658
-0.16163617 -0.29214 -0.072167024 -0.007626289 -0.1310759 -0.2594803 -0.083472595 -0.019279182
-0.04591241 -0.10342962 -0.050968695 0.34822276 -0.060916428 -0.55419636 0.0013738077 -0.009772694
0.087821126 -0.13215259 -0.29533926 -0.021301605 0.021557227 0.17164914 -0.64816874 -0.26390007
-0.01794209 -0.37624392 -0.04460346 -0.2317929 0.04142232 -0.6977341 0.20397516 -0.33526614
-0.013261867 -0.20040508 -0.032980014 -0.05454754 -0.1283406 -0.16295192 -0.21530262 0.10447267
0.2265966 0.13881196 -0.086195916 -0.13682131 -0.087934226 0.021240404 -0.07622726 -0.008685935
-0.30168164 0.15578403 -0.06894562 -0.12121032 -0.050978974 -0.01696107 -0.0895934 0.085742585
-0.084534265 -0.035981335 -0.06667079 -0.15916227 0.045876402 -0.31537482 -0.027959447 0.15410547
0.022140296 -0.545369 -0.09589265 -0.019682933 -0.20831153 -0.081180185 -0.06432317 -0.20219122
0.11912817 -0.026957858 -0.16222179 0.21410352 0.12438938 0.08556418 -0.13902622 -0.22802307
0.104185104 0.15192673 -0.07203564 -0.11958513 -0.09023026 -0.14429744 -0.005037171 0.017377192

bias f4 [128]
00000000: 830b 0c3f f798 db3e a0b4 1f3f faae 5fbc
00000010: 4713 1a3f 49de 813e 6a4e 7c3e cc77 383f
00000020: 626b 7b3f 858f 443e 91d0 afbd dd6d 553e
00000030: c0fa af3e 3ca6 f83d 1fa2 01be 0f84 223e
00000040: 91cf 613f 35e5 9f3e bd29 9f3d 4c92 ae3e
00000050: 9e1b ac3e 969c 4d3f c654 3c3c 9016 613f
00000060: f10c 383f b4ff 263e 9fe4 a5bd 12f8 6a3e
00000070: 6015 403f d0ad 423e 52ca 883e eb78 483f
00000080: 4426 873f 507c 143f 16da 853e c0a9 0c3f
00000090: dde8 8a3e 0dcd 413f cd0e b33e 89a0 673e
000000a0: a1cb a03e b56b 463e 4b5d c5bd 04c5 9a3e
000000b0: cf04 9a3e fa07 003f 1ef3 5d3f b2b2 413f
000000c0: e529 103e 0bc6 1cbd 30ac ba3e ad57 e73e
000000d0: ad40 503d 7cee d93e ec85 bfbd a937 bb3d
000000e0: cd4a 633e e4c6 083f 489d 223e 6014 fe3d
000000f0: bc7d 4a3f a009 293f 7578 663e f80f 803f
00000100: 97f5 513d 8cf3 df3e 88d6 fd3d 6b70 bb3e
00000110: 86d1 8a3e 2e34 1f3f 6a21 613f 1fad 463f
00000120: b9f7 0e3e f4a7 4f3f b845 5b3e 39ab 173f
00000130: 8f35 543f b4db 223f 87ec 813e 68e5 483f
00000140: 47f2 103f 0ad8 793f 3798 853f 6d37 8cbc
00000150: 5738 cd3e 3be3 293f c382 7e3e ccdf 363e
00000160: 48d0 f93e 9fdd d33e c74f 6b3e ed7a 73bd
00000170: 397a d13d de50 cd3e 6950 c43e dff7 153e
00000180: cab8 473e 09f9 583f 6b48 7c3e 73f3 8e3e
00000190: c63c 2d3f fdea bf3c 432c 5e3f 7515 f03e
000001a0: b247 5abe 0ea8 4d3f db6b 133f efe4 343f
000001b0: 96ff f23e f209 203f b927 013f 253c 183f
000001c0: 8eca 5c3f 49a3 3b3f 12b3 5a3f 9083 0a3f
000001d0: 0b9b 913e 43b9 653f c0d7 023f 16de 6b3f
000001e0: 4681 8d3e bd38 543d ecf0 f43e ada2 c83e
000001f0: 9c76 733e 7b56 283f eeb9 cc3e 8b56 b8bd
0.54705065 0.4289014 0.62384987 -0.0136525575 0.60185665 0.25364903 0.24639288 0.72057796
0.9821073 0.19195373 -0.08584703 0.20842691 0.34370995 0.12141082 -0.126595 0.15870689
0.88207346 0.3122956 0.07771633 0.3409599 0.3361482 0.80317056 0.011494821 0.8792505
0.71894747 0.1630848 -0.08100247 0.22946194 0.75032616 0.19011617 0.26716858 0.78309506
1.0558553 0.58002186 0.2614295 0.5494652 0.27130786 0.7570351 0.3497223 0.22619833
0.31405357 0.19377024 -0.09636935 0.30228436 0.30081794 0.5001217 0.8669909 0.7566329
0.14078481 -0.038274806 0.36459494 0.4518408 0.05084293 0.42564762 -0.093517154 0.09141476
0.22196503 0.53428483 0.1588031 0.1240623 0.79098105 0.6603031 0.22506888 1.0004873
0.051259603 0.437405 0.12394434 0.36609206 0.2711298 0.62188995 0.8794161 0.7760791
0.13961686 0.8111565 0.21413314 0.5924564 0.82894224 0.6361649 0.2537577 0.78475046
0.56619686 0.97595274 1.0437077 -0.017116273 0.40082046 0.6636235 0.24854569 0.17858809
0.48791718 0.4138002 0.22979651 -0.059443403 0.1022839 0.4010076 0.38342598 0.14645337
0.19504085 0.84755 0.24637 0.27920112 0.6767086 0.02342748 0.8678629 0.4689137
-0.21316412 0.80334556 0.5758645 0.70661825 0.47460622 0.62515175 0.50451237 0.59466773
0.86246574 0.7329603 0.8542949 0.54107 0.284386 0.8973581 0.5111046 0.9213575
0.2763769 0.051811922 0.4784006 0.39186612 0.23775715 0.6575696 0.39985603 -0.09000882

weight f4 [128, 128]
00000000: d7ec edbc 8219 01be a6bc 0cbb a268 573d
00000010: 862d cdbc 0a95 91be 3930 00be 0a4b 9fbe
00000020: 4d3f 32be 22a2 013d e587 6a3d 3f2b 67be
00000030: 1733 2f3d 4a14 61bb 00d2 e23d 355d 1e3c
00000040: bcf8 0abe 84ae 7bbe cc3e 10be 1249 2cbb
00000050: f7a4 103e c695 a4be 8f14 3f3e 49b8 87be
00000060: c109 e0bd b744 a63d cdcc ed3d 9749 243d
00000070: 3e78 70bc 8591 a3bb 277c 03bd 6fcd 2bbd
00000080: 57be 93be d19a 86be 9b90 f5bc 13f3 a0be
00000090: 0476 4a3d a01d 81bd ac3a 503e 933a bdbd
000000a0: f29b 2d3b 83ef a83d e016 9fbb eccc a2bd
000000b0: 3b86 7fbd 61ca 45be 0ecd 39be 0af7 04be
000000c0: e3b3 953d c108 73be 513e 85be 9285 803d
000000d0: 2280 84bd 9ab7 9a3d 2b0e ad3d 4e98 573e
000000e0: a36f 943c 5341 053e 4baa 213d d55a 30bd
000000f0: c065 8bbe 86d2 3cbe 1a74 673d 5d40 0cbf
00000100: 2c8d 133e 0fea 973d 0699 ebbc 87e8 e8bd
00000110: 7f97 46be dea7 a1be c384 6dbe 232d 6ebe
00000120: 3bef cd3c fb5c 83be 4935 f13c c7a1 c03c
00000130: 2091 bbbe 9d5c 27be d70b c8bd a273 37be
00000140: 2d7b f4bd 6167 d6bd 3505 3dbe aa54 b1bc
00000150: fcaf 29bd 557c 0abe 8f45 983d 4d41 f73d
00000160: 8f11 71be bc5c 4e3d 09c8 35be 21f7 4a3d
00000170: 6e8e 2e3e d94c 0fbe 47db 0bbe 1b80 0b3d
00000180: 1829 87bb 9bc0 8dbd e45e 7dbe 4aaf a9bd
00000190: ff96 653d 4f2c 2dbc 1cbf 06bf 7e0a bcbe
000001a0: bc37 703e f335 bbbe 989f 603d fa84 d6bd
000001b0: 340c 8dbe f91f aebe 42c3 87bd 0b83 49bd
000001c0: d812 ccbd 9d47 a8be 0303 19be 9df1 b13d
000001d0: 58a7 2cbe ca1a 8bbd 30bf 82bd c027 0cbe
000001e0: a5da fe3c 6aae b1bb df2a 063e c6cf b2bd
000001f0: a1fa 6b3e efb3 6abe 927d 10be 410f c83d
00000200: ffaa 1abe 3912 de3d 1f90 9f3c 3cfd a5bd
00000210: bfe5 213c be03 043e 5963 81bd e7ad 0cbe
00000220: 7111 0bbe fb0e b1bd 35cb cdbc fe50 ebbc
00000230: 21b0 16be 006a 5a3d 7e43 06bd 8397 b3bd
00000240: 1eda a33b d20c 1d3e fa14 0abe c4a8 37bd
00000250: b413 e43d 1cff f2bc 8c73 09be 3ec9 1b3d
00000260: 28e8 69be d8e0 a4be c949 fabd d694 78be
00000270: a8ca bfbd 6e4e 73be f708 403d 5822 143c
00000280: 666e 21bd 0463 db3d 02de 71bd 277d a93d
00000290: e20f 193d 2fab 763d 1e0e 93be 00f2 13bd
000002a0: 2e84 d5bd c74e b0bd 0ab7 553c 3c0d c13c
000002b0: 3683 853b c58a d4bd 4bcb 2dbd 0068 0b3d
000002c0: 2790 fdbd fb9d 11be db24 6dbd 5246 f93d
000002d0: 1a63 0fbe 48ac 87be fd79 f2bd f999 88be
000002e0: 36d6 223e 747f 97be 0b0a 32be 64e8 d7bd
000002f0: 89b4 8f3d e1d3 87bd b185 c0bd 6953 24bc
00000300: d7f7 24be 1597 cbbd 5cd9 85be 197e c3bd
00000310: c231 c93d 2684 8a3c 2fdd dabc 87b4 333d
00000320: 0bbb 1ebe 77fb c4bd 515f 673d cc94 7b3c
00000330: 405c 02bd f9d0 8dbd 32c3 45bd 50b6 fa36
00000340: 006b 23bd 99b8 d83c ef08 6b3d 1f82 48bd
00000350: 4657 043e 9ba1 0cbb 4955 183e bc45 5dbe
00000360: 61cc 763c b4a6 24be 1618 b83d 203a 153e
00000370: e8b3 c8bd 3eef 8e3b 14eb dabd c067 903d
00000380: eb3a 1a3e 4bed d63d 5ce8 d13c 562c 64bd
00000390: b70b 783d 2fe8 913d dba1 dd3d 197e 5f3d
000003a0: 9f2f eebd 3b8f ca3c cfed 05be bd75 2fbd
000003b0: b089 45be 2651 513d b386 03be 5ea8 35be
000003c0: fec7 03be b7b8 ff3d 0478 5a3d ab26 1bbe
000003d0: b920 593d 2478 11be 9538 0ebd d071 12bd
000003e0: 6c0b 703c a593 3c3c 3cfe 4fbe 100b 263e
000003f0: 5a7d 2dbe 705f 01be 5cf0 103d 1798 bfbd
-0.029043598 -0.12607387 -0.0021474748 0.05259002 -0.025046121 -0.2843402 -0.12518395 -0.31111938
-0.1740696 0.031648763 0.057258505 -0.22575091 0.042773332 -0.0034344369 0.110752106 0.009665777
-0.13571447 -0.24578291 -0.14086455 -0.002628867 0.14125429 -0.32145518 0.18660186 -0.26507786
-0.109393604 0.08118575 0.11611328 0.040109243 -0.0146771055 -0.0049917125 -0.032100823 -0.041943964
-0.28856155 -0.2628999 -0.02997618 -0.3143545 0.049428955 -0.06304479 0.20334882 -0.09239688
0.0026490656 0.08248808 -0.004855022 -0.07949242 -0.06238387 -0.19315483 -0.18144628 -0.12984863
0.07309701 -0.23733808 -0.26024106 0.062754765 -0.06469752 0.075545505 0.08449968 0.21054193
0.018119639 0.130132 0.039469045 -0.043055374 -0.27226067 -0.18439683 0.056507207 -0.5478571
0.14409322 0.0741769 -0.02875949 -0.11372476 -0.19393729 -0.31573385 -0.23195176 -0.23259406
0.025138488 -0.25656876 0.029444354 0.023514641 -0.3663416 -0.16343923 -0.09767883 -0.17915204
-0.119375564 -0.10468937 -0.18459018 -0.021646816 -0.041427597 -0.13523991 0.07435142 0.12073002
-0.23541854 0.050381407 -0.17752089 0.049552087 0.1704652 -0.13994159 -0.13657866 0.034057718
-0.004124772 -0.06921502 -0.24743229 -0.08285387 0.056052204 -0.010569646 -0.5263536 -0.36726755
0.23458761 -0.36564597 0.0548397 -0.10474582 -0.27548373 -0.34008768 -0.06629039 -0.049197238
-0.09964532 -0.32867137 -0.14942555 0.08688662 -0.16860712 -0.06792219 -0.06384122 -0.13687038
0.031110117 -0.005422403 0.13102292 -0.08731036 0.23044826 -0.22920202 -0.14110401 0.097685345
-0.15104292 0.108433194 0.019477902 -0.08104941 0.009881436 0.12892053 -0.06317777 -0.13738213
-0.13580872 -0.086454354 -0.02512131 -0.028725144 -0.14715625 0.053323746 -0.03277921 -0.08769133
0.005000367 0.15336922 -0.13484564 -0.04483868 0.111365706 -0.029662661 -0.13422984 0.038033716
-0.22842467 -0.32202792 -0.12221105 -0.24275526 -0.093648255 -0.23760387 0.04688355 0.009041391
-0.039411925 0.10712245 -0.059049614 0.08275824 0.037368663 0.060221847 -0.28721708 -0.03611946
-0.10425602 -0.086087756 0.013044128 0.023565881 0.0040744795 -0.10378031 -0.042430203 0.03403473
-0.123810105 -0.14220421 -0.057896476 0.12171616 -0.14002648 -0.26498628 -0.11839674 -0.26679972
0.15902027 -0.29589427 -0.17386644 -0.10542372 0.07016856 -0.066322096 -0.094004996 -0.010029652
-0.16110168 -0.09940926 -0.26142395 -0.095455356 0.09823944 0.016908716 -0.026716797 0.043873336
-0.15501039 -0.096182756 0.056487385 0.0153553 -0.031826258 -0.06924624 -0.048281856 7.4718046e-06
-0.039896965 0.02645521 0.057381567 -0.04895222 0.12923917 -0.002145863 0.14876284 -0.21608633
0.015063376 -0.16079217 0.08988969 0.14572954 -0.097999394 0.004362016 -0.10689369 0.07051039
0.15061538 0.10494479 0.025623493 -0.055706345 0.060558047 0.07124364 0.10821887 0.054563615
-0.11630177 0.0247265 -0.13078998 -0.042836893 -0.19290805 0.05110278 -0.12844352 -0.17740008
-0.1286926 0.124864034 0.053337112 -0.1515147 0.053009722 -0.14205986 -0.03472193 -0.03575307
0.014651161 0.011509811 -0.20311826 0.16215158 -0.16942349 -0.12634063 0.035385475 -0.09355181

bias f4 [128]
00000000: a656 113f c6ab a73d 81e2 3b3f ed8b 053f
00000010: f2b1 563f 7c5e 113d c462 e83e b236 6c3f
00000020: 110b 663f 4abf 1c3f ca4d 843e 839d 0b3f
00000030: dce8 3b3f bb0a 8e3d 3a80 87bd a176 dd3e
00000040: 783a 643f b676 353e 3688 6c3f 40cf e23e
00000050: 455f 1e3f 12a4 513e 42b5 a93e e627 783f
00000060: e30a 073f 14ba 493f 6a51 453e d0c4 2f3f
00000070: af94 443d c08c 1f3f 4221 343f 7332 13bb
00000080: b546 223f ceed 673f 4a40 683e 322c d73e
00000090: 7d2f 0b3e 1bfd 5f3f 4134 9f3e 2449 163e
000000a0: b774 c83e 67b6 023d 88e3 3f3e 7d14 c93d
000000b0: 812a bf3e a290 bd3e ce2b b33d e41c 413f
000000c0: 0a06 403e e695 3f3f 9635 123f b34c 853e
000000d0: e8a5 7b3e 1c46 c63e 8a0d 453e 803a da3e
000000e0: 4541 063f 203e 453f b5d5 413f 3ad5 a8ba
000000f0: f427 453e 95be 053f eb79 2a3e 51de 683f
00000100: 745e b03e 880b f33e 5c63 533f 2f2a ca3e
00000110: d9ff 853e dd7f 4b3d 6466 073e 6162 193f
00000120: cfbf 023f d369 ff3e b489 ce3e d2f1 813d
00000130: 094d b23e e8c4 1f3f f7fd b93e c26d 643f
00000140: dfb9 973e 1d14 663f 4ae5 743e 4f91 423f
00000150: 5c3c 093f b5d0 fe3e 342d b63e 4db4 febc
00000160: 5577 843f b63c 713f c4c8 5f3f a7e9 103f
00000170: f082 da3e e06a 183f cf50 653e 3dc9 c33e
00000180: 3bba 2c3f 4908 583e 32b6 f13e 85b1 253f
00000190: 25d3 7f3e 6149 ae3e 8438 713f 02a5 623e
000001a0: b502 d73e c982 ff3e 57b2 083f 54ca 2d3f
000001b0: 8bfa 313f 5e57 073f 3b36 253f 98ae 383f
000001c0: 5bf2 573f bfa6 edbc f236 703f 6488 5b3f
000001d0: 51a2 193f 787a bb3e 1593 4a3e dcba 1a3f
000001e0: 9938 873e acf9 103f 49f0 473f c9f1 383f
000001f0: 211e 1a3f 7f40 0a3e ffb2 9dbd e450 09bd
0.5677284 0.0818706 0.7339249 0.52166635 0.83865273 0.035490498 0.45387852 0.9227096
0.89860636 0.61229384 0.25840598 0.5453722 0.7340219 0.069356404 -0.06616254 0.4325457
0.89151716 0.17721066 0.9239534 0.44298744 0.6186412 0.20472744 0.331461 0.9693588
0.52750987 0.7879956 0.19269338 0.6865969 0.04799336 0.6232414 0.7036325 -0.002246049
0.6338914 0.90597236 0.22680774 0.42025906 0.13592334 0.87495583 0.31094554 0.14676338
0.39151546 0.031912234 0.1873914 0.09818361 0.37337115 0.3702441 0.087485895 0.7543471
0.18752304 0.748381 0.57113016 0.2603508 0.24575007 0.38725364 0.19243446 0.42622757
0.52443343 0.7704792 0.75716716 -0.0012880929 0.19253522 0.5224393 0.1664807 0.9096423
0.34447062 0.47469735 0.82573485 0.3948531 0.2617176 0.049682487 0.13222653 0.5991574
0.51073927 0.49885425 0.40339434 0.06344952 0.34824398 0.6240983 0.36326572 0.8922998
0.29633996 0.8987444 0.23915592 0.76002973 0.53607726 0.49768606 0.35581362 -0.031091833
1.0348917 0.9423326 0.8741572 0.56606525 0.42678022 0.5953808 0.22394107 0.3823947
0.67471665 0.2109691 0.47209316 0.64724 0.24982889 0.3404036 0.9422686 0.22133258
0.41994253 0.4990447 0.53397125 0.67886853 0.69522923 0.52867687 0.64535874 0.7214141
0.8435418 -0.029010175 0.9383384 0.8575499 0.600133 0.36616874 0.1978267 0.60441375
0.26410368 0.5663097 0.7810102 0.72243935 0.60202223 0.13501166 -0.077001564 -0.03352441

weight f4 [128, 128]
00000000: 55a7 bebe 459d 733c ad25 dbbd cade 253e
00000010: aaa1 903c b917 fc3d 391c 03bd 409d 1d3d
00000020: febe 13bd 6292 223e 7239 c7bd 9648 6fbe
00000030: d7e7 2dbd d665 b93d 0b3d 3fbe 6a97 923d
00000040: a567 1fbe 27b8 043e af00 283d c422 d7be
00000050: c8c4 973d e721 ae3b 4e8f b13d 349b d1ba
00000060: d45f 68bc 0fd1 3e3d 8d42 b4bd eeb4 3a3d
00000070: 77cb 613d 714f 89bc d5ef 01bd b886 8abd
00000080: 8c49 44be 68de 8bbe 1276 bc3d e551 66be
00000090: 8a1c e53d 3a44 543d 3639 78bd 5ed8 f0bc
000000a0: aa8a c5bd c856 da3d 8c32 ea3d f31b e4bd
000000b0: 6241 83bd 7b08 31bd cac3 a63b 5cf2 3dbd
000000c0: 30f9 58bc 3451 0bbf 5b25 013d 8047 ff3d
000000d0: a028 48be 230a d1bd 115e 85bc 222c a0bd
000000e0: 8a36 15bc 15a2 173d 55e3 c1bc 6909 e8bd
000000f0: ab91 063d 592c 3dbe 963d 3dbd 0bbb ffbd
00000100: 7ad2 103d 8b1b 413c 744c b0bd 8766 0bbe
00000110: 8645 ddbd 303b 84be 1d28 fb3c c348 c0be
00000120: 0108 a1bc fc61 cc3d 36c6 01be fa70 353d
00000130: 7385 4dbd 5160 1e3e 6311 afbd 3dcf 6cbe
00000140: 675a 02be e59d 4cbd 8226 783d f921 2b3d
00000150: 7885 393e 4c80 3cbe 5d79 d6bd b7f2 063c
00000160: bdc4 dd3d 8ef5 9cbd eac5 89bd 09a9 c83b
00000170: bbb6 003e cedc 14bd a5d0 b9bd ebe1 193c
00000180: 8aba 86bd 1192 32be e99a ee3c 0fa9 cdbd
00000190: fc65 383e dc2e d23c 89b8 84bd af91 70bd
000001a0: d044 17be d552 57bd 9381 14be 3b9a 1abe
000001b0: 9e4c 843d 84f1 b0bd 320b 2fbe 0036 2bbe
000001c0: cc26 973d 475f 59be a6de 30bd 775c a43c
000001d0: d9ce a13c 18e9 5ebc d211 91be c77d 683d
000001e0: 9cd1 1dbe fc1c ddbd f596 3cbd 37a7 36bd
000001f0: 8071 543e 4cd1 41be ca01 12be 50e6 a7be
00000200: ad4a 12bb 609e 75bd 2960 463c c4c4 fd3c
00000210: a202 79bd 1cff 59be b800 42bd ae2e cebd
00000220: 669d d6bd a467 a7bd c3e1 bd3c 760f e7be
00000230: f120 32be 0eeb c1bb 4b28 87be a4e5 173e
00000240: 3711 9bbc 2659 4fbd 5177 9cbc 0d2e 7dbd
00000250: 70c4 203d 6fc4 05bd 6c96 b1bd 597a 75bd
00000260: c56b 15be b239 9cbd af89 e3bd 37d7 a9bb
00000270: 7c71 1e3e 0407 93bd 883a c23d 69aa 48bc
00000280: 2b75 0fbe febe ebbe 1eb8 63be be31 ca3c
00000290: 590a 253e e97c f03d c0e5 ed3d f6b6 89be
000002a0: d871 7d3c 0c1b 15be ed4a 8f3a 9b24 90bd
000002b0: ecfd a8bd 6395 36be e357 93be 5712 cbbc
000002c0: 5ebb 263e ecff 59bd 5c90 8e3d 6556 38bd
000002d0: 0154 44be 01af 1fbd 9133 eabd 1b75 68bd
000002e0: d12c 47bd 29e1 5b3d 6a9f 753d dbc5 05bd
000002f0: a7ef c73d b1c6 5ebe 8e17 10bd cb8e 03bd
00000300: bc79 813d 51e9 6bbd c32d 933d f078 50be
00000310: 28c7 c43e b7e6 37bc 5ae5 2d3e 971e 21be
00000320: 8f35 fbbd 5f86 1d3d a74b a33e de66 4fbe
00000330: 11e1 bd3d 7d8d d13d a2e4 80bd 13e1 953c
00000340: 3e69 07be b34b c3bd b7cb 083e c705 9e3d
00000350: d5a3 92bd 25bd 2bbe c9d8 8cbe befa 92be
00000360: d236 953c 95c1 cb3c 772c 4b3e 104f d1bb
00000370: aa42 eb3c acef 9cbd c4af ddbd 6182 b9bb
00000380: 662f 583d 8ffe 99bd 9a8b 5abd dcf4 47bd
00000390: f610 3ebd 508e 8b3c ef8c 24bd b0f9 e5ba
000003a0: 2222 953c df98 493d 5d74 c23c a682 31be
000003b0: 485e a6bd d3bc 15bd 2b83 0dbe e32d b83d
000003c0: 5da6 303e d7a6 d3bb 3fdf f5bd 7338 6aba
000003d0: 2d69 4abd f3a4 983d b2d7 6bbd 1938 83be
000003e0: 107c a5bd e9c8 543d 89ca 14be 9a3c 1dbd
000003f0: e728 f13d f7c0 6fbc d4a2 18be 4b24 13be
-0.3723704 0.014869039 -0.107005455 0.16198269 0.017655212 0.12309212 -0.032009337 0.038480043
-0.036070816 0.15876153 -0.09727754 -0.23367533 -0.042457428 0.09052627 -0.1867563 0.07157786
-0.15566881 0.12960874 0.041016277 -0.42018712 0.0741058 0.0053141 0.08669911 -0.0015991689
-0.014183003 0.046586093 -0.08801756 0.045582704 0.05512568 -0.016761513 -0.031722862 -0.06763977
-0.19168681 -0.2731812 0.092022076 -0.22492178 0.11187084 0.05182288 -0.060601436 -0.029400047
-0.09645589 0.106610835 0.11435422 -0.111381434 -0.06408955 -0.04322098 0.005089258 -0.04637371
-0.013243005 -0.5442078 0.031529766 0.124648094 -0.19546747 -0.102070116 -0.016280206 -0.07820918
-0.009107241 0.037019808 -0.02366797 -0.1132992 0.032853764 -0.18473949 -0.04620131 -0.124868475
0.035356976 0.011786352 -0.08608332 -0.1361333 -0.10804276 -0.25826406 0.030658776 -0.37555513
-0.019657137 0.099796265 -0.12673268 0.044297196 -0.050176095 0.1546643 -0.08548238 -0.2312593
-0.12729798 -0.049955267 0.0605836 0.041780446 0.1811732 -0.18408316 -0.10472367 0.008236579
0.108285405 -0.07664023 -0.06727202 0.006123666 0.12569706 -0.03634339 -0.09072999 0.009392242
-0.06578548 -0.17438532 0.029126601 -0.10042011 0.18007654 0.02565711 -0.0648051 -0.058732685
-0.14772344 -0.05256923 -0.14502554 -0.15097897 0.06459926 -0.086398154 -0.17094114 -0.16719818
0.07380447 -0.21227752 -0.043181084 0.020063622 0.019751953 -0.013605379 -0.28333908 0.056760576
-0.15411991 -0.10796544 -0.0460424 -0.044593062 0.20746422 -0.18927497 -0.14258495 -0.32792902
-0.0022322342 -0.05996549 0.012107887 0.030977614 -0.060793526 -0.21288723 -0.047363967 -0.10067497
-0.1047924 -0.08174065 0.02317894 -0.45128983 -0.17395379 -0.0059179133 -0.2639793 0.14833695
-0.018929107 -0.050622128 -0.019099863 -0.061811496 0.039249837 -0.032658037 -0.08671269 -0.059931133
-0.14591892 -0.07628192 -0.111102454 -0.0051831263 0.15472978 -0.071790725 0.0948382 -0.01224766
-0.1400954 -0.46044153 -0.22238204 0.024681922 0.16117229 0.11742575 0.11616087 -0.268974
0.015469037 -0.14561099 0.0010932364 -0.07038232 -0.08251557 -0.17830424 -0.2877799 -0.024789019
0.16282412 -0.05322258 0.06961128 -0.045004267 -0.1917267 -0.038985256 -0.11435617 -0.056752305
-0.048626725 0.053681526 0.059966482 -0.032659393 0.09762507 -0.21755482 -0.035178714 -0.0321186
0.06322047 -0.057595555 0.07186463 -0.20358634 0.38433194 -0.01122444 0.16982022 -0.15734325
-0.12266075 0.038458224 0.31893656 -0.20254084 0.09271444 0.10232065 -0.06293608 0.0182958
-0.1322374 -0.09535923 0.13358961 0.07715946 -0.07160155 -0.16771372 -0.27509144 -0.28706926
0.018214617 0.02487258 0.1984118 -0.006387599 0.028718311 -0.07662901 -0.1082454 -0.0056612943
0.052779578 -0.07519256 -0.05335579 -0.0488175 -0.046402894 0.017035633 -0.040173467 -0.0017545726
0.018204752 0.049218055 0.023737127 -0.17334995 -0.081234515 -0.03655703 -0.13819568 0.08993127
0.17250963 -0.006459098 -0.120054714 -0.0008934803 -0.04941671 0.074533366 -0.05757875 -0.25628737
-0.08080304 0.051949415 -0.14530386 -0.038387872 0.1177538 -0.014633409 -0.14905864 -0.14369313

bias f4 [128]
00000000: 0051 ea3d 4e97 4f3f 7c5b ad3d b068 353e
00000010: 5e80 8bbd 334f 913e 57a6 353e f35d 323f
00000020: f07c b93e 74f1 493f 3e56 0b3f 8823 543f
00000030: 0c2a 0b3d 978a 843e 0e13 ef3e b20c 363c
00000040: 8f42 563f f828 803f 7b4a 093f a8fd 173f
00000050: f14f 2b3f 8400 b83e a0c8 3b3f aa63 0e3f
00000060: 8f46 253f a32d ab3e 8ac4 283f 1b7a 593f
00000070: a457 643e 10c4 053e 141b 3c3f db79 733f
00000080: 5a37 083f 7fb2 d43e 9611 403d dff4 ee3d
00000090: 67f9 1c3e 8a43 573f 2151 4f3f 3b15 463f
000000a0: ae95 853e 7ca5 783f 89ad cb3d 8bd3 963e
000000b0: fabb 423f c82e 6a3f bc87 0d3f 5b58 34bd
000000c0: ec47 0b3f 9b79 943e 4af4 6b3e 3eae 2e3e
000000d0: ecde 853d d6d7 223f bf2d 163f 809e fe3e
000000e0: e1c6 213f 71f6 1e3f 6bb4 883e 5df1 d83e
000000f0: 857b a53e db7f c63e 3ab8 a83e 01ac 7e3f
00000100: deb4 4e3f ef54 913e adef a13e 75d8 253f
00000110: a993 cb3e aec6 d03e 370e 633f 1575 533e
00000120: 4419 733e 2fde 633e 65b6 473e f3a1 aebb
00000130: 9baa 4a3f a2c1 413f 9fb6 083d 0f27 153f
00000140: 8b5a 5e3f 95d5 113a ef8f 693f 9717 fe3d
00000150: e0b0 b03e ad4c 3d3f c5e7 473e 2555 45bd
00000160: 4530 273f 9423 023f e64d ab3c eeb3 573f
00000170: 2c41 233f fd53 ad3e ca07 d13e ae09 343f
00000180: 9795 c33d 9e73 f13e bf98 6b3f 1373 523f
00000190: 9940 ee3e 2ac3 8f3e 30c1 533f 583b 273d
000001a0: 2f71 593f 635b 273f cfac 93bd 76e7 423f
000001b0: 291b 5f3f 5dac 473f 493f 033f 9836 b23d
000001c0: f4f5 a83e 9356 313f bf24 363d 1d7a 343f
000001d0: aa8b 623f 7740 523e da1c dc3e a396 c83e
000001e0: e821 923e 6d9e 523f a9ae 443f 846c 6b3f
000001f0: cdc5 e43e b3e7 4b3e 15e9 7b3f 3208 0a3f
0.11441231 0.8109025 0.08464715 0.17715716 -0.068115935 0.28380737 0.17739235 0.69674605
0.36228132 0.78884053 0.5442847 0.82866716 0.033975646 0.25886986 0.46694225 0.011111425
0.8369531 1.0012503 0.53629273 0.59371424 0.66918856 0.35937893 0.73353004 0.55620825
0.6456079 0.33433256 0.65924895 0.84951943 0.22299057 0.13063073 0.7347882 0.9510781
0.5320946 0.41542432 0.04689177 0.11667799 0.15329514 0.8408743 0.8098317 0.77376145
0.2609076 0.9712751 0.099452086 0.2945827 0.7606808 0.9147763 0.5528524 -0.044029575
0.5440662 0.28999028 0.23042408 0.17058656 0.065366596 0.6361059 0.58663553 0.497303
0.6319409 0.6209479 0.26700148 0.42371646 0.323208 0.3876942 0.32953054 0.9948121
0.8074473 0.28385112 0.3162817 0.6478341 0.39761093 0.4077658 0.88693565 0.20650132
0.23740107 0.22252725 0.19503172 -0.0053293644 0.79166573 0.75686085 0.033377286 0.58262724
0.8685691 0.0005563137 0.9123525 0.12406843 0.34509945 0.7394512 0.19522007 -0.048176903
0.6530803 0.5083554 0.020911168 0.84258926 0.6377132 0.3385314 0.40826255 0.7032727
0.095500164 0.4715852 0.9202995 0.8220684 0.4653366 0.28078586 0.82716656 0.04082808
0.8493833 0.6537382 -0.07210695 0.7613443 0.8715082 0.7799738 0.5126844 0.08701819
0.33000147 0.69272727 0.044468638 0.7049883 0.8849436 0.20532404 0.42990762 0.39177427
0.28541493 0.8227299 0.7682901 0.91962457 0.4468216 0.19912605 0.9840253 0.53918755

weight f4 [128, 128]
00000000: 1385 e4bc d26e d1be 5963 223d bb39 4fbe
00000010: 7589 11be 644e 3c3d ff42 25bd 781e 20be
00000020: 28a6 e9bd 55fc 56bc cd57 07be 7095 223e
00000030: d46d 2e3d 81d2 bdbd c1e1 c73d 371c c93d
00000040: aa5e c5bd edae 01bf 8d8a 04be c40f d5bd
00000050: 0ee4 5e3e e72c 263e 435b 93bd fa3f 55bc
00000060: c34f d13d 17f3 1e3c 7943 a0bd 000e b9be
00000070: 6e64 1dbd b050 dcbd 3c3a 77be 0120 bcbd
00000080: 846c cf3d 18bd 44be 5697 c83c 44c7 943d
00000090: 027c bcbd 8450 03be 8779 0dbf 52d9 f93c
000000a0: 2400 20bc ef75 9bbd 5696 c83d 9705 31bd
000000b0: e485 15be a980 e9be 750a 08bd 7225 2a3d
000000c0: 7c2f f2be 4fe3 28be 8556 2dbd 321b d0bd
000000d0: f595 4dbd af65 05bf bf73 33be c26f f9bd
000000e0: 511a 63bc 2785 4bbd ccd1 b8bc 9b65 493d
000000f0: 39eb 023e 51ed 1ebf 6562 ddbc c6ca 76bd
00000100: 195c f2be 67c1 0cbf 1092 9bbd dc45 6ebb
00000110: 032b d1bd 9acf 223e 3ff7 0e3d 96a3 bf3a
00000120: 60af 773d 755b 87be 5002 0d3e c313 973b
00000130: e6c5 aebe bdbf 943d 8be2 9cbd 8f09 43be
00000140: 3b37 d9be aacf 8c3d 5f6a 95bd 15e4 49be
00000150: a95a 45bd 2826 8bbe 4a35 333d 3d45 16be
00000160: 9f8b 28bc 6970 293e 8f04 a03d cd34 68be
00000170: 6e11 323e 4328 313e 1479 9dbd a1b7 2dbd
00000180: bf0c c3bd 3534 81bc 3c77 09be 0634 c23e
00000190: d45e 773c 758c 32be 9ca1 9dbd 8f2a 17bf
000001a0: 7908 00be 0e8d 543e 8cf9 b83d fa89 593d
000001b0: 7120 8e3d da06 c83d 9ef6 163e 0946 68bd
000001c0: e121 17be 6be7 67be e15e d63d 8ed0 7b3b
000001d0: 6eaa fd3c e3e7 483e d727 dc3c fc5a cdbd
000001e0: 4a76 f1bc 7c2b 483c 8d14 16be 0e88 13bd
000001f0: 54d5 653e 55f8 f1be ebb2 d9bd ae60 74be
00000200: b257 893d bd33 d9bd 785c c13c 8167 42be
00000210: c2ff a1ba fa02 593e 64c2 1c3e 35fe babb
00000220: d612 ae3d 1ef6 eb3d bfc0 b9bd e348 f93d
00000230: 7400 1e3e f6d2 833d 8f46 d2bb cb6d 253d
00000240: 2829 09be a1ad 003e 067a fc3d ec4f d6bc
00000250: af05 233d 53b0 d8bd 5353 d8bd 330b a6bd
00000260: b0b4 e0bd 2cf2 f4bd 5c57 66bc 0075 4bbd
00000270: 4c1f 1e3e a1fc 843d 25fc bcbc 0caf cfbb
00000280: 8262 a73d 9163 a2bd 5036 f3bd 35a9 b23d
00000290: eb0f 0cbe 8e2a d63c 3051 653d b25c 273b
000002a0: a38f f4bd 79b7 63bd 4a47 8dbd dbda d73d
000002b0: c6b9 cb3d cef0 0c3e 2384 5fbd 9dfd f83c
000002c0: 18ca 2c3d 55bb 1f3e e0c3 adba 221f e93d
000002d0: 08fa 1a3d 0017 5a3d c010 5a3c fd2c ebbc
000002e0: 7c4b d23d 6e4b e53c 4656 08be 73cf c83d
000002f0: 80a1 82bd 4525 c4bc aa0e 7e3b 2cf6 913e
00000300: 47d6 01be 142e 943d 0fd5 9c3d 9241 fe3d
00000310: 9307 6a3e 9eba 003e 173c e43d 6382 d3bc
00000320: 6a5e 31be 76a7 383e 9e30 49bc b923 833d
00000330: c362 dd3d b7f9 44bd 0881 0d3e b048 40bd
00000340: 156a b3bd 7f7d a53d 5dcf a73d 7e61 9abd
00000350: 6d43 1f3e fec0 a23d 2859 6f3e 1185 433d
00000360: 66fe 1fbd 0b26 5fbe 147a 0a3e a5d0 c53c
00000370: 2f44 75bd 3272 de3d 2a29 bdbd 7890 c03c
00000380: 85ff abbd 7a5c ff3d 1eff 9d3d 7f6a c5bd
00000390: 3046 113c 9fd5 f7bc eb7a 113e 87ec 343c
000003a0: 935c 9cbc d9a8 c8bd fb9c abbd 7a80 57be
000003b0: c0d4 80bd bed1 5bbe 6a88 d3bb e090 29bd
000003c0: f0b5 c53b 267f e53c 315a d63a 9fa7 bdbd
000003d0: 3b29 16be 2cb3 24bc 3339 83bd 35a6 ac3d
000003e0: f6bf b23d 499e 9ebc 2b17 4c3d ba6c 223d
000003f0: 32d7 ab3d acbe 9f3d 7618 293e 92e0 8ebd
-0.027895486 -0.40904862 0.039645527 -0.20236866 -0.14212592 0.045973197 -0.040347096 -0.15636623
-0.11408645 -0.013121684 -0.13217087 0.15877318 0.04258521 -0.09268666 0.09759856 0.09819835
-0.09637196 -0.5065754 -0.12943478 -0.10403398 0.21766683 0.16228066 -0.07195141 -0.0130157415
0.102202915 0.009701512 -0.078253694 -0.36143494 -0.038425855 -0.107575774 -0.24143308 -0.09185792
0.101281196 -0.19212759 0.024486225 0.072645694 -0.0920334 -0.12823683 -0.5526356 0.030499134
-0.0097656585 -0.075908534 0.09794299 -0.04321822 -0.14601856 -0.45605972 -0.033213098 0.041539617
-0.47301853 -0.16492961 -0.04231884 -0.10161437 -0.05019184 -0.5210828 -0.17524622 -0.12179519
-0.013861255 -0.04968753 -0.022560976 0.049169164 0.12785043 -0.62080866 -0.027024457 -0.060251974
-0.4733589 -0.5498261 -0.075962186 -0.0036357557 -0.10213282 0.15899506 0.03490376 0.0014620896
0.060469985 -0.26436964 0.13770413 0.00461051 -0.3413536 0.07263134 -0.07660397 -0.19046615
-0.4242495 0.06875546 -0.07295679 -0.19715913 -0.048182163 -0.27177548 0.043751992 -0.1467485
-0.0102871945 0.16546787 0.078133695 -0.22676392 0.17389461 0.17300515 -0.076891094 -0.04241145
-0.095239155 -0.015771965 -0.1342439 0.37930316 0.015098292 -0.17436393 -0.0769684 -0.59049314
-0.12503232 0.20756933 0.09031972 0.0531101 0.069397815 0.09766932 0.14742514 -0.056707416
-0.14759018 -0.22646873 0.104673155 0.0038423869 0.030965056 0.19619708 0.026874466 -0.100271195
-0.02947535 0.012217399 -0.14656277 -0.036018424 0.2244466 -0.47259775 -0.10629829 -0.23865005
0.0670618 -0.106055714 0.023603663 -0.18984796 -0.0012359547 0.21192542 0.15308529 -0.0057065734
0.084996864 0.115215525 -0.090699665 0.12172105 0.1542986 0.06436722 -0.0064171026 0.04038791
-0.13394606 0.12566234 0.123279616 -0.026161157 0.039800342 -0.10580506 -0.10562768 -0.08107605
-0.109719634 -0.11960253 -0.014058914 -0.049672127 0.15441626 0.06493498 -0.02306945 -0.006338006
0.08173086 -0.07929147 -0.11875594 0.0872368 -0.13677947 0.026143339 0.05598563 0.0025537428
-0.11941459 -0.055594895 -0.06898363 0.1053979 0.09947543 0.13763735 -0.054569375 0.03039437
0.04218492 0.15598805 -0.0013257228 0.11382891 0.037836105 0.05324459 0.013309658 -0.028707976
0.10268304 0.02799007 -0.1331416 0.09805193 -0.0637846 -0.023943553 0.0038766065 0.28508127
-0.12679397 0.07235351 0.07657825 0.1241485 0.22854452 0.12571189 0.11144274 -0.02581901
-0.17321172 0.18032631 -0.012279658 0.06403298 0.10809853 -0.04808971 0.13818753 -0.04694432
-0.08760468 0.08080577 0.08193848 -0.075381264 0.15553065 0.079469666 0.23373854 0.047734324
-0.039060973 -0.21791856 0.13523132 0.024147341 -0.059879478 0.10861625 -0.09236367 0.023506388
-0.08398346 0.124688104 0.07714675 -0.09639453 0.008866832 -0.03025323 0.14207046 0.011042721
-0.019087112 -0.0979783 -0.08379551 -0.21045104 -0.06290579 -0.21466729 -0.006455471 -0.04139793
0.0060336515 0.02801473 0.0016353783 -0.09260487 -0.14664166 -0.0100524835 -0.06407394 0.08430139
0.0872802 -0.019362586 0.049826782 0.03965447 0.083906546 0.0780004 0.16513237 -0.06976427

bias f4 [128]
00000000: 2b9e 563d 171d 423f d436 ee3e 4d16 ee3c
00000010: c634 fe3e b43a 693f 4045 2e3f a7e7 683f
00000020: a3e0 a13d 8983 633f 677f 9c3e 2102 e83e
00000030: e5d9 833e 608e 673d a537 803d 3952 2e3f
00000040: b270 213f 681a 063f b25c 063f 0f29 013e
00000050: 9344 0b3f 2499 5a3f 7ff0 353f 4885 c83e
00000060: a923 0e3f 78a1 103f 965c 433f 15f2 4c3f
00000070: 50fb 693f f1bf 803e 4b64 823d 4644 003f
00000080: 6354 3a3e 1c5f a43e 14c5 203f 34bf c63e
00000090: f8de 4b3e c9db 7f3e 83ad 003f 9c75 d93e
000000a0: f51a 363f 574b 323f 3b92 673e 1dad 18bd
000000b0: 9a8f 463f 30ad 253d a3fa 383f 9226 143f
000000c0: 0063 7d3e f1f9 18be 4fdb 6b3f e947 4f3f
000000d0: 86af 253f 05ae 243f 1568 423f b70f c03e
000000e0: 518b f53d f0cd 123d 42eb a33e 7914 6a3d
000000f0: e88c 483f 944e 993e f0e4 283f 85d1 203f
00000100: 9ed1 543f 8972 013f 5f93 443f 2eb3 133f
00000110: af09 b73e dcbe 423f e814 8f3e ca6a 183c
00000120: 3230 583f 0798 acbc 5b08 923e ab30 c13e
00000130: 0ae7 453e 10ba 513f 139a a03e ec71 073e
00000140: af0e 9c3e cbeb 4a3e 1b22 ed3d 2656 ef3e
00000150: 710b 013f c033 c53e 0655 cf3d 9cda fd3e
00000160: 5fc7 423f 9fb7 c4bc bc05 8c3e 6db7 e43e
00000170: 62a2 193e 98fa 013f 3270 573f d64e 7a3f
00000180: 460d 8a3e c2f5 a33e 3784 883e 319e 733f
00000190: 673d 5c3f 6bc6 7e3f 5d26 113f f1e7 213f
000001a0: 8c2a 223f edf7 693d 9b37 df3d 3631 393f
000001b0: d7e4 cd3d 0743 0d3f 4268 943e 1f69 403f
000001c0: 118c 763f 7b30 153f 2390 903d 93c8 76bd
000001d0: 3a68 8f3e ae51 013d bfdf b73e 0aca 6c3f
000001e0: 2f75 d03e d9dd 813e c4fd d03d d64e 1f3f
000001f0: ced7 b53e 0e0f 373f a2ca f13e 03f8 523f
0.052396934 0.7582564 0.46526206 0.029063368 0.49649638 0.911052 0.6807442 0.90978473
0.07904174 0.8887258 0.3056595 0.45314124 0.25752178 0.056532264 0.06260613 0.6809421
0.63062584 0.5238404 0.5248519 0.12613319 0.5440151 0.85389924 0.7107009 0.39164186
0.55523163 0.5649638 0.7631315 0.8005689 0.913991 0.2514644 0.063667856 0.50104177
0.18196253 0.32103813 0.6280072 0.3881775 0.19909275 0.24986185 0.5026476 0.4247254
0.71134883 0.6964621 0.22614376 -0.03727447 0.7756287 0.040448368 0.7225744 0.57871354
0.24744797 -0.14939095 0.92131513 0.809691 0.6472095 0.6432803 0.75940067 0.3751199
0.11989463 0.03584093 0.32015425 0.05714843 0.78340006 0.29942763 0.6597433 0.628197
0.8313235 0.5056539 0.7678737 0.5769528 0.35749575 0.7607248 0.27945638 0.009302804
0.8444854 -0.021068586 0.28522 0.37732443 0.19326416 0.81924534 0.3136755 0.13227051
0.30479953 0.1981651 0.11578771 0.46745414 0.50408083 0.38516045 0.10123639 0.49580848
0.76085466 -0.024013339 0.27348125 0.44671193 0.1500335 0.50773 0.8415557 0.97776544
0.26963252 0.32023436 0.26663372 0.95163256 0.8603119 0.9952151 0.5669916 0.6324454
0.6334617 0.057121206 0.10899278 0.72340715 0.10053413 0.551804 0.28985792 0.751604
0.96307474 0.582771 0.07058742 -0.060249876 0.28009206 0.031572036 0.35912892 0.9249579
0.40714404 0.2536457 0.10204652 0.6222967 0.35516208 0.71507347 0.4722491 0.82409686

weight f4 [5, 128]
00000000: 9bc4 a6bd 7052 103c 0c85 dbbc 0f0f c9bb
00000010: 8205 553e addf 7ebe ba67 c73d 510a 82be
00000020: e274 89bd 938a 4c3d 1338 03bf a5d9 673d
00000030: cbd2 0d3d 4445 243e eefb 76bc a1b4 df3d
00000040: 3f6f 13be 8f94 84be f806 99b9 c51a 143e
00000050: d23a 98bd 0f78 323e 9d00 a43d cb58 b43c
00000060: 9735 84bc f08e c13c 473b 1abe 7735 1ebd
00000070: 7c11 1f3d 6ca9 a33d 9c06 a6be 027f 7abd
00000080: f0e8 c8bd 71bc 8f3c f981 423d 5eab be3d
00000090: e2d2 72bd 5d47 97bd e9ae 723d d508 a9bd
000000a0: 3e76 e43d fc5a b33d ce8c 8abc a163 babd
000000b0: 0ee6 2b3d 27a6 bcbc ba0e 10be 17e0 d4bd
000000c0: dd5e 32be c782 d8bc 4a8d eb3d b0cd d63d
000000d0: b4c9 ae3a 442c ab3d 84ae 2a3e b906 6abe
000000e0: fcca 3b3e 65c3 123d ed5f ce3d 369d 56bc
000000f0: e35c 44be 2d0a a7bd 6e3c 86be 190b 713d
00000100: 9be6 933c 8d28 04be 422c 073c f317 ff3d
00000110: 2d4a 39be 0f17 ddbd 1e3c 9d3d 5b14 01bd
00000120: 057c 403d 2ad0 71be eb9f 963d 908c 093e
00000130: f6c1 aebe 72d0 ed3d 0dd1 413d 504e f23d
00000140: c74b 843d 2204 643d 27d9 5dbd e4fe f03c
00000150: 93aa 4c3e 8c0d 2d3e b8de 0f3d 41ad 84be
00000160: f39c f1bc 7b75 253d cf63 00be 4325 de3c
00000170: 7177 423d 54bb 313b 61a7 34be a578 96be
00000180: cba8 1d3e a0fd 8bbe 1940 d43c 77b5 8c3e
00000190: 854d 3dbd 7cb7 363e eaeb 3cbe ec98 83be
000001a0: bb32 14bd e703 ed3c de59 adbd 654e 433e
000001b0: 2721 493e 932f 183e ddf9 6ebc 2ce3 1b3e
000001c0: 14cf 073d 24a6 2a3e 9081 783c c973 71bc
000001d0: da46 183e c2a2 2bbe 9866 a5be 5091 e9bc
000001e0: 71a6 d63d 837c 3e3d 137c 2fbe ebfb 273d
000001f0: 472d 183d cbbf 8c3d 3b00 b53d c888 c8bd
00000200: 62c8 753d 3dbf 0d3e 28e6 1dbe edcf 253d
00000210: 2529 cfbe bfaa 7fbd b436 44bd 9ab2 82be
00000220: ebed e93c 3325 2c3d 656c c1bd fb72 e0bd
00000230: 8667 aa3d 62b8 ac3d 0da6 673e f955 02be
00000240: a131 e63d bf2b 41be fd19 993d b4e7 653e
00000250: f292 debd 2b3a 9a3d bcfc d5bd 1f42 9e3c
00000260: 3257 ff3c fdf0 023e 8afb 69bd 2c1b a3be
00000270: aac3 d9bd 7785 943d 7cf4 133e 270d d4bc
00000280: d255 dfbd 986b 60bd 16e3 f0bb dda2 93bd
00000290: b731 303e 780c 0cbe 86f8 a23c c80c 5bbe
000002a0: 37a3 d0bc 4a79 4f3e 9680 a4bd 17bf 0a3d
000002b0: 69f9 0e3e 1287 4cbd d669 ed3c 5d9f 8f3d
000002c0: 1844 4e3a e86f b63d adf3 91bb e1a2 313e
000002d0: 403d 91bc ef60 1dbd cac4 403d 9c63 9dbd
000002e0: 1a95 da3d f3fb 84bc 1104 27bd ae4f 9abe
000002f0: 2bbb 80be 57b2 a5be 1789 31be c6cd 5a3d
00000300: 509c a63c a273 c8bb 0b5e 80be ab84 943d
00000310: 4c5a d5bc 1c59 88bd e3b6 6e3b f89f aabd
00000320: 5187 383e d0f2 b5bc 64f5 153e 7405 863e
00000330: ab3d a0be 90d3 cfbd 2ef9 74be 3fca e3bc
00000340: 965a 053e 9ef4 2e3d e153 3cbd 314a 503e
00000350: 9ffd 4ebd 74c4 1b3e 3474 633e bcad 92be
00000360: c3e4 453e cdef a03d ef04 4dbb b0b4 f93d
00000370: 8521 ec3c b59d 893d 5bf2 7fbd 2a20 b4be
00000380: 0b39 9fbc 0346 d63d 2d78 ddbc 550f 583e
00000390: 6ba7 bfbd af4c 693d 90a2 09be 64ad 22be
000003a0: 3493 163e 781f 41bd 8a23 1c3e 0104 0e3e
000003b0: 317a 0a3e 1e37 47be 078c e23d bf57 ac3d
000003c0: 21d7 093e 66da e5bd 851e 8dbc 9b7b 4839
000003d0: 43a0 243d b211 5cbd 5dc5 a7be 9ad9 923b
000003e0: a398 163d a1d8 8b3d c43a 66be 2168 293d
000003f0: bf31 f03c 5092 383d 4dbe 653d 52f3 c33d
-0.08142968 0.008808717 -0.02679684 -0.0061358283 0.20802882 -0.24890013 0.09736581 -0.25398496
-0.06711747 0.049936842 -0.5125744 0.056604046 0.034624856 0.16042048 -0.015074713 0.10923124
-0.14397906 -0.2589459 -0.00029187626 0.14463337 -0.07433094 0.17428611 0.080079295 0.022014996
-0.016138835 0.023627728 -0.15061675 -0.038625207 0.038835034 0.07991299 -0.32426918 -0.06115628
-0.09810054 0.01754591 0.047487233 0.093100294 -0.059283145 -0.07386658 0.05924884 -0.08253638
0.111553654 0.08757588 -0.016912844 -0.09101034 0.041967444 -0.023028446 -0.14068118 -0.10394304
-0.17419 -0.026429547 0.11501558 0.104884505 0.0013335259 0.083580524 0.16668135 -0.22854127
0.18339151 0.035830874 0.1007689 -0.013099005 -0.19176058 -0.08156238 -0.2621798 0.058848474
0.018054297 -0.12906094 0.008250298 0.1245574 -0.18094702 -0.10795414 0.07677482 -0.031513553
0.046993274 -0.23614565 0.07354721 0.13432527 -0.34132355 0.116120234 0.047318507 0.11831343
0.06459766 0.055668004 -0.05416217 0.029418416 0.19986944 0.16899699 0.03512451 -0.25913432
-0.029493785 0.04039524 -0.12538074 0.027117377 0.04747719 0.0027119713 -0.17641975 -0.2938892
0.1539642 -0.27341938 0.02590947 0.27482197 -0.046216507 0.17843431 -0.18449369 -0.25702608
-0.036181193 0.028932525 -0.084644064 0.19072874 0.19641553 0.14861898 -0.014585939 0.15223378
0.03315647 0.1666494 0.015167609 -0.014737078 0.14870778 -0.16761306 -0.32304835 -0.028511673
0.10480965 0.046505462 -0.17137174 0.041011732 0.037152555 0.06872519 0.088379346 -0.09791714
0.060005553 0.13842483 -0.15419829 0.040481497 -0.40461078 -0.062418696 -0.04790373 -0.25526887
0.028555831 0.042027663 -0.09444503 -0.10959431 0.08320527 0.08433606 0.22621937 -0.12728108
0.11239935 -0.18864344 0.0747566 0.22451669 -0.10867871 0.07530626 -0.10448596 0.019318638
0.031169508 0.12787242 -0.057124652 -0.31856668 -0.10633023 0.07252019 0.14448732 -0.025885178
-0.10905041 -0.05479011 -0.0073512895 -0.07208798 0.17206465 -0.13676631 0.019893896 -0.21391594
-0.025468452 0.20261112 -0.08032338 0.033873644 0.1396233 -0.0499335 0.02898113 0.07012818
0.0007868423 0.08908063 -0.0044540972 0.1734729 -0.017729402 -0.03842252 0.047062673 -0.076850146
0.1067297 -0.01623342 -0.040775362 -0.30138916 -0.25142798 -0.32362625 -0.17337452 0.053418897
0.020338207 -0.0061173 -0.2507175 0.07251867 -0.026044033 -0.06657621 0.0036424927 -0.08331293
0.18020369 -0.022210509 0.1464439 0.26176035 -0.3129705 -0.10147774 -0.2392318 -0.0278064
0.13022837 0.042713754 -0.04597843 0.20340802 -0.05053484 0.1521166 0.22212297 -0.28648174
0.19325547 0.07858238 -0.0031283458 0.121926665 0.028824577 0.06719533 -0.062486988 -0.3518079
-0.01943638 0.104625724 -0.027034843 0.21099599 -0.09358104 0.056957897 -0.13440919 -0.15886456
0.14704591 -0.04714915 0.15247932 0.13868715 0.13523175 -0.1945462 0.11061864 0.08415174
0.13460971 -0.11223297 -0.017226467 0.00019119533 0.0401919 -0.053727813 -0.32767764 0.0044815065
0.03676666 0.06828428 -0.22483355 0.04135907 0.029320596 0.04506141 0.056089688 0.09567894

bias f4 [5]
00000000: 86a1 193e 4f69 833e 072e 393f 758d c03d
00000010: f6c6 da3d
0.15003023 0.25666282 0.7233586 0.09401981 0.1068248
