DQN Formation Control/dqn_1.pt (torch, 206575 bytes, 10 tensors)

weight f4 [128, 2]
00000000: 4b12 00be 4afb d53d 1fcd 153e a70b c73d
00000010: f9d8 a03e eba6 da3d f684 663d 46c2 0c3e
00000020: 01cf 1e3e 6053 d73d 75cd 62bf 75cc 54bd
00000030: 8c56 9bbd a1c1 113e 0dee 03be d631 d13e
00000040: 45b1 523d e328 ea3d ec99 a03e 7134 653d
00000050: 3df7 c4be 3d7c e4bd 4b13 b2bd 0345 033e
00000060: 12e2 1ebe 63dd 8b3e e6b6 2abe f174 6cbe
00000070: bdbb a13e 3586 813d 3419 3f3e c8fd 713d
00000080: 933a 033e e751 b4bd c5e0 adbe 837e 96bd
00000090: 6669 b8bd 6977 60be 1c8c 133c f10b b43d
000000a0: 87ed 1cbe 7434 d23d 1a8b 3bbe 7432 4a3d
000000b0: 9e18 d5bd f3da f53d f6ba 03be 1863 9d3e
000000c0: 1d0a 403e bed5 043e a72a 643e 9df0 5a3d
000000d0: 5c31 d5bd e1b0 1f3e da68 3dbe 2736 ddbd
000000e0: 1fcb babe 074c ce3e 49f2 8b3d 4e17 0f3e
000000f0: 32c6 ffbe f4a2 043d 9043 81bd 976f 0a3e
00000100: 1919 23be bd02 3c3c 470e edbd 6274 0b3e
00000110: e186 a93e a0ba c73e 2425 b5be e750 07bd
00000120: d26f 1abd 0803 d43c 0c2b 60be 1cdb a63e
00000130: 64d3 8ebe 0956 1cbe c624 7bbd d4e1 013e
00000140: 1386 543d b86e eb3d 0db9 913e 8988 1e3e
00000150: 535f d4bd b801 a53d 9436 9bbd eff9 053e
00000160: c0bc cebd 2b5d 7f3d f90a 45bb 233b ce3d
00000170: 45b1 223e 22f4 733d dee8 993d 8204 aa3e
00000180: 2644 abbd 9b36 213e f733 363d 1fac fc3d
00000190: d768 a03e bc43 873d fe93 48bd 1cfc 173d
000001a0: 091a 88be ca0b 5f3d 44a9 6fbf 862e 393d
000001b0: 8b82 c93e 3807 a4bd 1aed dbbd 9611 a43d
000001c0: 4586 7d3e 02e9 b8bc dc59 08be 6816 293e
000001d0: eff9 e3bd 8df8 fe3d fae2 403b c2f4 db3d
000001e0: c804 7e3e f07d 3f3e 205a a23d b485 8e3e
000001f0: 9717 09bd 6725 5bbe e9b9 2abb c236 f93d
00000200: 2606 433d 1651 d03d 68e3 97bd 9ec1 c53e
00000210: eb9b c9bc 7121 103e a805 ebbd 7edf ff3d
00000220: 2198 bcbe 9e5d 87bd a9af 4a3e 1ace 6d3e
00000230: 3b44 49bd ddbf 723e 8e6b 343c 8d3f 1e3e
00000240: c71f 60be 0129 9b3d 3e05 c43d 501d f03d
00000250: 25ca 89bd 1506 093e d57e 03bf 311c bd3d
00000260: 9107 77be 7c52 ac3e 601e 0dbe d4e9 853c
00000270: 9165 3c3d f054 e43d 1c3e 493e 1af2 003e
00000280: 6e78 ee3e ab18 fb3c b5b2 1fbf 0329 3a3c
00000290: e677 92be 3949 b8bd 823b 5dbe 5a92 1fbb
000002a0: 82fd 0f3e 92e8 e83d 7720 d3be 7ba8 c73e
000002b0: 5acf 80be c9bc 5fbe 68a6 3bbe a03d fd3d
000002c0: 3578 74bd 405a 943d 82f6 b8bd c22f 053e
000002d0: bd86 cebd 3aab 013e e0d9 f7bc abb9 ccbe
000002e0: f29a b5be e52f 3abe cc9e 523e ec72 993e
000002f0: 005b aabe 31b1 1f3c 2fd6 edbc 95f7 a83d
00000300: 8172 903d bee2 f13d 7f95 84be 9628 303d
00000310: fed5 54bd 19a6 2c3e 24dd 0f3e 7295 cf3d
00000320: 47e4 0dbe c9dd 9f3d 77c6 563d b574 01be
00000330: 6b1a 58be 40b4 943c f7d2 51be a0d6 863d
00000340: a0fc a53d 52b0 063e 3825 35be 2331 963e
00000350: 0f3b 61be 1d77 083d 65a8 38bd 2afd ab3d
00000360: a9b9 a2be f0d2 8c3e a615 d5bd 8f6f 133d
00000370: 2dd5 95bc 066f 3dbc 51ea e3bd 0b73 103c
00000380: 174b 0cbe 1b5f de3d 7a1d 47bf 8e6e 243d
00000390: 88b4 00be 12a8 13be 5849 d5bd 4ed8 b83d
000003a0: 3d20 43be edde 02be 1131 0dbd e92c ac3d
000003b0: 9abf bc3d 9926 843e 3be9 d5bd 1e44 43be
000003c0: 36f5 2bbe 786f 3f3e 6872 bb3c 4533 f33d
000003d0: de22 35be f240 0d3d 8b13 9fbe 2152 493d
000003e0: 9bf2 e9bd f5db 8e3d 9f68 f93d 01bc 6e3e
000003f0: 5d5b 67bd fae9 1b3e 6aa8 0fbe faef 543e
-0.12506978 0.1044832 0.14629029 0.097190194 0.31415537 0.10676368 0.056279145 0.13745984
0.15508653 0.105139494 -0.8859475 -0.051952798 -0.07584867 0.1423402 -0.12883778 0.40858334
0.05143859 0.1143358 0.31367433 0.055958215 -0.38469878 -0.11156509 -0.08695086 0.12819295
-0.15515926 0.27317342 -0.16671333 -0.23091485 0.31588545 0.06324426 0.18661958 0.059079915
0.12815313 -0.08804684 -0.33960548 -0.07348349 -0.09004478 -0.21920551 0.009005573 0.0879134
-0.15324984 0.10263911 -0.18314782 0.049364522 -0.10405086 0.12004652 -0.12864289 0.30739665
0.18753858 0.12972161 0.22281896 0.053452123 -0.10409805 0.15594818 -0.18497029 -0.10801344
-0.36483094 0.4029238 0.068333216 0.13973734 -0.499559 0.032381967 -0.06311715 0.1351913
-0.15927543 0.011475262 -0.11574989 0.13618615 0.33110717 0.3900957 -0.353799 -0.03303614
-0.037704296 0.025880352 -0.21891421 0.32589042 -0.27895653 -0.15267195 -0.061314367 0.12683803
0.051885676 0.11495727 0.28461495 0.15481772 -0.10369744 0.080569685 -0.07578769 0.13083623
-0.10094595 0.06234471 -0.0030066355 0.10069873 0.15887935 0.059558995 0.07515119 0.33206564
-0.08362608 0.15743487 0.04448315 0.12337517 0.31329986 0.06604716 -0.04896926 0.037105665
-0.26582363 0.054454602 -0.93617654 0.045210384 0.3935741 -0.08009189 -0.10738583 0.08011167
0.24758251 -0.022572044 -0.13315529 0.16512454 -0.111316554 0.12449751 0.0029432164 0.10740043
0.24806511 0.18700385 0.07927346 0.27836382 -0.033469763 -0.21400987 -0.0026050752 0.12168647
0.047613285 0.10171716 -0.07416421 0.3862428 -0.02461048 0.14075257 -0.11475688 0.124937996
-0.36834815 -0.06609653 0.19793572 0.23223153 -0.049137335 0.23706003 0.011011971 0.1545393
-0.21887122 0.0757618 0.09571312 0.11724341 -0.06728009 0.13381226 -0.51365405 0.09233893
-0.2412398 0.3365668 -0.13781118 0.01634685 0.0459953 0.11149013 0.19652599 0.12592354
0.46576256 0.030651411 -0.6238206 0.011362317 -0.286071 -0.08998341 -0.21604732 -0.0024348707
0.1406155 0.11372484 -0.41235706 0.38995728 -0.25158197 -0.2184936 -0.18325198 0.1236527
-0.05968495 0.07243776 -0.09031393 0.130065 -0.10084293 0.12662974 -0.030255258 -0.39985403
-0.35469776 -0.18182333 0.20568389 0.2997049 -0.33272552 0.009746836 -0.029032795 0.082503475
0.0705309 0.11810826 -0.25895306 0.043007456 -0.05196189 0.16860236 0.14049202 0.10135926
-0.13856612 0.07805974 0.052435365 -0.12642176 -0.21103828 0.018152356 -0.20490633 0.06583905
0.08104825 0.13153198 -0.17689979 0.29334363 -0.21995185 0.03331672 -0.04508247 0.083978966
-0.31782272 0.27504683 -0.1040452 0.035995062 -0.018290127 -0.011562115 -0.11128677 0.008816491
-0.1370052 0.10857984 -0.7777935 0.040144496 -0.12568867 -0.14419582 -0.1041438 0.09025632
-0.19055267 -0.12780352 -0.03447062 0.084070034 0.092162326 0.25810698 -0.10444876 -0.19068953
-0.1679276 0.18694866 0.022881702 0.11875013 -0.17689082 0.034485765 -0.31069598 0.04915059
-0.114232264 0.06975547 0.12178158 0.23313905 -0.056483615 0.15225974 -0.14029089 0.20794669

bias f4 [128]
00000000: c9c6 623f c341 283f 3fca 243f 949c 233f
00000010: b70d 383f 9d37 87bd 6934 713f 80fa 813f
00000020: 4813 4f3f 2d93 383e 9b52 233f dcd3 853f
00000030: e391 3f3f 3f93 e3bd 95ed d03e 53b8 273f
00000040: 629f ba3e 6bc7 153e fb6d 41bd 6b91 2b3f
00000050: b388 7d3f c547 1b3f b6b6 5c3f 7d6f da3e
00000060: ecb4 5f3f 5590 c63d 7e62 7e3f 86a1 0c3e
00000070: f109 263f 2a30 ae3e 3a01 843e 98ac 343e
00000080: 07cf be3e e2c7 763f 677c 423f cffa 4e3f
00000090: 51ab 7dbd 3f8e cd3e fc9b 723e 747b 3b3f
000000a0: 632f 223f 30fb 6a3f caa9 3b3e 94b6 603f
000000b0: 42d8 1b3f 8d39 bd3e b797 343f bbf2 813f
000000c0: 0af2 483e 2e19 593e f4bd 043f 3997 e03d
000000d0: 4772 453f 6f28 ae3e 0886 9abd 78fb 463f
000000e0: 330e 083d d226 913f 797f 663f e821 b03e
000000f0: 62ab 243e c4bc 603f 6f96 333f 5a64 003f
00000100: 1ff2 1e3f 340a 263e fbc9 2d3f 3447 6a3f
00000110: 11e8 343f 958f 04be bc36 0e3f f08f 0c3f
00000120: 9fe0 fb3e 6195 4b3e 1c6f 613f 9a12 ba3e
00000130: be3a c23e 851e 683e 0004 353c d7dd db3e
00000140: 372a dc3e f0d0 243e ce81 ea3e bba0 ef3e
00000150: 8d59 963e d131 a43e 5084 ee3e 044e 163f
00000160: 47a1 d13e 27a6 533f 2c42 5e3f f73f dd3e
00000170: 3205 343f b59c 6cbd ffce 473d 739a 2e3e
00000180: 4982 7a3e 068d 483f 5bb0 d83e caed 1e3f
00000190: f471 ca3e 5b2a 71bd 1f62 153f 281e 273f
000001a0: 9c41 6d3f 4c23 ba3e be8f 183f 71e3 f13e
000001b0: ea3b 3d3e 4a60 713e 07a3 7cbd 30ba 08be
000001c0: a2af 3b3f 11be c93e bdc1 70bc 6377 153f
000001d0: 0bd3 bc3d 3a5e e43e df60 443f 27a9 d33e
000001e0: 3b98 233e 8a2a a63e 7e9f 4a3f 4213 753f
000001f0: 2731 aa3e f493 0a3f 40b2 473f 7224 193f
0.8858457 0.65725344 0.64371103 0.63910794 0.7189593 -0.06602404 0.94220597 1.0154572
0.80888796 0.18024893 0.6379792 1.0455279 0.7483198 -0.11112069 0.4080626 0.6551563
0.36449724 0.14626853 -0.047224026 0.67018765 0.9903671 0.60656387 0.86216295 0.42663184
0.8738544 0.09695498 0.9936904 0.13733491 0.6485892 0.3402112 0.25782186 0.17643964
0.37267324 0.96398747 0.7597107 0.80851454 -0.06193096 0.40147588 0.23692316 0.7323525
0.63353556 0.9178953 0.18326488 0.8777859 0.6087686 0.3695797 0.70544 1.01522
0.1962358 0.21201012 0.51852345 0.109663434 0.771275 0.34015223 -0.07545096 0.7772746
0.033216666 1.1339972 0.9003826 0.34400868 0.16081002 0.87788033 0.7015142 0.50153124
0.620882 0.1621483 0.6788632 0.915149 0.70666605 -0.12945397 0.5555227 0.5490713
0.4919481 0.19881202 0.88060164 0.36342317 0.37935442 0.22667892 0.011048317 0.42942688
0.43000957 0.16095328 0.45802158 0.46802315 0.29365197 0.32069257 0.4658532 0.5871279
0.40943357 0.82675403 0.8681972 0.43212864 0.7032043 -0.057766635 0.04878139 0.17051105
0.24463762 0.78340185 0.4232205 0.6208159 0.39540064 -0.058878284 0.58352846 0.6528039
0.92678237 0.36355054 0.59594333 0.47243837 0.18479887 0.23571888 -0.061678912 -0.13352275
0.7331487 0.39402822 -0.014694628 0.58385295 0.09219941 0.4460314 0.76710314 0.4133999
0.1597604 0.3245433 0.79149616 0.9573251 0.33240625 0.5413201 0.7800636 0.59821236

weight f4 [128, 128]
00000000: 6364 57be 76e1 56bd ace0 2bbd cce9 d73d
00000010: 1cd3 90bd 53a7 43bd da0a 9abc 96a5 923d
00000020: d85c 94bd 8eaa 00bd 4403 a8bd 0eb2 3bbd
00000030: 236d 03bd e697 aabb e568 1dbe 75e6 1ebe
00000040: f8e5 8bbd 0662 dabd dab7 a5bb eac2 e03c
00000050: aff6 493e 788e 3fbd 3351 6dbd 3b77 593d
00000060: 194a 91bc a27d 2abe 4f71 563d 4a6c 2ebe
00000070: d500 7ebc df5f 8c3c 6bad e63d bdbc d9bc
00000080: 4633 a4bd 1fd7 313b 2209 ee3d 6e12 6e3d
00000090: 44eb 3dbd aa3e 4c3d 86d0 d4bd b508 85bd
000000a0: a18c b8bd 26d8 bebd 9daa f53d aef7 ad3d
000000b0: 6c49 3e3d c4ce 9f3d 8eab 853d 1cb5 efbc
000000c0: 13ac 36bd 22d5 0dbe 9ce1 93bd 7735 56be
000000d0: 3852 cb3d daa1 c4bd be8f efbc ebdf 36be
000000e0: 5dc5 5f3e 1766 8bbd 7164 8aba 4752 a4bd
000000f0: 9357 50bd 646a 6dbe 0055 b5bc ed4d f73d
00000100: 05a0 36bc a4fa 083d af19 84bd 6699 b3bc
00000110: f959 e3bd 48fd 063c bc00 69bd cefe d43d
00000120: 1ff1 ac3c d562 90bc 1c2a 21be 059c 0abd
00000130: 56a0 a4bd c0ec 58bd d03e 673d 786d c13d
00000140: 4d84 053e 3024 16be 8f39 b5bd 2e4e 0b3d
00000150: aeec 51bd d9a7 493d 699b 503d 0fe3 26bd
00000160: ab26 c53c 4a9c 04be e2e9 d43d caa3 dcbd
00000170: f7f4 193d 3977 583d 462f cebd 6e0f 1bbe
00000180: cd2d 6cbd a0ba b53d a6a6 c2bd d286 a23c
00000190: ba9e d03d 5fd7 88bd b1f8 f8bd 0b5b 28bd
000001a0: d1a4 0bbd f5a0 253d e32f 42bd 1f30 23bc
000001b0: 1a89 8c3c 0a69 eabd e998 25be c870 863d
000001c0: 465b d7bd 30fc 823b 1451 b03d 665e 983d
000001d0: dae8 2b3e 417d 823c ec18 a0bd ae9d 8b3c
000001e0: a850 553c fa40 0d3d eefb 823d 1f13 02be
000001f0: 9368 43bc f12a 873c ea5c c0bd 4c17 493d
00000200: 5c2b 183e bbd3 a3bd fdcb 67bb 7043 8bbd
00000210: 32d7 613c 42b6 20bd 11f7 90be 36c6 07be
00000220: 7692 2f3d d902 a63c 8f93 2fbd 00e3 02be
00000230: adac 953c d4da 203d f88a aa3c 557d d4bd
00000240: 22c6 e6bc ddb5 1bbe 490d 20be 0969 8abd
00000250: a55d d83c e9a6 c1bd d5b5 573e 8981 1bbe
00000260: 1233 bf3c 7c5d dfbd 0d74 c13c 9741 dbbd
00000270: 20a7 c6bd e1dd f5bd e117 37bc 085b bebc
00000280: 8ea2 3c3d 826d b0bc ab6e 0d3e 04b2 65bc
00000290: f4c1 9d3d 7d7a 91bd 4b65 5fbc 5373 23be
000002a0: 7cc6 9abd 2e6d 26bd 16a3 133d 1948 49be
000002b0: 8e65 2b3d 62f3 32be 01eb bdb8 3dfa 8f3d
000002c0: 7cfa 98bc d179 ea3d 7ed7 423d d559 bbbc
000002d0: fe28 be3c 6c02 4f3e a98f 1abd 1a9c 9abc
000002e0: 3fd9 21bd 5d54 0dbe 784e b5bd 62c8 e43c
000002f0: 6a13 da3d 92f9 86bc bc71 1e3d 0353 06be
00000300: 7300 febd ae98 8bbd 5e85 523d b7de 4abe
00000310: 3903 ffbd d4e7 90bd a7d7 34bd beec aabd
00000320: e3e6 fbbb fade 51bc 8295 593c 5287 713c
00000330: 491f 1ebd 0df7 38be 5c8d 1bbd 8f38 b9bb
00000340: 5072 b4bd b7b4 2abe c3dd 57bc cf99 d9bd
00000350: 5ee0 91bd 87d5 01bc 6e64 343d 7c79 b9bd
00000360: b7d7 b63d 8473 1e3c 641a 1ebd b419 99bd
00000370: f877 1abe 74c9 bd3c 4e41 c73c 0577 89bd
00000380: cda9 99bc c4ce 453c 337e ffbd 768b 29bd
00000390: 9a45 093e f85a 95bd e478 dcbc 20ac 40bd
000003a0: f7f1 01bd f964 7b3d d4ab 3d3d c407 743c
000003b0: cad8 55bd 6005 0bbe fbc0 c8bd 6d24 8cbd
000003c0: 62f9 7fbc 9175 a33b 5dad 3dbe 6b3f 87bc
000003d0: 2ffe 97bd d590 3f3d 04b3 c3bc 28bc a63d
000003e0: f045 8cbd 162a 3e3d 85b9 e63c 8ebe b3bd
000003f0: 4617 2abb 53d3 b8bd 0deb 143e b2e9 1dbd
-0.21034388 -0.05246111 -0.04196231 0.1054264 -0.07071516 -0.047766995 -0.018804003 0.07160489
-0.07244271 -0.031412654 -0.08203748 -0.045824103 -0.032086503 -0.005206096 -0.15372045 -0.155176
-0.068309724 -0.10663228 -0.005057317 0.027436692 0.19723009 -0.04676673 -0.057938766 0.053092223
-0.017735528 -0.16649488 0.052354153 -0.17033496 -0.015503128 0.017135559 0.112635456 -0.026579255
-0.08017592 0.0027136279 0.11622836 0.058123045 -0.046366945 0.04986445 -0.10391335 -0.06495801
-0.09011198 -0.09318571 0.119954325 0.08494507 0.04645674 0.07803109 0.06526862 -0.029261164
-0.044597697 -0.13850835 -0.07220766 -0.20918833 0.09927791 -0.09601183 -0.029243346 -0.17858855
0.21852632 -0.068065815 -0.0010558498 -0.08023506 -0.050864767 -0.23185116 -0.022135258 0.1207541
-0.01114655 0.033442155 -0.06450211 -0.021923732 -0.11101145 0.008239098 -0.056885466 0.10400163
0.02111107 -0.017625252 -0.1573872 -0.033840198 -0.08038394 -0.052960157 0.056456387 0.09444708
0.1303875 -0.14662242 -0.08848869 0.034010105 -0.051251106 0.049232338 0.05092946 -0.040743884
0.02406629 -0.12950245 0.10396172 -0.10773428 0.037587132 0.052848075 -0.100676104 -0.15142605
-0.057660867 0.088734865 -0.09504442 0.019839678 0.10186525 -0.06681704 -0.12156809 -0.04110245
-0.034092728 0.040436704 -0.04740895 -0.009960203 0.017155219 -0.11445816 -0.16171612 0.0656448
-0.10515456 0.0039973482 0.086092144 0.0743988 0.16788045 0.015928866 -0.078172535 0.017042961
0.013019718 0.034485795 0.06395708 -0.12702607 -0.011926788 0.016499968 -0.09392722 0.049094483
0.1486029 -0.07999369 -0.003536939 -0.06799972 0.013784217 -0.039236315 -0.28313497 -0.13259205
0.042864285 0.02026503 -0.042865332 -0.12781906 0.018270815 0.03927119 0.020818219 -0.10375468
-0.028170649 -0.15206094 -0.15630068 -0.06758315 0.02641184 -0.09455664 0.21065457 -0.15186132
0.023339782 -0.109065026 0.023614908 -0.1070587 -0.09699845 -0.12005211 -0.011175127 -0.023236766
0.04605346 -0.021536592 0.13811748 -0.014019493 0.07703009 -0.07103441 -0.01363499 -0.15961961
-0.07557389 -0.040631466 0.036044203 -0.1965641 0.041844897 -0.17475656 -9.055995e-05 0.07030151
-0.018674128 0.11449016 0.04756879 -0.022869984 0.023212906 0.20215768 -0.03773466 -0.018873263
-0.039513823 -0.13801713 -0.08852857 0.027927581 0.10648234 -0.016476426 0.038682684 -0.13117604
-0.124024294 -0.06816231 0.05139672 -0.19811521 -0.124517865 -0.07075468 -0.044150975 -0.08345936
-0.007687436 -0.012809509 0.013280274 0.0147417355 -0.038604055 -0.18062992 -0.037976608 -0.0056524943
-0.08810866 -0.166705 -0.013175431 -0.1062504 -0.07122873 -0.007924444 0.04404109 -0.090563744
0.08927863 0.009671096 -0.038599387 -0.074756056 -0.15084827 0.02316735 0.024323132 -0.06712154
-0.018757725 0.012073223 -0.124752425 -0.041392766 0.13405457 -0.072927415 -0.026913114 -0.04703915
-0.031724896 0.061375592 0.046306446 0.01489443 -0.0522087 -0.13576269 -0.09802433 -0.06842885
-0.015623422 0.0049883802 -0.18523164 -0.016509732 -0.074215285 0.046768982 -0.023889072 0.08141357
-0.06849277 0.046426855 0.028164634 -0.0877658 -0.0025953813 -0.09024682 0.1454279 -0.038552947

bias f4 [128]
00000000: 831c 063f f82e 473f 21bf ca3e b70e 203f
00000010: 263d 6c3f c0a9 833e dd8e 9d3e 1336 76bd
00000020: e723 ea3d c8bb ef3e 97a6 203f 4625 453f
00000030: c4db 1f3f 260b 1c3f cb3e 063f b066 c53e
00000040: 3a10 213f 48db 7d3e 3c15 633f b4cb 393f
00000050: afed de3e dcdb 823e 0fe6 b53e 4cf9 263f
00000060: 69a1 503e 8e0e 7f3e e282 2e3d 1e83 893d
00000070: 7883 bf3d 4bb7 3f3d 09d2 bd3e 80ab 983e
00000080: bf0a bc3e 50d7 443f 359d 2e3f 4289 0c3f
00000090: 04aa a93e ee84 143f 0771 693f 366c 163e
000000a0: 6f3e 583f 94a6 e63e 98eb 033f 12b1 d93e
000000b0: a32a 313f b674 403f 4ea3 c03e 7b5a 793e
000000c0: 0f8b 743f a47e 603f 1315 1d3f b864 c93d
000000d0: b89d 073f 7f20 4a3e 6722 0c3f cf01 c03e
000000e0: ed17 403d 29db 883e 4154 6d3e 9a41 433f
000000f0: 840b 593f 62bf c93d c672 cf3e f3ac 883e
00000100: 488b 443e b6d8 cf3e f48a e03e aeb9 643e
00000110: 06c7 ea3d 272f 293f 9f6f 253f 9642 dc3e
00000120: c1e5 8e3e aad2 d23e bc80 453f 1d3e e83e
00000130: da69 de3c 9061 ab3c 4bab 0c3e 44aa 593f
00000140: 1f89 683f fc32 143f ed66 bc3e bddd 523f
00000150: 703f a23d 5ad2 4b3f 4526 5d3f 22d2 b33e
00000160: c0a5 9c3d ef21 723e 97bb 143f b074 263f
00000170: ac7d 5a3f bf75 093f 83b4 333d 758d ff3e
00000180: a9b2 413f 8c07 373f 5524 093f 50e6 c43e
00000190: 2063 9aba 6b13 563e 22d9 5e3f 35f6 9c3e
000001a0: 4e9a adbd 718a ef3e 07c6 513f ef69 ab3e
000001b0: 3880 3b3f d205 6f3f 0665 423e 43f4 5a3f
000001c0: 9cdd a63e f975 4c3f ffc2 143e 1602 463f
000001d0: 826f a53e 8618 c43e 7f8a 043f d833 ef3e
000001e0: 346b 2f3e 49f6 d63d dd9a 8e3e 1538 293f
000001f0: 9309 043f d7b8 503e fb50 6e3e b0ac e23e
0.52387255 0.77806044 0.39598945 0.62522453 0.92280805 0.25715446 0.3077306 -0.060110163
0.11432629 0.46822953 0.62754196 0.7701 0.6244471 0.6095451 0.52439564 0.38554907
0.62915385 0.2479068 0.88704276 0.7257645 0.43540713 0.25558364 0.35527083 0.65224147
0.20374073 0.24907896 0.04260529 0.06714462 0.093512475 0.04680566 0.37074307 0.29818344
0.3672695 0.7689104 0.6820863 0.5489694 0.33137524 0.58015335 0.9118809 0.14689717
0.84470266 0.45048964 0.5153136 0.42517906 0.69205683 0.75178087 0.37624592 0.24350922
0.95524687 0.8769324 0.6136028 0.09833664 0.52975035 0.19738959 0.54739994 0.3750138
0.046897817 0.26729706 0.23176672 0.76271975 0.84783196 0.098509565 0.40517253 0.2669445
0.19193757 0.40595025 0.43856013 0.22336456 0.11463742 0.66087574 0.64623445 0.4301955
0.27909663 0.4117635 0.7714956 0.4535989 0.027150083 0.020920545 0.13737218 0.8502543
0.9083423 0.57890296 0.36797276 0.82369596 0.07922256 0.79617846 0.8638652 0.35121256
0.07648802 0.23645757 0.5809874 0.650218 0.8534801 0.5369529 0.04387332 0.4991261
0.7566324 0.7149589 0.53571063 0.38456964 -0.0011778809 0.20905845 0.8705007 0.3065659
-0.08476697 0.4678531 0.8194279 0.33479258 0.7324252 0.93368256 0.1898385 0.85528964
0.3259095 0.7986751 0.1452751 0.7734693 0.32311636 0.3829996 0.5177383 0.4671924
0.17130738 0.10496194 0.27852526 0.661012 0.5157711 0.20383011 0.23273079 0.44272375

weight f4 [128, 128]
00000000: 21df a53d 1ef6 c23d b33b adbd bcc0 84be
00000010: 7515 e6bb e8c3 883c 9182 e03b dee7 a4bd
00000020: 0f97 7c3d f888 d5bc 86cd 623b e32b 3a3d
00000030: 369b bcba af86 6d3c 8ea2 e53c 3ce1 9bbb
00000040: 6abc 4abe 81ff 7cbd 7732 8a3b 7172 83bd
00000050: 779d 123e f4f6 27be 37f4 cb3c ca1a c93d
00000060: 7a7f e8bd b4bb 7fbd b4a0 ac3d 0a60 b8bc
00000070: 6e55 2d3c 7615 863d 9c6e 31bd c26c a23d
00000080: 3e76 913d 5a60 ddbc f361 b0bd c060 8ebd
00000090: 7b14 dd3d 5caf b6bb 07b6 a3bd 746b 16bd
000000a0: 37e2 063d 7625 743d fa23 a3bd 10dd 18bc
000000b0: 106f a93d 37cb 3ebd 2b93 1f3e 705f ecbd
000000c0: e0d7 403c 13d8 1b3e 7a3c 64bd 2992 253e
000000d0: 2a26 623d 6ad1 293d 8a9f 20be 98d3 7dbe
000000e0: 0837 e03d f9b3 9ebd 6925 18be 0fbc 203c
000000f0: 8a3d cc3d 1f45 87be 7e53 7f3d e597 2f3d
00000100: 18b8 d2bd 2090 a9bd 0dfc 1bbc 37e5 da3d
00000110: 64f3 c83d 41fd 493d aee1 46bd 6d6e 20bc
00000120: 568b d7bc 6654 b03c 8b49 113e 7659 b2bd
00000130: eaeb d3bd 27bb 85bc 54bb ebbd 515f 5cbd
00000140: 1a1a efbc 0b35 04be 926c 85be b06c c1bd
00000150: f4b9 c0bb ee01 e8bc 94b8 0b3c a1bb e43c
00000160: e48c 4f3d 4808 16be 80ab e2bd c23f b3bd
00000170: d0b5 13bd 9967 77bd c9f8 83bd 6f9c 173d
00000180: 1ff0 94bd 2c7e 253c d0f3 de3d 13eb c0bd
00000190: 81de cb3c 76e0 50bd e313 563d 929e f7bd
000001a0: 5bcb 7ebc 5857 393d 52a5 38be 06d6 c7bd
000001b0: de13 d23d f641 1b3d 7639 4cbe 74c6 4d3d
000001c0: 43cf af3d adb2 96bc 7ceb 59be 914e 11be
000001d0: 0d73 86bd f213 9bbd a36c 033c dd46 88bd
000001e0: db29 f7bd 28e5 0b3d 2413 203c ecca 373d
000001f0: d15f 0bbd 218c 00be d997 5bbe 7c61 05be
00000200: cb0a a53d 6bbf f7bc d3b0 c0bd f198 693d
00000210: 0d02 533c 8095 48bd b86c e8bd 7d8a 5d3e
00000220: b3bf 883c 4074 93bc 6820 a93c a9dd 35bd
00000230: 6714 46be 04e6 963d ff0a 41be d338 013e
00000240: 2594 60be e50b c4bc e9a2 2cbe e415 2cbe
00000250: dd0a 5d3d 0055 a6be 636f 63bd 4a9f 793c
00000260: 261c e73c 2ffc 123e 05fc 6b3d 0771 493d
00000270: caad 7ebd ed38 2abe 478b 3abd 5aae d1bd
00000280: 89d9 79bc 0a18 1bbd 2beb 393d 2652 52bd
00000290: e476 b63c 93a6 95be 80a5 b5bd 6f5a aa3d
000002a0: 0d36 0abd 4857 51bc 819d 08be 6e37 93bd
000002b0: ac3d 37be 0e2e 3e3d 551a a73d 7cfb b13d
000002c0: 17c5 cd3c b799 48bd 1899 77be 5ead b63c
000002d0: 9930 b03d b7db 0ebe f891 31bd baca edbc
000002e0: 6062 d6bd d0b9 95bd e9d0 063e 3e70 07be
000002f0: 8346 863e 5599 74be 8db4 4fbd 0fc5 033d
00000300: 354c 76bd 17a9 a5bd 3417 b83c 9c2d f43d
00000310: daef 1fbd 4b1d bdbd 8393 0cbe 7c0b f8bc
00000320: 9b72 d93a 3dca 893c b02c f9bd 913c 91be
00000330: 98c6 2d3d d2c7 8e3c 23fb e63c 73ac 51bc
00000340: 1c34 b7bd e821 9cbd 0c60 d7bb ca50 083e
00000350: 16fa 88bd 7318 363d 717d 473e 4b57 febc
00000360: 7029 89bd 3ed7 f1bd 5bc5 4cbe b237 81bd
00000370: 360f 0dbd 8aec ee3d da71 4ebe b125 babc
00000380: c0b4 24be 37ef 013e 9825 263e d2f1 9b3d
00000390: 16ea 6f3d 6b4e 42bd 5977 f13c 1694 71bd
000003a0: e61a 25be 01fa 2ebe 0751 f33c 9bde 87be
000003b0: 456b 04be 90b8 61bc 7f80 573e c07d 09be
000003c0: 116b ddbd d56d 58bd 5f07 0abd e7f0 09be
000003d0: 4bdd ae3c 6bc9 14bd 6a20 edbd 09ba cebd
000003e0: 114d 263d af5f 123c ebdb b2bd 73a9 a13d
000003f0: a52f 1ebe 18cd 4abd 3326 893c 9499 3cbd
0.08099199 0.095195994 -0.08458652 -0.25928295 -0.007021601 0.016694978 0.006851502 -0.08052038
0.0616675 -0.026066288 0.0034607365 0.04545201 -0.0014389518 0.014497443 0.028031614 -0.0047570746
-0.19798437 -0.061767105 0.0042174417 -0.06418312 0.1431788 -0.16402799 0.024896724 0.09819563
-0.11352439 -0.062434867 0.08429089 -0.022506732 0.01057945 0.06547062 -0.043318376 0.079309
0.07102631 -0.027023483 -0.08612432 -0.06952047 0.10794922 -0.0055751037 -0.07993703 -0.03672357
0.03293058 0.059606038 -0.07965846 -0.009330049 0.082731366 -0.04658052 0.15583484 -0.11541641
0.011770219 0.15219145 -0.055721737 0.16169037 0.055212177 0.04145948 -0.1568586 -0.24787748
0.109479964 -0.07749171 -0.14858021 0.009810462 0.09972675 -0.26419923 0.062335484 0.042869467
-0.10289019 -0.08279443 -0.009520543 0.106882505 0.09812048 0.049313787 -0.04855507 -0.009791953
-0.026311558 0.02152462 0.1418821 -0.087084696 -0.103477314 -0.016324593 -0.115103394 -0.05380184
-0.02918725 -0.1291086 -0.26059395 -0.094445586 -0.0058815423 -0.028321233 0.008527894 0.0279215
0.050671473 -0.14651597 -0.11067867 -0.08752395 -0.03606206 -0.060401533 -0.064439364 0.03701442
-0.07272362 0.0101008825 0.10886347 -0.09419837 0.024886372 -0.050995313 0.05226506 -0.12090792
-0.015551413 0.045249313 -0.18031815 -0.097576186 0.102576956 0.037904702 -0.19943795 0.050238088
0.08584454 -0.018395746 -0.21281236 -0.14190127 -0.06564913 -0.07572164 0.0080215065 -0.06654141
-0.1206853 0.034154087 0.0097701885 0.044871256 -0.034026925 -0.12553455 -0.21444644 -0.13025469
0.08058699 -0.030242642 -0.094087265 0.057030622 0.012878907 -0.0489707 -0.113488615 0.2163486
0.016692972 -0.017999768 0.020645335 -0.044400845 -0.1934372 0.07368091 -0.18851851 0.12619333
-0.21931513 -0.023931453 -0.1685902 -0.16805226 0.05396544 -0.32486725 -0.05552615 0.015235731
0.028211664 0.14354013 0.05761339 0.049180057 -0.062177457 -0.16623278 -0.04554298 -0.10238333
-0.015249618 -0.037864722 0.04539029 -0.051347874 0.022273488 -0.2922865 -0.08869457 0.0831803
-0.033742953 -0.012777157 -0.13341333 -0.07188307 -0.1789462 0.04643064 0.08159319 0.08690545
0.025118394 -0.04897472 -0.24179494 0.022299465 0.08603019 -0.13951002 -0.043352097 -0.029027332
-0.10467982 -0.073108315 0.1316563 -0.13226411 0.2622567 -0.23886617 -0.050709296 0.03217035
-0.06013127 -0.08088892 0.022472002 0.11922762 -0.0390471 -0.09234103 -0.13728146 -0.030278914
0.0016589941 0.016820068 -0.121667266 -0.2836652 0.042425722 0.017429266 0.028195923 -0.012797463
-0.08945486 -0.076236546 -0.006572729 0.13312069 -0.06688325 0.04445691 0.19481446 -0.031047484
-0.06697357 -0.11808632 -0.1999716 -0.06309451 -0.034438334 0.1166621 -0.20160618 -0.02272305
-0.16084576 0.1268891 0.16225278 0.07614483 0.05857285 -0.047438066 0.029475855 -0.058979116
-0.16123542 -0.17087556 0.029701723 -0.26537022 -0.12931545 -0.013776913 0.21045111 -0.13426876
-0.10811437 -0.05283912 -0.033698436 -0.13470803 0.021345755 -0.0363249 -0.11578448 -0.10094077
0.04060084 0.008933946 -0.08733352 0.07893648 -0.15447862 -0.049512 0.016741848 -0.0460449

bias f4 [128]
00000000: 54eb b13e c4e2 853e ed0a 083f 7cef 093f
00000010: 2884 603f 8b11 e03e 1019 263f 1249 733e
00000020: 4a9b 5e3f 4198 3c3e 0d8e 5b3f 6380 713f
00000030: 29a7 3f3f f2a3 50bd 5377 733f 69cb 713f
00000040: 6357 483e 166d 393f f0b9 843d 336a d93e
00000050: acfa b83e b8cd 7c3e 045c 2dbb 3e52 5d3f
00000060: ba63 1c3f a265 173f 3a15 dcbc 9df3 913e
00000070: 2db3 8dbd 10c4 e93e eb89 b33d 55e2 af3d
00000080: fe86 1c3f 92a1 2f3e bf34 653f 443b 84bc
00000090: 2898 6f3f 9dcb 0a3f 9dc2 cb3e 44f4 f1bd
000000a0: 0a30 563f f36b 433f e235 103f 108d 6b3d
000000b0: 6c95 5a3f b035 c33e 0510 1d3f b723 993b
000000c0: d52f be3d 5bd4 d73e 0b1b 523f b3a1 013e
000000d0: cd18 303f caac 1c3f ef18 143f 7f41 edbb
000000e0: 2434 293f 4a91 913d 9bcb 0e3f 6cbc 023f
000000f0: da18 2bbd 8326 393e 89cc 9d3c 78be d33e
00000100: 4476 a2bd 2671 663f 329c b43e 0eb5 5f3f
00000110: 5e98 ca3d 061e 943e 1ab1 e23e ad7b ef3e
00000120: b013 5d3c 0cd9 fc3e 1fff 6e3f 8e7e 033e
00000130: f1d8 453f 91ff 6e3e a627 1d3f b941 b93e
00000140: 5201 63bd 60dc f33e 2e2d 003d 66ad fe3e
00000150: ed22 5d3e 1de9 653e faa4 1a3e d2c9 383f
00000160: 9ed8 393d fd76 073f 89a7 133f b0b3 dd3e
00000170: 2f05 fc3e 174a 443f 593f 693e cfee 463e
00000180: 078e d2bb 0794 ad3e c9c5 113f 1c36 143f
00000190: c75e 1c3f 33e4 fd3e 99b2 5c3f 7991 c93d
000001a0: 4d60 323e 114b 9f3c 54d6 6e3f d1d9 43bd
000001b0: 5b1d df3e f8b0 c43d 7ae5 6d3f 22fb 0b3e
000001c0: 0f85 493f 57af d23d 3145 8c3e fd01 383f
000001d0: 1de0 373f 842c fb3e bdb5 43bd 4009 243f
000001e0: 61db 5e3e 9ff5 fb3e 0dcb 0b3f d695 353f
000001f0: a0f7 cf3e 740c 583f 0b8e 5bbd 0f7e 4d3f
0.34749854 0.2614957 0.5314167 0.5388105 0.87701654 0.43763384 0.6488199 0.23758343
0.869557 0.18417455 0.8576363 0.9433653 0.7486444 -0.0509376 0.9510395 0.94451004
0.19564585 0.72432077 0.06480777 0.42463836 0.36128747 0.2468785 -0.002645255 0.86453617
0.6108967 0.59139454 -0.02686559 0.28506175 -0.06918941 0.45657396 0.0876654 0.08588091
0.6114348 0.17151478 0.8953361 -0.016141541 0.93591547 0.5421694 0.39796916 -0.11814168
0.8366705 0.7633659 0.5633222 0.057507575 0.8538425 0.38126898 0.6135257 0.004673447
0.09286467 0.42154202 0.82072514 0.1265934 0.68787843 0.61201155 0.57850546 -0.0072404738
0.66095185 0.0710779 0.5577943 0.5106876 -0.041771747 0.18081097 0.019262569 0.41356254
-0.07932714 0.900164 0.35275418 0.8738564 0.09892343 0.28929156 0.44275743 0.46774045
0.013493463 0.49384344 0.93358034 0.12841246 0.7728415 0.23339678 0.61388624 0.36182955
-0.05542118 0.4762907 0.031293087 0.49741668 0.21595354 0.22452207 0.15101996 0.72182953
0.045372598 0.52915937 0.57677513 0.43301153 0.49222705 0.7667555 0.22778071 0.19427036
-0.0064256224 0.33901998 0.5694242 0.57895064 0.6108212 0.49588165 0.8621002 0.098422
0.17419548 0.019444974 0.9329579 -0.047815148 0.43577084 0.096040666 0.9292828 0.13670018
0.78718656 0.1028735 0.2739654 0.71878034 0.71826345 0.490574 -0.04778074 0.64076614
0.21763374 0.49210832 0.54606706 0.70931756 0.4061861 0.84394 -0.05360226 0.80270475

weight f4 [128, 128]
00000000: eced 44be 9e37 50bd f837 0f3d cfa2 e13b
00000010: 118a 6bbd 4903 733d f3c5 873d 9c2a 983e
00000020: f70c e0bd e7de f9be c01e bcbd 396c 32be
00000030: 65cb 2cbe 6013 01be e782 96be be4e a6be
00000040: 55a7 e63c 691b 053d d16a 6a3c 71c1 a7bd
00000050: 30a1 86bd ad19 13bd 3f2a 1abd cf44 023e
00000060: bfae b53d 83e4 c6bd 9176 6c3d 5276 be3d
00000070: 4fe3 a93e 17f1 953d 0805 bebd b2e8 8c3c
00000080: 4687 53bc de7d aebc 6d3b cdbd 4cd3 43bd
00000090: 42c8 753d 94d9 d43d 3bfa a83d ac72 e33d
000000a0: 4ccd b7be e457 03bd 227a a3bd 332d e0bd
000000b0: bfca e4bd 0827 15be 4077 0b3e 37ee 1a3c
000000c0: ea39 e8bc dc48 223d 3474 6c3a b210 3f3d
000000d0: c249 1c3e f4f3 20bd 070e d4bc 7fde 273e
000000e0: 0045 5abe 6e0e 253c 1457 75be e58c 27be
000000f0: bade c3bc 1e3a b83b ad54 31be 71ea aebd
00000100: f14d 443e 33d8 12bd eb32 5ebe 6ce8 83be
00000110: 0f19 dabd 3b36 d8bd a53e 32bd b28b 65bd
00000120: eb48 613d c166 d7bc d242 34be 0b02 203e
00000130: c157 4ebe de29 b33d 7377 be3c 61a6 ca3d
00000140: 3e4b ffbd f722 c93d c1c6 96bc 1607 cf3d
00000150: 28b2 ed3d de00 f53c 826f 77be 69bd 853d
00000160: e9b2 fcbd 9acb 833d 07aa 82bd 5617 02bd
00000170: 7e5c af3c ec24 e7bd 8944 9a3d cc70 583d
00000180: 4320 833d 9b82 97bd 7bc3 a7be 5110 29be
00000190: 3e66 053e ed00 87bd 3a58 0fbe 160b 45bd
000001a0: f546 dbbd f2e8 0dbd 911e d6be 880b 12bd
000001b0: 1bf3 b33c 91b2 32bd e95a 52be 3b89 023d
000001c0: 22ae 35be ea8a 1d3c 4521 f0bc 50d6 173d
000001d0: 793d 09be 6a5b f0bd f2b0 c1bd 4e17 98bd
000001e0: 1c8a 06be a613 15bc 3a2b 50be 6d5d 4bbe
000001f0: ecd9 7ebe 4b14 5cbe 18e9 8e3d 1ac7 2ebe
00000200: 1dd6 a83d d8a9 433d bef0 c73c 6c6b 7a3d
00000210: 92e9 673e 725e a73d 1c32 523d 75f1 fb3b
00000220: 8823 e43d 021a 0fbe 63fa d23d 0e1c 21bd
00000230: 5e1c 223e a9fc fb3d adb3 9e3d 94e9 493d
00000240: 10fc d5bc 14dd 2d3d b9a4 1c3d 8c2d 8fbd
00000250: e50e 693e 06fd 243d 53c4 25bc 4a46 45bd
00000260: c5d2 dd3d b49f 8d3e 31a6 c8bd d87c 14be
00000270: 2aaa 043e 9912 903d ce5f 803d e573 4b3c
00000280: d434 a23d 8aaa 6bbc b74d 893d 8495 82bc
00000290: 972e 1f3e 1a44 40bd 5069 fb3d 9099 c8bd
000002a0: e98e 9bbc c2ac 163e d150 393e ef79 b53d
000002b0: 51f4 d63d abd6 0f3d 36ea 6e3c 1d61 41bd
000002c0: 3e34 afbc ed3a 7fbd 7cf1 673d 0b91 f1bc
000002d0: 9919 1d3e 05ae af3d 7dda 9e3d 8f1c 993d
000002e0: 9282 443e fec1 d63d dd62 e93b 12c0 d93d
000002f0: 4128 a83a 6d5b c6bc b21a afbc a664 3cbc
00000300: 6072 6b3e 9199 3a3e eb66 753d 01aa b83d
00000310: 4346 3e3e a2c3 90bd c7aa e33c a5ce 013d
00000320: 9c9a 173e 99e7 47be 862b 8e3d ff55 513e
00000330: 7565 ab3d e4fb e5bd ea91 753d d164 373e
00000340: 53ff 243e 1380 afbc 05a9 95bd 12ba 82be
00000350: 720f 5abe 4729 223e e09c 013e aae2 6c3e
00000360: 80bb dd3d 0489 3c3d 9af3 533d f3a3 ad3c
00000370: 7af7 85bd 81e6 0b3e a745 43bc c7c2 13be
00000380: 490f d0bd f9aa 3a3d a21b b33d bb7a d93d
00000390: acd8 e13b 011e 313e b632 bf3d 7449 d23d
000003a0: 94a0 02bd 5d67 4fbc 2ff4 20bd 59f3 593e
000003b0: 1dda 0fbe d0cd c2bc 1b49 183d 3d45 ccbc
000003c0: de73 9dbd 5aea ab3d 30aa 393e 95c5 bebc
000003d0: 8170 bf3d 3c76 ac3e e09f 34be fe11 86bd
000003e0: bdda cd3c 3e33 b03d 4559 943d 4fcd a93d
000003f0: 1e39 e23d ee09 013d a82d 95bd 5855 863d
-0.19231385 -0.05083429 0.034965485 0.0068858634 -0.057504717 0.059329305 0.06629553 0.29720008
-0.10939973 -0.48802873 -0.091855526 -0.17424096 -0.16874464 -0.12605047 -0.29396746 -0.3248195
0.028155962 0.032496843 0.014307694 -0.08191193 -0.06573713 -0.03591316 -0.037637945 0.12721561
0.08871221 -0.09711554 0.05773026 0.092999116 0.33181235 0.07321375 -0.092783034 0.017200802
-0.01291067 -0.021300253 -0.100211 -0.04780893 0.060005434 0.10393062 0.08250853 0.11105856
-0.35898817 -0.03206624 -0.07982279 -0.10946121 -0.11171483 -0.1456567 0.13619709 0.009456209
-0.028347928 0.039620265 0.0009020001 0.04664678 0.15262511 -0.03929515 -0.025885595 0.1639347
-0.21315384 0.010074241 -0.23958999 -0.16362341 -0.023909915 0.0056221625 -0.17317457 -0.0854081
0.19170357 -0.035850715 -0.21699111 -0.2576326 -0.10649311 -0.10557219 -0.043516774 -0.056041427
0.05500118 -0.026294114 -0.17603615 0.1562578 -0.20150663 0.0874822 0.023250317 0.098950155
-0.12465523 0.09821122 -0.01840532 0.101087734 0.11606246 0.02990764 -0.2416363 0.06530268
-0.12338812 0.06435318 -0.063800864 -0.031760536 0.021406408 -0.11286339 0.07532603 0.052841946
0.06402638 -0.07397958 -0.32766327 -0.1651013 0.13027284 -0.065919735 -0.139985 -0.048106275
-0.10706893 -0.034645982 -0.41820195 -0.03565553 0.021966508 -0.043627325 -0.20542492 0.031869154
-0.17742208 0.009615639 -0.02931274 0.03706962 -0.13402356 -0.11736186 -0.09457578 -0.0742632
-0.13138622 -0.009098923 -0.2032899 -0.19859858 -0.24887818 -0.21492116 0.06978053 -0.17068139
0.08243964 0.047769397 0.024406787 0.0611376 0.22647694 0.08172311 0.05131732 0.007688696
0.111395895 -0.13974765 0.10301664 -0.039333396 0.15831134 0.123040505 0.07749114 0.049295023
-0.02612117 0.042447165 0.03824303 -0.06991109 0.22759588 0.040280364 -0.010117608 -0.048162736
0.10831217 0.27660906 -0.097973235 -0.14500749 0.12955537 0.07034797 0.06268273 0.012417768
0.079202324 -0.014383921 0.06704276 -0.015940435 0.15545116 -0.046939947 0.12275946 -0.09794915
-0.018989043 0.1471434 0.18097235 0.088611476 0.104958184 0.035116833 0.014582207 -0.047211755
-0.021387216 -0.062312055 0.05662678 -0.029488107 0.15341796 0.085781135 0.07756517 0.0747615
0.19190434 0.1048622 0.007122381 0.10632338 0.0012829379 -0.024213517 -0.021375034 -0.011498606
0.2299285 0.18222643 0.059912603 0.09016801 0.1858149 -0.07068564 0.027791394 0.031691212
0.14805073 -0.19521941 0.06941895 0.20442961 0.08368961 -0.11229685 0.059953608 0.17909552
0.16113023 -0.021423375 -0.073076285 -0.25532585 -0.21294954 0.15836059 0.126575 0.2313334
0.108267784 0.046029106 0.05174599 0.021196341 -0.06541343 0.13662149 -0.011918462 -0.1442977
-0.101591654 0.04557321 0.08745505 0.10619112 0.0068922844 0.17296602 0.09335844 0.10267916
-0.03189142 -0.012658921 -0.03929537 0.21284236 -0.14048047 -0.02377978 0.037179094 -0.02493536
-0.076881155 0.083943084 0.18131328 -0.023287574 0.0934763 0.33683956 -0.17639112 -0.065464005
0.025128717 0.08603524 0.07243589 0.08291113 0.110460505 0.03150361 -0.07284099 0.06559247

bias f4 [128]
00000000: 9a1f 073f 0714 7c3f 2596 803f 084c 143f
00000010: 24fd 263f 254f 0b3f 15ae b5bd 416f 153f
00000020: d6e8 e93e bf98 3e3f 165c 2f3e 914e 603f
00000030: ea39 bf3e 218a 423f 4733 153f b54f e13d
00000040: 819c 133e 0139 2a3f 98c5 123f 57c4 0d3d
00000050: 61c2 653f 382c 103f 9ad0 383d c859 4e3c
00000060: 03cb 163e 1fd1 753f 1e6d a43d 3a8a 053f
00000070: 8267 193f b22c 2c3e 7cfa 033f 1045 a23e
00000080: dd5a 343f 41f8 2c3e 5d29 b13e 95ff 983e
00000090: e69c ba3e fabf ff3e 4405 773f 8d50 483f
000000a0: 3cbd 763f 8a68 003f 7fec 373e b11b 573d
000000b0: a4bf 833f 665d fe3e 8ffd cc3e b7fe 473f
000000c0: cf27 6c3f 629e e53e a00e 593f acf7 883e
000000d0: 662f 5a3e ae75 abbc c190 033f 44a3 4f3e
000000e0: d653 bd3d 8baa 433f 5cba e63c 1982 733e
000000f0: 2aa0 a53c ed20 1f3f f1c9 263f 50b9 533f
00000100: c49d 363f fe11 1c3f 8e59 3d3f c439 373f
00000110: 0548 6c3f f931 183f fce6 db3e b844 223f
00000120: 2adb 2a3f 2d09 4a3f 1034 d53e deb6 b73c
00000130: 7fd8 2c3f 381b ce3e 2517 733c 267c 353d
00000140: 4ec9 0a3f 022c 203f 6aab 0d3f 76cc 693f
00000150: d590 563f f24e 2d3f 7ee6 073f f2e0 253e
00000160: 20a3 723f 15ab 943e cb22 de3e 5468 6a3f
00000170: 4b02 9c3d a48c 443f d32f 773d 1eb7 543f
00000180: 4007 b73e cae8 b43d 6d5a 0b3f e7eb 453f
00000190: 6822 e73e 6761 143e 6c25 be3e a3c9 6e3e
000001a0: 04a8 c63e 5427 c83e ef2b 403f 85ea e13e
000001b0: 437d 813f fb2c 033f 183f 0b3e 3e3d 033f
000001c0: 9e94 183f 9c34 0cbd 8eeb 3f3f 368c d13d
000001d0: 49ce 5a3e 81cd 323f 6b55 4b3e 49ff 063f
000001e0: fb8b 243e 84d9 613e 81df a6bc 283e 6a3d
000001f0: 923f 173e 25dd e23e f6c3 fe3e 301b 663f
0.52782595 0.9846806 1.004582 0.57928514 0.6523001 0.5441764 -0.08871094 0.58372885
0.45685452 0.7445182 0.17124972 0.8761988 0.37348872 0.7599202 0.5828137 0.11001531
0.1441517 0.6649323 0.57332754 0.034611072 0.89749724 0.5631747 0.045120813 0.012594648
0.1472588 0.9602222 0.08028625 0.5216404 0.59923565 0.16813925 0.51554084 0.31693316
0.70451146 0.16891576 0.3460187 0.29882494 0.3644783 0.49951154 0.9649241 0.7824791
0.963825 0.50159514 0.1796131 0.052516643 1.0292859 0.49680632 0.400372 0.7812304
0.92248243 0.448474 0.8478794 0.2675146 0.21307144 -0.020930137 0.5139275 0.20277125
0.09244506 0.764321 0.028165035 0.23780097 0.020217974 0.62159616 0.6515189 0.8270464
0.7133448 0.60964954 0.73964775 0.7157252 0.92297393 0.5945125 0.42949665 0.63386106
0.6674067 0.7892025 0.41641283 0.022426065 0.67517847 0.4025514 0.014837061 0.04430785
0.54213417 0.6256715 0.5533968 0.9132761 0.83814746 0.67698586 0.5308608 0.16199091
0.9478016 0.29036775 0.4338592 0.9156544 0.07617625 0.767771 0.060348343 0.83091915
0.3574772 0.088334635 0.54434854 0.77313083 0.45143437 0.14490281 0.37137926 0.23319106
0.3880006 0.39092505 0.7506704 0.44124237 1.0116352 0.5124051 0.13598287 0.51265323
0.5960177 -0.03422986 0.749688 0.10231821 0.21367754 0.69844824 0.19856803 0.52733284
0.16069023 0.22055632 -0.020370247 0.057188183 0.14770344 0.44309345 0.4975888 0.89885235

weight f4 [5, 128]
00000000: 389e 863e ace9 b83c bf65 25be 9a8f 363b
00000010: fa01 873c 3f49 8bbc 427c a63e 2807 febd
00000020: dce5 dd3d d840 a23d 595a dd3e 0c2e 0bbc
00000030: cbd9 25be ca09 223e 6fb8 1d3e 2655 fa3d
00000040: b2a4 883d 9355 41bd e7f6 7c3d 1873 1dbc
00000050: dca9 9f3e 427a 263e 08e9 be3d 1ae3 753d
00000060: 82c9 eb3c 95d5 233e 43ca bebe ee85 39bc
00000070: 55cb 92be 4866 7abe bad6 843e daed 503e
00000080: 3696 28be 8239 4bbe 4129 f73d 3716 183e
00000090: 7be6 48be 253d 99be 56b2 4a3e a786 fc3d
000000a0: fd6e 473e 4436 543d faa5 4f3d 25e1 6b3d
000000b0: a2eb 033e 53d6 b13d dcf6 963d 9d41 b33c
000000c0: 2d15 043e fc06 4ebe a69a b53d a4ca d7bd
000000d0: 68b1 1c3e 95a5 463e ab28 7fbe 0eaf 5abc
000000e0: 899c b33c 44c8 62bd 8769 4a3d a3f4 943c
000000f0: 91a8 87bd 84f9 a53d cae6 01be 753c 773e
00000100: 70f5 223d 8eb4 e23d b086 9b3d 6081 7fbd
00000110: 44c8 2f3d 08ec 533d ff71 0dbe ea2a 95be
00000120: 8e6b 8d3b 2836 3bbe 68a9 803b 98f4 c63b
00000130: f802 aebd 9bde 1ebb f562 843e 1241 27be
00000140: 5186 353e 1d4e 60bc 6996 82bd 13ce f9bd
00000150: ff08 c2be 0ffb d5be 68d1 fabc ec15 d83c
00000160: d9f0 b93d 7617 b1be b9a6 cb3b 4ce6 c63d
00000170: 3f46 893d 57cb b73d ce70 21be ee72 7f3e
00000180: 71fd fe3c ff55 68bc 47ff 2f3a a0d2 303e
00000190: 5ae9 8bbd 8309 dc3b 5c23 9abe 7d49 1bbd
000001a0: 8e28 083e 8bdb fe3d fd3d 063e f946 8ebe
000001b0: 30e7 70be 93bd a3bb c31b b4be 0b9f 08bc
000001c0: 4257 cdbd 1bd0 d7bd 0897 1e3e 5eda c6bd
000001d0: 838c cebd ad79 e0bd 7d6a e83c d4cc 993e
000001e0: f9fa 88bd 954d fa3d bfad 02bd 6558 a13e
000001f0: 0eba dc3e f821 a23d 7084 3b3e cf93 3cbc
00000200: d872 63bb aede e73d e671 b9be 3e87 043d
00000210: a3b1 85bc dbf2 803d 2b89 253f 8add 92be
00000220: 5134 693d 544b b83d aafb c53d e3d7 ad3d
00000230: a960 713c f111 0a3e 410e 8abc e2a8 de3b
00000240: 7b49 213c 630e 0ebe 561d ccbd 1354 663b
00000250: 9813 fdbd e0c7 db3d a7aa 7a3d be90 b83d
00000260: 6f19 ce3d 81ef 793e b91e 59bd 33b1 e83c
00000270: d8b8 83bd d186 34be aef0 c23c 8b52 3f3d
00000280: 66ca 3d3d f5ae cdbc aad9 9dba 894f 583e
00000290: bdc0 08be 894f 90be 4250 b23e e1c0 7d3d
000002a0: 893a 163e aa4f af3c 94c6 123e 67ea b33e
000002b0: aecf cdbc f414 d23c 00d5 043e f537 8e3c
000002c0: 5edf 2b3e a988 82be cf06 233d 6675 c73c
000002d0: 6809 9b3d fecc 3f3e c7ee abbe fb1b 69be
000002e0: 79da b6bc 7069 d83d c4b3 39be afa4 38bd
000002f0: bdb0 edbd f911 af3d 6208 98be bbe6 1d3e
00000300: 87ae 9c3e 2bcc 58bd 93fa 413e 65be b0be
00000310: 73bb 6abd 2d06 b739 276a 43be 9126 15be
00000320: 3d97 963d 7b3c a2bd d07b 863d 2125 5b3e
00000330: d8c0 afbd 5f32 a13c 8ae5 1c3e 5850 ecbd
00000340: df14 a53d 8b68 1a3c c4f5 14be 04a8 873e
00000350: 8f1d 8dbe 014b 34be efc4 07be 669b e03d
00000360: 85fb d43d 8389 8abe 49ea 333e 3a19 cebc
00000370: a39c 2b3d b886 873d 7834 07bf bd8c 5c3d
00000380: 9874 39bc 41e6 763e 7b9e d23d e578 e2bc
00000390: 7958 48bd 815b cb3d fe97 e6bd 72f0 b43d
000003a0: 791c b33d 8542 36bc b6ca f33d 02ac dbbc
000003b0: 4f56 02be 26a8 babc a419 15be a162 173d
000003c0: 0e64 0b3d 37e2 e13c c896 683d 4181 79bd
000003d0: bbcd a8be d996 92bc 97fc d93c 8ae4 433d
000003e0: 659c cebe d44c 5b3e 00e6 ba3d a772 8abd
000003f0: 4f6c ec3d b9bd 023e b5b2 f53d 66ce 103e
0.26292586 0.022572361 -0.16152094 0.002785659 0.016480435 -0.0170027 0.32516676 -0.12403709
0.10834858 0.07922524 0.43232992 -0.008494865 -0.16196363 0.15824047 0.15402387 0.12223272
0.06672038 -0.04720075 0.061758902 -0.00960996 0.3118428 0.16257575 0.09321791 0.060031034
0.02878261 0.15999444 -0.37263688 -0.011323435 -0.28670755 -0.2445308 0.25945073 0.20403233
-0.16463551 -0.19846156 0.120684154 0.14852224 -0.19619171 -0.29929462 0.19794592 0.123303704
0.19475932 0.051809564 0.050695397 0.05758776 0.12882856 0.08683457 0.073713034 0.021881873
0.12898703 -0.20119852 0.088673875 -0.105366975 0.1530205 0.19399102 -0.24917857 -0.0133474
0.021925228 -0.05536677 0.049417045 0.018183058 -0.06623948 0.08104232 -0.12685695 0.24144156
0.03978485 0.11069594 0.07594049 -0.06237924 0.042915598 0.05173877 -0.13813017 -0.29134303
0.0043158 -0.18282378 0.003926445 0.0060716383 -0.0849666 -0.002424157 0.25856748 -0.16333416
0.17727019 -0.013690499 -0.06376345 -0.12197509 -0.37897488 -0.41793105 -0.03061743 0.02637764
0.09079141 -0.34588212 0.0062149432 0.097118944 0.067028515 0.08974331 -0.15765688 0.24946186
0.03112671 -0.014180659 0.00067137595 0.17267847 -0.06831618 0.006715001 -0.30105102 -0.03791188
0.1329672 0.12444218 0.13109584 -0.27788523 -0.23525691 -0.0049969642 -0.3517743 -0.0083387
-0.10026409 -0.1053774 0.15487301 -0.09709619 -0.10085394 -0.10960708 0.02837109 0.30039084
-0.06688494 0.12221829 -0.03190398 0.31512752 0.43110698 0.07916635 0.1831224 -0.01150985
-0.0034705903 0.1132177 -0.3621971 0.03235554 -0.016320055 0.06296321 0.64662427 -0.28684646
0.05693466 0.08998743 0.09667142 0.08488443 0.014732518 0.13483407 -0.0168525 0.0067950347
0.009844179 -0.13872676 -0.09966533 0.0035145327 -0.12357253 0.107314825 0.061197903 0.090119824
0.10063445 0.2440777 -0.053007815 0.028404808 -0.064317405 -0.17629553 0.023796406 0.04670958
0.0463356 -0.02510784 -0.0012043018 0.2112409 -0.13354774 -0.2818568 0.34826857 0.06195152
0.14670767 0.021400291 0.14333564 0.35139772 -0.025123443 0.025644757 0.12971878 0.017360667
0.16784427 -0.25494888 0.039801415 0.024347972 0.075701535 0.18730542 -0.3358061 -0.2276458
-0.022320973 0.105669856 -0.18134981 -0.04507893 -0.11605976 0.0854835 -0.29693896 0.15420048
0.30601904 -0.052929085 0.18943243 -0.3452026 -0.05730767 0.0003490908 -0.19083463 -0.14565493
0.07353065 -0.07921692 0.06566584 0.21400882 -0.08581704 0.01967734 0.15321937 -0.11538762
0.080606215 0.009424339 -0.14546877 0.26495373 -0.27561614 -0.17606737 -0.13258718 0.1096714
0.10399536 -0.27058038 0.17569841 -0.025158513 0.041897427 0.066174924 -0.52814436 0.053845156
-0.011319302 0.24111272 0.10284134 -0.027645538 -0.0489125 0.09929562 -0.11259459 0.08834924
0.08745665 -0.011124258 0.119038984 -0.026815418 -0.12728237 -0.022785258 -0.14560562 0.036959294
0.034030966 0.027573688 0.05678442 -0.06091428 -0.3296946 -0.017894195 0.026609702 0.047825374
-0.40353695 0.21416026 0.091259 -0.067601494 0.11544096 0.12767686 0.11996976 0.14141235

bias f4 [5]
00000000: 78c5 673e 89fc 7e3f f38d c33e 5c59 653f
00000010: 9e71 d73e
0.22633922 0.9960409 0.38194236 0.89589477 0.4207887
