DQN一阶无领航机器人编队控制/dqn.pt (torch, 206551 bytes, 10 tensors)

weight f4 [128, 2]
000000 ac d9 88 be c3 1c 21 3c 4d d2 67 bd 64 ff 6a be
       -0.2672857 0.0098335175 -0.056597043 -0.22948986
000010 51 14 5b be dc 25 8b 3e f2 45 4b be f1 b9 ca 3b
       -0.21394469 0.27177322 -0.19850901 0.0061867167
000020 2a 7d f6 3d f0 a7 25 3b 15 9d 54 be 7f 55 09 3b
       0.12035592 0.00252771 -0.20763047 0.00209555
000030 a5 a7 d8 bc e5 c0 06 3e 2b 3a 66 3d 32 f5 99 3e
       -0.026447127 0.13159521 0.056207817 0.30069882
000040 55 12 13 be 13 e1 59 bd 49 22 33 be 89 49 b7 bc
       -0.14362462 -0.053193163 -0.17493547 -0.022373931
000050 79 26 42 be 6c b7 b1 3a 40 51 b5 be 77 b1 c5 bd
       -0.18959989 0.0013558692 -0.3541355 -0.09652989
000060 be 12 86 be e3 29 5b 3c a6 4c 21 3d 37 76 47 be
       -0.26186174 0.013376686 0.03937974 -0.19478689
000070 0c 0b 17 3e 27 e2 5c be 97 a9 42 be 72 d0 8f 3d
       0.14750308 -0.21570645 -0.19010006 0.0702218
000080 78 e1 88 be 93 61 aa 3d 3d fa 97 3e b8 60 62 be
       -0.2673452 0.08319392 0.29683104 -0.22107208
000090 e3 d9 8b be 1b 45 5c 3d 2d a4 27 be f1 d0 a9 bc
       -0.27314672 0.05377684 -0.16371222 -0.020729514
0000a0 09 77 2d be db 43 09 bd e3 41 20 bd f9 30 47 be
       -0.1693994 -0.033511978 -0.039125334 -0.19452275
0000b0 fb 30 23 be 14 56 c5 bd f3 89 89 be 49 cd 24 3c
       -0.15936653 -0.09635559 -0.2686306 0.010058709
0000c0 0f 0c c8 bd ff 8a e7 bc 55 22 65 3d 20 45 95 be
       -0.09767925 -0.02826452 0.055940945 -0.291543
0000d0 3f 3d 81 bd 17 5c f7 3d 1c 58 25 be 02 e5 87 bc
       -0.0631051 0.120781116 -0.16146892 -0.016588692
0000e0 e7 11 1a bd 63 13 3d bd f4 8d 98 be 88 30 00 3d
       -0.03761473 -0.046161067 -0.29795802 0.031296283
0000f0 f1 ec 39 3e 18 26 93 be f2 32 15 be 22 7a 21 bd
       0.18156792 -0.2874 -0.14570215 -0.039423116
000100 9e ac 8d be 2a 41 00 3c ba 4b e4 bd 0e 2a 54 3e
       -0.2767076 0.007828036 -0.11147256 0.20719168
000110 da 81 5c be 54 3f ba bd 52 e2 32 3d 9f 75 17 be
       -0.2153391 -0.0909411 0.043672867 -0.14790963
000120 93 2e 32 be 51 20 d5 3b 89 4b a8 bd 2e 42 5f be
       -0.17400579 0.0065040966 -0.08217532 -0.2180259
000130 1b d3 ba bd c9 26 ee bd 04 b6 5e be 63 8b c0 3c
       -0.091222964 -0.116284914 -0.21749121 0.023503965
000140 8e 8b 29 3e a3 d1 aa 3e ca a1 84 be 57 e5 e1 bc
       0.16557142 0.33363065 -0.25904685 -0.027575178
000150 56 3d 60 be 51 af 6b bd 7d 74 b8 3b c2 ee 92 be
       -0.21898398 -0.05754024 0.005629121 -0.28697783
000160 63 50 a7 be f7 88 25 be 46 30 31 be 80 66 84 3e
       -0.32678518 -0.16165529 -0.17303571 0.2585945
000170 b0 aa 61 3d 5e b9 b6 3d a2 84 bc bd 08 a5 a8 bc
       0.05509442 0.08922075 -0.09204985 -0.020586506
000180 35 69 07 bd a1 43 d6 bd 68 d8 a3 3d 32 4c 35 be
       -0.033059318 -0.10462118 0.080002606 -0.17704847
000190 ac 3c 28 be 9b 23 39 3e a5 c5 21 3e 6f a9 ac 3e
       -0.16429394 0.18079989 0.15798052 0.33723018
0001a0 e1 f8 49 3e bc 36 07 be d1 19 ac be 19 c3 e4 3d
       0.19723846 -0.13204473 -0.33613446 0.111700244
0001b0 a4 2e 04 bd e9 a4 e8 bd 61 50 88 be e8 b8 1d 3e
       -0.032271042 -0.11359579 -0.26623824 0.15402567
0001c0 5e cf 6e be e8 a0 98 be 17 a9 a8 be f1 3e 35 3c
       -0.23321292 -0.29810262 -0.32941505 0.01106237
0001d0 58 75 8f be e6 fc 42 be a7 4a b3 bc f5 ab ab be
       -0.28019214 -0.19041786 -0.021886183 -0.3352963
0001e0 96 b0 de bd 9f ab a9 bd 35 b6 ed be 2e 66 cc bd
       -0.10873525 -0.08284687 -0.46428075 -0.09980427
0001f0 10 fe 45 3c ba fd 8d be 17 60 5f 3d 65 9f 20 3e
       0.012084499 -0.2773264 0.054534998 0.15685804
000200 e8 ab 08 be 56 f2 23 bd 4f cd aa bd fc 6c ad bd
       -0.13346827 -0.04002603 -0.08339941 -0.08468053
000210 3d 84 85 3d 21 65 05 be d3 5e 9f be 66 cb e7 bd
       0.06519363 -0.13026859 -0.31127033 -0.11318092
000220 83 b3 13 bd a3 6c 9d 3c 5d ac 55 3d f7 43 7e 3d
       -0.036059868 0.019216841 0.05216633 0.062076535
000230 47 63 83 be b0 ee 18 3d 60 54 b4 3e c8 75 37 be
       -0.2566168 0.037337005 0.35220623 -0.17916024
000240 6d e6 eb 3d 9b 6a 0a be 9a d9 8e 3d 26 29 84 be
       0.115185596 -0.1351723 0.06975098 -0.25812644
000250 09 ab 9f bc 82 25 14 be 32 b3 a9 bd 8c 78 0c 3d
       -0.019490736 -0.14467433 -0.08286132 0.03429465
000260 16 22 92 3e f8 3b a2 3d 04 70 11 be 32 33 7a 3d
       0.2854163 0.079215944 -0.14202887 0.06108398
000270 47 d0 ed 3d cf d3 93 be ea bf 23 be 04 ef e7 bc
       0.116119914 -0.28872535 -0.15991178 -0.028312214
000280 9e 04 25 be 87 59 1e 3b 0c 38 50 be 89 26 90 3a
       -0.16115043 0.002416225 -0.2033388 0.0010997812
000290 1d 49 8f bd d9 5d 2d be da 68 1c bd 47 60 13 be
       -0.06996367 -0.16930331 -0.03818593 -0.14392196
0002a0 84 9b 81 be 33 56 05 3d cc c8 1a bd 23 09 25 be
       -0.25313962 0.03255291 -0.03778915 -0.16116767
0002b0 09 87 1a be 4d e6 ec 3a 39 ef 26 be 15 58 cf bd
       -0.15090574 0.0018074006 -0.16302194 -0.10124222
0002c0 a8 06 1f be 72 64 df bc 17 dc 78 be e5 31 a0 be
       -0.15529883 -0.027269576 -0.24302708 -0.31288067
0002d0 68 71 92 3e e0 ba 1e be 2e 03 04 be 96 c5 87 bd
       0.28602147 -0.15500975 -0.12891838 -0.066294834
0002e0 3e b1 01 be 2e 27 be 3d ea 5c 81 be b8 8a e7 3b
       -0.12665269 0.09284817 -0.252662 0.007066097
0002f0 45 45 9a 3e 60 f4 0d be 82 39 73 3d a4 df 8e be
       0.30130973 -0.13862753 0.059381016 -0.27905
000300 65 46 15 be f1 cb dd bd c6 ea 50 be eb 45 2f bc
       -0.14577635 -0.10829914 -0.20402059 -0.010697822
000310 bf 1e 44 be 88 d7 62 3e be 51 20 be b4 0e a0 be
       -0.19152354 0.22152531 -0.15656182 -0.31261218
000320 46 6e 73 be 64 bb 4a be 61 ee 1a bc 5b a5 a2 be
       -0.23772535 -0.19798046 -0.009456248 -0.3176678
000330 73 04 1c be f0 a3 60 3e 66 6c 03 3e c1 71 c7 bd
       -0.15236072 0.21937537 0.1283432 -0.09738494
000340 da 5c 03 be a4 89 8c 3d 1c f0 a1 be b0 6f 43 3e
       -0.12828389 0.0686219 -0.316285 0.19085574
000350 b2 c0 15 be ab 39 70 be dd cd 77 be ba f6 ee 3b
       -0.14624289 -0.23459499 -0.24199624 0.0072925957
000360 7f 31 45 be 8c 0e 8f 3d 83 de 92 be 2b d5 eb 3c
       -0.19257163 0.069851965 -0.28685388 0.02878817
000370 59 b5 de bd e3 0e 1d 3c a8 df 3f be e9 e1 4d 3d
       -0.10874433 0.009586069 -0.18737662 0.050264273
000380 3c 2f 2b be d2 e9 14 bd ec 3a 0f bf 96 ed 8d bd
       -0.16717237 -0.0363558 -0.5594928 -0.069300815
000390 a4 d3 85 be d4 3f 1f 3d 4b a3 31 be 6b d2 77 3e
       -0.2613803 0.03887923 -0.17347448 0.24201362
0003a0 5f 7f 20 be a1 00 67 bd d9 81 62 bd 86 f9 9b 3e
       -0.15673588 -0.056397084 -0.055299614 0.3046381
0003b0 67 e4 0b be 50 ef 2f 3d c4 6a 03 be 5d a7 9b bc
       -0.13661347 0.042952836 -0.12833697 -0.019000703
0003c0 43 96 14 be 4c c2 85 bd f8 64 0c be 4a 3a da bc
       -0.14510445 -0.065312 -0.13710392 -0.026639123
0003d0 36 0a ea 3c 80 85 3d be 37 81 33 be f1 15 b9 bd
       0.028569322 -0.18507957 -0.1752976 -0.09037388
0003e0 f9 42 c7 bd 4a 1a a6 bd 18 cb b0 bd 10 05 0c bd
       -0.09729571 -0.08110483 -0.08632487 -0.034184515
0003f0 89 5d 20 be f9 4f 83 3e 97 9b 66 be cd 27 19 be
       -0.15660681 0.25646952 -0.2252029 -0.14956589

bias f4 [128]
000000 6d 58 53 3f e4 6f 87 bd 89 fe b1 3d f7 0f 21 3f
       0.825568 -0.06613138 0.08691127 0.62914985
000010 c5 75 bd bd d3 2f 26 3f 40 39 42 be 9a 97 5f bc
       -0.092509784 0.64916724 -0.18967152 -0.0136469845
000020 84 e6 43 3e ce 4a 06 3f 94 05 15 3f 84 bb e2 3d
       0.19130903 0.5245789 0.58211637 0.11070922
000030 92 f1 51 3f f3 72 01 3f fb d8 e5 3e 83 f2 8a 3e
       0.8200923 0.50566024 0.44892105 0.27138147
000040 9e 3e ae 3d c6 1b 06 3e fb b2 29 3f a5 24 fb 3e
       0.08508037 0.13096532 0.6628873 0.49051395
000050 c2 86 46 3f 87 2f 41 3f 9d 18 60 3f f3 76 55 3f
       0.77549374 0.75463146 0.87537557 0.8338463
000060 32 98 70 3e 5e 09 5d 3f 54 5a 0c be 81 4c 0b 3f
       0.23495558 0.8634242 -0.13706332 0.5441361
000070 6d 13 de bd d7 e7 80 3f 25 b6 3a 3f 2a 4c 33 3f
       -0.10843549 1.0070752 0.7293418 0.7003809
000080 45 e7 5a 3f 20 b0 16 3e 4b 44 fd bc c7 e1 b0 3e
       0.8550914 0.14715624 -0.030916354 0.34547254
000090 c8 02 0b 3f 0d 4f 79 3f ec de 53 3f 36 1a 3a 3f
       0.5430112 0.97386247 0.82762027 0.72696245
0000a0 ac 8c ad 3d 49 20 85 3f e0 01 56 3f 1b a3 69 3f
       0.08474097 1.0400478 0.8359661 0.91264504
0000b0 c8 08 91 3c 2c 14 f3 bd a9 93 5d be bc 09 60 3e
       0.017704383 -0.11869082 -0.21638359 0.21878713
0000c0 b0 e4 9c 3e 73 69 b0 3e a2 5b 2b 3c de 2a 1a 3d
       0.30643225 0.3445545 0.010458859 0.037638538
0000d0 68 01 94 3c 46 4d 6e 3f b0 8b 12 3f 93 fe 29 3e
       0.018067077 0.9308666 0.57244396 0.16601019
0000e0 79 7e 3d 3e f0 4e 86 3f d1 18 c9 3e ce f2 4c 3c
       0.18505277 1.049284 0.39276746 0.012509061
0000f0 81 9a 36 3f b2 dd e9 3d 17 58 84 3e e6 9a 9e 3d
       0.71329504 0.11419238 0.25848457 0.07744388
000100 44 25 ce bc 24 1f c7 3d b1 51 71 3e 38 6b 65 3f
       -0.025164254 0.097227365 0.23566319 0.8961673
000110 df e4 09 bd 82 27 2c be c4 90 60 3f 61 1f b4 bd
       -0.033665534 -0.16811946 0.87720895 -0.087950476
000120 b9 93 a9 bd 41 2c 1e 3f 17 af 07 3f 74 eb 10 bc
       -0.08280129 0.61786276 0.5300154 -0.008845199
000130 b1 f6 20 3e 87 7c 2c bd 3f ae 14 3f 2a 4a 11 3f
       0.15719105 -0.042110946 0.5807838 0.5675379
000140 be d1 fd 3e a1 e0 30 3f b1 95 46 3f 79 74 1a 3f
       0.49574083 0.69092757 0.7757216 0.60333973
000150 ac 17 ef 3e b7 ad 3e 3f e3 44 ef 3e cf 4b 2c 3f
       0.46697748 0.7448382 0.46732244 0.67303175
000160 f6 87 d4 3e 0b 18 6a 3f 9d 66 0f bd 0a b8 e8 bd
       0.4150998 0.91442937 -0.03500997 -0.11363228
000170 87 3a d2 bd d0 90 47 3f 6a 30 c0 bd 79 8e 3a 3f
       -0.102650695 0.7795534 -0.09384234 0.72873646
000180 45 5a 7e 3f d2 53 4f 3f 4f 52 9f 3d 91 25 f8 3e
       0.9935649 0.80987275 0.07779371 0.4846616
000190 59 b9 a2 3e b2 08 85 bb a0 6c f7 bd 3b a5 f8 3d
       0.31782034 -0.0040598745 -0.120812654 0.1214089
0001a0 c5 5d 0b bc ee 7d ed 3e eb 6c 05 bd 90 12 44 3f
       -0.008506243 0.4638514 -0.032574575 0.76590824
0001b0 b3 ad 51 3e 61 da 46 3f ee 18 c3 3c e8 b7 21 3e
       0.20476417 0.7767697 0.023815598 0.15792811
0001c0 9a b4 46 3f 06 45 75 3e 19 b8 05 3f df d0 06 be
       0.77619326 0.23952112 0.52234036 -0.13165615
0001d0 35 6f ea 3e 77 96 26 3e 1e 2b d4 3b c0 d8 73 bd
       0.4578797 0.16268335 0.0064748665 -0.05953288
0001e0 69 55 5a 3f 64 55 d0 3e 84 60 25 3f ab a2 4f 3f
       0.85286576 0.40690148 0.64600396 0.81107587
0001f0 a8 cc 2b 3f cc ba 4d 3e 27 ad ea bd 4d c1 23 3f
       0.67109156 0.20090789 -0.114588074 0.6396683

weight f4 [128, 128]
000000 3f 4d 32 3d 58 70 3e 3e 6b f9 0e bd aa 9e ee bd
       0.0435307 0.18597543 -0.034905832 -0.116513565
000010 5d 2c 0a be 82 3e 34 be 58 94 1e be 77 d0 f6 3c
       -0.13493486 -0.1760197 -0.15486276 0.0301287
000020 b5 47 10 be d4 91 70 be 78 49 08 bd ec cb 84 bd
       -0.14089854 -0.23493129 -0.03327319 -0.064842075
000030 22 d9 1b be 30 d2 b8 3c 5d 30 1c be 21 f1 c6 bc
       -0.15219548 0.022561163 -0.15252824 -0.024284901
000040 bd e3 af 3d 96 13 45 be 8b 95 9d 3d e3 2d 79 bd
       0.085883595 -0.19245753 0.07694539 -0.060834777
000050 00 54 33 be b3 e9 15 be cd 2f b2 bd 7c 2f d7 bc
       -0.17512512 -0.1463993 -0.087005235 -0.02626776
000060 cf bd e6 bc 2a 24 a6 3d 3b a4 90 be 00 3f 11 be
       -0.02816668 0.081123665 -0.28250298 -0.14184189
000070 a2 07 3c be e0 9b d5 bd 9b 72 84 be 27 0b 45 be
       -0.18362287 -0.104301214 -0.25868687 -0.19242536
000080 a6 22 5e 3c aa a1 d6 bd 3e 5b 52 bd cc df 74 be
       0.0135580655 -0.10480054 -0.051356547 -0.23913497
000090 f9 10 8a be 63 58 ae bd 2a 36 fa bd 64 1a 9f bd
       -0.26966074 -0.08512952 -0.12217362 -0.077687055
0000a0 3e 75 15 3e e2 5e 2f bd f4 8b 30 be c8 48 67 3d
       0.14595506 -0.042815097 -0.17240888 0.056465894
0000b0 b8 3a af 3d 18 0b 0d bb 84 7a 64 bd ee 39 1b be
       0.085561216 -0.0021521505 -0.055780903 -0.15158817
0000c0 e5 2a 17 bd 29 f4 4e be d7 95 da 3c 2b 47 82 bd
       -0.03690614 -0.20210327 0.026682777 -0.063612305
0000d0 76 b6 8d 3c 66 66 57 be 66 dc 47 be cf 71 e9 bd
       0.017298918 -0.21035156 -0.19517669 -0.113986604
0000e0 b0 dd a1 bd 80 06 39 bd d7 b9 e2 bd 2b a1 6c be
       -0.07903612 -0.045172215 -0.110706024 -0.23108356
0000f0 1e 25 84 be 3e 26 8e bc 1e a9 e0 3d 02 cc 99 bd
       -0.25809568 -0.01735222 0.109697565 -0.075096145
000100 4f 3d f3 3c cc de 1f be 8f 7b e9 bc 85 ee 5b 3d
       0.02969232 -0.15612334 -0.0285013 0.053694267
000110 d2 44 a2 bc ab f7 fd 3b f2 45 96 bd f8 ce e2 bd
       -0.019808207 0.0077504716 -0.0733756 -0.110746324
000120 cc 73 96 bd 4c 38 ac 3c c0 af 6a bd 2d 14 16 be
       -0.07346305 0.021022938 -0.057296515 -0.14656134
000130 fe fc cf bc 44 99 92 bd b8 9e 62 bc 1b 9c 30 bd
       -0.02538919 -0.07158139 -0.013831787 -0.043117624
000140 f4 61 37 be 3e b5 fe bd 9d e6 51 3e 75 4a c7 bd
       -0.1790846 -0.12436913 0.20498128 -0.097309984
000150 71 c8 0c be 68 cd 72 3d b8 bf 2f 3d 59 ad 00 bd
       -0.13748337 0.059277922 0.042907447 -0.031415317
000160 e2 8a 92 bd 34 97 cc bd 2a 2b 0f be 31 cf 07 3b
       -0.07155396 -0.09989777 -0.1398131 0.002072286
000170 28 f5 4a 3e d9 9a f1 bd dc 57 6c be 4c 7e 26 3e
       0.19820082 -0.11797113 -0.2308039 0.16259116
000180 ee 78 c4 bd 41 24 d7 bc 27 a9 26 bd 1e 8c 35 bd
       -0.09593378 -0.026262404 -0.04068866 -0.04432308
000190 ce b7 f8 3c 1f ce 59 bd 81 4c 55 3e 2e e1 93 bd
       0.030361082 -0.053175088 0.20829965 -0.07220684
0001a0 2b 59 5c be ff c6 5a be 30 94 7d 3d a9 25 1d be
       -0.2151839 -0.21364973 0.0619089 -0.15346397
0001b0 0e ce b1 bd f3 99 f8 bd 01 9b a7 bd 4b c7 ef 3c
       -0.0868188 -0.121387385 -0.081838615 0.029269835
0001c0 5e 38 d9 bd a3 f4 b1 3d 79 7e 14 be b2 4c 80 3d
       -0.10606454 0.08689239 -0.1450137 0.062646285
0001d0 db 25 34 3c fb a3 3c bb 24 d6 97 bc 8b c4 53 bd
       0.010995354 -0.0028784263 -0.018534727 -0.05170111
0001e0 a8 fb 9e bd 59 63 e4 bd 91 56 b7 bd a3 f5 a2 be
       -0.07762843 -0.111517616 -0.08952058 -0.3182803
0001f0 d8 51 ae bc 89 45 2e be d9 29 fe bd 91 23 23 bb
       -0.02127926 -0.17018713 -0.124103256 -0.0024893025
000200 18 cf 76 be 31 a2 14 3e 8f 00 20 3e 2a d7 33 bd
       -0.24102437 0.14514996 0.15625213 -0.04390637
000210 1f 0c 0e be 9b 83 36 bd 8c 85 88 bd f0 9a 29 3e
       -0.13871811 -0.044559103 -0.06666097 0.1656301
000220 c7 33 0c bd 3e ec 74 be 5f 0b 60 bd 63 3f ae bd
       -0.034229066 -0.23918244 -0.054698344 -0.08508184
000230 d4 90 a3 bb 23 37 6f bd 89 7c 30 be 9b f0 f1 3d
       -0.00499163 -0.05840219 -0.17235006 0.1181347
000240 1f fb aa bd f3 0e 9d bd ea 28 37 be 29 3a 4f bd
       -0.08348679 -0.07668867 -0.17886701 -0.050592575
000250 30 a9 c4 bd e8 e6 60 be 1b 21 31 be d4 fa 08 be
       -0.096025825 -0.21963084 -0.17297785 -0.13376933
000260 61 64 82 3d fb 37 3c be f6 03 43 3d e9 eb 90 bd
       0.06366802 -0.1838073 0.0476112 -0.07076246
000270 97 15 52 be 4a 37 2b be 6d 8a 94 bd bc 36 04 be
       -0.20516048 -0.1672031 -0.07252965 -0.12911505
000280 73 36 8c be 02 6f f2 3d 5f e5 f5 bc 68 a6 86 be
       -0.2738529 0.11837579 -0.0300166 -0.26298833
000290 2a 2a b5 bd bf 93 0a be e2 5e 74 be 14 63 29 be
       -0.08845933 -0.13532923 -0.2386432 -0.16541702
0002a0 33 16 0c 3d 5a e3 bb be 50 fb 36 be 45 72 24 be
       0.03420086 -0.36696893 -0.17869306 -0.16059215
0002b0 1c bc cc 3c d0 7f a5 3e 54 7a b4 3c f0 0f bf bd
       0.024992041 0.32324076 0.022030987 -0.09329212
0002c0 86 5d 0f bd 25 32 0c be db 2d d9 3d 74 72 e0 3b
       -0.0350013 -0.13691004 0.10604449 0.0068495814
0002d0 6c 9a 48 be 79 5b 13 bd cc dc 2d bd 4f bb 19 be
       -0.19590157 -0.035975907 -0.042446896 -0.15012859
0002e0 ee a8 32 3d 52 86 ad bd c3 44 4f 3d 21 9f 78 3d
       0.043618135 -0.08472885 0.050602686 0.060698632
0002f0 44 49 a2 bd 94 bc 15 be 4a 85 4b bc 23 3c 00 be
       -0.079241306 -0.14622718 -0.012421915 -0.1252294
000300 d7 4b 17 3c 5f db 10 be e0 c8 01 be 4b 54 54 3e
       0.00923439 -0.14146183 -0.12674284 0.2073528
000310 83 24 de bd 37 67 18 3e 7c 04 9d bd 11 2c 17 be
       -0.10846808 0.14883123 -0.07666871 -0.14762904
000320 b7 ec dd bd c1 8f e4 be 23 56 f3 bb 63 30 26 3e
       -0.108361654 -0.44640926 -0.00742604 0.16229396
000330 99 56 38 be 4c 78 51 bd 0d 8a 81 be ce a1 9e bc
       -0.18001784 -0.051140115 -0.25300637 -0.019364264
000340 66 fd 05 be af 42 4b be 0a 23 32 be 0c eb 16 be
       -0.13084945 -0.19849657 -0.17396179 -0.14738101
000350 c6 ef 3e be 81 7f 5e be fc cd 0d be 52 78 90 bc
       -0.18646154 -0.21728326 -0.13848108 -0.017635498
000360 0f f9 03 3d 50 f8 28 3d 20 10 82 bd dd 16 7f 3d
       0.032219943 0.041252434 -0.06350732 0.062277663
000370 d3 7d 17 be 91 1d 95 3d 0e de 9e bd 5c e5 d0 3a
       -0.14794092 0.0728103 -0.07757197 0.0015937495
000380 15 67 2b be 74 b7 16 be 42 71 e0 3d 14 37 8d bd
       -0.16738541 -0.1471842 0.10959102 -0.06895271
000390 c1 61 80 3d 91 17 95 39 26 b9 21 bd 5c 24 e5 bc
       0.06268645 0.00028437053 -0.039483212 -0.027971439
0003a0 bd 39 7f bd 6f f7 14 bd 66 d4 36 3e 52 48 8c bd
       -0.062310923 -0.036368784 0.17854461 -0.068497315
0003b0 9c 1a fe bd 28 a0 46 be 26 82 a0 bc 0f bc 65 3d
       -0.12407419 -0.19397032 -0.01959331 0.05608755
0003c0 d3 5e 7b be 05 5d 22 be 89 e5 67 be 03 88 b4 3e
       -0.24547891 -0.15855797 -0.22646154 0.3526002
0003d0 a0 f6 c2 3c 14 aa 53 3d a1 29 bb 3d 93 9f cb 3d
       0.02379924 0.05167587 0.091387995 0.09942546
0003e0 b5 6f a4 bc ee 18 34 3d 4d be 83 3b 44 3c 45 be
       -0.020072797 0.043969087 0.0040204884 -0.19261271
0003f0 fe 77 8c be a2 06 8d bd ff ab 34 3e dc cc 01 3e
       -0.27435297 -0.06886031 0.17643736 0.12675804

bias f4 [128]
000000 23 58 7a 3e 9d 96 f9 3d bc 2d 57 3f 01 cb 67 3f
       0.24447684 0.1218693 0.8405416 0.90544134
000010 e4 5f 20 3f d1 f8 dc 3d 28 f9 8d 3f 1d f2 f3 3d
       0.6264632 0.107896455 1.1091661 0.11911414
000020 ca ad 84 3e c1 af 21 3f 3d e0 5c 3f 54 19 a3 3e
       0.2591384 0.63158804 0.8627966 0.3185526
000030 d8 36 17 3f 7c a5 f2 3e e8 8c 22 3f 5f 28 d6 3e
       0.5906806 0.4739188 0.63496256 0.41827676
000040 31 31 0a 3a 68 d3 de 3e e5 88 17 3f 28 a8 31 3e
       0.00052716123 0.43520665 0.5919326 0.17349303
000050 85 45 4e 3e 5f f8 e0 3e 1e 2c 81 3e 10 0d 2a 3f
       0.20143707 0.43939492 0.2522897 0.6642618
000060 ac 58 0d 3f 7a 24 8e 3d aa 60 b9 bc 1f 46 d0 3e
       0.5521343 0.06940551 -0.0226291 0.40678498
000070 f8 9b 2a 3f 15 76 1c 3f 4c de 45 3f 77 96 d7 3d
       0.6664424 0.6111768 0.77292323 0.10526746
000080 95 70 a5 3e 4d b3 26 3f 20 d1 c4 3d 1b c1 12 3f
       0.32312456 0.6511734 0.096102 0.57325906
000090 52 26 6d 3f d6 5e 12 3c 89 99 2b 3f f2 86 2c 3f
       0.926366 0.008933743 0.6703115 0.6739341
0000a0 b1 e6 35 3e 21 5b 66 3e 94 92 fa 3e 2b b1 31 3e
       0.17763783 0.224957 0.48939955 0.1735274
0000b0 42 35 3a 3f c8 5d 28 3f 9e 30 1b 3f b9 52 21 3e
       0.72737515 0.657681 0.6062106 0.15754212
0000c0 1c 82 55 3f 70 ab 7a 3e 98 a9 a2 bc d6 42 06 3e
       0.83401656 0.2447946 -0.01985626 0.13111433
0000d0 99 22 30 3e 04 58 ab 3e b0 04 cf 3d c9 dc 6f 3e
       0.17200698 0.33465588 0.10108316 0.23424067
0000e0 72 cf 15 3f 7d cb 82 bc c9 31 79 3f 21 ee ee 3e
       0.5851966 -0.015966171 0.9734159 0.46666053
0000f0 5a 4d cd 3e af ea 30 3f 2e c9 c6 3e a9 92 48 3f
       0.40098077 0.691081 0.38825363 0.78348786
000100 c4 17 63 3f 4d 9b 9e 3d 18 aa 36 3e a5 2f 4d 3e
       0.8870814 0.07744465 0.17838323 0.20037706
000110 d2 21 77 3f ad 5e 25 3e 24 fd 59 3c 9e f0 ba 3e
       0.9653598 0.16149397 0.013304982 0.365117
000120 14 45 83 3f 5d ed 74 3e c1 fd 71 3e 22 d8 8b 3e
       1.0255456 0.23918672 0.23631956 0.27313334
000130 db d5 50 3f 30 1e 33 3f 7b 69 36 3f 0f 6d 1e 3f
       0.8157632 0.6996794 0.712547 0.6188516
000140 42 59 07 3f ec 60 f7 3e 17 e3 cd 3e bf 48 28 3f
       0.5287057 0.48316133 0.40212318 0.65736
000150 67 73 70 3f 2f e5 7b 3f be 56 ca 3d 96 b6 eb 3d
       0.9392609 0.9839658 0.09879826 0.11509435
000160 c1 90 4e 3f ca bc 2f 3f 68 46 69 3f 5b 2e eb 3e
       0.80689627 0.68647444 0.91123056 0.45933804
000170 f8 fa 94 3e a0 a3 3c 3d ed 83 55 3f c0 79 e3 3c
       0.29097724 0.046054482 0.8340443 0.027768016
000180 48 bd af 3e 3e ed 8f 3e e9 50 2c 3f 8e 5e 02 3f
       0.34324098 0.2811069 0.6731096 0.5092553
000190 9a 63 06 3f 2e f8 e6 3e 25 7f 6b 3f f9 43 48 3f
       0.5249573 0.4511122 0.9199088 0.7822872
0001a0 66 41 f9 3e 9a 3f 01 3f 15 d0 6d 3e 4c 7a 09 3f
       0.48682708 0.50487673 0.23223908 0.53702235
0001b0 51 4d 5d 3f e1 27 28 3e 62 ec 56 3e 79 f3 2c 3f
       0.864461 0.16421463 0.2098861 0.6755901
0001c0 1f f3 d6 3e f1 34 3e 3f a4 43 59 3e 05 4c 14 3f
       0.41982362 0.7429953 0.21217209 0.57928497
0001d0 01 2e 30 3f 0e ab eb 3e d7 36 b6 3d 60 5e 59 3f
       0.68820196 0.46028942 0.088971786 0.8490963
0001e0 e4 1a fb 3e 2b d6 30 3f 38 59 16 3f a6 8a 42 3f
       0.49043953 0.69076794 0.58729887 0.7599281
0001f0 bf 52 44 3f 75 3a 1b bb 9c 7b 3b 3c 6c 4d 5f 3e
       0.7668876 -0.0023685966 0.011443045 0.21806878

weight f4 [128, 128]
000000 73 0f ac bd a6 7b 1d be 63 e3 82 bd b5 26 ca bd
       -0.08401384 -0.153792 -0.06391027 -0.09870664
000010 9c fb 67 3d 79 07 b5 bd 94 7f c8 3d c6 b8 b8 bd
       0.056636438 -0.08839316 0.097899586 -0.09019618
000020 0f b9 78 3d b3 03 72 3d 1b e6 cd bd 53 d9 0a be
       0.06072336 0.05908556 -0.10053655 -0.13559465
000030 47 0e 9c be bb 4b 20 bd 79 ef a6 3d cf 23 95 3d
       -0.30479643 -0.039134722 0.081511445 0.072822206
000040 b6 8c 76 bc 21 cf 19 bd 71 c9 5d 3d e8 7f e4 bd
       -0.015048197 -0.03755105 0.054147188 -0.11157209
000050 3a b6 ed 3c 01 70 1a 3e c7 5d 03 3e 81 9b 3b bc
       0.029017556 0.15081789 0.12828742 -0.011450649
000060 8c 0b 11 be 22 2b 96 be 89 59 12 3d 95 bb 2d 3e
       -0.14164561 -0.29329783 0.03572992 0.16966088
000070 e4 b5 0a bd cd 67 9b 3d 14 c7 63 be 09 da 0c be
       -0.03386487 0.07588158 -0.22243911 -0.13755049
000080 bc bd 13 bd e7 34 19 be 01 e8 98 bd ee a6 fa bc
       -0.036069617 -0.14961587 -0.07466126 -0.030597176
000090 cc 23 07 3d 80 64 14 be 3a 44 4b 3d fb e3 d8 3d
       0.032993123 -0.14491463 0.049625613 0.10590359
0000a0 41 af 89 bd 02 38 82 3c 1a 66 91 3d 8c 12 1c 3e
       -0.0672288 0.015895847 0.070995525 0.1524145
0000b0 6e 6c 15 3e 9d d5 c7 bd 45 fa 81 bd 1b c4 b9 bb
       0.14592144 -0.097575404 -0.06346563 -0.0056691295
0000c0 7b 53 11 be 65 84 4e be 0e cd e3 bb 8f 6a 17 be
       -0.14192002 -0.20167692 -0.0069519347 -0.14786743
0000d0 61 43 e5 3d 3c 3b 58 bc 6a 0e 8e 3d 59 d8 79 be
       0.11194492 -0.013197716 0.06936343 -0.24398936
0000e0 e5 48 db bd cb 17 4b 3b a8 65 79 3d 0d 64 00 bc
       -0.10707263 0.0030989524 0.060887963 -0.007836354
0000f0 bb 51 20 3d bd 48 2e bd 1e a9 1d be 8d 49 be 3b
       0.039140444 -0.042549837 -0.15396544 0.005807108
000100 f9 2e eb bd e6 aa 78 bc fa 89 5d 3d 29 02 cf bc
       -0.11483569 -0.015177464 0.054086663 -0.025269585
000110 76 31 cc 3d 98 46 50 bd 58 d4 18 be b5 83 85 3c
       0.099703714 -0.050848573 -0.14924753 0.016298154
000120 cd 84 85 3d a2 92 57 bd de ca b4 bd 73 8a 6a bd
       0.0651947 -0.052630074 -0.08827756 -0.05726094
000130 04 13 eb 3c 44 2b 7a bd 50 7e 02 3b e9 33 b6 bc
       0.02869559 -0.061076418 0.0019911714 -0.02224155
000140 b0 46 80 bc 92 ac 10 bd be ab 1c bd fc 18 1a 3e
       -0.015658706 -0.035320826 -0.038249724 0.15048593
000150 ac 31 97 bc fc 45 83 bd e1 16 f4 3d fe 5e 0b bd
       -0.018456303 -0.06409833 0.11918426 -0.03402614
000160 ac 34 f3 bd 8f 64 dc 3c b3 95 d2 3c bc 4f 2c bd
       -0.11875281 0.026903419 0.025706148 -0.042068228
000170 91 dc ac 3d 21 55 68 bd 6a f5 2b bd e1 eb 0d 3e
       0.08440507 -0.05672181 -0.041982092 0.13859512
000180 89 84 6d bd e5 7e 0b bb b8 b2 04 3c 10 94 01 be
       -0.057987723 -0.0021285352 0.0080992505 -0.12654138
000190 d2 00 e2 3c 21 5c eb 3d 41 1b 10 bc f9 cc c1 3d
       0.027588282 0.114921816 -0.00879556 0.094629236
0001a0 db c3 12 be 49 cb a4 bc 19 99 f5 3d b4 62 0f be
       -0.14332525 -0.020116465 0.11992092 -0.14002496
0001b0 ef db d3 bc a8 e8 e1 bc 4c 97 84 3d 89 21 d5 3d
       -0.025861708 -0.02757676 0.0647417 0.10406787
0001c0 e9 d8 99 3d fe f1 9f 3d 14 db ce bd 21 3f b1 bd
       0.075120755 0.07809828 -0.101003796 -0.08654619
0001d0 5b 60 e0 3d 16 00 ad bc 68 43 b1 3c 1c e0 19 3e
       0.10955878 -0.021118205 0.021638587 0.15026897
0001e0 74 2b 34 3d 87 1b 82 be 12 9d 9e 3c 56 67 76 3d
       0.043986753 -0.25411627 0.019362006 0.060157143
0001f0 45 36 88 bd 3e ae 5e 3d ec 71 83 3d e8 d1 a1 bd
       -0.06650976 0.05436539 0.06418213 -0.079013646
000200 d7 4f ad bc 31 d5 5f bd 6d ad 53 3d 47 67 d4 3d
       -0.021156235 -0.054646675 0.051679064 0.10371261
000210 45 46 05 be c1 5a 51 bd dd 76 74 bd c4 e5 85 bd
       -0.13015087 -0.05111194 -0.05968367 -0.06537965
000220 f7 f6 a8 3d b2 8d 82 3d 55 62 ca bd e1 bf 4d 3c
       0.0825023 0.063746825 -0.098820366 0.0125579545
000230 36 ed bf 3d 11 27 f0 bd f8 5c b2 bc 3c 25 54 3d
       0.09371416 -0.11726201 -0.021772847 0.051793322
000240 46 a7 99 3b ce c4 d4 3c c8 d9 9f bd 8b 49 bc bd
       0.00468913 0.02597275 -0.0780521 -0.09193715
000250 02 a3 d4 bd 3b 8a 48 bd 9d bc 6a 3d f2 54 25 bd
       -0.10382654 -0.04895995 0.057308782 -0.040364213
000260 f8 a8 16 be ed 99 12 bc 71 f2 0e be 41 1b a7 bd
       -0.14712894 -0.008947832 -0.13959672 -0.08159495
000270 59 72 99 bd 31 9d de 3c ea ff 15 3d 32 eb 66 bd
       -0.07492513 0.027174564 0.03662101 -0.056376643
000280 df 37 8d bd 40 de 0a 3d ba bf 2a bd ce f6 40 be
       -0.06895422 0.03390336 -0.04168675 -0.18844149
000290 fe 4c 1a 3d 30 30 b9 bb 58 88 74 3c e4 10 e4 bd
       0.03767108 -0.0056514964 0.014925085 -0.11136034
0002a0 5f 5b 7f 3c 44 0f 1e bd 7d af d2 bd 42 96 e9 bc
       0.015585749 -0.038588777 -0.10287378 -0.028514031
0002b0 db 30 38 bd ca 4b 7f 3d 96 48 9b bd 12 84 b2 bc
       -0.044968467 0.062328137 -0.07582204 -0.021791492
0002c0 dd ba 84 bd ed e3 7a be fa 47 17 be 12 34 ed 3a
       -0.06480954 -0.2450101 -0.1477355 0.0018097183
0002d0 4a 4d 90 3d 9e e7 23 3d d7 64 5f 3c d3 7b a7 bd
       0.07045992 0.04001581 0.013634882 -0.081779145
0002e0 3d 24 f6 bd bb c7 8b bc f4 b7 3c be 08 93 1b bd
       -0.12018631 -0.017063012 -0.18429548 -0.037982017
0002f0 04 28 7f bd aa 3f 37 bc 27 fa a3 3d 68 a1 ec bd
       -0.06229402 -0.011184612 0.08006697 -0.11554223
000300 9f 78 f8 3d 0a 6f f4 bb a3 71 b8 3c 53 11 20 3d
       0.12132382 -0.007459526 0.022515124 0.03907902
000310 6f 07 d2 bd 3d ea cf bc 06 98 7a 3d 39 2f d6 3c
       -0.10255324 -0.025380248 0.061180137 0.026145564
000320 2a 07 d3 bd 24 90 80 bb 79 65 31 be 9c 80 19 be
       -0.10304101 -0.003923433 -0.17323865 -0.14990467
000330 5a 0e 10 bb 1a a3 60 bd b8 73 08 3d d7 a3 cd bd
       -0.002198121 -0.054843046 0.033313483 -0.100410156
000340 e9 59 29 be c8 ad 22 3e 7b 6d d9 3b af b5 05 be
       -0.16538204 0.15886605 0.0066353655 -0.13057588
000350 09 af ae bd f2 04 dd 3d d6 f7 3b bd e5 22 81 bd
       -0.08529479 0.10791959 -0.04589065 -0.06305484
000360 01 61 24 3c 07 b3 89 3d c3 93 20 bd a2 32 03 be
       0.010032893 0.067236 -0.039203417 -0.12812284
000370 09 63 e2 bc af 14 79 3d 59 53 21 bc 3a 35 29 3e
       -0.027635114 0.06081074 -0.009846532 0.1652421
000380 1d b7 bd 3d 9c 99 fb 3c 80 6a b8 3d 94 3c d4 bc
       0.09263442 0.030712895 0.09004688 -0.025907792
000390 88 2d 89 bd db 8e 8f 3c 63 4f 8e bd ee 54 34 be
       -0.066981375 0.017524173 -0.069487356 -0.17610523
0003a0 53 cd be bb 2a e5 bb bd 20 dc 38 3d 8a 21 2a bd
       -0.0058228164 -0.09174569 0.045131803 -0.04153589
0003b0 4b 4b f8 bc 80 fa 77 bd 39 81 cb 3c ca 06 2d 3e
       -0.03030934 -0.06054163 0.024841892 0.16897121
0003c0 5b 5b 05 3d e4 88 3c bc 15 49 42 3e af 89 55 3b
       0.032557826 -0.011507247 0.18973191 0.0032583287
0003d0 66 19 89 bc 84 46 05 3e 41 e3 f5 3d 5c 59 d7 bd
       -0.016735744 0.13015181 0.12006236 -0.10515091
0003e0 c8 a5 24 bc 01 4f 4f bd a5 1f 6a 3d 39 0f ff 3b
       -0.010049291 -0.050612453 0.057159085 0.007783797
0003f0 f9 c2 fb 3d 10 e1 88 b9 d6 7f 80 3d 07 8d 31 bc
       0.122930475 -0.00026107626 0.06274383 -0.010836846

bias f4 [128]
000000 eb 39 26 3f 11 82 c9 3e a2 81 02 3e ec 15 4e 3f
       0.64932126 0.39357045 0.12744763 0.805022
000010 17 f5 ae 3d 65 4a 8c 3e 34 6c f0 3e 65 6c 3a 3f
       0.08542841 0.2740051 0.46957552 0.72821647
000020 d3 ca 90 3e 9a c1 5f 3e f9 49 d3 3e 6e b5 2a 3f
       0.28279743 0.21851197 0.41267374 0.6668309
000030 6c dc fe 3d db 73 31 3e e9 55 0f 3f cc b0 5a 3f
       0.12444386 0.17329352 0.55990463 0.8542602
000040 8b 42 d8 3e c7 b8 37 3f 74 7c 18 3e b7 7e 5c 3f
       0.42238268 0.7176632 0.14891225 0.8613085
000050 70 aa 75 3f 4a 8f 75 3f 42 a9 0b 3f b1 16 62 3e
       0.9596319 0.95921767 0.5455514 0.22078969
000060 7d 1e bb 3e a4 69 b7 3e d3 15 3a 3f 88 4e 26 3e
       0.36546698 0.35822785 0.7268955 0.16240895
000070 10 34 7f 3f bd e8 d4 3e 1e cb bc 3d 1d a6 c6 3e
       0.99688816 0.41583815 0.09218429 0.3879861
000080 c9 9c b4 3d 0c c3 28 3f de 75 6b 3f 3e f3 3b 3f
       0.08818967 0.6592262 0.91976726 0.73418033
000090 2a 6e 38 3f be 7c 0c 3e 82 ca 43 3f 6c 4a de 3e
       0.72043097 0.1371946 0.7648088 0.43416154
0000a0 47 7d a2 3d ce f9 10 3d b8 60 0a 3e eb 29 d8 3e
       0.07934051 0.035394482 0.13513458 0.4221948
0000b0 8b 8c 0e bd 26 f6 1b 3f 7d 00 59 3e 4f cf 32 3d
       -0.034802 0.6092247 0.21191593 0.043654736
0000c0 4d d2 58 3f be 51 70 3f 27 41 1b 3f 62 2c ff 3e
       0.84695894 0.9387473 0.6064629 0.4983855
0000d0 6e 8c 2b 3f 98 d1 88 3e e5 47 5c 3e 3e 6f 89 3d
       0.67011154 0.26722407 0.215118 0.06710671
0000e0 ff 81 2e 3f 74 86 43 3d ab ff 75 3e 73 96 f6 3e
       0.6816711 0.047735646 0.24023311 0.4816166
0000f0 8c 75 ca 3e c3 34 c5 3d 9c 58 a7 3d 64 f9 fe 3d
       0.39542806 0.09629204 0.08171198 0.12449911
000100 c2 c6 b8 ba 19 79 2a 3f c0 c2 07 3f fc 5a 89 bc
       -0.001409732 0.6659103 0.5303154 -0.016767018
000110 af 44 85 3f ad da 7e 3f da d1 20 3e 8c b3 10 3f
       1.0411586 0.9955242 0.15705052 0.56523967
000120 6d 8e 32 3f 8a 7a 09 bb b0 25 7d 3f ee ed 90 bc
       0.69748574 -0.002097758 0.9888563 -0.017691579
000130 2b 17 03 3f 6e e2 97 3c 3d 01 85 3f ae b0 3f bd
       0.51207227 0.018540587 1.0391003 -0.046799354
000140 88 4f 1d 3e 5c 0b 18 3f 7b c6 78 3f 1b a4 2d 3f
       0.1536237 0.59392333 0.9717786 0.6782853
000150 76 d5 74 3f 2c 1c b7 3e aa 78 50 3f e8 80 46 3d
       0.95638216 0.3576368 0.8143412 0.04846278
000160 65 75 72 3e 82 8b cc 3c da 10 05 3d 8e f9 8f 3e
       0.23677595 0.024968866 0.032486774 0.28120083
000170 9d 9e a5 3e 11 b3 06 3e 9d 7a be 3e be 20 2d 3f
       0.32347575 0.13154246 0.37202922 0.67628086
000180 7f 06 88 3f b4 1d 59 3e 58 9d 51 3f 1b 06 61 3f
       1.0626982 0.21202737 0.8188071 0.8789994
000190 aa a9 24 3e 39 ec 78 3f 18 dd 2b 3f 06 ea 3d 3f
       0.16080347 0.9723545 0.6713424 0.74185216
0001a0 39 e3 53 3e 7e a3 9c bd d2 ea 96 bd 87 80 bc 3e
       0.20692147 -0.07648371 -0.07369007 0.3681681
0001b0 0f d9 39 3f 75 c7 4f 3e dc 53 59 3f 04 78 21 3f
       0.7259683 0.2029093 0.84893584 0.63073754
0001c0 58 e6 89 3f 61 1a 48 3f 75 26 fb 3e 79 6e 9e 3e
       1.077342 0.7816525 0.49052778 0.3094366
0001d0 39 3e 83 3d 5a 36 e0 3e 3a dc 4a 3f 70 0a a6 3d
       0.064083524 0.43791467 0.7924229 0.081074595
0001e0 e5 1d 7a 3f af d8 5e 3f 6f 06 c7 3e 1b c2 b3 3e
       0.97701865 0.8704938 0.38872096 0.35109028
0001f0 c9 df 3a 3f 32 a7 cd 3e b4 7b b1 3e 0d 73 3e 3f
       0.7299772 0.40166622 0.3466469 0.74394304

weight f4 [128, 128]
000000 6a 88 8b be e3 8a ce bd 23 97 65 3d 1c b8 19 be
       -0.27252513 -0.10085084 0.05605234 -0.15011638
000010 e1 73 0f bd e6 fc 82 bd 72 0c 87 bf 2a be e4 bd
       -0.03502262 -0.06395893 -1.0550673 -0.111690834
000020 f7 93 af bd de 56 15 3c 1b 52 1e 3c 5b 81 1a be
       -0.08573144 0.009114949 0.00966313 -0.15088408
000030 11 4a 4b be a5 23 91 bc 0d 89 96 3d ce be 1f 3e
       -0.19852473 -0.017717192 0.07350359 0.1560013
000040 7e 8b 97 3d 2e d9 e4 bd c2 b2 f7 3c 4a 65 c5 bd
       0.07399653 -0.11174236 0.030236606 -0.0963846
000050 d2 36 dc bb e7 51 ac bd f7 52 38 be a2 11 c9 3d
       -0.0067204023 -0.08414059 -0.18000399 0.09817816
000060 dc 2b cc bd 9e 34 c2 3d a2 98 f4 bd 9e 84 3b bd
       -0.09969303 0.09482692 -0.11943175 -0.04578077
000070 a3 de 51 be 32 e5 5c bd 17 1c 38 3d 39 47 ed bd
       -0.20495085 -0.053929515 0.044948664 -0.1158585
000080 12 52 d1 3c 33 f5 0e bf 7c 17 68 be 9f aa df bd
       0.02555183 -0.55842894 -0.22665209 -0.10921215
000090 a1 e0 c5 bd b7 9d e6 3d c6 81 10 be 1a c2 8d bf
       -0.09661985 0.112605505 -0.14112005 -1.107486
0000a0 89 00 4e be 61 e1 e5 3b 57 96 3f bd 5e 81 39 3d
       -0.20117392 0.0070153926 -0.046774235 0.04528939
0000b0 ca 1f 6a bc ba 13 6b be 2c 06 2e be e4 1d d3 bd
       -0.014289806 -0.22956744 -0.16994542 -0.103084356
0000c0 74 a2 f5 be ab 09 c0 bd d5 44 5f be 4b 40 15 be
       -0.47975504 -0.09376844 -0.21803601 -0.14575307
0000d0 e6 4c 44 bd 61 6c 35 bd 0a 52 14 be 6e 26 54 3d
       -0.0479249 -0.04429281 -0.1448442 0.051794462
0000e0 ce 51 b9 3d 60 99 3d be 92 3d c1 be 9e 17 a5 bd
       0.09048806 -0.18515539 -0.37742287 -0.08061145
0000f0 b6 6c fb be 0b a2 51 be 1a 52 ce 3d 7f 3b fb be
       -0.49106377 -0.2047197 0.100742534 -0.4906883
000100 43 3e bc 3d 83 af 16 be 97 39 b2 3d 1d 7d 8d bb
       0.09191563 -0.1471539 0.08702391 -0.004317893
000110 74 6f 1f be d5 70 b0 be 04 1d c9 be 94 2b 3d be
       -0.1556986 -0.34461084 -0.3927995 -0.18473655
000120 a8 24 9a bd 2c 1e 30 3e 60 24 96 be 6b e3 7f be
       -0.07526523 0.1719901 -0.29324627 -0.24989097
000130 81 51 39 be f9 f7 5b 3e 1a 31 04 bd 36 24 9a bc
       -0.18097498 0.21481313 -0.03227339 -0.018816095
000140 03 c9 10 3d db 2f dc bd 7d e9 9e be 8e ff 26 bd
       0.03534795 -0.10751315 -0.31037512 -0.04077106
000150 e6 4d f5 bd d0 c4 24 bc 03 3a 81 be 1a ed 91 bd
       -0.119777486 -0.010056689 -0.25239572 -0.07125302
000160 e8 3c ae 3c e7 42 ce 3d 6b 6f 23 3d 2c bc cf bc
       0.021269277 0.10071354 0.03990118 -0.025358282
000170 67 eb 00 3d 39 b6 a5 bc 55 a2 05 3c ea cd 03 be
       0.031474497 -0.020228492 0.008156379 -0.12871519
000180 35 fa f5 bd 86 e3 14 be 84 fe ba 3b bd 3c a0 be
       -0.12010614 -0.14539918 0.00570661 -0.3129634
000190 ef 7b af be 32 1e b7 bd 28 08 20 be 24 c7 73 3d
       -0.3427424 -0.08941306 -0.15628111 0.059516087
0001a0 90 71 70 3d 00 ca 0b 3e 3f 62 bf bb 57 38 27 3d
       0.05870205 0.13651276 -0.0058405693 0.040825214
0001b0 fb 3c f3 bc b1 1b c0 38 18 60 7c bb 7c b9 4a bc
       -0.029692164 9.1604314e-05 -0.0038509425 -0.0123733245
0001c0 e5 33 7f be 73 6e 74 bd 70 41 96 bd bc dc ac bc
       -0.2492214 -0.059675645 -0.073367 -0.021101348
0001d0 b6 74 87 be 6d 3d 38 3e 1a 21 38 3e 9b a4 16 be
       -0.2645623 0.17992182 0.17981377 -0.1471123
0001e0 6a b7 36 be 85 62 af be fe 31 8d bd e4 3b 81 bc
       -0.17843404 -0.34254852 -0.06894301 -0.015775628
0001f0 5f a8 37 be 40 ac 5c be 69 f4 54 ba 31 65 09 be
       -0.17935322 -0.21550083 -0.0008123578 -0.13417508
000200 42 1e f8 bb 80 f1 ce bc 60 82 6f 3d e6 19 56 bb
       -0.0075719664 -0.02526164 0.058473945 -0.0032669245
000210 ec 98 ba 3d 50 17 a4 bc 60 ff b2 bc 75 91 13 be
       0.09111199 -0.020030648 -0.021850288 -0.14410956
000220 5f b6 f1 3b f8 04 2a be 3b c1 a7 3d a8 18 35 be
       0.0073764767 -0.16603458 0.08191153 -0.17685187
000230 69 50 43 bd f0 13 06 bd a6 dc df bd fb d7 01 be
       -0.047684107 -0.032733858 -0.10930757 -0.12680046
000240 9d 07 85 bd 95 a5 7d bd 3e 9b f1 3d 02 3a 5c bc
       -0.06495593 -0.06192549 0.11797188 -0.0134415645
000250 77 cb 87 bd c4 2b b9 bd bf 43 a9 3d 4f b8 0d bd
       -0.06630605 -0.09041551 0.08264875 -0.0345996
000260 d8 46 e1 bd 99 7e 12 be 01 f6 25 be 57 26 a7 bd
       -0.109998405 -0.14306106 -0.16207124 -0.081616096
000270 1b 26 46 bd 0f 90 44 be d4 b5 25 be 60 6d f7 bd
       -0.048376184 -0.19195579 -0.16182643 -0.120814085
000280 71 99 b7 3c d7 c0 de 3d bd 64 a7 bd 3f 7a 85 be
       0.022412034 0.10876625 -0.08173511 -0.2606983
000290 04 98 c7 bd 5b 2f e8 bd c2 9a c3 bd 1b e3 24 be
       -0.097457916 -0.11337157 -0.09551002 -0.16102259
0002a0 40 15 db 3c 13 55 a8 3d ed 0c e2 3d 14 61 d9 3c
       0.026743531 0.082193516 0.11037622 0.026535548
0002b0 81 0c a5 3d 1f 79 a5 bd ef 58 15 be b2 ff 04 3c
       0.080590256 -0.08079743 -0.14584707 0.008117603
0002c0 9f 9e 2d bd 5c d1 b9 bc 97 8d 09 be 2c e4 4c be
       -0.0423876 -0.022682838 -0.13432918 -0.20008916
0002d0 72 3d 54 bd d0 db 86 3d 43 b8 04 3c ab 4f 39 3b
       -0.05181641 0.06584895 0.008100572 0.0028276246
0002e0 c6 e5 e2 bb 6a cd 81 3b df 00 c3 3d 11 e7 82 3d
       -0.006924364 0.003961255 0.095216505 0.06391729
0002f0 1f f4 db bd 37 8f d5 3a 15 2b 83 bc 1f 67 61 bd
       -0.10739922 0.0016293292 -0.016011754 -0.055029985
000300 87 26 cd bc a1 b2 8c bd 82 e7 23 be ea 82 f4 bb
       -0.025042785 -0.06870008 -0.16006282 -0.0074618952
000310 94 d1 9b bd 51 de 09 be 90 cf 03 3d 60 06 86 be
       -0.07608333 -0.13463713 0.03218037 -0.2617674
000320 78 62 47 3d 1b 33 cf bd 5a 54 3e be 3e 0a b8 bd
       0.04867789 -0.101171695 -0.18586865 -0.089863285
000330 32 ed f2 3c c7 fb d0 bd f6 89 51 3b 42 64 00 bc
       0.02965412 -0.10204273 0.00319731 -0.007836403
000340 b9 b8 c9 bc 24 51 04 bd bc e6 52 be f2 f2 cc bc
       -0.024624215 -0.032303944 -0.2059583 -0.02501819
000350 76 4b 0d be 36 7e 5a bb d6 ee a7 3d 2e 92 60 bd
       -0.13798317 -0.0033339388 0.08199851 -0.054826908
000360 07 e1 1b bd 6e 81 60 bd af 24 07 3e d6 ee 31 3d
       -0.0380564 -0.054810934 0.13197587 0.043440662
000370 1f 4e ff bd 50 47 73 3d e3 9f 19 be 24 06 30 be
       -0.12466072 0.05939418 -0.15002398 -0.17189842
000380 41 fa dc bb b4 39 22 bd fa 58 67 3e 83 4d c6 3d
       -0.0067437 -0.03960581 0.22592536 0.09682753
000390 24 91 81 bd a9 76 2c 3c 12 3c 85 bc 70 9b be 3d
       -0.063265115 0.010526338 -0.016263995 0.09306991
0003a0 9a 83 69 3e e8 be df bd 4d fb ff bd a2 bc 5e bc
       0.22804108 -0.10925084 -0.12499104 -0.013594778
0003b0 28 2d 95 be ba 4b 33 bb 77 3e be 3b 50 23 d9 bd
       -0.29136014 -0.002735837 0.0058057862 -0.106024384
0003c0 78 47 e4 bd bb 4b e9 bd 24 4e 92 3c df 0d 28 be
       -0.11146444 -0.113913976 0.017859526 -0.16411541
0003d0 8f 7d 8e 3c 3f 01 52 3d 94 42 44 3d 35 52 9c bd
       0.017393855 0.05127072 0.047915056 -0.07632867
0003e0 3b 7d a0 bd 12 46 9a bc de 14 0f 3d e3 c1 1d 3d
       -0.07836386 -0.01883224 0.03493201 0.038514983
0003f0 78 76 3f be 5a ab 96 3d c0 f4 d6 3c f9 06 6f be
       -0.18697536 0.073569015 0.026239753 -0.23342504

bias f4 [128]
000000 ce ad 6c 3f 53 ec 92 3e 99 7c cb 3e d6 88 1e bd
       0.92452705 0.28695926 0.39743498 -0.038704716
000010 71 3d 5a 3f 0c 5c ec 3e a8 6f 71 3f 74 17 b6 3e
       0.8525 0.46163976 0.94311 0.35564768
000020 60 2c b2 3e 0e 2d bc 3e 0a f7 4b 3f 43 60 86 3e
       0.3479948 0.36753124 0.79673827 0.26245317
000030 3c 37 55 3e 5e ab 2e 3f ed f9 67 3f 14 0e 1d 3e
       0.20821851 0.68230236 0.9061573 0.15337402
000040 ab 6a 13 3e 8b 7b 39 3f 71 e4 3f 3f 91 bb 0e 3e
       0.1439616 0.72454137 0.7495795 0.13938738
000050 7e 57 55 3f 31 ee 52 3e f0 f7 74 3d ff ea 96 3e
       0.8333663 0.20598675 0.059806764 0.29476163
000060 37 2a 3d 3e c0 02 6f 3f 74 5d db 3e 93 29 34 3f
       0.18473135 0.9336357 0.42844737 0.7037594
000070 e3 48 14 3f 05 ca c1 bc 4e 5c 33 3f 4f ea 70 3f
       0.57923716 -0.0236559 0.7006272 0.94107527
000080 d8 02 25 3f 24 7f 76 3f 49 98 b8 3e 26 63 8f 3e
       0.64457464 0.9628775 0.36053684 0.28005332
000090 27 8f 15 3f 43 13 6f 3f e2 a5 e6 3e f7 83 a3 3e
       0.5842156 0.93388766 0.45048434 0.3193662
0000a0 ae b3 53 3f e8 81 0c 3e 6c 44 28 3f 27 1d 6a 3e
       0.82696044 0.1372143 0.65729403 0.22862683
0000b0 d2 18 04 3f aa b1 4d 3f a1 8d 8c 3e 0e 67 e6 3e
       0.5160037 0.8034922 0.27451804 0.450005
0000c0 cd e9 7e 3f 4e 5b fa 3e 1f 47 2e 3f 30 b1 a0 3e
       0.995755 0.48897785 0.6807727 0.31385183
0000d0 1a e0 7e 3e e3 2f 8a 3e 09 8f aa 3d f6 c0 68 3f
       0.24890175 0.2698966 0.08328063 0.90919435
0000e0 b3 43 47 3e 3f 29 13 3f d4 39 75 3f 54 40 9d 3e
       0.19459419 0.5748481 0.95791364 0.3071314
0000f0 b3 04 2d 3f f2 fc 45 3e 5b b9 3d 3f 07 b0 1b 3f
       0.67585295 0.19334772 0.74110955 0.6081547
000100 40 b5 ec 3e e6 dc 19 3f df 27 c6 3e 54 03 7d 3f
       0.46232033 0.6010269 0.38702294 0.98833203
000110 18 85 6a 3f 3f a1 ca bc 3b cc 17 3e 2e 2c 0d 3f
       0.91609335 -0.024735091 0.14824001 0.5514554
000120 79 db 31 3e bc 82 0e 3f ec f6 30 3f 6b b5 24 3f
       0.17368878 0.55668235 0.6912677 0.6433932
000130 e4 93 4a 3f 85 1b 88 3e ba 6c 00 3f 22 23 b9 3e
       0.79131913 0.26583496 0.50165904 0.36159617
000140 f2 c9 01 3f 8e b3 fa 3e f4 53 31 3e 8a 00 2e 3e
       0.5069877 0.48965114 0.17317182 0.16992393
000150 1d 61 4e 3f 0e 0e 8f 3e 34 3b 02 3f f2 ad 0f 3f
       0.80616933 0.2794041 0.50871587 0.56124794
000160 ef 2a 10 3d 52 2a 1d 3f 59 ec 7a 3e bb 6a 28 3f
       0.035197195 0.613927 0.24504222 0.6578786
000170 8d 1f 6e 3f c7 5b 48 3e c6 7d 1d 3f 84 d2 2c 3e
       0.9301689 0.1956626 0.6152004 0.1687718
000180 53 ac 9b 3e 2e 62 32 3f 4e bd 4c 3f e2 b0 b6 3e
       0.3040491 0.6968106 0.79976356 0.35681826
000190 05 06 2d 3f 3f 30 91 3e fb 58 59 3f 5d 3f 3a 3f
       0.6758731 0.2835712 0.849014 0.72752935
0001a0 a4 04 07 3e 25 80 6c 3e c3 9a 35 3f df dc af 3e
       0.13185364 0.23095758 0.7093927 0.343482
0001b0 70 17 59 3e 98 8c 39 3f 43 91 13 3f 04 0d 65 3f
       0.21200347 0.72480154 0.57643527 0.89472985
0001c0 3d 79 c9 3e 86 7c 3e 3f 8b 29 6a 3f 3f 82 d0 3d
       0.3935031 0.7440876 0.9146964 0.101810925
0001d0 06 e3 8e 3e a3 30 a4 3e ee da 32 ba 16 09 92 bd
       0.2790758 0.32068357 -0.0006822784 -0.07130639
0001e0 95 ce f2 3d 18 ab 7e 3f f3 cf 38 3e 6b 02 2a 3f
       0.11855809 0.9947982 0.18048076 0.6640994
0001f0 b9 88 8e 3f 1a 2a 85 3f 07 4b e3 3e a6 72 01 3f
       1.1135474 1.0403473 0.4439318 0.50565565

weight f4 [5, 128]
000000 27 f2 42 3e cd c5 02 3d 12 82 24 be cf eb 83 ba
       0.19037686 0.03192692 -0.16065243 -0.0010064783
000010 a9 00 c6 3d 14 88 1a be c6 fc 51 3e 91 86 60 be
       0.09668095 -0.15090972 0.20506582 -0.21926333
000020 57 b9 bd 3d a7 4b 11 bc 53 7f e5 3c 99 61 1b 3e
       0.092638664 -0.008868135 0.028014814 0.1517395
000030 6f ed 0e 3e cc 31 64 3d a3 f4 bb 3c a9 fd 2d bd
       0.13957761 0.055711553 0.0229438 -0.042478237
000040 cc f8 e1 bd 68 8e 5d bf a4 89 6a 3e a7 ac a7 3d
       -0.11033782 -0.8654542 0.22904068 0.08187228
000050 14 99 5b 3e 07 39 10 3d f6 af 03 bd 52 82 8e be
       0.21445113 0.035210636 -0.03215023 -0.27833802
000060 03 6c e0 be d9 7f 27 3e da dd e9 be 3c 39 2c 3e
       -0.43832406 0.16357364 -0.45677072 0.16818708
000070 d8 f5 f3 3e 89 20 84 bd 2d ca 64 3e a7 f0 1a 3e
       0.476485 -0.06451518 0.22342749 0.15130864
000080 b2 69 8c 3d e5 f4 c0 3d 70 9f 1e bf 06 45 2d 3d
       0.06856097 0.0942171 -0.6196203 0.042302154
000090 32 1e 9f 3c ae 07 0b 3d 76 70 65 3e 55 f7 b3 bd
       0.019423578 0.03394287 0.22406182 -0.08787409
0000a0 32 f7 f4 3b c7 26 33 3d 4f 60 f3 bc 7d 15 52 3e
       0.007475757 0.043738153 -0.02970901 0.2051601
0000b0 d2 04 9e bd 71 b7 1a 3d dd c8 40 bd ec 6d 16 3d
       -0.07715763 0.0377726 -0.04706656 0.036725923
0000c0 ac e8 3f 3e 48 67 3e 3d bb 32 cb 3d d0 71 a9 3c
       0.18741101 0.046485215 0.099217854 0.020684153
0000d0 bf 16 64 be 8e b9 87 bd 92 d6 d0 bc fa 66 40 3e
       -0.22274302 -0.066271886 -0.02549294 0.18789282
0000e0 23 f7 0e be a9 7d 8c 3e 6f 4a 3c 3d 45 d8 9c 3d
       -0.13961463 0.2743962 0.045969423 0.07658438
0000f0 be 7a 0a bd 5e 37 05 3c 0a cb 98 be 38 3c 91 3d
       -0.033808462 0.008130876 -0.29842407 0.07091564
000100 cd 88 66 3e 44 02 9c bd cc 48 61 3d f8 4d 0a 3d
       0.22513123 -0.0761762 0.055001065 0.033765763
000110 ab 27 94 3d 6a 14 dc 3c c7 6c 28 3c 18 8b 00 bf
       0.072341286 0.026865203 0.010279841 -0.5021224
000120 69 f9 d8 3d 2a 34 df bd 50 26 02 3e f3 f3 1b 3e
       0.10594446 -0.108986214 0.12709928 0.15229778
000130 f0 43 08 bd 3b 73 87 3d 93 3c a2 3d 9f 37 eb bd
       -0.033267915 0.06613775 0.0792171 -0.11485218
000140 87 ad 39 3e c9 f0 1e 3d 26 fa 0a 3e 2d 2b ee bd
       0.18132602 0.03880385 0.13571987 -0.11629329
000150 25 8f eb bc 17 af d9 3d 4e fb 95 3d b0 a0 26 bf
       -0.02875478 0.10629099 0.07323323 -0.6508894
000160 b3 38 5d 3e cf 57 a2 3d 98 3d 33 bd 87 75 92 3e
       0.2160366 0.079269044 -0.043759912 0.2860529
000170 1f 7c 9b 3d a7 7e 7b bb d5 dc f9 bc ef d1 5b 3e
       0.075920336 -0.0038375051 -0.030500809 0.21466802
000180 b7 51 6d 3e 0a cf 2b bc 1b 82 a8 3d 41 fd 8a 3e
       0.23175703 -0.010486374 0.08227941 0.27146342
000190 78 08 8e 3d 4e b5 97 3e 7f 03 47 3c 57 d0 34 3e
       0.06935209 0.29630512 0.01214683 0.176576
0001a0 77 c4 44 3c a3 23 d6 bc dc b9 b3 3e 09 c8 80 3d
       0.0120097315 -0.02614004 0.35102737 0.06288154
0001b0 b4 bc 16 3d fd 58 20 be eb a1 75 3d a6 99 23 3e
       0.036801055 -0.15658946 0.05996887 0.15976581
0001c0 f9 9f 56 3e 7c dd 86 be a1 09 9c 3d d2 0e fa 3d
       0.20959462 -0.26340854 0.07619024 0.12209858
0001d0 30 06 1a 3e 10 57 1a 3e 31 af ca bd 3d 4f 19 3c
       0.15041423 0.15072274 -0.09896696 0.009357271
0001e0 41 72 8a 3d b9 c0 2c 3e b3 89 b0 3d 57 a4 e3 3d
       0.067600735 0.16870393 0.08620014 0.1111533
0001f0 a9 81 5a 3e f0 73 1d 3e 10 8a f3 3b 04 be 53 3d
       0.21338524 0.15376258 0.00743223 0.051694885
000200 4f 9e 93 3e ad 96 c2 bd 48 e8 ba 3b 99 f0 32 be
       0.28831717 -0.095013954 0.0057039596 -0.17474593
000210 28 06 57 3d 20 76 3b bd 06 bd 6b 3e e6 10 34 ba
       0.052496105 -0.04576695 0.23021325 -0.0006868973
000220 c2 23 d8 3d af be ed 3d 0e 0d 09 3e 83 df fa 3d
       0.10553695 0.11608636 0.13383886 0.12249663
000230 07 c7 bd 3d 02 21 d0 3d 25 cf 3b 3e 20 d0 ec 3d
       0.09266477 0.10162546 0.18340738 0.11563134
000240 d1 da bd bd 16 65 52 bf e6 f4 25 3d 93 7a 12 be
       -0.092702515 -0.82185495 0.040516756 -0.14304571
000250 38 18 a2 3e a0 35 67 bd 4c d1 54 bd 49 ee 17 be
       0.31659102 -0.056447625 -0.051957414 -0.14836992
000260 ed 81 dd bc b8 b6 ad 3d 04 61 21 bf eb e3 85 3c
       -0.027039493 0.084821165 -0.6303866 0.016344031
000270 0a c9 04 bf 59 66 0f 3e ee 2a 3b 3d 00 87 09 3e
       -0.5186926 0.14003886 0.045695238 0.13430405
000280 c1 00 a1 3d e6 b5 30 3d 5d 0a 12 be 2d 5d 11 3e
       0.07861472 0.043142222 -0.14261766 0.141957
000290 a8 08 ec 3c 64 46 8e 3d 62 2f b4 3c 4e 67 02 3e
       0.028812721 0.0694702 0.02199525 0.1273472
0002a0 b7 02 3f be 01 12 9e 3d 4e 9c 5f 3e ca d6 f7 3d
       -0.1865338 0.07718278 0.2183697 0.12101515
0002b0 58 58 df bd 6c d0 f9 3c bf 6f 55 bd ac 60 8c bd
       -0.10905522 0.030494891 -0.052108523 -0.06854376
0002c0 c8 e2 c3 3c 69 dc 36 be 76 0d 21 be 2c d3 63 3d
       0.023911849 -0.17857517 -0.15727791 0.05562131
0002d0 d1 ee 93 3e b6 f5 dd bc b0 3c af 3e 16 64 0b 3e
       0.2889314 -0.027094703 0.34225988 0.13612399
0002e0 52 a5 d7 3c 9d bf 3d 3d 05 c1 83 3e 54 b7 88 3d
       0.026323948 0.046325315 0.257332 0.06675592
0002f0 54 0b 10 3d 18 7a e7 3c 62 6d 15 bf 08 ae 82 3e
       0.035167053 0.028256461 -0.5837003 0.255234
000300 c6 42 33 be ad 71 3d 3e 79 ac ac bd d3 85 05 3e
       -0.17505941 0.18500395 -0.08431334 0.13039331
000310 bc 41 09 3e 33 d3 59 3d 46 37 03 3e 69 0d 7c 3e
       0.13403982 0.05317993 0.12814054 0.2461449
000320 3c 91 10 3e 65 21 07 3e f9 77 8e 3d 3f 84 44 3e
       0.14117903 0.13196333 0.06956477 0.19191073
000330 a7 93 90 3c 1d ff 4e 3d 92 e6 a1 3e 37 a0 36 3d
       0.017648531 0.050536264 0.31621224 0.044586387
000340 74 d1 c6 3e c6 a1 be 3c 27 fa cc 3c 48 da 5c 3e
       0.38831675 0.023270499 0.025021626 0.21567643
000350 28 62 5a bf 96 61 0c 3e 09 1d 78 3e 3d e8 be be
       -0.85306025 0.13709101 0.24229826 -0.3728656
000360 3e 75 25 3e 43 1d 06 3e 64 2b 9a 3d d0 e1 03 3e
       0.16158006 0.130971 0.07527807 0.1287911
000370 d7 75 89 3d 1f 7a bc 3c 52 ca 0a 3d 27 57 9f 3e
       0.06711929 0.02300745 0.033884354 0.3112118
000380 82 7e bc 3e 39 4c d9 3d 7d 0f 4e 3e da ee e5 3d
       0.36815268 0.106102414 0.20123096 0.11227198
000390 6f 0a 5f 3e 7f d4 cd 3d 1d 1a 2f 3e e7 f3 22 3e
       0.21781324 0.10050296 0.17099805 0.15913354
0003a0 00 42 9c 3d 58 b0 3c 3d 6f 60 98 3d f2 11 86 3b
       0.07629776 0.046066612 0.07440268 0.0040914947
0003b0 23 83 82 3e 37 15 27 be ec 19 2c 3e 04 4b 9d 3d
       0.25490674 -0.16316687 0.16806763 0.07680324
0003c0 63 5b da 3c ae c1 3c 3f 78 4d 8e 3d 91 9d aa bc
       0.026654905 0.7373303 0.0694837 -0.020827087
0003d0 1c 02 c2 3e f4 7f 16 be e8 a0 86 bd 3d 0c d8 ba
       0.37892234 -0.14697248 -0.06573659 -0.001648314
0003e0 74 76 76 be 56 74 3a 3e cd 63 bb bc d0 83 0f 3d
       -0.24068624 0.18208441 -0.022874737 0.035037816
0003f0 55 bc 33 3e eb 7b 88 3d 6f 80 dc bd f6 2d c1 3d
       0.17552312 0.066642605 -0.10766684 0.094325945

bias f4 [5]
000000 11 f6 26 3f 3d 99 2e 3f f8 65 b6 3e 9a 8c 38 3f
       0.6521922 0.68202573 0.3562467 0.7208954
000010 43 1a 88 3e
       0.26582536
